LAB 3/Results/CNN_L2_lr0005_adam.ckpt (torch, 107695 bytes, 6 tensors)

conv1.weight f4 [16, 3, 5, 5]
0	0x3e4f0cf7	0.2021979
1	0x3e4b6789	0.19863714
2	0x3d858a91	0.0652057
3	0xbdcf019e	-0.1010773
4	0xbdb58bbb	-0.08864542
5	0x3e59ed7c	0.21282
6	0x3d9f723c	0.0778546
7	0x3daf1b49	0.08550126
8	0xbe3ac3ee	-0.18238804
9	0xbe9a7b98	-0.3017242
10	0x3e1680c9	0.14697565
11	0x3d92e73c	0.07173011
12	0x3d8878cf	0.066636674
13	0xbe37eebd	-0.17962165
14	0xbe9d0b0a	-0.30672485
15	0x3e82c9a1	0.25544456
16	0x3e813049	0.2523215
17	0x3d1b2bc0	0.03788352
18	0xbdeb8d0d	-0.11501513
19	0xbe9f4e84	-0.3111459
20	0x3d420aa5	0.047373433
21	0x3e5909c7	0.21195136
22	0x3e159054	0.14605838
23	0xbe175a8d	-0.14780636
24	0xbdebea39	-0.11519284
25	0x3e7b9b9c	0.24571079
26	0x3e5c1f57	0.2149633
27	0x3e261b6a	0.16221395
28	0xbdcc53dd	-0.09976933
29	0xbe43b70e	-0.19112799
30	0x3d8c7add	0.06859372
31	0x3e821d3b	0.25412926
32	0x3d1ae17a	0.037812687
33	0xbe29c16e	-0.16577694
34	0xbe8261bc	-0.2546519
35	0x3e0773b1	0.13227727
36	0x3e3c24da	0.18373433
37	0x3e51b212	0.20478085
38	0xbc45aa5f	-0.012064545
39	0xbe9c9984	-0.30585873
40	0x3e6b092a	0.22952715
41	0x3e4885fa	0.19582358
42	0x3da62ecb	0.08114394
43	0xbdb66696	-0.089062855
44	0xbe88fda1	-0.26756003
45	0x3e54d485	0.20784195
46	0x3da055dd	0.07828877
47	0x3df8c541	0.12146998
48	0xbe0f9e7d	-0.14025302
49	0xbe4ce60e	-0.20009634
50	0x3e35c12a	0.17749467
51	0x3c8511e6	0.016243886
52	0x3d1b8177	0.037965264
53	0xbd8bbdaf	-0.06823289
54	0xbe0c0490	-0.13673615
55	0x3dbb472e	0.09144436
56	0x3e7d9585	0.24764068
57	0x3d75e9b3	0.060037326
58	0x3c8d67bb	0.017261377
59	0xbe8ab163	-0.2708846
60	0x3e512102	0.20422748
61	0x3e0ec879	0.13943662
62	0xbca5cf7c	-0.020240538
63	0xbd25d3a3	-0.040485036
64	0xbdf267ee	-0.11836229
65	0x3d4378c8	0.047722608
66	0x3e1fdbc1	0.15611173
67	0x3daa0798	0.0830223
68	0xbdeaad0a	-0.11458786
69	0xbe3d706f	-0.18499921
70	0x3d55acbe	0.052166693
71	0x3e4b3941	0.1984606
72	0x3d072798	0.032996744
73	0xbcb876ec	-0.022517644
74	0xbe3261f9	-0.17420186
75	0xbd81b496	-0.06333272
76	0x3d944b5c	0.07240936
77	0x3e032d26	0.12810192
78	0x3cb9340c	0.022607826
79	0x3c90a11f	0.017654954
80	0x3e01f031	0.12689282
81	0x3dccf409	0.100074835
82	0x3d8bf8c5	0.068345584
83	0xbdc328a5	-0.09529237
84	0xbdbb7d82	-0.09154798
85	0x3da2a4bd	0.079415776
86	0x3db27d5c	0.08715317
87	0x3e32cc57	0.17460762
88	0xbd34187a	-0.043968655
89	0xbda7c4d4	-0.08191839
90	0x3d7d3838	0.061821193
91	0x3e6967f4	0.22793561
92	0x3e22e5af	0.1590793
93	0xbdd0d2eb	-0.101964794
94	0xbe553aa8	-0.20823157
95	0x3e109361	0.1411872
96	0x3e500199	0.2031311
97	0x3dfbaecf	0.122892015
98	0xbdf530ec	-0.11972222
99	0xbe22d1e7	-0.15900384
100	0x3da98f04	0.08279231
101	0x3d919d9a	0.07110138
102	0x3de6834d	0.112555124
103	0x3db8ec24	0.09029415
104	0xbca11516	-0.019663375
105	0xbbc22a8b	-0.0059254817
106	0x3e579cb7	0.21055876
107	0x3e528486	0.20558366
108	0xbc00db7c	-0.007864829
109	0xbe114423	-0.14186148
110	0x3da878e5	0.08226184
111	0x3e64d03b	0.22345059
112	0x3dfb7fa0	0.12280202
113	0xbd41bb71	-0.0472979
114	0xbd6033a9	-0.054736767
115	0x3d0a3299	0.03373966
116	0x3e409beb	0.18809478
117	0x3e3d6c26	0.18498287
118	0xbd8bdbf8	-0.06829065
119	0xbe89e98b	-0.26935992
120	0x3e395d7d	0.18102069
121	0x3e231b2a	0.15928331
122	0x3c64fc70	0.013976201
123	0xbe1991a3	-0.14996962
124	0xbe6501c9	-0.22363962
125	0xbdb543ca	-0.0885082
126	0x3e1d37e8	0.15353358
127	0x3d48b255	0.048998196
128	0x3d92415c	0.071413726
129	0xbe163b66	-0.14671096
130	0xbb38667b	-0.0028137255
131	0x3d08cf1f	0.03340065
132	0x3df696a1	0.12040449
133	0x3c4aed48	0.012385674
134	0xbdb55e81	-0.08855916
135	0xbc56439e	-0.013077645
136	0x3e0f8ec6	0.14019307
137	0x3dd4d7df	0.10392737
138	0x3d36a4ce	0.044590764
139	0xbe6225a9	-0.22084679
140	0xbcfca253	-0.030839121
141	0x3e14fc03	0.1454926
142	0x3e3babba	0.18327227
143	0xbe1479ef	-0.14499639
144	0xbe87dbb1	-0.265348
145	0x3e1c9348	0.15290558
146	0x3c027e72	0.007964717
147	0x3c43118c	0.011906039
148	0xbdbebcb7	-0.09313338
149	0xbe7b003d	-0.2451181
150	0xbc09e5a7	-0.00841657
151	0x3def9020	0.116974115
152	0xbd99ee8c	-0.07516202
153	0xbe159d9a	-0.14610901
154	0xbe2ea17c	-0.17053789
155	0x3d8e363e	0.069439396
156	0x3df3d955	0.11906687
157	0x3e07f40c	0.1327669
158	0xbe2b9aa3	-0.16758208
159	0xbde4b83a	-0.11167951
160	0x3da0002b	0.07812532
161	0x3cae023a	0.021241296
162	0x3dd5055a	0.10401411
163	0xbd0d3124	-0.034470692
164	0xbdd2e54f	-0.102976434
165	0x3e507a7a	0.20359221
166	0x3e6042de	0.21900508
167	0x3da51f06	0.08062558
168	0xbe602528	-0.21889174
169	0xbe7abfb4	-0.24487191
170	0x3e7e6de3	0.24846606
171	0x3da10b68	0.07863504
172	0x3d5064bc	0.050877318
173	0xbe222549	-0.15834536
174	0xbe5e5af1	-0.21714379
175	0xbd5557c6	-0.05208566
176	0x3e1836db	0.14864676
177	0x3d53b7d7	0.051688995
178	0xbe01b4d3	-0.12666635
179	0xbd178a65	-0.036997218
180	0x3e017e8a	0.12645927
181	0x3e19e52b	0.15028827
182	0x3d8f1537	0.06986468
183	0xbd5b7822	-0.053581364
184	0xbe5062e6	-0.20350227
185	0x3e710d38	0.23540199
186	0x3ddb46f7	0.10706895
187	0xbb395c3d	-0.0028283738
188	0xbccd7c79	-0.025083767
189	0xbe6ebda0	-0.23314524
190	0x3e1c85be	0.15285394
191	0x3ddbce86	0.107327506
192	0x3ddf4ec8	0.10903698
193	0xbe41c4d3	-0.18922739
194	0xbe563873	-0.20919971
195	0x3dc1a7b8	0.09455818
196	0x3e609c60	0.21934652
197	0x3d693b01	0.056941036
198	0xbe0b1658	-0.13582742
199	0xbde7f04a	-0.113251284
200	0x3d461bd9	0.0483664
201	0x3d7cc0d8	0.061707348
202	0x3d1b221c	0.037874326
203	0x39b53da7	0.00034568945
204	0x3cc8c008	0.02450563
205	0x3e1de2c1	0.15418531
206	0x3d49dd95	0.049283583
207	0x3c228ade	0.009920804
208	0xbe06b43a	-0.13154688
209	0xbe2d2e55	-0.16912206
210	0x3d9d4da0	0.076808214
211	0x3e29969e	0.16561362
212	0xbd9a94f0	-0.07547939
213	0x3cd91a1b	0.026501706
214	0xbd92f0a6	-0.07174806
215	0x3e16289e	0.14663932
216	0x3e34fac1	0.1767378
217	0xbd9eead5	-0.077596344
218	0x3d155c0d	0.03646474
219	0xbda0abbe	-0.07845257
220	0x3e329181	0.17438318
221	0x3d877343	0.06613781
222	0x3e09a41f	0.13441513
223	0xbca76de3	-0.02043814
224	0xbdb65dce	-0.089046106
225	0xbd9afd8c	-0.075678915
226	0x3d1e03d6	0.038577877
227	0x3dc31009	0.09524543
228	0x3e0dbf56	0.1384252
229	0x3e96a23c	0.2942065
230	0x3c86e901	0.016468527
231	0xbe1f0fac	-0.15533322
232	0x3d44dc78	0.048061818
233	0x3e9bb961	0.3041487
234	0x3e820e63	0.254016
235	0xbd98df34	-0.074644476
236	0xbe42561a	-0.18978158
237	0x3d406259	0.04696879
238	0x3d95f854	0.073227555
239	0x3e25491f	0.16141175
240	0xbe39503c	-0.18097013
241	0xbe86c3d5	-0.26321283
242	0xbe1a0d9a	-0.15044251
243	0x3d9fcd03	0.07802775
244	0x3e8f1843	0.27948198
245	0xbe9f12e0	-0.31069088
246	0xbe9f68dc	-0.3113469
247	0xbe691cd3	-0.22764902
248	0xbd0a2512	-0.03372676
249	0x3e553494	0.20820838
250	0x3d89daa1	0.06731153
251	0x3db016b1	0.08598078
252	0x3db35783	0.08756926
253	0x3e5336e9	0.20626415
254	0x3e082c5f	0.13298176
255	0xbe39e706	-0.18154535

conv1.bias f4 [16]
0	0x3d156860	0.036476493
1	0x3df0d545	0.11759428
2	0x3d149115	0.036271174
3	0x3e174bed	0.14775057
4	0xbd29336f	-0.041308817
5	0xbc3e0c3b	-0.011599596
6	0xbcc3cf78	-0.02390264
7	0xbdfaaf5e	-0.1224048
8	0xbde77ff4	-0.11303702
9	0x3cb62e0f	0.02223876
10	0xbdc1c531	-0.094614394
11	0x3de7b66a	0.113140896
12	0x3d815be2	0.063163534
13	0x3d067d77	0.032834496
14	0xbd2007f5	-0.03907009
15	0x3cbc3e76	0.022979002

conv2.weight f4 [32, 16, 3, 3]
0	0x3e3077c3	0.17233185
1	0x3dcb9a2b	0.099415146
2	0xbe03df55	-0.12878163
3	0x3df2444e	0.11829434
4	0xbbe332d1	-0.006933548
5	0xbcd9714d	-0.026543284
6	0x3d62120c	0.055192992
7	0xbd8d0eea	-0.0688761
8	0xbddc6f3d	-0.107634045
9	0x3e339166	0.17535934
10	0x3d84a396	0.06476514
11	0x3cb23014	0.021751441
12	0x3e02c586	0.12770662
13	0x3bb4a099	0.005512309
14	0xbd444f2f	-0.047927078
15	0x3d682383	0.05667449
16	0xbdc3f5b9	-0.09568352
17	0xbdf8feb4	-0.12157956
18	0x3d2eed2e	0.04270666
19	0xbc333bd1	-0.010939554
20	0xbdc92e4e	-0.09823285
21	0x3ddb4280	0.10706043
22	0xbd843974	-0.06456271
23	0xbda12114	-0.07867637
24	0xbc5e77cc	-0.0135783665
25	0xbda19621	-0.07889963
26	0xbdcc327d	-0.099705674
27	0xbd35827b	-0.04431389
28	0xbd812496	-0.06305806
29	0xbc269a2a	-0.0101685915
30	0xbe19aeb9	-0.15008058
31	0xbd294821	-0.041328553
32	0x3de62e5c	0.11239311
33	0xbe24b4d1	-0.16084601
34	0x3dcf1d1c	0.10112974
35	0x3e15ce2b	0.14629428
36	0x3d897c4f	0.06713163
37	0x3cca1d79	0.024672257
38	0x3d858557	0.06519573
39	0x392966ba	0.00016155365
40	0xbda75f94	-0.08172527
41	0xbdadd1f9	-0.08487315
42	0x3d80ea3d	0.062946774
43	0xbdd5d4d8	-0.10440987
44	0x3c6689f0	0.014070973
45	0x3c11a4c3	0.00888938
46	0x3d236039	0.039886687
47	0xbb57bd28	-0.0032919142
48	0x3ce97205	0.028496752
49	0xbe26155f	-0.1621909
50	0xbdffc2c3	-0.1248832
51	0xbd06feee	-0.032957964
52	0xbe71b55b	-0.23604338
53	0xbe0a7898	-0.13522565
54	0xbe5b4e04	-0.2141648
55	0xbdcf4e90	-0.101224065
56	0xbd4357f9	-0.04769132
57	0xbe8e1940	-0.2775364
58	0xbe533f12	-0.20629528
59	0xbd2680af	-0.040650066
60	0xbeca01f8	-0.39454627
61	0xbea32e88	-0.31871438
62	0xbddf2eb9	-0.108975835
63	0x3d420b0d	0.04737382
64	0xbd80f5e6	-0.062969014
65	0xbd77387a	-0.060356595
66	0x3bb03bb3	0.0053782105
67	0xbd24ae55	-0.04020532
68	0xbb63d503	-0.0034764416
69	0xbcb9b121	-0.02266747
70	0x3cbaca5d	0.022801572
71	0x3d4e5950	0.050378144
72	0x3d1df026	0.0385591
73	0xbdd9aef6	-0.10629074
74	0x3d90d1f9	0.07071299
75	0x3de73470	0.112892985
76	0xbd6a347a	-0.05717895
77	0xbda13c2c	-0.07872805
78	0x3d7808ad	0.06055515
79	0x3b3c5225	0.0028735485
80	0xbc412861	-0.011789412
81	0xbe8231ce	-0.25428623
82	0xbe70f563	-0.23531108
83	0xbeba6885	-0.36407867
84	0xbe4d47d3	-0.2004693
85	0xbe2a3862	-0.16623071
86	0xbe666888	-0.22500813
87	0xbe8f858b	-0.28031573
88	0xbe28eb1d	-0.16495939
89	0xbe527451	-0.20552184
90	0x3d91f92a	0.071276024
91	0x3dd66aca	0.10469587
92	0xbbc10ded	-0.0058915527
93	0xbd66ae57	-0.056318607
94	0x3d17f377	0.03709742
95	0x3d751958	0.059838623
96	0x3ca0bfdc	0.019622736
97	0x3daa7188	0.083224356
98	0xbdafa1a3	-0.08575752
99	0xbd59d620	-0.05318272
100	0xbb0becdb	-0.0021350894
101	0x3d33eee7	0.043929007
102	0x3d787b87	0.06066468
103	0xbd9e8952	-0.077410355
104	0x3cb8d1a3	0.0225609
105	0xbd0d1e31	-0.03445262
106	0x3c201cac	0.009772461
107	0xbd1a25cf	-0.037633713
108	0x3cf8bbd8	0.030363008
109	0xbd902229	-0.070377655
110	0x3c20ebf2	0.009821879
111	0x3d974bbd	0.07387493
112	0x3a9e5892	0.0012080839
113	0xbd8e250f	-0.06940662
114	0xbd3e6cb0	-0.04649037
115	0x3d11f8f8	0.035637826
116	0x3db000a5	0.08593873
117	0x3da5ff67	0.08105355
118	0xbd2f0dd0	-0.042737782
119	0x3b4df286	0.0031425073
120	0xbc4cee27	-0.012507952
121	0x3c2ef8f9	0.010679477
122	0xbd34505b	-0.044021945
123	0xbc0813b1	-0.008305476
124	0xbc5b5a51	-0.013388232
125	0xbc3ea126	-0.0116351005
126	0xbcf57a77	-0.029965622
127	0xbcddf115	-0.027092496
128	0x3cdb3085	0.026756534
129	0xbd91a128	-0.07110816
130	0x3c82b74b	0.015956542
131	0xbd32283e	-0.04349541
132	0xbd82d839	-0.063888974
133	0x3cc942e8	0.024568036
134	0x3d639297	0.05555972
135	0x3d497a17	0.0491887
136	0x3da43b41	0.08019114
137	0x3d3d609d	0.046234716
138	0x3de22cef	0.11043727
139	0x3da5564a	0.08073099
140	0xbda22c53	-0.079186104
141	0x3dc85bcb	0.09783133
142	0xbccd4075	-0.02505515
143	0xbd1bf293	-0.038073134
144	0x3d9361f6	0.07196419
145	0xbcad1886	-0.021129858
146	0xbd91b432	-0.07114448
147	0xbd9e730e	-0.07736789
148	0xbd03c970	-0.032174528
149	0xbd430991	-0.047616545
150	0xbd3a6939	-0.045510504
151	0x3c81a4ce	0.015825655
152	0xbba74acf	-0.0051053534
153	0xbd281908	-0.041039497
154	0xbc84ef88	-0.016227499
155	0x3cb0a032	0.021560762
156	0x3b3fcaa8	0.002926508
157	0x3d66e906	0.056374572
158	0x3d33991a	0.04384718
159	0xbd08be83	-0.03338481
160	0xbda34b08	-0.079732955
161	0xbc14fb1a	-0.00909307
162	0x3d869bbc	0.06572673
163	0xbd34cc9a	-0.044140436
164	0xbd9b03d0	-0.075690866
165	0x3cb512f7	0.02210377
166	0x3d564cb9	0.052319262
167	0x3b92a3f1	0.0044751097
168	0xbdc1ab14	-0.09456459
169	0x3c22a242	0.009926381
170	0xbd6b3df1	-0.05743212
171	0xbdbbab2c	-0.09163508
172	0xbdf926e5	-0.12165622
173	0xbc8370a1	-0.016044917
174	0xbd40024b	-0.046877187
175	0xbc7cca57	-0.015429101
176	0xbdc29fb6	-0.09503119
177	0x3db541f1	0.08850468
178	0x3df88992	0.121356145
179	0x3d9ca592	0.076487675
180	0xbc570fd4	-0.013126332
181	0x3d7fad15	0.062420923
182	0xbc1548fe	-0.009111641
183	0x3d43f9f7	0.047845807
184	0xbc9e9b26	-0.01936109
185	0x3db0a302	0.08624841
186	0x3cd3ef0f	0.025870828
187	0x3d263de1	0.040586356
188	0xbbdc8322	-0.0067294994
189	0x3e033bf5	0.1281584
190	0x3e0f5956	0.13998923
191	0x3e2aa9ed	0.16666384
192	0x3cd7f8b6	0.026363712
193	0x3e06e36c	0.13172692
194	0x3d512087	0.05105641
195	0xbd005aae	-0.03133648
196	0xbcfed9e6	-0.031109761
197	0x3d00df77	0.031463113
198	0x3ea93e5a	0.33055383
199	0x3e61ca7d	0.220499
200	0x3e973f47	0.29540464
201	0x3eadb54f	0.3392739
202	0x3eac2e59	0.3362911
203	0x3e992448	0.29910493
204	0x3e1f6bb8	0.15568435
205	0x3da172d9	0.078832336
206	0x3e3c54d0	0.18391728
207	0x3cba70d0	0.022758871
208	0xbd365da0	-0.04452288
209	0x3d368139	0.04455683
210	0x3d8aa84e	0.06770383
211	0x3c1730c1	0.009227932
212	0x3cf0998f	0.029370097
213	0x3d09ac41	0.03361154
214	0x3d22e5fa	0.039770104
215	0xbce5d6dd	-0.028056556
216	0xbd09dd02	-0.033658035
217	0xbc6ac32e	-0.014328761
218	0xbda28ab9	-0.079366155
219	0x3c08d07b	0.008350487
220	0xbc8ad02e	-0.016944971
221	0x3b69e866	0.0035691499
222	0xbcecdfd0	-0.028915316
223	0xbdaf4050	-0.085571885
224	0xbcf67293	-0.03008393
225	0x3d6f945a	0.05849109
226	0x3dc65b56	0.0968539
227	0x3e28b4a0	0.16475153
228	0x3e94dd73	0.29075202
229	0x3e11c769	0.14236225
230	0x3dd71d9d	0.10503695
231	0x3eb0f1cf	0.34559485
232	0x3eb01dbc	0.34397686
233	0x3e4dcc1b	0.20097391
234	0xbd625f6f	-0.055266794
235	0xbd1bec99	-0.038067434
236	0xbcf1a933	-0.029499626
237	0x3d59a961	0.053140048
238	0x3c9dfbf4	0.01928518
239	0x3d0cd857	0.034386005
240	0x3d9ba79b	0.076003276
241	0xbc1e0848	-0.009645529
242	0x3c5b0465	0.013367747
243	0xbd46a66f	-0.048498567
244	0x3cdfb30e	0.02730706
245	0xbdb8d78f	-0.090254895
246	0xbc1b7a49	-0.009489604
247	0x3d8dd971	0.06926239
248	0xbda19fdb	-0.07891818
249	0x3c8b1f5e	0.01698273
250	0x3d492b4b	0.049113553
251	0x3d5e5a33	0.05428524
252	0xbdb6750a	-0.08909042
253	0xbc9d3c88	-0.019193903
254	0xbdb07ace	-0.08617173
255	0xbd2c7812	-0.042106695

conv2.bias f4 [32]
0	0x3de96f33	0.11398163
1	0xbcd97309	-0.02654411
2	0xbc392577	-0.011300436
3	0x3d107dc9	0.035276208
4	0xbda46e88	-0.08028895
5	0x3cfbe8b0	0.030750602
6	0x3cc25ced	0.023725951
7	0xbc88cf07	-0.01670028
8	0x3d93f9ec	0.07225403
9	0xb9cd8e42	-0.00039206637
10	0x3ddb115e	0.10696672
11	0xbd62e176	-0.055390798
12	0xbba11287	-0.0049155387
13	0x3db0414d	0.08606205
14	0xbbe9df8f	-0.007137246
15	0xbc20d866	-0.009817218
16	0xbd6453f9	-0.055744145
17	0x3da2218e	0.07916556
18	0x3d1146fc	0.035468087
19	0x3d98c573	0.074595354
20	0x3d54232a	0.051791348
21	0x3d8f2e57	0.069912605
22	0x3c0ef74a	0.0087259505
23	0x3da516dd	0.080610014
24	0x3d86d11a	0.06582852
25	0x3d743b64	0.05962695
26	0x3d1dbc7c	0.03850983
27	0x3d2f2627	0.042760994
28	0xbb379027	-0.0028009505
29	0x3d50434e	0.050845437
30	0xbd15ffc9	-0.03662089
31	0xbd83a05c	-0.064270705

fc.weight f4 [10, 2048]
0	0x3d5cbc6a	0.053890623
1	0x3d841dd3	0.06451001
2	0x3cf570c8	0.029961005
3	0x3d89b86c	0.06724629
4	0x3e1505ad	0.14552946
5	0x3ca58a60	0.020207584
6	0xbcc7c146	-0.024384152
7	0xbc210bd9	-0.009829485
8	0x3cd5ee74	0.02611468
9	0xbb7011cf	-0.0036631708
10	0xbd3cc6e4	-0.046088114
11	0x3d0b0292	0.033937998
12	0x3e26c1f7	0.16284929
13	0x3d196c04	0.037456527
14	0xbd17023b	-0.03686736
15	0xbcf9f34a	-0.030511517
16	0x3d13b35c	0.036059722
17	0xbc0eb881	-0.008710981
18	0xbd001520	-0.031270146
19	0x3b84d3a6	0.004053551
20	0x3dc6b825	0.097030915
21	0x3cae4716	0.02127413
22	0xbc25d1d7	-0.0101208305
23	0xbc0a2a10	-0.00843288
24	0x3d7a95de	0.06117808
25	0xbb4b71b1	-0.0031043107
26	0xbc3c4b91	-0.011492626
27	0x3d59ceb4	0.053175643
28	0x3dd9485e	0.10609506
29	0x3d3055d2	0.043050595
30	0xbc9b982e	-0.018993463
31	0xbcbc850e	-0.023012664
32	0x3d524010	0.051330626
33	0x3c949f72	0.018142436
34	0xbc23c9c3	-0.009996834
35	0x3da1625a	0.07880087
36	0x3decb667	0.11558228
37	0x3d33989c	0.04384671
38	0xbc73bb80	-0.014876246
39	0xbb2c5d71	-0.0026300813
40	0x3d6ae0f2	0.05734343
41	0x3c896b1a	0.016774703
42	0xb9489f22	-0.00019132768
43	0x3d926734	0.07148591
44	0x3dbc425a	0.09192343
45	0xbc0fd8a6	-0.00877968
46	0xbcbc9ec5	-0.023024926
47	0xbc6ac675	-0.014329542
48	0x3d2d0d0a	0.042248763
49	0xba065506	-0.0005124364
50	0x3d100344	0.035159364
51	0x3d75c972	0.060006566
52	0x3dc5e69d	0.096631266
53	0xbd82fddd	-0.06396077
54	0xbd11d1af	-0.03560036
55	0xba5f9666	-0.0008529186
56	0x3ce35b45	0.027753482
57	0x3d0eaedc	0.034834728
58	0x3b3442c1	0.0027505609
59	0xbce673fb	-0.028131476
60	0x3c7ada88	0.015310891
61	0xbd61bf22	-0.05511392
62	0xbc97240f	-0.018449811
63	0xbc1b978e	-0.009496583
64	0x3b14c33e	0.0022699381
65	0xb9847cb6	-0.0002526992
66	0xbb89ea88	-0.0042088665
67	0x3bbd599c	0.0057785045
68	0xbc00c604	-0.007859711
69	0xbc72f73a	-0.014829451
70	0xba423c60	-0.0007409509
71	0xbc1f6dbc	-0.009730753
72	0x3ca785d1	0.02044955
73	0xbc375c8c	-0.0111914985
74	0xbb2db714	-0.0026506828
75	0xbdba54de	-0.090982184
76	0xbdcff5e3	-0.10154321
77	0xbcc0649c	-0.023485474
78	0x3c89de04	0.016829498
79	0x3d07f98c	0.03319697
80	0x3cab10c0	0.02088201
81	0x3c8080c8	0.015686408
82	0x3d644a32	0.05573482
83	0x3c4b21f4	0.012398232
84	0xbdcfd080	-0.1014719
85	0xbd7c5e29	-0.061613236
86	0x3ab48df8	0.001377522
87	0x3d255de9	0.040372763
88	0x3d03118b	0.031999152
89	0xbba757c9	-0.0051069004
90	0x3cdbcd4d	0.026831293
91	0xbdacaa43	-0.08430912
92	0xbe2b1737	-0.16708075
93	0xbda294f4	-0.07938567
94	0x3d1fcc55	0.039013226
95	0x3d50a173	0.05093522
96	0x3c8060ae	0.0156711
97	0xbcb568cd	-0.0221447
98	0xbdaadd76	-0.083430216
99	0xbe22f986	-0.15915498
100	0xbe3e6ad5	-0.1859544
101	0xbd8c634d	-0.068548776
102	0x3d3919b6	0.045190535
103	0x3d65979f	0.0560528
104	0x3d4db4de	0.050221317
105	0x3bb0b837	0.005393054
106	0xbde51c8b	-0.11187085
107	0xbe340015	-0.17578156
108	0xbe1a24a6	-0.15053043
109	0xbd02eade	-0.031962268
110	0x3d15ce1a	0.036573507
111	0x3d5e38fc	0.054253563
112	0x3d3550c9	0.044266496
113	0xbb55f5c6	-0.0032647713
114	0xbcfe6d43	-0.03105796
115	0xbdeb2b01	-0.11482812
116	0xbd991932	-0.07475509
117	0x3cc0701f	0.023490964
118	0x3d2707fc	0.0407791
119	0x3d13bd3b	0.036069136
120	0x3bb92e79	0.005651292
121	0x3c13825a	0.009003246
122	0xbcd6cf3a	-0.02622186
123	0xbc991cd9	-0.018690513
124	0x3c0cafae	0.008586807
125	0x3c669d39	0.014075571
126	0xbbf52efe	-0.0074824085
127	0x3cff9f6b	0.031203946
128	0xbc14dadc	-0.009085383
129	0x3d2b6e5d	0.041853298
130	0xbd2409b2	-0.04004831
131	0x3ce3a62c	0.027789198
132	0x3e051227	0.12995206
133	0x3cff5f62	0.031173412
134	0x3d23e7d4	0.04001601
135	0x3c572043	0.01313025
136	0xbd2a2071	-0.041534845
137	0xbbbaf5f4	-0.0057055894
138	0xbde9b6d3	-0.11411824
139	0xbcad5357	-0.021157904
140	0x3e1e072e	0.15432426
141	0x3db02694	0.08601108
142	0x3d5ba218	0.05362138
143	0xbb9da8cd	-0.0048113824
144	0xbcd9395c	-0.026516609
145	0xbbe01d6d	-0.0068394453
146	0xbdb7b6e9	-0.08970434
147	0xbd56734b	-0.052356046
148	0xbc89c4f2	-0.016817544
149	0xbb8d55b9	-0.0043131975
150	0x3d7602fb	0.060061436
151	0x3ce6ffcf	0.02819815
152	0xbd0ac504	-0.033879295
153	0xbb4ee01a	-0.003156668
154	0xbd100261	-0.03515852
155	0xbcaf31ec	-0.02138611
156	0xbc8491a4	-0.016182728
157	0xbc453374	-0.012036193
158	0x3cc10e27	0.023566319
159	0x3c868948	0.016422883
160	0xbb987609	-0.0046527428
161	0xbc0dc403	-0.00865269
162	0xbdbda098	-0.092591465
163	0xbb9b2d69	-0.004735638
164	0xbc08d4c3	-0.008351508
165	0xbb1a8b12	-0.0023581428
166	0x3c528f02	0.0128514785
167	0xbc1d73c4	-0.00961012
168	0xbc804f49	-0.015662806
169	0x3bfaeb1c	0.0076574218
170	0xbcd230a5	-0.025657961
171	0x3bf144bc	0.00736293
172	0xbd9260da	-0.07147379
173	0xbd9fcc42	-0.07802631
174	0x3c8f3fd7	0.017486496
175	0x3be0d43d	0.0068612383
176	0xbc98c1b1	-0.018647047
177	0x3c43fccc	0.011962127
178	0x3bab6e93	0.0052316873
179	0x3d9b42cb	0.07581099
180	0xbdb1e760	-0.086867094
181	0xbe263c3b	-0.16233914
182	0xbcbd8884	-0.023136385
183	0x3c9bb2bf	0.019006131
184	0x3c1bd323	0.009510788
185	0xbb3d425d	-0.0028878667
186	0xbb5fce0a	-0.0034149908
187	0x3d764cdc	0.060131893
188	0x3c85c790	0.01633051
189	0xbd65c9e1	-0.05610073
190	0xbd01e6f0	-0.03171438
191	0xba3550f2	-0.0006916664
192	0x3c2d4fa3	0.010578069
193	0x3bf131a5	0.0073606544
194	0xbce34b58	-0.027745888
195	0xbcb2acab	-0.02181085
196	0x3c08bdf9	0.008346074
197	0xbd2aa734	-0.041663364
198	0xbd113773	-0.03545327
199	0xbcace553	-0.021105444
200	0xbcb66a01	-0.022267343
201	0xbd2429d9	-0.04007897
202	0xbb70eb2f	-0.0036761274
203	0x3db3dad7	0.08781975
204	0x3c933cb8	0.017973289
205	0xbd42adb3	-0.047528934
206	0xbd49873f	-0.049201246
207	0xbd0ad41e	-0.033893697
208	0x3bd1a911	0.006398328
209	0xbd21c55b	-0.039494853
210	0xbd8537dd	-0.06504796
211	0x3dbdcf02	0.09267999
212	0x3d93dd0a	0.07219894
213	0xbd01d17d	-0.031693924
214	0xbc355c88	-0.011069424
215	0xbc9e8182	-0.019348864
216	0xbb7ca251	-0.0038548897
217	0xbd1800c2	-0.037110098
218	0xbd93d2e9	-0.07217962
219	0x3dd45e9e	0.10369609
220	0x3dc365e5	0.09540919
221	0xbc90d10e	-0.01767781
222	0xbd17c352	-0.037051506
223	0x3c32ce1c	0.010913398
224	0xbbd09099	-0.0063648936
225	0xbd2c25e5	-0.042028327
226	0xbd06625e	-0.032808654
227	0x3dea9cf6	0.11455719
228	0x3da9ec53	0.082970284
229	0xbd31209c	-0.04324399
230	0xbcf938e5	-0.030422637
231	0xbc02abfd	-0.0079755755
232	0xbd127c78	-0.035763234
233	0xbcc29202	-0.023751263
234	0xbd9f7cca	-0.077874735
235	0x3d229029	0.039688263
236	0x3dc6dba7	0.09709864
237	0x3cb30bd8	0.021856233
238	0xbca32b7c	-0.019918196
239	0xbcfc29c8	-0.030781642
240	0xbcc7e5e7	-0.024401618
241	0xbd3ea3d8	-0.046542972
242	0xbdf06aa7	-0.11739092
243	0xbd014a87	-0.031565215
244	0x3d8d49af	0.0689882
245	0x3da4d42b	0.0804828
246	0x3c27a23e	0.010231553
247	0x3c23ad8e	0.009990109
248	0xbc7e5ad0	-0.015524581
249	0xbd2de274	-0.04245229
250	0xbdb1e1fd	-0.08685682
251	0xbbbe8a78	-0.0058148466
252	0x3d1d0aa7	0.038340237
253	0x39820966	0.00024802535
254	0xb97991fd	-0.00023800875
255	0xbbd20a4d	-0.0064099194

fc.bias f4 [10]
0	0x3d171f44	0.03689505
1	0x3cb30a79	0.02185558
2	0x3b0b704c	0.002127665
3	0xbc94df66	-0.01817293
4	0xbb37e356	-0.0028059087
5	0xbc4586d5	-0.012056072
6	0xbbc68aea	-0.0060590403
7	0xbcde1669	-0.027110295
8	0xbc873feb	-0.01650997
9	0xbaf8ad7a	-0.0018972598
