LAB 3/Results/CNN_L2_lr001_adam.ckpt (torch, 107687 bytes, 6 tensors)

conv1.weight f4 [16, 3, 5, 5]
0	0x3df884d6	0.121347114
1	0x3e09843f	0.13429354
2	0x3dec57bf	0.11540174
3	0x3dc2899c	0.09498903
4	0x3daae7ba	0.083449796
5	0x3d228dc6	0.039685987
6	0xbcd69ce4	-0.026197858
7	0x3c97b5bb	0.018519273
8	0x3dfb1801	0.12260438
9	0x3cfd195f	0.030895887
10	0xbd96d1a5	-0.07364205
11	0xbd6b19f6	-0.057397805
12	0x3daeecc8	0.08541256
13	0xbe10eede	-0.1415362
14	0xbd6b23cb	-0.05740718
15	0xbe0627bf	-0.131011
16	0x3d4354f3	0.047688436
17	0xbdd6c2c4	-0.10486367
18	0x3a72e44b	0.00092655857
19	0xbde97f57	-0.11401241
20	0xbde61af9	-0.112356134
21	0xbe1562af	-0.14588426
22	0x3d4c331e	0.049853437
23	0x3cd2893a	0.0257002
24	0x3d88209a	0.06646843
25	0x3e011288	0.12604725
26	0x3e1f129b	0.15534441
27	0x3da58ff5	0.08084098
28	0x3d4110e1	0.047135238
29	0x3d3aa435	0.045566756
30	0x3e230cb2	0.15922812
31	0x3d8e9278	0.069615304
32	0x3c78194a	0.015142748
33	0x3be35723	0.0069378777
34	0x3cac2e61	0.021018209
35	0x3c8a70d0	0.016899496
36	0xbe0046cc	-0.12527007
37	0x3da5a684	0.08088401
38	0xbce625ae	-0.028094139
39	0x3d93ff35	0.07226411
40	0xbc25fd34	-0.010131169
41	0xbdda09d1	-0.106464036
42	0xbe22b11c	-0.15887874
43	0xbdb90da6	-0.09035806
44	0x3c815ae5	0.015790412
45	0xbdd54c25	-0.10414914
46	0xbda6ad21	-0.081384905
47	0xbdb58721	-0.088636644
48	0xbbf26a74	-0.007397944
49	0xbdc41d2f	-0.09575879
50	0x3c4eda99	0.01262536
51	0x3e131ed7	0.14367233
52	0xb94d8bae	-0.00019602358
53	0x3dbb4b7e	0.09145258
54	0x3d95fade	0.0732324
55	0x3db355a2	0.087565675
56	0x3dec8380	0.11548519
57	0xbc2430c1	-0.010021389
58	0x3d7cee84	0.061750904
59	0xbd86d1c3	-0.065829776
60	0x3b6b75aa	0.0035928288
61	0x3cc053ba	0.023477424
62	0xbde10613	-0.10987487
63	0xbd3241ff	-0.04351997
64	0xbcef2cd1	-0.029196175
65	0xbc869ace	-0.016431239
66	0xbaba13bb	-0.0014196554
67	0xbdf49fde	-0.11944555
68	0xbcb45506	-0.022013199
69	0xbdde29ad	-0.10847793
70	0xbb82a2dc	-0.0039866995
71	0xbdbc8f13	-0.09206977
72	0x3d3f6abb	0.046732645
73	0x3dabc906	0.083879516
74	0xbd838922	-0.064226404
75	0x3e32006b	0.17382972
76	0x3d8b35da	0.06797381
77	0x3e48a54e	0.19594309
78	0x3d915a3f	0.07097291
79	0xbbd5e362	-0.0065273503
80	0x3e101980	0.14072227
81	0x3d261c28	0.040554196
82	0x3e4e057b	0.20119278
83	0xbb85fa38	-0.0040886663
84	0x3c9d385c	0.019191913
85	0xbd94eb89	-0.07271487
86	0x3d1ab477	0.03776976
87	0x3d5aacf3	0.053387593
88	0x3d6a08a4	0.057137147
89	0xbe24fcaa	-0.16112009
90	0xbe18a737	-0.14907537
91	0xbe1606e6	-0.14651069
92	0xbd18c6a9	-0.037298832
93	0x3d88c283	0.06677725
94	0xbe290e30	-0.16509318
95	0xbe038c0f	-0.12846397
96	0xbe07374c	-0.13204688
97	0x3d024900	0.0318079
98	0xbd9a6baa	-0.075400665
99	0xbe40ba59	-0.18821086
100	0x3dca58d5	0.098802246
101	0x3e23236b	0.1593148
102	0x3deac971	0.11464203
103	0x3e1bb71a	0.15206566
104	0x3dfbbe6d	0.1229218
105	0x3e19a907	0.15005885
106	0x3e1269a1	0.14298107
107	0x3e3fab9c	0.18717808
108	0x3cadd25b	0.02121847
109	0xbdccc17e	-0.09997843
110	0xbe17d55a	-0.14827481
111	0xbd0fc659	-0.03510127
112	0x3e1501e7	0.14551507
113	0xbd8a54f9	-0.067544885
114	0x3aec920c	0.0018048896
115	0xbdf0e0b2	-0.11761607
116	0x3d4b724d	0.049669553
117	0xbdbbc959	-0.091692634
118	0xbcee6da3	-0.029105013
119	0xbe15bad9	-0.14622058
120	0xbe70c012	-0.23510769
121	0xbc38bd65	-0.011275624
122	0x3c24cc7b	0.010058518
123	0xbd9d69d5	-0.076862015
124	0xbe08eb42	-0.13370994
125	0x3e2ca988	0.16861546
126	0x3d82e732	0.06391753
127	0x3e63fc48	0.22264206
128	0xbc90ad18	-0.017660663
129	0xbc080592	-0.008302109
130	0x3df0ccd3	0.11757817
131	0x3e381b11	0.17979075
132	0x3dd20e3c	0.10256621
133	0x3dee4c36	0.1163563
134	0xbd97c8c4	-0.0741134
135	0xbded84bd	-0.115975834
136	0x3d095f94	0.033538416
137	0x3dd82086	0.10553078
138	0xbe0f3c87	-0.13987933
139	0xbdc228c9	-0.094804354
140	0xbda5f55e	-0.08103441
141	0xbdac6077	-0.08416837
142	0xbd40d0b8	-0.04707405
143	0xbd64799a	-0.05578003
144	0xbe306795	-0.17227013
145	0xbe0dbd58	-0.1384176
146	0x3d0c6c67	0.034283068
147	0x3d102a5b	0.035196643
148	0x3c468025	0.012115513
149	0xbd7aca90	-0.061228335
150	0x3e9521da	0.2912739
151	0x3e10d523	0.14143805
152	0x3e49497e	0.19656941
153	0xbda41d46	-0.08013396
154	0x3d9cc4f7	0.076547556
155	0x3df2808a	0.11840923
156	0x3e2c39f8	0.16818988
157	0xbc2a58ac	-0.010397118
158	0xbdcc14d3	-0.099649094
159	0xbdd48383	-0.10376646
160	0x3e5de002	0.21667483
161	0x3e0956ea	0.13412061
162	0xbe05d0fa	-0.13068
163	0xbdfe0235	-0.12402765
164	0xbde86b7f	-0.11348628
165	0x3d8ef651	0.06980575
166	0xbcef92ca	-0.0292448
167	0xbdc8bf50	-0.09802115
168	0xbe1c79e5	-0.15280874
169	0xbdc13914	-0.09434715
170	0xbd0af852	-0.033928223
171	0xbda9a64b	-0.08283671
172	0xbe5a04bf	-0.21290873
173	0xbe0d6854	-0.1380933
174	0xbd3e481c	-0.046455488
175	0x3e2360e7	0.15954934
176	0x3dadb250	0.08481276
177	0x3de5efa0	0.112273455
178	0xbdea2ae2	-0.114339605
179	0xbe065ce5	-0.13121374
180	0x3e1ca4a6	0.15297183
181	0xbcc40823	-0.023929661
182	0xbdc043af	-0.093879096
183	0xbd334e13	-0.04377563
184	0xbe09d91f	-0.13461731
185	0x3dd79a21	0.10527445
186	0x3dd8ecd5	0.10592047
187	0x3c6ddb13	0.014517563
188	0xbd5d19e8	-0.053979784
189	0xbcd76b6a	-0.026296336
190	0x3e2fa134	0.17151338
191	0xbde22845	-0.11042837
192	0xbe1adb2c	-0.1512267
193	0xbdbf4e8e	-0.09341155
194	0xbd66610e	-0.056244902
195	0xbd54f718	-0.05199346
196	0xbe4bbfa1	-0.1989732
197	0xbe18b840	-0.14914036
198	0xbdee88ac	-0.11647162
199	0x3defc1f4	0.117069155
200	0x3d8efae1	0.06981445
201	0x3e47b24b	0.19501607
202	0x3dc89953	0.09794869
203	0x3d08fdf7	0.033445325
204	0xbd4f1622	-0.050558217
205	0x3e3aea79	0.18253507
206	0x3d1947fc	0.037422165
207	0x3db85641	0.090008266
208	0xbe065b4a	-0.13120762
209	0x3b8f4645	0.0043723905
210	0x3d668606	0.05628016
211	0x3d327499	0.043568227
212	0xbd037055	-0.03208955
213	0xbd9df03c	-0.07711837
214	0xbcc491fc	-0.023995392
215	0x3d655b0b	0.05599503
216	0xbdd8ba6c	-0.10582432
217	0x3cce6f21	0.025199475
218	0x3d185174	0.037187055
219	0x3dcc14b3	0.099648856
220	0xbc0287fa	-0.00796699
221	0xbc99ba2b	-0.01876553
222	0xbc7a055c	-0.015260067
223	0x3c9f90fb	0.019478312
224	0xbce85621	-0.028361382
225	0xbdf96ab0	-0.12178552
226	0x3d9977eb	0.07493576
227	0xbcd292b5	-0.025704721
228	0xbcd62bcc	-0.02614393
229	0x3e23e5ee	0.1600568
230	0xbc7b0153	-0.01532014
231	0xbdb363cb	-0.087592684
232	0xbdccef49	-0.100065775
233	0xbd1e3bce	-0.038631253
234	0x3df109c7	0.11769443
235	0x3d9d842a	0.07691224
236	0xbe0bcc80	-0.1365223
237	0xbd605be3	-0.05477513
238	0x3d943886	0.072373435
239	0x3d1a7e6f	0.037718233
240	0x3d8f7d9e	0.070063815
241	0x3d5e99a7	0.054345753
242	0xbd9a2370	-0.075262904
243	0x3cae227f	0.021256683
244	0x3d2dab14	0.04239948
245	0xbccbcd14	-0.024878062
246	0x3caaf580	0.020869017
247	0xbd3b1bcb	-0.045680802
248	0x3ccfb140	0.025353074
249	0xbd422cd0	-0.047406018
250	0xbd1e2dd4	-0.038617924
251	0xbe03bab8	-0.12864196
252	0x3d03d179	0.03218219
253	0x3e305670	0.17220473
254	0x3e0b12d7	0.13581406
255	0xbdbba6dd	-0.09162686

conv1.bias f4 [16]
0	0x3c2475c0	0.010037839
1	0x3d869a96	0.06572454
2	0x3d239b93	0.03994329
3	0xbb96bb2e	-0.0045999503
4	0x3cf3e813	0.029773748
5	0xbe222c31	-0.1583717
6	0xbe4b5a4a	-0.19858661
7	0x3e3aea2d	0.18253393
8	0xbdebf26e	-0.11520849
9	0x3dc561f2	0.09637822
10	0x3dad4856	0.084610626
11	0xbdb65b5f	-0.089041464
12	0x3d52ac00	0.051433563
13	0x3dc1be04	0.09460071
14	0x3de32fd3	0.11093106
15	0x3d404d06	0.046948455

conv2.weight f4 [32, 16, 3, 3]
0	0xbd7d5b60	-0.06185472
1	0xbdd482c2	-0.103765026
2	0xbd1683d3	-0.03674681
3	0x3da81b0c	0.08208284
4	0x3bfe2443	0.0077557876
5	0xbd9292df	-0.0715692
6	0xbd53c1f9	-0.05169866
7	0xbdc53342	-0.09628917
8	0xbd833ebd	-0.06408451
9	0xbd6707ac	-0.0564038
10	0x3d20b983	0.039239418
11	0xbde10755	-0.109877266
12	0xbcc8573d	-0.024455661
13	0xbdb57374	-0.088599116
14	0xbda22ae7	-0.07918339
15	0xbc41622a	-0.011803189
16	0xbd86c8ce	-0.06581269
17	0x3c6407c4	0.013917867
18	0x3d78b467	0.06071892
19	0xbbf19fd7	-0.0073737907
20	0xbdcd1000	-0.100128174
21	0x3da5018f	0.08056938
22	0xbc9821f3	-0.018570876
23	0xbbc3d2d8	-0.0059760623
24	0xbd687a43	-0.056757223
25	0xbd48ba98	-0.049006075
26	0xbe0ab203	-0.13544469
27	0xbcafaad9	-0.021443771
28	0xbd1b735f	-0.037951823
29	0xbb45d74f	-0.0030188148
30	0x3d152c43	0.036419164
31	0xbd7d67e8	-0.06186667
32	0x3cb1e9c6	0.021717917
33	0xbced6ad4	-0.028981604
34	0xbd49b1d9	-0.049241874
35	0x3d63b4a2	0.055592187
36	0x3c366b46	0.011133974
37	0xbc5ea29c	-0.013588574
38	0xba51da3b	-0.0008005236
39	0xbd2a6008	-0.04159549
40	0xbc8f14a0	-0.01746589
41	0xbba7af89	-0.005117361
42	0xbd35bc05	-0.044368763
43	0x3caa46d6	0.02078573
44	0xbb3cc12c	-0.0028801663
45	0xbcbe8902	-0.02325869
46	0xbe05dce7	-0.13072549
47	0xbdefbefd	-0.1170635
48	0xbd1656ae	-0.036703758
49	0xbce86a1e	-0.028370913
50	0xbc779d73	-0.015113222
51	0xbd1da34d	-0.038485814
52	0xbdfdf56e	-0.124003276
53	0xbd8b2c39	-0.06795544
54	0x3a687e59	0.0008868925
55	0xbd749712	-0.059714384
56	0x3cddf1ad	0.027092779
57	0x3ce2a686	0.027667295
58	0xb950ea91	-0.00019923809
59	0xbdbb6aab	-0.09151205
60	0x3d7a1070	0.061050832
61	0xbdc56191	-0.0963775
62	0x3cc65e81	0.024214985
63	0xbd8e0ef1	-0.069364436
64	0xbd841199	-0.06448669
65	0x3ce5bb3d	0.028043384
66	0xbdcd9af6	-0.10039322
67	0xbba92374	-0.005161697
68	0xbcc6b7a3	-0.024257487
69	0xbdc3539a	-0.0953743
70	0xbc80eac3	-0.015736943
71	0x3d1aa518	0.037755102
72	0xbdde6811	-0.10859693
73	0xbce8fe7a	-0.028441656
74	0x3c829400	0.015939713
75	0xbdcf6a83	-0.101277374
76	0xbd3497be	-0.044090025
77	0x3c1682ee	0.0091864895
78	0x3b48bdb8	0.003063066
79	0xbd381063	-0.044937503
80	0xbcaa1c7c	-0.020765536
81	0xbb4f8f51	-0.0031671117
82	0xbd779231	-0.060442153
83	0xbd42f834	-0.047599986
84	0xbce74cdf	-0.028234897
85	0x3b576b97	0.0032870525
86	0xbdf00e01	-0.11721421
87	0xbd448631	-0.047979537
88	0xbdd33e96	-0.10314672
89	0xbdbded56	-0.09273784
90	0xbde160f8	-0.110048234
91	0x3bf8edf2	0.0075967247
92	0xbdc402a1	-0.09570814
93	0xbd5ca89d	-0.05387174
94	0xbd8cc14e	-0.068728074
95	0xbcdb957f	-0.026804684
96	0xbd7c6078	-0.061615437
97	0xbc5a6c88	-0.01333154
98	0x3c4968a7	0.0122930175
99	0x3b24a6ab	0.0025123756
100	0x3b8f2240	0.0043680966
101	0x3c3f67e6	0.011682486
102	0xbd2b52c6	-0.041826986
103	0x3c64d577	0.01396691
104	0xbda32824	-0.079666406
105	0xbbca52b2	-0.006174409
106	0x3d7ea8be	0.062172644
107	0x3d382bab	0.04496352
108	0xbda305f0	-0.07960117
109	0xbd50ec8e	-0.051006846
110	0x3c769cf2	0.015052067
111	0x3cb38168	0.021912292
112	0xbdebd64b	-0.115154825
113	0x3d0bb9cc	0.034112737
114	0xbd963de0	-0.073360205
115	0x3c1470fb	0.00906014
116	0xbdf21c8b	-0.118218504
117	0xbde8884e	-0.11354123
118	0xbd2b44e3	-0.041813742
119	0x3d0812e2	0.033221133
120	0x3c9430c3	0.018089658
121	0xbd8014a2	-0.062539354
122	0x3a95f4d2	0.001144076
123	0x3c244032	0.010025071
124	0x3cdf94fa	0.027292717
125	0x3d291a62	0.041284926
126	0x3b043621	0.0020173865
127	0xbd0e73da	-0.034778453
128	0x3b118811	0.0022206346
129	0x3ce1c181	0.02755809
130	0x3c9ab755	0.018886248
131	0xbc9e201e	-0.019302424
132	0xbda0aad9	-0.078450866
133	0xbd01b9e0	-0.031671405
134	0xbd48ed5a	-0.04905448
135	0x3dbddee5	0.092710294
136	0x3d2d7d09	0.04235557
137	0xbe0bbda9	-0.13646568
138	0x3d0a2658	0.033727974
139	0xbc71df9b	-0.014762784
140	0xbd8328fd	-0.06404302
141	0xbdb8596b	-0.0900143
142	0xbde33f7a	-0.110960916
143	0xbda0cd5f	-0.078516714
144	0xbead0890	-0.33795595
145	0xbe98135e	-0.29702276
146	0x3d9eb8d0	0.07750094
147	0xbe31a2c8	-0.17347252
148	0xbe516c56	-0.20451483
149	0x3d43bf76	0.047790013
150	0xbd5c6104	-0.05380346
151	0xbe49f4dd	-0.19722314
152	0xbd1127b4	-0.035438254
153	0xbc3836de	-0.01124355
154	0xbe20c625	-0.15700586
155	0x3e0dd3c5	0.13850315
156	0x3e3a227b	0.18177216
157	0xbd98482c	-0.07435641
158	0x3e50526a	0.20343938
159	0x3d9ce1e3	0.07660272
160	0xbd9b72db	-0.07590266
161	0x3d0e833d	0.034793127
162	0xbe82086f	-0.2539706
163	0xbeb3325b	-0.34999356
164	0xbe868ba3	-0.2627841
165	0xbe937a40	-0.28804207
166	0xbec01aa8	-0.37520337
167	0xbe81fd0f	-0.2538838
168	0xbdaab788	-0.08335787
169	0xbd259f4b	-0.040435117
170	0xbdef3ce4	-0.11681536
171	0x3e4f7c36	0.20262226
172	0x3e5baa0d	0.21451588
173	0x3dacd9a4	0.08439949
174	0x3be5bc22	0.0070109526
175	0x3e1314aa	0.14363351
176	0x3d821218	0.06351107
177	0xbe18a29e	-0.14905784
178	0x3dd4b699	0.1038639
179	0x3d170bcf	0.036876496
180	0xbec11547	-0.37711546
181	0xbe58e2d1	-0.21180274
182	0xbcf5bed1	-0.029998215
183	0xbe956fed	-0.29186955
184	0xbd7a526c	-0.06111376
185	0x3d4566f1	0.048193876
186	0xbd81687f	-0.06318759
187	0xbc449435	-0.011998226
188	0x3ce38c8f	0.027776984
189	0x3cc93c83	0.024564987
190	0xbd98ccc6	-0.074609324
191	0x3e0db90e	0.13840124
192	0xbc892215	-0.016739884
193	0xbca7be67	-0.020476533
194	0xbdbad44c	-0.09122524
195	0x3ce4fecc	0.027953528
196	0xbdd6ebad	-0.1049417
197	0xbdab0070	-0.08349693
198	0x3ce3d32c	0.027810656
199	0xbe4f48f4	-0.20242673
200	0xbe899127	-0.26868555
201	0xbd885f2b	-0.06658777
202	0xbe92b1fd	-0.2865142
203	0xbe9b6933	-0.30353698
204	0x3d5e3f75	0.054259736
205	0x3d5ecfdb	0.054397445
206	0x3db215bf	0.08695554
207	0xbaeba101	-0.001797706
208	0xbca9a634	-0.020709135
209	0xbe232a98	-0.15934217
210	0x3c97fe59	0.0185539
211	0x3d28b5f0	0.041189134
212	0xbe39c4a3	-0.18141417
213	0x3cbd5aae	0.023114529
214	0x3e7b8db1	0.2456577
215	0xbd43c63f	-0.047796484
216	0x3e00df1f	0.12585114
217	0xbd0509aa	-0.03247992
218	0x3cfb030c	0.030641101
219	0x3d47327b	0.048632126
220	0xbd896f83	-0.06710722
221	0xbdce8dec	-0.10085663
222	0x3de6bbd8	0.11266297
223	0xbd97576d	-0.07389722
224	0xbdaae7e0	-0.08345008
225	0xbe4e0173	-0.2011774
226	0xbeaae662	-0.33378893
227	0xbdf202dd	-0.118169524
228	0xbdf13fdc	-0.11779758
229	0xbe920fec	-0.28527772
230	0xbd98c679	-0.07459731
231	0x3d36be56	0.044615112
232	0xbe237276	-0.15961632
233	0x3a254beb	0.0006305563
234	0xbc6f469b	-0.014604236
235	0x3dcae70c	0.0990735
236	0x3cb33b50	0.021878868
237	0xbd877ea8	-0.06615955
238	0x3d83ede3	0.06441858
239	0x3cc81d4e	0.024428036
240	0xbd56f05e	-0.052475326
241	0x3e0c6598	0.1371063
242	0x3d50f74b	0.051017087
243	0xbc578d18	-0.013156198
244	0x3c3e16ff	0.011602162
245	0x3d74c9e8	0.059762865
246	0x3cef7626	0.029231142
247	0xbd179407	-0.037006404
248	0x3d7e3892	0.06206567
249	0xbc92362b	-0.017848095
250	0xbd5b2095	-0.05349787
251	0xbd71d756	-0.05904325
252	0xbe0d653b	-0.13808148
253	0x3e8de721	0.277154
254	0x3ea63b39	0.32467058
255	0xbe2309e8	-0.15921748

conv2.bias f4 [32]
0	0xbe0263c2	-0.12733367
1	0x3d5f8a9a	0.05457554
2	0x3e1b53e6	0.15168723
3	0xbd748924	-0.0597011
4	0x3dccc115	0.09997765
5	0x3e216a71	0.1576326
6	0x3dd50287	0.10400873
7	0xbd6beb67	-0.057597544
8	0xbd1be085	-0.038055915
9	0x3d3eae48	0.046552926
10	0xbd133d92	-0.03594739
11	0xbd8894eb	-0.06669029
12	0x3dd7d9bf	0.10539579
13	0xbd613c98	-0.054989427
14	0xbd3e2a49	-0.046427045
15	0xbd9adf0f	-0.07562076
16	0x3da9270c	0.08259401
17	0xbdade77f	-0.0849142
18	0x3dca5864	0.098801404
19	0x3dad4c0d	0.08461771
20	0x3e3d696a	0.18497244
21	0xbc2cb1c6	-0.010540431
22	0x3d8d63a6	0.06903772
23	0xbca70419	-0.020387696
24	0xbd84eb74	-0.064902216
25	0x3e086963	0.13321452
26	0xbc117fd9	-0.008880579
27	0xbcd21313	-0.02564386
28	0x3d94beca	0.072629526
29	0x3dde084f	0.108414285
30	0x3dcff5f1	0.101543315
31	0x3c556aff	0.013025998

fc.weight f4 [10, 2048]
0	0xbbf2d6b1	-0.007410847
1	0x3c50fd7e	0.01275575
2	0xbc68ce58	-0.014209352
3	0x3cc73429	0.024316864
4	0xbc862b11	-0.016377958
5	0x3cffa1bb	0.031205049
6	0x3c20bd32	0.009810733
7	0xbcb3f47f	-0.02196717
8	0xba1486c8	-0.0005665836
9	0x3c16c9c4	0.009203378
10	0xbc53abe2	-0.012919398
11	0x3c948072	0.018127654
12	0x3cc7204f	0.024307398
13	0x3caba970	0.020954818
14	0x3c242bed	0.010020238
15	0x3d2ab334	0.041674808
16	0xbbfc4b5e	-0.007699414
17	0x3c51a81e	0.01279643
18	0x3ced8373	0.028993344
19	0x3c9c6d1d	0.019094998
20	0x3bb00a18	0.005372297
21	0x3d195de2	0.03744305
22	0xbcad233d	-0.021134967
23	0x3bae7d91	0.0053250273
24	0x3b2db324	0.0026504481
25	0x3c8c2622	0.017108027
26	0x3c8dca7d	0.017308468
27	0x3cfca222	0.03083903
28	0x3d18c871	0.03730053
29	0x3d051cde	0.032498233
30	0x3c4df57d	0.012570736
31	0x3ca582d0	0.020203978
32	0x3cbc4cff	0.022985933
33	0x3c81f076	0.015861731
34	0x3c6db0dd	0.0145074995
35	0x3cd4e230	0.02598676
36	0x3ce5271a	0.027972747
37	0x3b90c975	0.004418547
38	0x3cbd257d	0.023089165
39	0x3cab85b7	0.020937784
40	0xbc46d0c2	-0.012134733
41	0xba985f22	-0.0011625031
42	0xbc3b7508	-0.011441477
43	0x3ce8e116	0.028427642
44	0x3caf7280	0.021416903
45	0x3d137164	0.03599681
46	0x3c8c501a	0.01712804
47	0x3cda439c	0.026643567
48	0x3c942bc7	0.01808728
49	0x3bc90a0f	0.0061352323
50	0xbcf76d47	-0.030203475
51	0x3c004439	0.007828766
52	0xbb423ff2	-0.0029640165
53	0x3d54e420	0.05197537
54	0x3b56f5c1	0.003280029
55	0x3cb18d0e	0.021673705
56	0xbb080268	-0.0020753387
57	0x3b70f036	0.003676427
58	0xbb984976	-0.004647429
59	0xbb6aeacb	-0.0035845514
60	0xbb7af7a2	-0.0038294573
61	0xbc92c7db	-0.017917564
62	0xbc9ee4f1	-0.019396277
63	0xbc2a0078	-0.010376088
64	0x3da2226a	0.0791672
65	0x3d092f84	0.03349258
66	0xbca2a7be	-0.019855376
67	0x3d3636b0	0.044485748
68	0x3dbaf622	0.09128977
69	0x3d126012	0.03573615
70	0x3cb35224	0.021889754
71	0xbcc78ed5	-0.0243601
72	0xbd8d5067	-0.06900101
73	0xbd4b1959	-0.04958472
74	0xbd25da5f	-0.040491458
75	0x3cdfb024	0.02730567
76	0xbb08b9f8	-0.00208628
77	0xbd2e3499	-0.04253063
78	0xbd3ceb3c	-0.046122774
79	0xbd915b96	-0.07097547
80	0xbdb0874e	-0.08619557
81	0xbd01d853	-0.031700443
82	0xbd07b94a	-0.03313569
83	0x3d888ce1	0.066674955
84	0x3d9937a6	0.07481317
85	0xb9a3f3f9	-0.00031271557
86	0xbd6243ee	-0.055240564
87	0xbc890f35	-0.016730884
88	0xbd8d0e35	-0.068874754
89	0xbd761332	-0.0600769
90	0xbd723586	-0.059133075
91	0x3dc177da	0.09446688
92	0x3e02d94a	0.12778202
93	0xbc875da5	-0.016524145
94	0xbcf009df	-0.029301582
95	0x3c93a44a	0.018022675
96	0xbd43a4e4	-0.047764674
97	0xbb981514	-0.0046411846
98	0xbd93aea5	-0.07211045
99	0x3de57210	0.11203396
100	0x3df53f6f	0.119749896
101	0xbd9091e4	-0.070590764
102	0xbceaeb22	-0.028676573
103	0xbd0b6e6c	-0.034040853
104	0xbd86d030	-0.06582677
105	0xbd4d992a	-0.050194897
106	0xbda65d27	-0.08123236
107	0x3d2156f1	0.039389554
108	0x3df3d0ae	0.11905037
109	0x3c5be3fe	0.013421057
110	0xbd6983c5	-0.05701043
111	0xbcaa7662	-0.020808402
112	0xbddcc65e	-0.10780023
113	0xbdab1bdf	-0.08354925
114	0xbe26c97a	-0.16287795
115	0xbdac0926	-0.084001824
116	0x3e0d03a5	0.13770922
117	0x3d918be9	0.07106764
118	0xbcaa3353	-0.020776426
119	0x3d52484e	0.051338486
120	0x3b883c30	0.0041575655
121	0xbd7215a2	-0.059102662
122	0xbdf25094	-0.11831775
123	0xbcf02916	-0.029316466
124	0x3e092fc8	0.13397133
125	0x3dae373d	0.085066296
126	0xbd83b0a6	-0.064301774
127	0x3d73193a	0.05935023
128	0x3d892000	0.06695557
129	0xbd74bbdf	-0.05974948
130	0xbbfbf028	-0.007688541
131	0xbbb1ccff	-0.0054260488
132	0xbd997d8d	-0.0749465
133	0xbcdf3dd7	-0.027251167
134	0x3ce4537d	0.027871842
135	0xbd02489b	-0.031807523
136	0x3c2474c0	0.010037601
137	0xbbb80a2d	-0.0056164474
138	0x3daafd1c	0.08349058
139	0xbced09b8	-0.028935298
140	0xbe4f79d8	-0.20261323
141	0xbe1797e2	-0.14804032
142	0xbca13af8	-0.019681439
143	0xbdd45860	-0.10368419
144	0xbcbf81fe	-0.023377415
145	0x3d599f68	0.053130537
146	0x3d5bc5fb	0.053655606
147	0x3d5b5f43	0.053557646
148	0xbd506d47	-0.050885465
149	0xbdc7d08b	-0.09756573
150	0xbc8550d6	-0.016273897
151	0x3cced711	0.025249036
152	0x3c85a035	0.016311744
153	0xbc1207e0	-0.00891301
154	0x3d76aed9	0.06022534
155	0xbc23088a	-0.009950766
156	0xbdee426f	-0.11633765
157	0xbd9d0963	-0.07667806
158	0x3bfb0e43	0.0076616122
159	0x3d076eb3	0.033064555
160	0x3c5376b9	0.012906724
161	0x3cf11c93	0.02943257
162	0x3db897e6	0.09013347
163	0xbd6d7986	-0.057977222
164	0xbe3e151a	-0.18562737
165	0xbc8600d3	-0.016357815
166	0xbd30341f	-0.043018457
167	0xbd8a486c	-0.067520946
168	0x3b80d101	0.003931165
169	0x3d68a5d9	0.05679879
170	0xbcd14fa1	-0.025550665
171	0xbd9d0d1c	-0.07668516
172	0xbddd9dd5	-0.1082112
173	0x3dcc3b3d	0.09972236
174	0x3da3af50	0.079924226
175	0x3dee8ed8	0.11648339
176	0x3d5b5c15	0.053554613
177	0x3bd72107	0.0065652165
178	0xbca81e1c	-0.02052217
179	0xbb5991ae	-0.0033198404
180	0xbb633202	-0.0034667258
181	0x3e0c880d	0.13723774
182	0x3d2e00ca	0.04248122
183	0x3dd6b28e	0.10483275
184	0x3d44e6ee	0.048071794
185	0xbc09bc29	-0.008406677
186	0xbd62c779	-0.055366013
187	0xbd09a6e0	-0.03360641
188	0xbc0ba133	-0.00852232
189	0x3c8e92ef	0.017404048
190	0x3acec79d	0.0015776042
191	0x3d207106	0.039170288
192	0x3d4c0bf0	0.049816072
193	0xbc872a86	-0.016499769
194	0x3c83db1c	0.01609569
195	0xbd6339d1	-0.05547506
196	0xbe0823cd	-0.13294907
197	0xbd67e807	-0.056617763
198	0xbc77e62f	-0.015130564
199	0xbd394dfb	-0.045240384
200	0xbc22f154	-0.009945232
201	0xbcdd3d69	-0.027006822
202	0xbb97e9b9	-0.004636016
203	0xbc83f75a	-0.016109157
204	0xbe3b0b43	-0.18266015
205	0xbe00a7fa	-0.12564078
206	0x3d7765a1	0.060399655
207	0x3d4f94da	0.050679065
208	0x3cee3e62	0.02908248
209	0xbc807d4d	-0.015684748
210	0x3c5cc2b8	0.013474159
211	0xbc6f7859	-0.014616095
212	0xbe3a142f	-0.18171762
213	0xbe01495a	-0.12625638
214	0x3d8d049e	0.06885646
215	0x3d006a0f	0.031351145
216	0x3c9e666a	0.019335944
217	0xbd85b808	-0.06529242
218	0xbd4361e5	-0.04770078
219	0xbde8635c	-0.11347076
220	0xbea52117	-0.32251808
221	0xbe0a55fd	-0.13509364
222	0x3d37db5a	0.044886924
223	0x3d380ab5	0.044932086
224	0x3c49d367	0.012318469
225	0xbcd5e3a1	-0.026109518
226	0xbdb7914c	-0.0896326
227	0xbe9ac119	-0.30225447
228	0xbeb45dab	-0.35227713
229	0xbdfe0c2f	-0.124046676
230	0x3c5c89cd	0.013460589
231	0x3cd751e9	0.026284175
232	0xbbd70a92	-0.0065625394
233	0x3cc7a0e6	0.024368715
234	0xbe33ea6d	-0.17569895
235	0xbea9f60d	-0.33195534
236	0xbe57069f	-0.2099862
237	0x3d039dd0	0.032132924
238	0x3d93767b	0.07200333
239	0x3dc2f1d7	0.095187835
240	0x3b069d90	0.0020540692
241	0x3c3745d1	0.011186079
242	0xbdcaf280	-0.099095345
243	0xbe719d0c	-0.23595065
244	0xbd9cd5a4	-0.07657936
245	0x3df08387	0.11743837
246	0x3d1c34bf	0.03813624
247	0x3d7c02db	0.06152616
248	0x3d492417	0.049106684
249	0x3c77ae5a	0.015117252
250	0xbd141d94	-0.03616102
251	0xbc593a30	-0.013258502
252	0x3bf2c56b	0.007408788
253	0x3b9bbbf0	0.0047526285
254	0x3d296c67	0.041363146
255	0x3d95a356	0.073065445

fc.bias f4 [10]
0	0x3d473740	0.048636675
1	0x3c36badc	0.011152949
2	0xbc288176	-0.010284772
3	0xbc979b92	-0.018506799
4	0xbc0b132f	-0.00848846
5	0xbc86d113	-0.016457116
6	0xbc60425c	-0.013687696
7	0xbd4d50c7	-0.050125863
8	0xbc8bd011	-0.017066987
9	0xbbfa844e	-0.0076451665
