LAB 3/Results/CNN_L2_v2_lr005_adam.ckpt (torch, 291647 bytes, 6 tensors)

conv1.weight f4 [48, 3, 5, 5]
-0.086688794 -0.03328492 0.057382073 0.021689633 -0.044507075 -0.04235237 -0.11902419 0.076776095
-0.13744326 0.048861437 -0.13314733 -0.11913749 -0.12822385 -0.036062207 0.013762937 -0.1449319
-0.120128535 0.010391414 -0.09225919 0.090288796 -0.08224369 -0.02807352 0.052029956 0.035369813
-0.017958542 -0.12725289 -0.04101309 0.045525894 -0.06434703 -0.09524453 -0.14250576 0.066296324
-0.08478441 0.052547943 0.041089337 -0.06942035 0.034206215 -0.12323841 -0.04808149 -0.10170368
-0.019357258 -0.023138074 0.025611008 -0.051108528 -0.064813174 -0.08417372 -0.1495286 -0.008382633
-0.08423466 -0.02708796 0.04902883 -0.0027817076 -0.09608953 0.02630813 -0.02002526 -0.10510296
-0.043160714 -0.030268257 0.021421844 0.040678207 -0.07876007 -0.07228358 0.067956865 -0.053314477
-0.012161267 -0.10974852 -0.070710324 -0.0021468194 -0.11517024 -0.030059503 -0.10457078 -0.14190887
0.051329676 0.048320558 -0.084860876 -0.045416996 -0.07589338 -0.05584716 0.008376952 0.027748156
-0.021901386 -0.13173606 0.07490406 0.07989987 -0.0049365526 -0.0049591707 -0.10651419 -0.0041772146
-0.112789825 0.016544117 -0.0415371 -0.036444254 -0.14889532 -0.007679057 0.057439774 0.015234483
0.0026906256 -0.08916291 0.049463134 -0.10330605 0.029964799 -0.12962677 -0.13178892 -0.13246183
-0.03741685 0.03252362 -0.05525839 0.080973476 0.03767528 -0.12988684 0.03295638 -0.11390383
-0.037367772 0.06673531 -0.0746103 -0.0159141 0.050116196 -0.103620626 -0.04709479 -0.13106282
-0.09334217 -0.10512382 0.058876853 -0.07798976 -0.032364205 -0.019335845 0.002664702 0.054301996
-0.015382655 -0.013236641 0.039926995 0.009610897 0.024537005 0.020261675 0.008019531 0.032272954
-0.10965238 -0.11434523 0.031529594 -0.10563688 1.2758941e-05 -0.11217255 -0.11778621 -0.14166142
-0.11006477 -0.15367417 -0.103257455 0.015576892 -0.092015 -0.033230714 -0.04922842 -0.04177328
0.07743663 -0.02624127 -0.048972573 -0.06814333 -0.041880343 -0.0224903 -0.053938538 0.0818126
0.0015248016 0.002377744 0.02345922 -0.03020262 0.047417227 0.008713779 -0.0064704716 -0.12132624
-0.10751707 -0.09449553 -0.0413521 0.076370254 -0.022002487 -0.012062391 -0.01086146 -0.03758278
0.014470642 0.002800867 -0.12206384 0.07325053 0.0912753 -0.11930968 -0.076727495 -0.12362855
0.036514282 -0.10123221 0.058030706 -0.12406174 -0.09417037 -0.013713332 0.039577454 0.07442442
-0.06574997 0.068119176 -0.0930596 -0.13237597 -0.033562556 0.029395167 0.08800588 0.039479602
-0.044574242 -0.03266987 -0.12640683 0.0048009846 -0.06505458 -0.028426532 0.03380071 0.07287419
-0.11477232 -0.02019154 0.060213428 -0.025288483 0.08454276 0.07231062 0.068602666 0.042151812
0.028796023 -0.12035919 -0.030933172 0.016668888 0.06347854 -0.07232939 -0.011133618 0.08303458
-0.12082066 0.021062674 -0.072375044 -0.00129774 -0.03092016 0.010432304 -0.071609035 -0.10372996
-0.111599565 -0.085659824 -0.0942163 -0.10267831 -0.035596985 0.038477167 -0.030115541 -0.110806815
0.059405167 -0.0062893867 -0.037669584 -0.11329008 -0.077100456 0.004603194 -0.060545668 0.032216303
-0.027463958 -0.14123218 0.018951695 -0.023306124 0.062379926 -0.030939596 -0.12632412 -0.023358965
00000000: e589 b1bd c555 08bd 7709 6b3d 75ae b13c
00000010: 0d4d 36bd ae79 2dbd f4c2 f3bd c93c 9d3d
00000020: edbd 0cbe ee22 483d c657 08be 5bfe f3bd
00000030: 1d4d 03be f7b5 13bd f17d 613c 0769 14be
00000040: f305 f6bd c040 2a3c 63f2 bcbd 55e9 b83d
00000050: 616f a8bd 70fa e5bc 5d1d 553d f0df 103d
00000060: cb1d 93bc 954e 02be 58fd 27bd 5c79 3a3d
00000070: 60c8 83bd 900f c3bd 08ed 11be 5ec6 873d
00000080: 73a3 adbd 833c 573d 4b4d 283d 422c 8ebd
00000090: d11b 0c3d 6b64 fcbd 19f1 44bd 054a d0bd
000000a0: 1d93 9ebc 0f8c bdbc 2dce d13c 2d57 51bd
000000b0: c5bc 84bd 4563 acbd 061e 19be 5057 09bc
000000c0: 3983 acbd 92e7 ddbc 74d2 483d 4f4d 36bb
000000d0: 96ca c4bd 2684 d73c 040c a4bc 3840 d7bd
000000e0: 4ac9 30bd 23f5 f7bc dd7c af3c 319e 263d
000000f0: f64c a1bd 6a09 94bd f82c 8b3d 4860 5abd
00000100: 0d40 47bc d5c3 e0bd 93d0 90bd a7b1 0cbb
00000110: 60de ebbd 593f f6bc 3529 d6bd 8f50 11be
00000120: 113f 523d c7eb 453d 8acb adbd 2c07 3abd
00000130: fd6d 9bbd febf 64bd 7c3f 093c 1a50 e33c
00000140: 896a b3bc d1e5 06be 4d67 993d 8ba2 a33d
00000150: cec2 a1bb 8a80 a2bb 1d24 dabd 04e1 88bb
00000160: 5afe e6bd 8787 873c ce22 2abd 9246 15bd
00000170: 0478 18be 99a0 fbbb f845 6b3d 0e9a 793c
00000180: 3555 303b 0b9b b6bd db99 4a3d 1f92 d3bd
00000190: bd78 f53c e1bc 04be adf3 06be 13a4 07be
000001a0: 6942 19bd 7d37 053d 9f56 62bd 6cd5 a53d
000001b0: 6551 1a3d 0e01 05be 45fd 063d 6946 e9bd
000001c0: f30e 19bd 86ac 883d 49cd 98bd 495e 82bc
000001d0: a446 4d3d 0d37 d4bd 77e6 40bd 5535 06be
000001e0: 2e2a bfbd 284b d7bd db28 713d 18b9 9fbd
000001f0: 5490 04bd 3566 9ebc 48a2 2e3b c56b 5e3d
00000200: 8807 7cbc 7fde 58bc 7d8a 233d 0677 1d3c
00000210: d401 c93c d0fb a53c 5a64 033c a530 043d
00000220: 6d91 e0bd d52d eabd 2d25 013d 2658 d8bd
00000230: 3c0f 5637 b9ba e5bd e539 f1bd b10f 11be
00000240: a369 e1bd c35c 1dbe a578 d3bd 3836 7f3c
00000250: 5c72 bcbd ee1c 08bd bda3 49bd 751a 2bbd
00000260: 1997 9e3d eff7 d6bc 7797 48bd bb8e 8bbd
00000270: b98a 2bbd 943d b8bc a8ee 5cbd 5d8d a73d
00000280: dadb c73a edd3 1b3b 8d2d c03c 7c6b f7bc
00000290: 9138 423d 3dc4 0e3c 4006 d4bb e479 f8bd
000002a0: e931 dcbd df86 c1bd d260 29bd 0268 9c3d
000002b0: 8f3e b4bc 56a1 45bc 44f4 31bc 67f0 19bd
000002c0: 4616 6d3c c08e 373b 9bfc f9bd 6004 963d
000002d0: 8bee ba3d a258 f4bd 4e23 9dbd f730 fdbd
000002e0: 0090 153d d552 cfbd 9bb1 6d3d 1514 febd
000002f0: 65dc c0bd e2ad 60bc f81b 223d d56b 983d
00000300: eca7 86bd 1182 8b3d 0896 bebd 918d 07be
00000310: e478 09bd 22ce f03c 6d3c b43d 5db5 213d
00000320: 7b93 36bd d7d0 05bd cb70 01be 9451 9d3b
00000330: 563b 85bd c2de e8bc 9d72 0a3d 103f 953d
00000340: c00d ebbd ba68 a5bc 5ba2 763d cb29 cfbc
00000350: c124 ad3d 9717 943d 8e7f 8c3d 61a7 2c3d
00000360: a3e5 eb3c e17e f6bd 9067 fdbc 318d 883c
00000370: 0901 823d 6e21 94bd c769 36bc 090e aa3d
00000380: d270 f7bd a18b ac3c 5e39 94bd ee18 aaba
00000390: 464c fdbc 41ec 2a3c c2a7 92bd 6070 d4bd
000003a0: 508e e4bd 6b6e afbd 7af4 c0bd 0149 d2bd
000003b0: 25ce 11bd 3c9a 1d3d deb4 f6bc afee e2bd
000003c0: d552 733d 3317 cebb 6c4b 1abd a104 e8bd
000003d0: d8e6 9dbd 64d6 963b bcfe 77bd 3ef5 033d
000003e0: 18fc e0bc 2b9f 10be 9640 9b3c 7cec bebc
000003f0: 1882 7f3d 0975 fdbc 1c5b 01be 4d5b bfbc

conv1.bias f4 [48]
-0.0762947 -0.001702933 -0.03732215 -0.13170478 0.02002107 0.04726955 0.06425426 -0.06466193
-0.059745416 0.19763257 -0.11972998 -0.06790011 -0.04144384 0.023744883 0.050350018 -0.120010205
-0.07996761 -0.021205116 0.005507244 0.21643914 -0.012158117 -0.13603856 -0.14801618 0.12501161
0.1455065 -0.11622731 -0.028939605 -0.07557112 -0.08862012 -0.0087122945 -0.123679295 -0.042825293
-0.013371468 0.09577977 0.025298541 -0.12689905 -0.11156597 0.024181556 -0.0035109164 -0.08402426
-0.026189111 -0.13064092 -0.10248748 0.12106672 0.2056924 0.024111608 0.03013898 0.10863892
00000000: 6540 9cbd f334 dfba 1cdf 18bd 9edd 06be
00000010: 3a03 a43c b79d 413d bd97 833d 796d 84bd
00000020: 9cb7 74bd 3160 4a3e fe34 f5bd 360f 8bbd
00000030: 04c1 29bd a184 c23c d23b 4e3d e9c7 f5bd
00000040: 0fc6 a3bd 5ab6 adbc 1c76 b43b 39a2 5d3e
00000050: d732 47bc b14d 0bbe 8e91 17be 0b03 003e
00000060: a8ff 143e 9508 eebd c012 edbc 08c5 9abd
00000070: 777e b5bd 03be 0ebc 924b fdbd 9369 2fbd
00000080: 0014 5bbc 2f28 c43d e33e cf3c d3f1 01be
00000090: b37c e4bd 6618 c63c 6717 66bb e914 acbd
000000a0: 8c8a d6bc bcc6 05be f5e4 d1bd d4f1 f73d
000000b0: 07a1 523e b585 c53c 06e6 f63c 157e de3d

conv2.weight f4 [64, 48, 3, 3]
-0.064010635 -0.048563346 -0.042417 -0.057764504 -0.0342029 -0.03740603 -0.04160256 -0.016477639
-0.018738661 -0.02341469 0.006690078 -0.000114506016 -0.021094698 -0.0796455 -0.028044144 -0.05313779
-0.067115836 0.02590612 -0.053456802 -0.058874574 -0.048677634 0.00029012983 -0.03148488 -0.033462092
-0.010880581 0.0035909286 -0.011740376 -0.01309094 0.07461271 0.00034275107 -0.0071704458 0.03753401
0.045907523 0.030769859 0.011193131 -0.070332244 -0.0022606296 0.024491396 0.012629392 -0.05551759
-0.07144623 0.041265126 -0.060412806 -0.06681988 0.071858935 0.005576664 -0.06977161 -0.03857271
-0.07192597 -0.07433393 0.03139552 0.024468942 -0.06812556 0.031670317 -0.04080381 -0.0043327822
-0.014065957 -0.07121173 -0.05883292 -0.03299509 0.010497144 -0.048839036 -0.0019575425 0.043330077
0.046141125 0.013905536 -0.0068637105 0.0042931144 -0.029634941 0.025708137 -0.011481603 0.03533341
-0.01943755 -0.076437734 0.009693422 -0.0007969435 -0.019226283 -0.021226134 -0.02645134 -0.07361676
-0.024182929 -0.028470967 -0.06753125 -0.07610371 -0.0049470747 -0.046182718 -0.07069365 -0.04759555
-0.0943055 -0.043374047 -0.025243472 -0.06516398 0.032830298 -0.029351529 -0.069961764 -0.06820221
-0.017085917 0.017245 -0.006666613 -0.007298375 -0.020588664 -0.052522343 -0.032219548 0.022017986
-0.019445412 -0.041602198 0.011016066 -0.050847847 0.029122904 0.008340524 -0.024438478 0.03711874
-0.07004445 -0.018719302 -0.0019620575 -0.055962756 0.007268061 -0.04586851 -0.08414016 -0.040797412
-0.010908088 -0.087185964 -0.06254585 0.007791609 -0.021466317 -0.041709244 -0.023630055 -0.02475395
-0.011548836 0.016522149 -0.033757746 0.060307052 -0.012318379 -0.03115177 0.05647747 0.023178885
-0.044178568 0.043760605 -0.032771632 0.029266112 -0.02880778 -0.047161028 0.018450215 0.01803271
-0.018625401 0.03071023 0.007093909 -0.025458474 -0.01776158 0.02905082 0.008566838 -0.06284099
0.023029024 0.06004499 0.0021503638 -0.05717933 0.029869448 -0.0062621417 -0.043655753 -0.077629134
-0.008382502 -0.07516216 -0.022710457 -0.012091796 -0.028249148 0.023029137 0.039642524 -0.0052576787
0.024654636 -0.013451724 0.025433397 -0.05707458 -0.05931838 0.008543105 -0.05219562 0.0015958206
-0.06282346 0.028509885 0.011868254 -0.0075681023 -0.0021950293 -0.019170942 0.00045782333 0.02833745
-0.02246816 -0.00011810802 0.0049015493 -0.0064786505 -0.019070989 -0.020591918 0.03424675 -0.02228736
-0.0062425374 0.0443146 -0.030814141 0.029511487 0.046942502 -0.025034102 0.0040532458 -0.014113523
-0.01588747 -0.059012357 -0.011904781 -0.04047538 -0.067911364 -0.070213474 -0.04883473 -0.025085779
-0.051025644 -0.035007585 0.0072965473 -0.06612623 -0.05143871 -0.042859778 -0.0048402054 0.017138151
0.053111475 -0.0007148621 0.014133691 -0.00651634 -0.07152638 -0.067750655 -0.030031405 -0.037800763
-0.009148318 0.055725455 0.012994702 0.08121528 0.016712982 -0.03343141 0.07719934 0.038552597
-0.043214295 -0.043384388 -0.058025163 0.059604667 -0.002464519 -0.006990045 -0.074885376 -0.052356116
0.03547729 0.06271895 -0.039958175 -0.007104687 -0.00034810117 0.0010919073 -0.06418783 -0.049145915
-0.047076818 -0.050868016 -0.050848212 -0.015734516 -0.040420882 -0.050860833 0.027053105 -0.018516008
00000000: 0218 83bd 5cea 46bd 73bd 2dbd 799a 6cbd
00000010: 5718 0cbd 1137 19bd 7267 2abd 1dfc 86bc
00000020: d281 99bc 2ad0 bfbc 7138 db3b f322 f0b8
00000030: cace acbc 2e1d a3bd d5bc e5bc 03a7 59bd
00000040: 0774 89bd 1239 d43c 85f5 5abd 7726 71bd
00000050: 3362 47bd 911c 9839 4af6 00bd 8c0f 09bd
00000060: 7744 32bc c955 6b3b b55a 40bc 627b 56bc
00000070: 8cce 983d 45b3 b339 0ff6 eabb 43bd 193d
00000080: 8709 3c3d 1211 fc3c 6563 373c 5a0a 90bd
00000090: 1227 14bb 2ea2 c83c 82eb 4e3c 6a66 63bd
000000a0: 6752 92bd 9f05 293d 6b73 77bd dcd8 88bd
000000b0: c72a 933d 73bc b63b 6be4 8ebd 6bfe 1dbd
000000c0: ec4d 93bd 633c 98bd 9798 003d 1773 c83c
000000d0: 6a85 8bbd bcb8 013d e521 27bd 03fa 8dbb
000000e0: e674 66bc 75d7 91bd cafa 70bd dc25 07bd
000000f0: 37fc 2b3c 710b 48bd 1d4a 00bb e17a 313d
00000100: 7afe 3c3d 0cd4 633c fae8 e0bb 41ad 8c3b
00000110: fac4 f2bc df99 d23c 551d 3cbc c4b9 103d
00000120: 7f3b 9fbc 638b 9cbd 29d1 1e3c f9e9 50ba
00000130: 7080 9dbc 6ee2 adbc 7bb0 d8bc 62c4 96bd
00000140: 471b c6bc f23b e9bc d34d 8abd 43dc 9bbd
00000150: 121b a2bb 172a 3dbd d5c7 90bd 8df3 42bd
00000160: 3e23 c1bd fca8 31bd 66cb cebc b174 85bd
00000170: 1079 063d 9e72 f0bc 1d48 8fbd 9aad 8bbd
00000180: c4f7 8bbc 6345 8d3c 9a73 dabb 3527 efbb
00000190: 8fa9 a8bc ab21 57bd a5f8 03bd 105f b43c
000001a0: fc4b 9fbc 1167 2abd bb7c 343c d545 50bd
000001b0: 2893 ee3c b1a6 083c 3433 c8bc d209 183d
000001c0: 7773 8fbd 3959 99bc dd95 00bb 3439 65bd
000001d0: ea28 ee3b 9ee0 3bbd ad51 acbd 301b 27bd
000001e0: d6b7 32bc 8e8e b2bd 0a18 80bd c150 ff3b
000001f0: 21da afbc 50d7 2abd d193 c1bc ccc8 cabc
00000200: 5437 3dbc 7559 873c 9045 0abd 8704 773d
00000210: 07d3 49bc ff31 ffbc eb54 673d a5e1 bd3c
00000220: 96f4 34bd 523e 333d 8c3b 06bd 7cbf ef3c
00000230: 4bfe ebbc ec2b 41bd e824 973c 55b9 933c
00000240: 4c94 98bc 0594 fb3c 0674 e83b 4a8e d0bc
00000250: bc80 91bc fcfb ed3c ec5b 0c3c c7b2 80bd
00000260: 5da7 bc3c bcf1 753d 1eed 0c3b e034 6abd
00000270: c6b0 f43c a732 cdbb 60d0 32bd 06fc 9ebd
00000280: c356 09bc 9eee 99bd 480b babc ab1c 46bc
00000290: c26a e7bc 9aa7 bc3c 3360 223d 9b48 acbb
000002a0: 85f8 c93c 9f64 5cbc b359 d03c 09c7 69bd
000002b0: d4f7 72bd 61f8 0b3c 13cb 55bd db2a d13a
000002c0: 96a9 80bd 908d e93c 1173 423c d8fd f7bb
000002d0: 7bda 0fbb 610c 9dbc 0208 f039 f123 e83c
000002e0: 260f b8bc c3b0 f7b8 2d9d a03b dc4a d4bb
000002f0: c33a 9cbc 62b0 a8bc 5246 0c3d fb93 b6bc
00000300: 338e ccbb 3a83 353d f06d fcbc 13c2 f13c
00000310: c846 403d 5114 cdbc 17d1 843b 683c 67bc
00000320: 7126 82bc f1b6 71bd 450c 43bc 83c9 25bd
00000330: 1d15 8bbd 15cc 8fbd ed06 48bd b180 cdbc
00000340: 4400 51bd 1d64 0fbd e017 ef3b 306d 87bd
00000350: 66b1 52bd bc8d 2fbd 969a 9ebb 4f65 8c3c
00000360: 6b8b 593d 9565 3bba ff90 673c 0687 d5bb
00000370: 6c7c 92bd dbc0 8abd 6c04 f6bc f9d4 1abd
00000380: d4e2 15bc 6040 643d bbe7 543c 3254 a63d
00000390: aae9 883c 60ef 08bd b01a 9e3d 54e9 1d3d
000003a0: 7901 31bd d4b3 31bd cbab 6dbd 0624 743d
000003b0: c583 21bb bf0c e5bb 815d 99bd 5e73 56bd
000003c0: a350 113d cb72 803d 2fab 23bd 6fce e8bb
000003d0: 5981 b6b9 541e 8f3a e974 83bd 3a4d 49bd
000003e0: 9fd3 40bd fb5a 50bd 3746 50bd ace5 80bc
000003f0: 5e90 25bd 7353 50bd 799e dd3c e2ae 97bc

conv2.bias f4 [64]
-0.08428764 0.1108983 -0.0508458 0.42925948 0.42584407 0.5039609 0.24384525 -0.05536411
0.28491598 -0.023762986 -0.114957236 -0.042071186 0.25202665 -0.010827957 -0.06854885 -0.08492312
0.060220674 0.6390563 -0.04581088 -0.028247887 -0.08112019 0.23031911 -0.009658218 0.15012045
-0.043132942 -0.08776145 0.24867514 -0.02313173 -0.08279083 -0.008634327 -0.053491626 -0.017287007
-0.1457693 -0.03599184 -0.07349898 -0.012389098 0.010924794 -0.008326573 0.33603805 -0.010235991
0.12513687 -0.02485594 -0.00999701 -0.04896989 -0.022547228 -0.019170072 -0.030333709 -0.07561055
-0.056574423 -0.052505765 -0.06948767 -0.027909186 -0.060108352 -0.041423056 0.38415343 -0.023665221
-0.05231198 -0.009232604 0.47282964 0.33723003 -0.030745767 -0.0957779 -0.007925207 -0.07476571
00000000: 009f acbd a61e e33d b043 50bd e6c7 db3e
00000010: 3c08 da3e 9503 013f 92b2 793e 7ac5 62bd
00000020: 82e0 913e 98aa c2bc b36e ebbd d652 2cbd
00000030: a309 813e be67 31bc 5763 8cbd 2cec adbd
00000040: f4a9 763d 3299 233f 30a4 3bbd 1d68 e7bc
00000050: 5822 a6bd c6d8 6b3e 813d 1ebc 2db9 193e
00000060: 2bac 30bd 46bc b3bd b2a4 7e3e c17e bdbc
00000070: 3d8e a9bd fe76 0dbc 091a 5bbd 7b9d 8dbc
00000080: 8c44 15be 2e6c 13bd a286 96bd a5fb 4abc
00000090: e8fd 323c 2e6c 08bc 2e0d ac3e dcb4 27bc
000000a0: e123 003e af9e cbbc 80ca 23bc a794 48bd
000000b0: f7b4 b8bc 8e0a 9dbc 667e f8bc b4d9 9abd
000000c0: 95ba 67bd 4910 57bd 8d4f 8ebd cea1 e4bc
000000d0: 2d34 76bd 39ab 29bd c2af c43e 91dd c1bc
000000e0: 1645 56bd 5944 17bc ba16 f23e 6aa9 ac3e
000000f0: 8cde fbbc 3427 c4bd bad8 01bc c41e 99bd

fc.weight f4 [10, 4096]
-0.032165162 -0.028895415 -0.01913991 0.002355484 -0.03840648 -0.035702623 0.022109209 0.00014688633
0.022934744 -0.008186966 0.00016060953 -0.039644577 0.0189672 -0.03376233 -0.040489953 -0.004439121
0.02530666 -0.000522621 -0.031179436 0.047522116 -0.016371237 0.010905733 -0.021251587 -0.0034236703
0.03596497 0.0064557884 -0.047954056 -0.041422904 -0.015028558 0.002893228 -0.03814547 -0.0033355188
0.02725047 -0.014500721 -0.05104843 -0.02893097 -0.033649232 -0.014061801 0.0011295658 -0.042902622
0.024830272 -0.035373896 -0.055376638 0.00054337084 -0.013419556 -0.012591338 0.0010818988 -0.014742063
0.039738026 -0.0074315816 -0.04322686 -0.037971593 -0.04409118 -0.019591276 -0.007295925 -0.0034175534
0.015959643 0.04526285 0.03304124 0.02696452 -0.040647466 0.03563603 0.038151864 -0.00072831387
0.004582894 -0.038027395 -0.043157946 0.30247632 0.13420738 -0.03773759 -0.025945863 0.033646103
0.027084915 0.091919616 0.13673557 -0.058572657 -0.13286918 0.0015053133 -0.06767935 0.046336953
0.048125982 -0.022233643 0.08170589 0.032840177 -0.26904312 0.04894494 0.024301078 0.051497146
0.032198217 0.0029474716 0.017856786 -0.08622287 -0.18430041 0.08722387 -0.02025406 0.034444366
-0.014195849 -0.04930438 -0.060565304 -0.3485871 -0.1465507 0.018540947 -0.012966791 0.027644442
-0.020010393 0.051712837 0.08142389 -0.20345281 -0.14218545 0.0025428338 -0.0137798935 0.08139482
0.050498452 0.055901658 -0.056900162 -0.30901203 0.04789877 0.07453706 -0.089419976 0.019274196
0.0410305 -0.074370086 -0.0561607 0.021648994 -0.05715496 0.0012019183 0.014371299 0.11146697
-0.028561244 -0.0040152166 -0.028950352 -0.0056822104 -0.007888137 -0.007966889 -0.02591476 -0.022279141
-0.029984249 -0.019182952 -0.003506716 -0.017300282 -0.00035175847 -0.017246218 -0.0006318571 0.0002758153
-0.021924531 -0.026193226 -0.024311678 -0.017685479 -0.025139123 -0.019179313 -0.018743297 -0.015298847
-0.004496637 -0.018523049 -0.014401878 -0.0030280086 -0.028706877 -0.025939 -0.01982215 -0.008446521
-0.003044578 -0.002108145 -0.03088683 -0.010173097 -0.02263918 -0.00878686 -0.005536992 -0.021907987
-0.0240029 -0.020513324 -0.029016132 -0.018882826 -0.002569377 -0.028160056 -0.018865183 -0.028701274
-0.02175346 -0.0045799986 -0.008010251 -0.014710797 -0.00025080654 -0.013557398 -0.0033268966 -0.014838274
-0.007802826 -0.0037947937 -0.0052882177 -0.023075348 -0.028300261 -0.030649044 -0.023599895 -0.008439821
0.14481512 0.17951109 0.17999452 0.18598756 0.14285581 0.03935509 -0.08544471 -0.020310564
0.080616154 -0.12733597 -0.47711414 0.47597018 0.8648183 -0.0566146 -0.1686236 0.029167728
-0.020215366 0.0975733 -0.35039708 0.058777433 0.5569324 0.07281492 -0.02351637 0.030021692
-0.015674317 0.09053849 -0.120433025 0.123626985 0.44905785 0.1254414 0.07298478 0.040998068
-0.12750584 -0.11601059 -0.08000174 0.34945363 0.40327194 0.21168436 0.048270665 0.04680609
-0.0043934337 0.16620716 0.20826545 0.16122429 0.12500586 0.073774785 -0.10667459 -0.013804115
-0.1594059 -0.011504531 -0.10531507 -0.2057637 0.21384537 -0.2861655 -0.17448595 -0.094243325
-0.12213569 0.10351941 -0.07526357 -0.17177321 -0.09354466 -0.40599725 0.303059 0.21592617
00000000: 9ebf 03bd 14b6 ecbc 4dcb 9cbc 775e 1a3b
00000010: 1d50 1dbd ea3c 12bd 5f1e b53c 8005 1a39
00000020: a5e1 bb3c a022 06bc 4b69 2839 5a62 22bd
00000030: 1a61 9b3c 5e4a 0abd cbd8 25bd 0c76 91bb
00000040: ea4f cf3c 8000 09ba 046c ffbc 8da6 423d
00000050: f91c 86bc f6ad 323c cf17 aebc a85f 60bb
00000060: 0150 133d 148b d33b 796b 44bd 10ab 29bd
00000070: 573a 76bc 509c 3d3b 6d3e 1cbd b898 5abb
00000080: 613c df3c 6f94 6dbc 2918 51bd a400 edbc
00000090: c7d3 09bd 7863 66bc f00d 943a a9ba 2fbd
000000a0: db68 cb3c 38e4 10bd 9dd2 62bd 0071 0e3a
000000b0: b3dd 5bbc e64b 4ebc 80ce 8d3a b288 71bc
000000c0: 57c4 223d a084 f3bb a60e 31bd 1a88 1bbd
000000d0: f498 34bd e27d a0bc a812 efbb 08f9 5fbb
000000e0: ccbd 823c 8a65 393d 4056 073d b2e4 dc3c
000000f0: f57d 26bd 16f7 113d 2145 1c3d 51ec 3eba
00000100: 1a2c 963b 9dc2 1bbd 63c6 30bd 2dde 9a3e
00000110: a96d 093e bb92 1abd 6b8c d4bc 7fd0 093d
00000120: 2fe1 dd3c 5a40 bc3d 6904 0c3e e2e9 6fbd
00000130: dc0e 08be ef4d c53a 799b 8abd d1cb 3d3d
00000140: c01f 453d 5423 b6bc 6b55 a73d 6c83 063d
00000150: 05c0 89be 7d7a 483d 0e13 c73c acee 523d
00000160: 47e2 033d 5e2a 413b 6548 923c 9e95 b0bd
00000170: 3fb9 3cbe 6ea2 b23d d8eb a5bc 8915 0d3d
00000180: b595 68bc 64f3 49bd 5313 78bd 027a b2be
00000190: 6311 16be 2fe3 973c aa72 54bc 9976 e23c
000001a0: d6ec a3bc d7d0 533d 92c1 a63d ef55 50be
000001b0: 1099 11be aca5 263b 10c5 61bc 54b2 a63d
000001c0: 77d7 4e3d 23f9 643d 2510 69bd d336 9ebe
000001d0: 8031 443d e3a6 983d d221 b7bd ebe4 9d3c
000001e0: 990f 283d 584f 98bd c308 66bd 3b59 b13c
000001f0: 521b 6abd b089 9d3a 9975 6b3c cb48 e43d
00000200: 45f9 e9bc 1492 83bb 4a29 edbc d631 babb
00000210: 3f3d 01bc 8e87 02bc 314b d4bc bf82 b6bc
00000220: 87a1 f5bc 9125 9dbc efd0 65bb 52b9 8dbc
00000230: 396c b8b9 f147 8dbc 36a3 25ba 4e9b 9039
00000240: 139b b3bc 2d93 d6bc 4929 c7bc 23e1 90bc
00000250: 90f0 cdbc ef1d 9dbc 8b8b 99bc 04a8 7abc
00000260: 8658 93bb a6bd 97bc dbf5 6bbc 8e71 46bb
00000270: af2a ebbc 077e d4bc 1062 a2bc 4763 0abc
00000280: 8b87 47bb ce28 0abb 6106 fdbc 10ad 26bc
00000290: cd75 b9bc c3f6 0fbc a86f b5bb 6178 b3bc
000002a0: bba1 c4bc 8f0b a8bc 3db3 edbc 28b0 9abc
000002b0: fe62 28bb ebaf e6bc 288b 9abc ef1e ebbc
000002c0: 5034 b2bc d013 96bb 6e3d 03bc 8e05 71bc
000002d0: af7e 83b9 d91f 5ebc 1008 5abb 3b1c 73bc
000002e0: d9ae ffbb 13b2 78bb c948 adbb 8308 bdbc
000002f0: f3d5 e7bc b413 fbbc 9154 c1bc 2d47 0abc
00000300: 6a4a 143e c1d1 373e 7c50 383e 8673 3e3e
00000310: cb48 123e ce32 213d a3fd aebd 5762 a6bc
00000320: 151a a53d 5c64 02be 4e48 f4be 5db2 f33e
00000330: bb64 5d3f b6e4 67bd aaab 2cbe 29f1 ee3c
00000340: b29a a5bc 83d4 c73d 3f67 b3be 9bc0 703d
00000350: 1f93 0e3f fd1f 953d 67a5 c0bc 0df0 f53c
00000360: 6d67 80bc 3e6c b93d 97a5 f6bd 2530 fd3d
00000370: e9ea e53e b673 003e 0b79 953d 97ed 273d
00000380: e490 02be f696 edbd f4d7 a3bd 96eb b23e
00000390: a979 ce3e c9c3 583e 76b7 453d beb7 3f3d
000003a0: cbf6 8fbb 3632 2a3e 8a43 553e fb17 253e
000003b0: 8901 003e 3c17 973d 3578 dabd a82a 62bc
000003c0: 4d3b 23be 807d 3cbc 6daf d7bd b8b3 52be
000003d0: 48fa 5a3e 4984 92be 72ac 32be a502 c1bd
000003e0: 4722 fabd fc01 d43d c923 9abd 51e5 2fbe
000003f0: 5894 bfbd dfde cfbe 8d2a 9b3e c01b 5d3e

fc.bias f4 [10]
0.11278374 0.01785375 0.04710341 -0.10322267 0.0050790585 -0.07270645 0.014182407 -0.07280862
-0.049855955 -0.062124148
00000000: 29fb e63d 0742 923c 81ef 403d 6866 d3bd
00000010: 3b6e a63b 1fe7 94bd 545d 683c b01c 95bd
00000020: c235 4cbd e475 7ebd
