LAB 3/Results/CNN_L2_v2_lr005_sgd.ckpt (torch, 291639 bytes, 6 tensors)

conv1.weight f4 [48, 3, 5, 5]
-0.25748613 -0.29448828 -0.17619708 -0.18565501 -0.05573086 -0.10504571 -0.23895608 -0.08569523
-0.11622752 -0.15335001 0.100652665 0.04242242 -0.09682995 0.003383612 0.06514586 0.18062411
0.16668543 0.24309956 0.05473551 -0.01363921 0.17805128 0.19514689 0.22698921 0.21350935
0.20079307 -0.24194142 -0.28344217 -0.3073262 -0.09305603 -0.077190824 -0.16283269 -0.23156619
-0.17523623 -0.22938412 -0.02939769 0.034094516 -0.08922752 0.00042438408 -0.020114018 -0.014141816
0.2201062 0.21479872 0.16593985 0.24569674 0.11906486 0.06473083 0.34776938 0.3137061
0.25131565 0.08446481 -0.12685762 -0.24630065 -0.21799612 -0.16941231 -0.13958299 -0.08211188
-0.17319395 -0.16856347 -0.028454144 -0.13875507 0.035746016 -0.0118429465 -0.025835827 -0.02370868
-0.037951827 0.10471933 0.104183294 0.25164393 0.123488784 0.017247401 0.23376936 0.211574
0.27650148 0.20430194 0.106363475 -0.17374592 -0.1755677 -0.09654103 0.07085422 0.22671668
-0.13928665 -0.14571144 -0.096330285 -0.006093466 0.1408035 -0.166042 0.00911708 -0.10581643
0.111716844 0.2408605 -0.041030973 -0.12202493 -0.07655225 0.060416616 0.030807713 0.060788073
0.090122424 -0.05764072 0.13964558 0.15336293 -0.23564671 -0.104439475 -0.13280144 0.14518575
0.20355798 -0.26798436 -0.19537756 -0.0737255 0.037722927 0.22351398 -0.17242528 -0.18489148
0.07619735 0.22684838 0.26853696 -0.1135101 -0.035501964 0.10060175 0.23114726 0.19379622
-0.048436563 -0.05515983 0.11878708 0.09050107 0.033484407 -0.22444189 -0.08605899 0.046125855
-0.024554288 0.21292272 -0.22842363 0.0054340283 -0.03158383 0.022470523 0.083899066 -0.091486834
0.04779903 0.10492289 0.18964386 0.11928134 -0.032421656 -0.040171344 0.12149837 0.19968922
0.11214717 -0.07517939 0.0055591664 -0.05276208 0.030670974 0.07237363 -0.051686987 -0.047907807
-0.091580704 0.07168236 -0.04525485 -0.013175058 -0.023024663 0.014219121 -0.017069202 0.05992578
0.11259183 0.0645757 -0.099542744 0.04759206 -0.018314121 -0.04459267 -0.061676387 -0.0475646
-0.037837256 -0.0877418 -0.06680783 -0.03886748 -0.07643915 -0.035660833 -0.003731038 0.032119457
-0.10695777 -0.07744573 0.0659796 0.09902822 -0.051280323 0.061908223 0.068620086 0.11327903
-0.09312135 -0.044480547 0.10136982 -0.055374198 -0.070988156 -0.0897022 0.05476155 0.046429742
0.11346782 -0.0777779 -0.09197606 0.03959462 -0.04094347 -0.09969462 0.10383797 0.05871147
0.08625098 -0.06961955 0.033528443 -0.05014403 0.013822523 -0.05796139 0.0719109 -0.0031445934
0.029939609 -0.1108653 0.08287412 0.08937083 -0.048915148 -0.023887558 0.052855294 0.01560767
0.07229029 0.018158201 -0.016017005 -0.027499199 -0.016592957 0.09032226 -0.032770243 -0.108441755
-0.107806034 -0.007008999 -0.00064971705 0.0033613564 -0.11240438 -0.11420803 0.01199547 0.091163404
0.07049977 -0.02264795 0.032614887 0.061522003 -0.11148075 -0.0825186 0.08384095 -0.0060897474
-0.09527985 -0.08099001 0.0013658763 -0.10306463 0.07247956 0.049652018 0.005256434 0.014606315
-0.064029366 -0.07466305 -0.113539465 0.020699684 0.1002358 0.0333288 0.017741201 0.08938412
00000000: 39d5 83be 2bc7 96be 026d 34be 591c 3ebe
00000010: 0b46 64bd 3522 d7bd e7b0 74be fb80 afbd
00000020: b208 eebd c907 1dbe fc22 ce3d 22c3 2d3d
00000030: c84e c6bd 97bf 5d3b 316b 853d 87f5 383e
00000040: 96af 2a3e 17ef 783e 5832 603d fe76 5fbc
00000050: 1353 363e 96d4 473e dc6f 683e 32a2 5a3e
00000060: b39c 4d3e 7ebf 77be 551f 91be dc59 9dbe
00000070: 2994 bebd 3916 9ebd 9dbd 26be b01f 6dbe
00000080: 2071 33be ace3 6abe 6dd3 f0bc b1a6 0b3d
00000090: ebbc b6bd de7f de39 27c6 a4bc 13b3 67bc
000000a0: 8563 613e 32f4 5b3e 23ec 293e ed97 7b3e
000000b0: 47d8 f33d 9991 843d d40e b23e 169e a03e
000000c0: 72ac 803e e3fb ac3d f7e6 01be 3d36 7cbe
000000d0: 603a 5fbe 6c7a 2dbe d8ee 0ebe 462a a8bd
000000e0: c159 31be e79b 2cbe aa18 e9bc cf15 0ebe
000000f0: 6a6a 123d eb08 42bc a8a5 d3bc b538 c2bc
00000100: 6073 1bbd 1777 d63d 0d5e d53d 79d7 803e
00000110: b0e7 fc3d 6c4a 8d3c 3c61 6f3e dba6 583e
00000120: 9a91 8d3e 8734 513e 18d5 d93d 73ea 31be
00000130: 05c8 33be 4eb7 c5bd 041c 913d 6b28 683e
00000140: 29a1 0ebe 6135 15be d048 c5bd b3ab c7bb
00000150: cb2e 103e ea06 2abe ce5f 153c 49b6 d8bd
00000160: cdcb e43d 23a4 763e 1810 28bd 35e8 f9bd
00000170: 6dc7 9cbd 6a77 773d 7560 fc3c eafc 783d
00000180: 1b92 b83d ad18 6cbd 40ff 0e3e 2c0b 1d3e
00000190: 5f4d 71be 5de4 d5bd 1afd 07be 93ab 143e
000001a0: 8171 503e 3f35 89be 0e11 48be 65fd 96bd
000001b0: 5b83 1a3d d9e0 643e 4190 30be 3154 3dbe
000001c0: 5b0d 9c3d f14a 683e ad7d 893e fc77 e8bd
000001d0: 826a 11bd 4a08 ce3d deb1 6c3e 8472 463e
000001e0: 6b65 46bd 46ef 61bd a446 f33d a058 b93d
000001f0: f226 093d 18d4 65be b23f b0bd 77ee 3c3d
00000200: 1326 c9bc 6a08 5a3e e2e7 69be ef0f b23b
00000210: 0c5e 01bd 1a14 b83c 46d3 ab3d 735d bbbd
00000220: eac8 433d d0e1 d63d 0032 423e c649 f43d
00000230: 92cc 04bd b58a 24bd 23d4 f83d 557b 4c3e
00000240: 6aad e53d a7f7 99bd ab29 b63b 0d1d 58bd
00000250: b241 fb3c a038 943d bcb5 53bd fa3a 44bd
00000260: aa8e bbbd 33ce 923d 265d 39bd 33dc 57bc
00000270: 389e bcbc 51f7 683c b6d4 8bbc bc74 753d
00000280: 8c96 e63d 4440 843d 11dd cbbd e4ef 423d
00000290: 7f07 96bc cea6 36bd 61a0 7cbd 19d3 42bd
000002a0: 3dfb 1abd f9b1 b3bd 8bd2 88bd 8233 1fbd
000002b0: 218c 9cbd 1811 12bd 6e84 74bb b18f 033d
000002c0: ad0c dbbd de9b 9ebd 5020 873d 4fcf ca3d
000002d0: 510b 52bd 7a93 7d3d b088 8c3d d6fe e73d
000002e0: 68b6 bebd 3c31 36bd fb9a cf3d 0ed0 62bd
000002f0: 3d62 91bd c9b5 b7bd a64d 603d 1d2d 3e3d
00000300: d161 e83d 054a 9fbd f25d bcbd f82d 223d
00000310: 57b4 27bd b12c ccbd 00a9 d43d 707b 703d
00000320: 5ba4 b03d b294 8ebd 1f55 093d d463 4dbd
00000330: dd77 623c ec68 6dbd 0646 933d 8615 4ebb
00000340: e943 f53c 590d e3bd e8b9 a93d 0e08 b73d
00000350: 405b 48bd d7af c3bc cb7e 583d 50b7 7f3c
00000360: ee0c 943d 82c0 943c 1836 83bc 0046 e1bc
00000370: f4ed 87bc e1fa b83d 173a 06bd b616 debd
00000380: 69c9 dcbd bfab e5bb c651 2aba 344a 5c3b
00000390: 4534 e6bd e6e5 e9bd a688 443c e1b3 ba3d
000003a0: 2f62 903d 3288 b9bc 3097 053d 7ffe 7b3d
000003b0: 0550 e4bd 83ff a8bd ceb4 ab3d 818c c7bb
000003c0: 1522 c3bd 17de a5bd 3407 b33a 8c13 d3bd
000003d0: 2a70 943d ea5f 4b3d 2a3e ac3b 534f 6f3c
000003e0: d421 83bd f1e8 98bd 6187 e8bd 6292 a93c
000003f0: 6d48 cd3d c883 083d ff55 913c 060f b73d

conv1.bias f4 [48]
0.021117534 -0.016425056 -0.110051356 0.09612174 -0.063228115 -0.05413051 -0.07759364 0.07530302
0.053647056 0.109148994 -0.009417307 -0.12375644 -0.0019383287 0.06400793 -0.045902375 0.09211749
-0.022533389 0.08486903 -0.08628433 -0.18064472 0.1310268 0.023106277 0.11803154 -0.022785798
-0.07759683 0.001240864 -0.015665421 -0.05309097 -0.08574592 -0.020962581 0.02870614 0.074219815
-0.097618364 0.12564094 0.12429996 0.04619356 -0.031661488 0.110158324 -0.12568188 -0.088965744
0.07253803 0.113586046 0.11049509 -0.054645363 0.053319115 -0.025570815 -0.20093022 -0.05361374
00000000: aefe ac3c d78d 86bc 9b62 e1bd 7adb c43d
00000010: be7d 81bd f4b7 5dbd 6ae9 9ebd 7838 9a3d
00000020: 04bd 5b3d 8289 df3d 0c4b 1abc 0474 fdbd
00000030: 850f feba 9716 833d 2104 3cbd 18a8 bc3d
00000040: f197 b8bc d0cf ad3d d7b5 b0bd eefa 38be
00000050: e42b 063e 6049 bd3c 85ba f13d 48a9 babc
00000060: 16eb 9ebd 7da4 a23a c554 80bc eb75 59bd
00000070: 8f9b afbd b8b9 abbc 2429 eb3c 8f00 983d
00000080: 23ec c7bd 05a8 003e fa90 fe3d 7535 3d3d
00000090: 7aaf 01bd b09a e13d c0b2 00be ac33 b6bd
000000a0: d28e 943d cd9f e83d 404b e23d d1d3 5fbd
000000b0: 2565 5a3d e379 d1bc a7c0 4dbe 159a 5bbd

conv2.weight f4 [64, 48, 3, 3]
-0.015769217 -0.068099536 -0.04143816 -0.07049783 -0.10841786 -0.071788944 -0.05140479 -0.051403966
-0.024819642 0.09611193 0.06132554 -0.021028759 0.01189699 0.044083804 -0.05329983 0.06496457
0.074295625 -0.022092365 -0.041921247 0.008862485 -0.008689226 -0.009244087 0.008075779 -0.04743224
-0.030971572 0.024895018 0.0024444822 0.038698625 -0.0334821 0.0026933365 0.025351405 0.04601893
0.027724937 0.008218674 -0.008088915 0.0011742666 -0.05457349 -0.013889388 0.0063156304 0.037267767
0.034459114 0.011138183 0.0017243319 0.0032074628 0.05456944 -0.0005253381 0.006873924 -0.03067861
0.007674664 0.0324469 0.038613632 -0.02323491 -0.009100857 -0.027171794 0.035270106 -0.008837149
0.026696155 -0.041024227 0.030731214 -0.01883645 0.024208173 0.011643924 -0.008837504 -0.04072674
-0.0005727017 -0.0058312584 -0.049535844 0.0026675563 0.03730052 0.008970162 -0.05163258 0.08128009
-0.005241801 0.0048622168 0.046768438 0.030529095 -0.046475917 0.050379697 0.016316624 0.028838664
0.010235978 -0.043640256 -0.020382192 0.01812621 -0.044179626 -0.01034615 0.050557315 -0.06805208
-0.047090393 0.018546682 0.047534317 0.031311475 -0.0142633645 -0.017099058 -0.0048696464 -0.029165136
0.0023064797 0.07414224 -0.019297024 0.029769493 0.016232822 -0.06523133 0.050113868 0.015877746
-0.0064460966 0.058125053 0.04420457 0.017996661 0.015893465 0.01944258 -0.03992305 -0.049669288
-0.04847119 -0.026828108 0.0016156153 -0.019949565 -0.018084666 -0.023320824 0.006344615 0.026053714
-0.055837777 -0.028288515 0.023677155 -0.028972473 0.034140278 0.030628856 0.031940427 -0.014424078
-0.018396677 -0.037748292 0.03677936 0.010262216 -0.022240318 -0.01664766 0.024421182 -0.02560745
0.03879119 -0.051290486 0.04821289 -0.012803247 -0.060545057 0.044204637 -0.0069061085 -0.016166724
-0.024512734 0.043812737 0.032287948 -0.029778723 -0.0394745 -0.014737786 0.039965324 -0.004412104
0.039253093 -0.042797565 -0.021281803 -0.031845678 0.004883403 -0.059781972 -0.03135933 0.01808935
-0.04651763 -0.047900368 -0.049677163 -0.046263915 -0.028695019 -0.04888616 -0.03790326 0.010090011
-0.036546744 -0.034168877 0.020288533 0.00071527663 0.017329618 0.02128963 0.03290537 -0.013309089
0.00733006 0.045969546 0.07645379 0.050246783 -0.001247299 0.0050904523 -0.035265546 -0.004853384
-0.017914904 0.0017303918 -0.014290082 0.04074311 -0.040764827 0.038966715 -0.0028461176 0.012790006
0.007852456 0.0064761965 0.022612967 0.034465693 -0.013948639 0.03689509 -0.033700485 0.0006089951
0.051916644 -0.011639055 -0.015950957 -0.0065113734 -0.03648419 -0.05627832 -0.014734317 0.04041303
-0.017966412 0.009939648 0.026508171 0.04264711 0.02034423 0.03356081 0.002823014 0.0044739447
-0.09675689 0.0011230436 0.0005886689 -0.0073105195 0.055751853 0.033063278 -0.018265994 0.06913702
0.0076532722 -0.053118218 0.02644301 -0.005359015 -0.02433467 -0.024080588 -0.022203276 0.032421835
-0.041774478 0.033842687 -0.017614126 0.032178275 -0.036171127 0.031926196 0.0358875 0.041003745
0.037080884 -0.043234963 0.030201878 -0.06806242 -0.053948928 0.059987 -0.07343563 -0.022644171
0.02005616 -0.009434007 -0.02966282 0.08054835 -0.02248989 0.021405444 -0.020002928 -0.017154578
00000000: 722e 81bc c577 8bbd 0fbb 29bd 2b61 90bd
00000010: 2f0a debd 1506 93bd d48d 52bd f78c 52bd
00000020: 9052 cbbc 55d6 c43d 7d30 7b3d 8144 acbc
00000030: 98eb 423c 3891 343d ec50 5abd 250c 853d
00000040: 4e28 983d 0cfb b4bc 9db5 2bbd f533 113c
00000050: 415d 0ebc 8374 17bc 4650 043c 4f48 42bd
00000060: 18b8 fdbc a3f0 cb3c 9b33 203b 7382 1e3d
00000070: 8724 09bd b082 303b c0ad cf3c 587e 3c3d
00000080: 681f e33c 9ea7 063c 5e87 04bc d9e9 993a
00000090: 7488 5fbd 5190 63bc 59f3 ce3b 16a6 183d
000000a0: 0025 0d3d ed7c 363c fa02 e23a 4c34 523b
000000b0: 3584 5f3d d8b6 09ba a73e e13b b551 fbbc
000000c0: bf7b fb3b 0ae7 043d 5429 1e3d 2357 bebc
000000d0: c31b 15bc 6297 debc 6377 103d b0c9 10bc
000000e0: e5b1 da3c 0509 28bd 07c0 fb3c e64e 9abc
000000f0: 3850 c63c 28c6 3e3c 2ecb 10bc 15d1 26bd
00000100: 5c21 16ba 2414 bfbb 19e6 4abd 2bd2 2e3b
00000110: 6ec8 183d 96f7 123c af7c 53bd 2d76 a63d
00000120: 6ac3 abbb 3b53 9f3b 4390 3f3d 2718 fa3c
00000130: 885d 3ebd f15a 4e3d 71aa 853c 103f ec3c
00000140: ceb4 273c 20c0 32bd 8ef8 a6bc 6b7d 943c
00000150: b2f5 34bd e682 29bc 3015 4f3d e45e 8bbd
00000160: dbe1 40bd 36ef 973c 58b3 423d 7640 003d
00000170: e3b0 69bc 5313 8cbc 8e91 9fbb b9eb eebc
00000180: 4f28 173b e3d7 973d cb14 9ebc 27df f33c
00000190: b2fa 843c 0198 85bd 3344 4d3d 0c12 823c
000001a0: c739 d3bb 8914 6e3d da0f 353d bc6d 933c
000001b0: 0333 823c 0c46 9f3c 5a86 23bd 0672 4bbd
000001c0: ba89 46bd 9fc6 dbbc 0ec3 d33a 456d a3bc
000001d0: 4b26 94bc 500b bfbc 7de6 cf3b 996e d53c
000001e0: 27b6 64bd 51bd e7bc 98f6 c13c ae57 edbc
000001f0: add6 0b3d 5ee9 fa3c f7d3 023d f852 6cbc
00000200: a1b4 96bc f49d 1abd f4a5 163d db22 283c
00000210: 5431 b6bc ac60 88bc ee0e c83c b7c6 d1bc
00000220: 83e3 1e3d f915 52bd e17a 453d b6c4 51bc
00000230: 18fe 77bd ec0f 353d a34c e2bb 1470 84bc
00000240: eece c8bc fc74 333d 5e40 043d 82f2 f3bc
00000250: 03b0 21bd c176 71bc aeb2 233d 6993 90bb
00000260: dac7 203d 804c 2fbd 2d57 aebc 9d70 02bd
00000270: f404 a03b f1dd 74bd a472 00bd 1e30 943c
00000280: 4589 3ebd 2d33 44bd 487a 4bbd 3b7f 3dbd
00000290: d111 ebbc db3c 48bd 7340 1bbd 9350 253c
000002a0: 0ab2 15bd aaf4 0bbd 2334 a63c 6781 3b3a
000002b0: d8f6 8d3c 9767 ae3c c8c7 063d 5d0e 5abc
000002c0: 0031 f03b 904a 3c3d ce93 9c3d 92cf 4d3d
000002d0: 697c a3ba cfcd a63b 9b72 10bd 2309 9fbb
000002e0: 47c2 92bc 50ce e23a f320 6abc 3fe2 263d
000002f0: 05f9 26bd 909b 1f3d ee85 3abb 2c8d 513c
00000300: 96a7 003c 4636 d43b d43e b93c e62b 0d3d
00000310: d588 64bc 4e1f 173d 8509 0abd f8a4 1f3a
00000320: 8ca6 543d bcb1 3ebc 95ab 82bc 5c5d d5bb
00000330: 7270 15bd 1884 66bd 3468 71bc 2288 253d
00000340: 4c2e 93bc e8d9 223c aa27 d93c bcae 2e3d
00000350: f1a8 a63c 0f77 093d 5102 393b 2b9a 923b
00000360: 7a28 c6bd 1733 933a e750 1a3a 158d efbb
00000370: 0e5c 643d 5c6d 073d 91a2 95bc b697 8d3d
00000380: 4dc8 fa3b 7d92 59bd 039f d83c ad9a afbb
00000390: 8059 c7bc a744 c5bc a5e3 b5bc c2cc 043d
000003a0: b71b 2bbd a19e 0a3d 804b 90bc 5ecd 033d
000003b0: 2d28 14bd 0bc5 023d c5fe 123d 8bf3 273d
000003c0: 20e2 173d 2517 31bd ee69 f73c 4f64 8bbd
000003d0: 8df9 5cbd eeb4 753d 6b65 96bd 4580 b9bc
000003e0: d14c a43c 1891 1abc 71ff f2bc 89f6 a43d
000003f0: b83c b8bc 785a af3c 2edd a3bc c287 8cbc

conv2.bias f4 [64]
-0.052863922 -0.025501283 0.0056401477 0.08410417 -0.026696708 -0.0034892804 0.0548222 -0.04916042
-0.027278252 0.057368178 -0.047236323 0.029548794 0.031678252 -0.031439137 0.06368561 0.01861586
0.04772825 -0.0579783 -0.012200743 -0.028290018 -0.010024373 0.018706316 -0.07180212 -0.032815453
-0.033340465 -0.017563878 0.029060183 -0.027853817 0.0058101937 -0.07793741 -0.023140531 -0.04888883
0.028478613 -0.029704072 0.024102293 0.025144856 -0.054323412 0.024106266 -0.047452077 0.040616993
-0.038289044 -0.027340448 -0.032682154 0.016088419 -0.06110436 0.025341827 -0.0032111797 0.030956859
0.06383385 -0.0021093306 -0.01977333 -0.030208072 -0.011586094 -0.015066477 0.04428701 -0.08980548
0.039989304 0.010030757 -0.062897 -0.0019345791 0.014716765 0.031896688 -0.00039430257 -0.042489864
00000000: d787 58bd 11e8 d0bc fdd0 b83b cf3e ac3d
00000010: 0eb3 dabc 69ac 64bb 3e8d 603d 705c 49bd
00000020: a476 dfbc e5fa 6a3d e07a 41bd 5010 f23c
00000030: 0ec1 013d 53c6 00bd 9a6d 823d 4a80 983c
00000040: b37e 433d a77a 6dbd a0e5 47bc 78c0 e7bc
00000050: 453d 24bc fd3d 993c fd0c 93bd 7f69 06bd
00000060: 0390 08bd 1fe2 8fbc 9f0f ee3c b02d e4bc
00000070: 7063 be3b a69d 9fbd 3691 bdbc a73f 48bd
00000080: fb4b e93c f455 f3bc 2c72 c53c 96fc cd3c
00000090: 3a82 5ebd 817a c53c 1c5d 42bd 015e 263d
000000a0: f9d4 1cbd 13f9 dfbc b9dd 05bd dccb 833c
000000b0: 9148 7abd aa99 cf3c a872 52bb 3d99 fd3c
000000c0: 52bb 823d b23c 0abb aefb a1bc eb76 f7bc
000000d0: 9ad3 3dbc 62d9 76bc 4c66 353d efeb b7bd
000000e0: d3cb 233d 0b58 243c 24d0 80bd b491 fdba
000000f0: 961e 713c 1aa6 023d 65ba ceb9 da09 2ebd

fc.weight f4 [10, 4096]
-0.027744876 0.006244991 0.0041434127 0.025700964 0.019800283 -0.04393735 -0.037090912 -0.021935588
-0.029196601 -0.018051257 -0.060146954 0.06041542 0.06758782 -0.090771414 -0.039485957 -0.017892588
-0.025125744 -0.013357992 -0.052088447 0.0005240561 0.08336487 -0.060585525 -0.021014132 -0.0304368
-0.017922213 0.004339059 -0.01655937 0.033591747 0.09728966 -0.036704395 -0.019226534 -0.015308788
-0.014506604 -0.00040664012 -0.021144833 0.05933077 0.09136914 -0.054506227 -0.0045129037 -0.034005724
-0.00692588 0.016359756 -0.015936404 0.08354696 0.07227701 -0.049876124 -0.022500157 -0.026985856
-0.0077920565 0.016359372 0.0027160565 0.10600596 0.07433194 -0.038757853 -0.012393261 -0.02090041
0.0008725817 0.008032274 0.053342886 0.103316635 0.042258274 -0.02881174 -0.043656927 -0.033000223
0.0012317963 0.016878076 -0.018480228 -0.015466259 0.033361297 0.018365627 -0.013469716 0.012226364
-0.019787101 0.0070709786 -0.012946733 0.013979776 0.0537152 0.0780063 0.040971663 0.025924604
0.00012235959 0.00014980491 -0.0024224583 -0.002241353 0.0224299 0.06705134 0.037856136 0.02983556
-0.016468901 -0.0076864497 -0.017571457 -0.037327215 -0.0199619 0.030524794 0.011138382 0.010661519
-0.008790886 -0.0074338056 0.00023499723 -0.006556506 -0.008520524 0.030599667 0.019664686 0.011413368
-0.006802721 0.024178399 0.05205824 0.049655337 -0.03680533 -0.020548295 0.004839559 0.016147895
0.00024121455 0.008182068 0.06093628 0.06117073 -0.07206087 -0.035769776 0.0044224644 0.006400232
-0.0084356945 0.016644781 0.03315863 0.012302822 -0.052812908 -0.036029596 0.005224798 -0.0047046305
-0.00731087 -0.01265564 0.016331097 -0.0048782183 0.008444483 0.006253532 -0.0068578394 -0.010627949
-0.0049970634 -0.0062043923 0.014133163 -0.013611974 -0.012186341 0.0029392247 0.0019573614 -0.0048362473
-0.003150904 0.0103237 0.009004168 0.0008432055 0.0006048397 -0.0063038515 -0.006780059 -0.004659624
-0.002472817 0.00034983177 -0.009668995 -0.00012536216 -0.008509388 0.014124789 -0.009346839 0.0017364909
-0.004976304 0.0073159714 -0.009405868 -0.0015281874 0.013816701 0.009748657 0.0064347037 0.008396011
0.004389209 0.013520929 -0.007692685 0.009183521 -0.0062030945 0.0005568824 0.0014995199 0.0065122168
0.015298329 0.017962568 -0.0036618225 0.0120696295 -0.0063268454 -0.013718166 -0.0016117163 -0.012531386
0.017563105 -0.004031628 0.0027266725 -0.00094523194 0.0017387223 -0.010544592 -0.0054239826 0.0035316672
0.0194008 0.0049793334 0.013249706 0.017933862 0.01753556 -0.0009919686 0.009272672 0.025587687
-0.006273319 0.0091677755 -0.02177099 0.013756036 0.03565883 -0.0038907216 0.0055311904 0.032474294
0.021156864 -0.012396865 -0.0032943445 -0.013244118 0.015572821 0.016677309 0.02330924 0.031212233
0.0019855509 0.00074851664 -0.007276656 -0.031588376 0.0054775886 -0.013917067 0.021340575 0.011742823
0.018510574 0.0046241395 -0.030347586 -0.030659435 -0.0061981906 -0.01355259 0.0060950993 0.0048514134
-0.0027842463 -0.0050729257 -0.020542782 -0.06380989 0.006251522 0.0124170985 0.005921809 0.011227437
-0.0039015403 0.0031287926 -0.018577961 -0.03340973 -0.0013518153 0.015675645 0.019685926 0.036212735
0.015266256 0.013563046 0.028793614 0.047079585 0.014595849 0.015558494 -0.00018619052 0.0033888037
00000000: 3949 e3bc c8a2 cc3b 77c5 873b d48a d23c
00000010: 3434 a23c a7f7 33bd a4ec 17bd 43b2 b3bc
00000020: b62d efbc 3be0 93bc a75c 76bd 2976 773d
00000030: 7c6b 8a3d 5de6 b9bd 07bc 21bd 7a93 92bc
00000040: 81d4 cdbc 7bdb 5abc b25a 55bd cf60 093a
00000050: 33bb aa3d 8728 78bd d425 acbc 9956 f9bc
00000060: 9bd1 92bc aa2e 8e3b 84a7 87bc 8097 093d
00000070: cd3f c73d 5957 16bd f780 9dbc b6d1 7abc
00000080: 1bad 6dbc 5032 d5b9 ee37 adbc d204 733d
00000090: be1f bb3d ec41 5fbd fbe0 93bb 9649 0bbd
000000a0: 7ef2 e2bb e504 863c 108d 82bc ab1a ab3d
000000b0: f805 943d e84a 4cbd 4052 b8bc 7111 ddbc
000000c0: 8254 ffbb 1704 863c deff 313b a719 d93d
000000d0: 583b 983d 8ec0 1ebd 1b0d 4bbc 5637 abbc
000000e0: f7bd 643a cd99 033c 127e 5a3d ac97 d33d
000000f0: 0317 2d3d 9906 ecbc 9bd1 32bd 3e2b 07bd
00000100: 3a74 a13a e443 8a3c d963 97bc 3166 7dbc
00000110: dba5 083d 8373 963c 15b0 5cbc 1651 483c
00000120: 8f18 a2bc abb3 e73b 891e 54bc 6e0b 653c
00000130: 7804 5c3d c4c1 9f3d e7d1 273d d65f d43c
00000140: a74d 0039 f314 1d39 1bc2 1ebb aae3 12bb
00000150: e9be b73c 3752 893d 090f 1b3d b469 f43c
00000160: cae9 86bc 9dde fbbb 04f2 8fbc 6ce4 18bd
00000170: 2387 a3bc 220f fa3c c37d 363c a7ad 2e3c
00000180: a607 10bc 4897 f3bb 9769 7639 f5d7 d6bb
00000190: ab99 0bbc 27ac fa3c d617 a13c 23ff 3a3c
000001a0: 5ce9 debb c711 c63c 053b 553d 6563 4b3d
000001b0: 30c1 16bd e654 a8bc 2a95 9e3b 9748 843c
000001c0: 8aee 7c39 150e 063c 5298 793d 298e 7a3d
000001d0: a694 93bd 5483 12bd 52ea 903b 0ab9 d13b
000001e0: de35 0abc a35a 883c 58d1 073d c791 493c
000001f0: 5952 58bd c593 13bd c834 ab3b 4d29 9abb
00000200: 0690 efbb 9a59 4fbc cbc8 853c 76d9 9fbb
00000210: bb5a 0a3c 6eea cc3b bab7 e0bb d920 2ebc
00000220: 68be a3bb 374e cbbb c88e 673c c204 5fbc
00000230: 38a9 47bc 02a0 403b 1347 003b 6279 9ebb
00000240: 667f 4ebb bc24 293c 3886 133c 900a 5d3a
00000250: 1b8e 1e3a 8a90 cebb 422b debb c2af 98bb
00000260: fc0e 22bb a069 b739 b46a 1ebc a673 03b9
00000270: f66a 0bbc a96b 673c 7c23 19bc f79a e33a
00000280: 4310 a3bb d1ba ef3b 121b 1abc 764d c8ba
00000290: 725f 623c d5b8 1f3c 35da d23b 6c8f 093c
000002a0: 5bd3 8f3b e386 5d3c eb12 fcbb 7b76 163c
000002b0: 5443 cbbb bffb 113a 8a8b c43a 6f64 d53b
000002c0: d8a5 7a3c 3c26 933c 30fb 6fbb b2bf 453c
000002d0: 6d51 cfbb 29c2 60bc 3a40 d3ba 7150 4dbc
000002e0: 80e0 8f3c bf1b 84bb f9b1 323b 71c9 77ba
000002f0: d7e5 e33a 39c3 2cbc aabb b1bb 8b73 673b
00000300: 6dee 9e3c ad29 a33b 4b15 593c 09ea 923c
00000310: bca6 8f3c f104 82ba 68ec 173c 459d d13c
00000320: 6a90 cdbb 7034 163c 1359 b2bc ff60 613c
00000330: fe0e 123d 7afb 7ebb fd3e b53b c403 053d
00000340: 2951 ad3c 381c 4bbc eee5 57bb dbfd 58bc
00000350: 2525 7f3c da9e 883c 05f3 be3c ccb0 ff3c
00000360: 0420 023b 1a38 443a 0471 eebb d062 01bd
00000370: 587d b33b 6904 64bc 6ed2 ae3c f864 403c
00000380: 7da3 973c 1886 973b 809b f8bc 7f29 fbbc
00000390: 311a cbbb af0b 5ebc 66b9 c73b 9bf8 9e3b
000003a0: e777 36bb c93a a6bb 5649 a8bc c2ae 82bd
000003b0: 91d9 cc3b 1671 4b3c bc0b c23b 49f3 373c
000003c0: fcb0 7fbb 6e0c 4d3b cf30 98bc a4d8 08bd
000003d0: 652f b1ba 366a 803c 6144 a13c ce53 143d
000003e0: 521f 7a3c 8a37 5e3c 96e0 eb3c 86d6 403d
000003f0: 6e23 6f3c 0ee9 7e3c 233c 43b9 b116 5e3b

fc.bias f4 [10]
0.149437 0.065586254 0.002399304 0.015350148 0.004381763 -0.036662888 -0.016337669 -0.092560716
-0.05188255 -0.04747375
00000000: 0306 193e 1652 863d a43d 1d3b 307f 7b3c
00000010: e494 8f3b d32b 16bd 93d6 85bc 7990 bdbd
00000020: cc82 54bd d673 42bd
