LAB 3/Results/CNN_L3_lr001_adam.ckpt (torch, 748339 bytes, 8 tensors)

conv1.weight f4 [48, 3, 5, 5]
000000 61 01 ef bd 50 8f 1d bd e6 15 76 bc ef 9b b3 3c
       -0.11670185 -0.03846675 -0.015019869 0.02192494
000010 2a 4e 0b be 61 7e 4c bd 02 79 1d bd ec 28 06 be
       -0.13604036 -0.04992521 -0.03844548 -0.13101548
000020 d9 87 c8 bc 8b 37 01 bd 3a 8f 9c 3d cc f1 5d 3d
       -0.02447884 -0.03154711 0.07644506 0.054185674
000030 07 c2 84 3d b9 34 09 bd 05 6f 15 bd 6d bb 15 3d
       0.0648232 -0.033497546 -0.03648283 0.036555696
000040 6e 7f 9e bd 50 7c bc 3d e2 62 af 3d 3d 7d e9 bb
       -0.07739149 0.09203398 0.08563782 -0.0071255253
000050 2d aa 4f 3d 6b f2 9d 3d 4c b6 f2 3d c1 d6 e3 3d
       0.0506994 0.07712253 0.118511766 0.111249454
000060 5a 1f 06 3e 11 5b 05 be 3e 92 03 be 71 74 95 bd
       0.13097897 -0.1302302 -0.12848756 -0.072976
000070 d4 a7 12 be 8e 77 ac 3d c8 0b 37 bd b9 20 34 bd
       -0.14321834 0.08421241 -0.04468897 -0.04397652
000080 93 af 03 be e2 2c 2c 3b 42 61 9d bb c3 1c 7b 3d
       -0.12859945 0.002627187 -0.004802854 0.061306726
000090 d2 6f 27 3d 94 13 49 bd e8 79 56 bd bf d3 cc bc
       0.040878125 -0.049090937 -0.052362353 -0.025003312
0000a0 29 70 87 bd 58 ab 81 bc d0 cb 95 bc c4 6d 69 3d
       -0.0661319 -0.015828773 -0.018285662 0.056989446
0000b0 24 e0 6c bd c7 53 ab 3c fd 1e 20 3e 27 75 f8 3d
       -0.057830945 0.020913972 0.15636821 0.1213172
0000c0 fb b7 fb bc 6b 17 f8 3d f8 4a 08 bd 49 64 ad bd
       -0.030727377 0.121138416 -0.03327462 -0.084663935
0000d0 0a 8f 1b bb ab 1d cb bd 77 6d 23 3d 05 83 14 bd
       -0.002373638 -0.09917768 0.039899316 -0.036257762
0000e0 c1 9e ae bc f9 db c4 3c e2 cd be bd d3 9a f2 bd
       -0.021315934 0.024030672 -0.09316613 -0.118459366
0000f0 45 29 9e 3d d4 d5 01 bc 75 6a e5 3d 87 a3 be bb
       0.07722715 -0.007924516 0.11201946 -0.005817834
000100 68 e2 f2 3c de a7 8f bd 33 8f 56 3d 57 3b 46 3d
       0.029648975 -0.0701444 0.05238266 0.048396435
000110 67 11 91 3d 54 b0 9f 3b 4a fe bd 3d 81 9d ff 3d
       0.07083397 0.004873315 0.092770174 0.12481213
000120 a5 59 25 3d e6 77 52 bd f1 a1 7d 3d 8e 67 b0 bc
       0.040368695 -0.051383875 0.061922017 -0.021533754
000130 f5 fa d2 bd 68 24 a1 39 d6 6c e1 bc 08 d4 db 3b
       -0.103017725 0.00030735438 -0.027517717 0.0067086257
000140 41 fc 02 be 70 54 49 bd 1a e1 a8 3d 4b 28 fd 3c
       -0.1279154 -0.04915279 0.0824606 0.030903002
000150 bc fd a3 bd f7 7c b1 bd 71 78 a0 bd 14 53 cc 3d
       -0.0800738 -0.08666413 -0.078354724 0.099767834
000160 ae 7d 48 3d 64 93 b1 3d 07 34 2f bd 95 b4 4b 3d
       0.048947982 0.08670691 -0.042774227 0.049732763
000170 df 3a 4d 3d a8 ec f6 3d af bd 3c 3c 54 cf d5 bd
       0.050104972 0.12056857 0.0115198335 -0.10439935
000180 e8 f1 d9 bd 4d b8 ed bd 0a ec 41 bd cc 56 de bc
       -0.10641843 -0.11607418 -0.047344245 -0.027140997
000190 0e d8 14 3d 39 6e 64 3d e4 ad d0 bd 62 92 ad bd
       0.03633886 0.05576918 -0.10189417 -0.08475186
0001a0 6d 64 3e 3d d3 20 1c bd 3f fa ad 3a e3 5a f8 3d
       0.046482492 -0.03811724 0.0013273432 0.1212671
0001b0 cb b2 e5 3d 9f 72 03 be e1 6e 86 3d f3 37 da 3c
       0.11215743 -0.12836693 0.06564117 0.026638007
0001c0 75 2f 94 3d dd 8a f9 3c 35 56 3f 3d 92 4c 62 3c
       0.07235614 0.030461723 0.046713073 0.013812201
0001d0 76 ff a6 bd 93 29 a8 3d 4c 36 a1 3d 57 a1 6c 3d
       -0.08154194 0.08211055 0.078716844 0.057771053
0001e0 a9 d2 34 bc 7e 79 57 3d 73 31 5b 3c e0 68 f3 3c
       -0.011036553 0.0526061 0.013378489 0.029713094
0001f0 72 ff fd bd 4f e2 09 be 87 65 19 3c 3b b7 c8 3d
       -0.12402238 -0.13465236 0.009362585 0.098005734
000200 13 23 b4 3d 02 21 c5 3c 1a 46 fa 3b e0 b1 3e 3c
       0.087957524 0.02406359 0.0076377513 0.011639088
000210 94 dd 5d 3d e8 d7 1c 3d 32 4b f5 bd 49 64 c7 bd
       0.05416639 0.03829184 -0.11977233 -0.09735925
000220 cb b8 04 3d de 4a 81 3d f3 f6 42 bd 22 51 07 3d
       0.032402795 0.06313108 -0.04759879 0.03303636
000230 05 2a 4e 3d 34 d4 00 3d 59 8a 94 3d 28 a2 43 3c
       0.05033304 0.031452373 0.0725295 0.0119405165
000240 49 7c 7b bd f8 0a f6 bd 3e 4f 9a bd f3 a5 a0 bd
       -0.061397824 -0.12013811 -0.075346455 -0.07844152
000250 4c 69 02 3c 84 5a 63 3d cb 2d 8d 3d 20 58 01 3d
       0.007959675 0.055506244 0.068935 0.031578183
000260 c0 45 5b 3d a7 d2 f4 bd 96 5d f1 bd cc ec ae 3d
       0.053533316 -0.11954241 -0.11785428 0.08541259
000270 fa cb 99 3c c2 d0 a7 bc eb da ac 3b cd 8b 83 bd
       0.018774021 -0.020485286 0.0052751205 -0.06423149
000280 62 01 cb 3d 22 be a2 3d bf 42 ca bd 80 38 b7 bd
       0.09912373 0.07946421 -0.09876012 -0.089463234
000290 87 66 98 3d b8 5f d0 3c 97 e5 32 bb 5a d8 96 bd
       0.074414305 0.025436267 -0.002729749 -0.073654845
0002a0 fc b6 be 3d 8f e0 1a 3c c1 f5 73 bd 1f aa 58 3d
       0.09312245 0.009452953 -0.05956054 0.052896615
0002b0 3b 47 bf bd 1c 93 f5 bd 70 de cc 3c 83 41 c3 3d
       -0.09339758 -0.119909495 0.02500841 0.0953398
0002c0 84 ba f8 bd 09 5e 93 3d 06 b4 a2 bc 1c 57 c9 3d
       -0.1214495 0.0719567 -0.019861232 0.09831068
0002d0 6f 75 9d bc 98 19 a6 3d 3a 16 ae bd d9 1b 98 bd
       -0.019221036 0.0811035 -0.08500333 -0.074271865
0002e0 ee af e0 bd ab ac bd ba 9c e8 d7 bd 0a 47 79 3d
       -0.10971056 -0.0014471015 -0.105424136 0.060858764
0002f0 97 56 9c bc df 86 ab bd a0 52 ad bc 9a c8 f5 3b
       -0.019084258 -0.08375334 -0.021157563 0.00750072
000300 5e c4 1a bd b1 b8 94 bd 1e ba 74 bd 22 86 ee bc
       -0.037784927 -0.072617896 -0.059747808 -0.029116694
000310 92 cc 78 bd e9 1c d1 3c 00 17 af bc 0e 80 de bd
       -0.06074197 0.02552648 -0.021373272 -0.10864268
000320 04 e8 ec bd 97 71 2f 3d bd cb 03 bd ce d2 6b 3d
       -0.11567691 0.042832937 -0.03217672 0.057574086
000330 39 fd 8c 3d d2 59 c8 bd 90 c6 35 bd a0 89 b1 3c
       0.06884236 -0.09782757 -0.044378817 0.02167207
000340 78 e0 85 bd ae ca 13 bd 39 b1 bd bc b8 2c dc bc
       -0.06536955 -0.036081962 -0.023155795 -0.026876792
000350 7a cb e9 bd 41 9b 30 bd fb 69 94 3d be 9d d3 3c
       -0.11415763 -0.04311681 0.07246777 0.025832053
000360 2b 78 5c 3d bb 7d f3 bd 84 e7 e9 bd 0c 03 e2 bd
       0.05382554 -0.118892156 -0.11421111 -0.110357374
000370 cd d8 59 3c 14 c3 a8 3d 13 ca c1 3b 55 20 07 bd
       0.013296318 0.08240333 0.0059139817 -0.03298982
000380 e6 ca e1 3c a5 8b 08 3e e1 30 83 bc 02 3b 96 bc
       0.02756257 0.1333452 -0.016014518 -0.018338684
000390 14 84 12 39 b9 14 c7 3c 34 10 94 3d f8 63 c0 3d
       0.00013972848 0.024301874 0.07229653 0.093940675
0003a0 c9 b0 2b 3d 70 a0 03 be 00 99 de 3b e1 55 fd 3d
       0.041916642 -0.12854171 0.0067931414 0.12369896
0003b0 63 70 09 3e 78 56 87 bd 7b d7 e8 bd 9a 77 8f 3c
       0.13421778 -0.066082895 -0.11369225 0.017513085
0003c0 97 83 06 bd 77 b6 4c 3d 7a 81 14 be 8a 1d 10 be
       -0.032840338 0.0499787 -0.14502516 -0.14073768
0003d0 f4 1d fc 3d e6 22 04 3d 97 6e 07 be b0 92 41 bd
       0.123104006 0.032259844 -0.1322578 -0.047259033
0003e0 9d b5 d1 bd a3 f0 04 3e 17 30 b6 3c 85 bf 3a 3b
       -0.10239718 0.1298242 0.022239728 0.0028495502
0003f0 b0 98 11 be cc 96 94 bc 0a 3e b1 3d 79 c4 13 3e
       -0.14218402 -0.018138312 0.08654411 0.14430417

conv1.bias f4 [48]
000000 b3 60 f2 bb 24 1a b7 3d 2e ce ed bd 77 6d fe bc
       -0.0073967814 0.08940533 -0.11611591 -0.031058056
000010 e0 68 bf bc 55 f9 5e bd ba f1 9d 3d 06 49 1d 3e
       -0.023365438 -0.054437 0.07712121 0.15359887
000020 16 a6 36 bd cb a7 12 3e 17 48 14 be 42 20 d1 bc
       -0.044591986 0.1432182 -0.14480625 -0.025528077
000030 0f 42 00 3c 08 9c 60 3d 9c 12 b4 bd 68 7d 25 bd
       0.00782825 0.054836303 -0.08792612 -0.0404028
000040 65 e2 f5 bb e9 45 b5 3d ee 2f fb 3c f0 8e 83 3d
       -0.007503795 0.08851225 0.030662503 0.064237475
000050 9b b7 13 3e df 6e a3 3d c5 70 05 bd c3 00 d9 3d
       0.14425509 0.07980131 -0.03257825 0.105958484
000060 41 55 ce 3d d1 fe 4d bd 44 b0 e4 3b 0a 83 b4 3d
       0.10074855 -0.05029184 0.0069790203 0.08814056
000070 df 1b 0b 3e bc d0 86 bd b9 e7 2c 3e 7f 33 aa 3d
       0.1358485 -0.06582782 0.1688527 0.08310603
000080 c0 20 f9 3c 37 6b 6e bb 76 20 20 3d 20 e9 6f 3d
       0.030411124 -0.0036379823 0.039093457 0.058571935
000090 bf f0 52 3c 5d 24 01 be 36 b2 40 3d a4 68 1f bd
       0.012874781 -0.12611528 0.047044955 -0.038918152
0000a0 71 d4 5b bc 8a 67 da 3d 6e ba e5 3d 42 ae 92 bd
       -0.013417349 0.1066428 0.11217199 -0.07162143
0000b0 cc fd 2a 3d e0 e1 b7 3d bb ce 4d 3d 3b dd b5 3d
       0.041745946 0.08978629 0.05024598 0.08880087

conv2.weight f4 [64, 48, 5, 5]
000000 13 6c b2 bd 3f 1e a5 bd 62 e9 b4 bd b4 f1 f4 bd
       -0.0871202 -0.080624096 -0.08833577 -0.11960164
000010 b5 d0 1b bd ff 2c e8 bc f3 b5 34 bd f4 f1 b0 bd
       -0.038040835 -0.028341768 -0.044118833 -0.08639899
000020 d2 f4 ea bb 57 c1 cf 3c f3 ad 1b be e0 5a 2d be
       -0.007170298 0.025360746 -0.15203075 -0.16929197
000030 d0 b3 ef bd 9c 06 1f bd be 49 30 bd cb 6e ee bd
       -0.117042184 -0.038824663 -0.043039076 -0.11642226
000040 d4 60 e5 bd c6 fa 56 bd fe f2 8c 3c fd 67 aa 3b
       -0.11200109 -0.05248525 0.017205711 0.0052003847
000050 2f 1a ed bd c1 2e 86 bd a0 85 f7 3c 6f c4 9e 3d
       -0.1157726 -0.06551886 0.030215085 0.077523105
000060 78 b7 94 3d aa 5b da 38 76 ea 1e 3d f5 39 95 bd
       0.072615564 0.00010412124 0.038797818 -0.07286445
000070 c3 d2 9b 3c 75 ac 9f 3c df ee 83 bc c0 91 33 3c
       0.019021397 0.019491414 -0.016105114 0.0109600425
000080 48 43 72 bc f7 f1 47 3d ee 2b 77 3c 6c 3c 0b bd
       -0.014786549 0.04881474 0.015086157 -0.03399317
000090 62 34 b1 3b 14 bd 3f bd c3 07 d1 3b f3 da d9 bc
       0.005407856 -0.04681118 0.006379099 -0.026593661
0000a0 1f 0f 4e 3d c2 fa 1f ba f8 04 db 3c 81 e5 89 3d
       0.05030739 -0.00061027345 0.026735768 0.067332275
0000b0 44 00 00 3c 98 e2 5f bc e9 de 10 bb d4 63 f3 3c
       0.007812563 -0.013664864 -0.002210552 0.029710688
0000c0 76 45 d7 3c da 03 83 bc 7e fe ce 3c 29 8a c5 3b
       0.026278239 -0.015993048 0.025267836 0.006028433
0000d0 f3 85 17 3c 00 83 ca bc 6f 03 02 ba 74 30 ac bb
       0.009248245 -0.024720669 -0.0004959618 -0.0052547995
0000e0 a6 84 fa bc 95 23 c7 bc b5 ca b7 3b 52 32 fd bc
       -0.03058083 -0.024308959 0.0056088814 -0.030907784
0000f0 77 71 27 bb ac f8 91 bc 63 eb e0 3b cc 3a 97 bc
       -0.0025549808 -0.017818771 0.006863998 -0.018460654
000100 3a ae 1a 3c ca 6d 7f 3a 4a b8 97 bc ba 1f 04 ba
       0.009440953 0.0009743838 -0.018520493 -0.0005040128
000110 a3 d1 b4 bc bb ce fd 3b d1 16 84 bc 24 ae be bc
       -0.022072619 0.0077455915 -0.016124161 -0.023276396
000120 fb e6 f3 3b 98 e0 c1 bb 19 0f 07 3c 41 62 72 bc
       0.0074433065 -0.0059166662 0.008243346 -0.014793933
000130 d2 85 1f 3c da 40 c6 3d 1b c3 88 bd 33 8c 55 bd
       0.009736495 0.09680338 -0.066778384 -0.052135658
000140 99 c6 d7 bc 35 1e 85 ba 19 23 ab 3d 1f 38 d3 bd
       -0.026339816 -0.0010156097 0.08356304 -0.103134386
000150 67 a9 11 3d 83 6e 92 bc 52 4a 9f 3c db 7c 7c 3d
       0.035561945 -0.017874962 0.019444618 0.06164251
000160 74 c7 e4 bd c4 2e 0c 3d 08 68 fd bb be 59 66 3d
       -0.11170855 0.034224287 -0.0077333488 0.05623793
000170 c9 67 e8 3b e0 0e 47 bd 55 51 c1 3d 41 be cc bc
       0.0070924503 -0.04859817 0.09439341 -0.024993064
000180 32 21 bf bc 4e a1 c1 bc 02 6f 8f bd ac 29 81 3d
       -0.023331258 -0.023636486 -0.07003595 0.063067764
000190 06 44 83 bd 41 d9 a3 3d 3b 2f f1 bc 7b 56 94 3d
       -0.06409459 0.08000422 -0.029441467 0.07243057
0001a0 49 80 c0 3d 56 84 d8 bc d1 b4 02 3e af 1e 30 3b
       0.093994685 -0.02643029 0.12764288 0.0026873758
0001b0 cc 91 b8 3d 6b 54 52 3d ef 10 71 bd 21 d3 90 3d
       0.090121835 0.05135004 -0.05885404 0.0707152
0001c0 31 39 00 bd 23 29 88 bc be f1 2b bc 1c 1e 20 bc
       -0.031304542 -0.016621178 -0.010494648 -0.009772804
0001d0 91 74 0c 3d d2 01 f3 3d 26 b9 1c 3e 13 8a d7 3d
       0.034290854 0.118655816 0.15305004 0.105243824
0001e0 81 73 11 bd 15 da d2 bd e5 ba fa 3c b9 e4 b6 3d
       -0.035510544 -0.10295502 0.030606696 0.08930344
0001f0 52 37 45 3d bb 22 37 3b 5f ff 38 3c 54 01 20 bb
       0.04814846 0.0027944285 0.011291354 -0.0024414854
000200 6e a4 c8 bc 01 ec 1e bc 63 a1 36 bc 84 53 08 bc
       -0.024492469 -0.009699822 -0.011146876 -0.008320693
000210 db 86 8f 3c 54 b2 ce bc 88 55 60 bc 4e 3e c7 3c
       0.017520359 -0.025231518 -0.013692267 0.024321701
000220 50 f7 2b 3c 79 45 f8 3c 73 ee 8a bc 0e a9 a4 bb
       0.010495976 0.030306565 -0.016959405 -0.0050250357
000230 02 25 e1 ba de 63 68 bc bd b1 d4 bc 5c 3e bd 3c
       -0.0017177167 -0.014183966 -0.025963658 0.023101024
000240 93 fd f7 bb 42 92 86 3c c1 95 54 bc d9 0c 16 3c
       -0.00756807 0.016427163 -0.012975157 0.009158337
000250 96 2b 2f 3c 76 17 2d bc a6 57 92 bb 5e 84 14 bd
       0.010691544 -0.010564676 -0.004466015 -0.036259048
000260 ab bf 0c be 8c 57 8a 3d 8d a4 53 3d b1 d0 b4 bc
       -0.1374499 0.067549795 0.0516706 -0.022072168
000270 44 c3 24 bc 77 3e 00 be dc ae 8d 3d 93 74 02 3d
       -0.010056321 -0.12523828 0.069181174 0.031849455
000280 42 15 ed bc e6 e1 8b bd 53 09 6a bc ef 68 bf 3d
       -0.0289408 -0.06830196 -0.01428445 0.09346186
000290 84 c5 c1 bc f1 8e 9a 3c 56 bf af bd fb 1c 3b 3d
       -0.023653753 0.018866988 -0.08581416 0.045681935
0002a0 6c e1 e7 3d 88 0b 41 3c 7f ed dc bb 52 49 70 bd
       0.11322293 0.011782534 -0.006742179 -0.058663674
0002b0 b3 2d 9e 3d 60 c0 68 3d 28 7e 7f bd c5 68 a3 bb
       0.0772356 0.056824088 -0.06237617 -0.0049868547
0002c0 7d ee 25 be a2 22 47 bc b2 e9 ba 3d 86 65 3a 3d
       -0.16204257 -0.012154253 0.09126605 0.045506977
0002d0 72 a0 5d 3d 9c b2 d9 bd ff 1c 81 3d 06 ce c6 3d
       0.05410809 -0.1062977 0.06304359 0.097072646
0002e0 c4 73 38 bb 34 49 8b 3b c4 c2 e8 bc ba cd de 3d
       -0.0028145174 0.00425067 -0.028413184 0.10879083
0002f0 ef 1b 98 3d 7f 5a 36 bc 84 9b 45 bd d5 fb 2e 3d
       0.07427203 -0.011129974 -0.048244014 0.042720634
000300 69 9b 10 3e 5f 66 35 3d dd da bf bc 14 e5 58 bd
       0.14121784 0.04428708 -0.023419792 -0.05295284
000310 15 5f 0a 3d 76 eb 07 3e 67 03 8d bc a6 59 8a bd
       0.033782084 0.13273415 -0.017213536 -0.0675538
000320 63 7b dc bc 76 00 fc bb b7 38 d6 bb 45 a1 aa 39
       -0.026914304 -0.0076904846 -0.0065375227 0.00032545082
000330 23 ba db bc 58 cb 88 3c b2 06 8e 3c 10 21 0f bc
       -0.026822155 0.016698524 0.017337177 -0.00873591
000340 be 8b cc bc cd a0 21 bd f7 92 c4 bc 3d 12 61 bc
       -0.024968978 -0.039459992 -0.02399586 -0.0137372585
000350 41 64 cb 3b 4c 98 87 ba 2d b0 2d 3c 5f 84 d2 bc
       0.0062070196 -0.0010345071 0.010601086 -0.025697885
000360 a3 00 fa bc f1 0b b3 bb 1e 14 91 3b 06 1d 0c bc
       -0.030517882 -0.00546407 0.004427447 -0.008551842
000370 d4 26 2c 3c 8f 1e e1 3b ae e1 66 bc 0b 5c a8 bc
       0.010507304 0.006870098 -0.014091892 -0.020551702
000380 e1 64 a7 3c f5 78 76 bc 08 0d df bc b0 a1 a8 3c
       0.020433845 -0.015043487 -0.027227893 0.020584911
000390 b6 cb 62 3c 84 ed 9b bc 37 0a f6 bc ee 0c 84 3c
       0.013842514 -0.019034155 -0.030034168 0.016119447
0003a0 91 b6 31 3c b6 44 24 bc 17 f2 1d 3d 6c 1b b6 3b
       0.01084675 -0.010026148 0.038560953 0.005557468
0003b0 62 7f 00 3d 84 15 ba 3c d9 3d 79 3c 83 f7 93 3c
       0.03137148 0.022715338 0.0152125 0.018062359
0003c0 96 d1 c9 3c 75 ab d2 3c ce e4 aa 3c ef 92 f0 3c
       0.024636071 0.025716523 0.020861056 0.029366938
0003d0 e6 97 07 3d b7 9b eb ba 14 d6 d6 3c 53 4e 2d bc
       0.033103846 -0.0017975484 0.026225127 -0.010577756
0003e0 6b c2 51 3d 8e 2d e8 3c 20 24 d1 3c bf c4 cf 3b
       0.051210802 0.028342035 0.025529921 0.0063405926
0003f0 5e 21 1e 3d 74 47 15 bd 65 80 62 3c 9e 7f 87 bc
       0.03860604 -0.036445096 0.013824557 -0.016540345

conv2.bias f4 [64]
000000 a5 c7 30 3d 78 ae 48 bc 41 2c 25 bc 28 c6 87 bb
       0.043159146 -0.012248628 -0.010081352 -0.004143495
000010 b0 18 18 3c b3 e0 29 bb e4 9d 40 3d 1d 5b e9 3b
       0.00928323 -0.0025921285 0.047025576 0.0071214573
000020 c3 d8 8b 3c 60 cd 88 3d 8f 30 02 bd 1a cf 7f bc
       0.017071133 0.06679797 -0.03178459 -0.015613342
000030 1e 8f a3 3c 2d 6a b3 3b 1a f7 82 bc e6 ab 31 3c
       0.019965705 0.0054753036 -0.015986968 0.010844206
000040 9c 86 26 bd fd a9 ca bc 67 b1 be bc 67 fc 8e 3c
       -0.040655717 -0.02473926 -0.023277951 0.01745434
000050 70 9c 5e bd ca 51 51 bc 55 d2 eb bc 5b e8 ad 3d
       -0.05434841 -0.012775848 -0.028786818 0.08491584
000060 0d 33 7f 3d c4 8a 42 3d de 37 7e 3d d9 d8 a0 bc
       0.062304545 0.04749562 0.062064998 -0.019634651
000070 39 26 86 3c c1 52 8a 3d 93 b5 e0 ba 70 bd c6 3b
       0.016375648 0.06754065 -0.0017143957 0.006065063
000080 4a 95 0b bd 02 03 cc 39 8f 4f a0 bc b2 b4 c4 bd
       -0.03407792 0.00038912153 -0.019569186 -0.096047774
000090 73 8c 3b bd fd b4 32 bc b2 d6 79 3d c9 7c 96 bc
       -0.04578824 -0.010907409 0.060995765 -0.01837005
0000a0 40 10 51 bd a9 81 88 3c d0 3a 55 bd e0 00 01 bc
       -0.051040888 0.01666339 -0.05205804 -0.007873744
0000b0 f6 9b 63 3d dc 97 38 3c 87 6a fe bc 89 da 84 bd
       0.055568658 0.011266675 -0.031056656 -0.06486995
0000c0 ac 70 83 3c 7e fd 6e 3d fa 13 8d 3d 89 29 ed bc
       0.016044937 0.058347218 0.06888576 -0.02895047
0000d0 95 54 82 3b a0 3d c0 3b db 24 2c bb 6d 9e 0c bb
       0.003977368 0.0058667213 -0.0026267085 -0.0021456734
0000e0 f3 9c 58 bb 6d f7 6c bc 52 37 e3 bc ff 74 f2 bc
       -0.0033052533 -0.014463288 -0.02773634 -0.029596804
0000f0 65 c3 0d bd 11 d6 2c bc e6 a7 b8 bc 75 98 99 bd
       -0.03461017 -0.010549084 -0.022540998 -0.07499782

conv3.weight f4 [128, 64, 3, 3]
000000 60 23 31 bd ae c0 89 bc 4f 97 81 bc ef 26 11 bd
       -0.043246627 -0.01681551 -0.01581922 -0.03543752
000010 ee c4 be 3c 13 cd 11 3b 6d e5 db bc 9c b3 ad bc
       0.023287263 0.0022247478 -0.026842797 -0.021203808
000020 05 2d 15 3d 68 c4 18 bd 83 4f dc bc 77 5d ea bc
       0.036419887 -0.037296683 -0.026893383 -0.02860902
000030 ee 5f ed bc 96 42 fd bc e5 a9 c5 bc 44 3a 2a 3c
       -0.028976407 -0.03091554 -0.024128864 0.010389868
000040 0d bf b9 3a dd 63 03 3d 01 56 f8 bc 0c d1 89 3c
       0.0014171317 0.03207766 -0.030314447 0.016823314
000050 de 2b a3 3c f1 39 b1 3b c6 7d 23 3c df 5f 3e bd
       0.019918378 0.0054085185 0.009978717 -0.04647815
000060 56 f8 10 bd b8 22 e8 3b 55 d8 60 3c 27 9c c6 3c
       -0.03539308 0.007084217 0.013723453 0.024244381
000070 f6 db 10 3c e0 5b b5 3c 27 a5 1c 3c 58 81 bc 3c
       0.008841505 0.022138536 0.00956086 0.023010895
000080 2b 94 ae bc 00 f4 43 3c 56 b0 21 bc 80 b4 84 3a
       -0.021310886 0.01196003 -0.009868702 0.0010124594
000090 5e ed 2a 3c e5 8d d7 bc b4 ac 1a bd b1 51 f0 bc
       0.010432569 -0.026312778 -0.03776236 -0.029335828
0000a0 0c fa 86 3c b5 96 ad 3c e4 2b c6 3c 43 1c df bc
       0.016476654 0.021190027 0.02419085 -0.027235156
0000b0 87 23 65 3c 40 6c 2e bd 66 a2 bb bb 86 c5 06 bc
       0.013985521 -0.042583704 -0.0057261465 -0.008225804
0000c0 a5 24 fa bc 93 06 2a bd f5 32 bf bb 82 ec 49 bd
       -0.030535052 -0.041510176 -0.005834932 -0.049297817
0000d0 9c 3e 7a bc 05 65 2d bd 4c 47 23 bd e1 e8 fa bc
       -0.015273716 -0.042332668 -0.039862916 -0.030628623
0000e0 76 c9 cf 3c f1 56 09 3d 2d 31 3b ba df bb a2 3c
       0.025364619 0.03353018 -0.00071408116 0.019864975
0000f0 3d 04 84 bb ed 06 23 bd bf 3c a0 3c f9 14 cb 3c
       -0.0040288256 -0.039801527 0.019560216 0.024790274
000100 30 42 8b 3c 9d 16 fb bc c0 91 f2 bc 22 53 2c bc
       0.016999334 -0.030650431 -0.029610515 -0.010517867
000110 74 64 1c 3c 50 58 14 bd f9 82 c5 3c 0f 06 ba bc
       0.009545434 -0.036217034 0.024110304 -0.022707967
000120 8a 16 04 3d 7d b0 fc 3b 30 f9 aa 3c 88 10 c9 bb
       0.032248057 0.0077114687 0.020870775 -0.006136004
000130 9e 66 ea bc af 89 c0 3c 77 6f 61 bc 58 46 0b 3d
       -0.028613385 0.023503153 -0.013759485 0.034002632
000140 39 bb 0f 3d 67 81 f9 3c 46 eb 04 3d 65 7d d9 bc
       0.03509066 0.030457212 0.032450937 -0.02654905
000150 93 47 31 bc cd e4 33 bd c9 6b 0d bd fa 1d 09 3d
       -0.010820287 -0.043919373 -0.03452662 0.033475854
000160 d2 61 05 3d 88 87 8d 3b c2 f4 27 bd 08 75 70 3c
       0.03256399 0.004319135 -0.041004904 0.01467634
000170 f2 95 20 3c cd fe 68 3c 01 86 87 bc 0e 73 84 bc
       0.009801375 0.0142209055 -0.01654339 -0.016168144
000180 1a 74 0c bd fc 05 38 3c 8e 27 e0 bc 6b f1 b3 3c
       -0.03429041 0.011231896 -0.027362611 0.021965703
000190 82 7d b5 bc 90 40 09 3d cc 9e 8d 3a 1c 67 d2 bc
       -0.022154573 0.033508837 0.0010804771 -0.025683932
0001a0 77 f2 35 bd 4e db 2f bc 60 11 04 3c d4 15 fb 3c
       -0.044420686 -0.010733439 0.008060783 0.030650057
0001b0 d3 27 08 bd 85 90 8e 3c d0 a7 9f 3c c1 34 d6 3b
       -0.033241104 0.017402897 0.019489199 0.0065370505
0001c0 52 10 aa 3c e5 6a 3b bd 0f 24 ac 3c d7 69 00 bb
       0.020759735 -0.04575624 0.021013288 -0.0019594335
0001d0 76 2f 26 bd b8 84 06 bc ed cf 42 bd 8a 44 4e bc
       -0.040572606 -0.008210354 -0.047561575 -0.012589583
0001e0 cd c1 f0 bb ff b3 94 3b ff 88 75 bc 0b 46 48 bd
       -0.0073473216 0.004538059 -0.014986276 -0.048894923
0001f0 0d 79 35 bd ed 3f a6 3a bd 9d 14 bd 46 dd 46 3c
       -0.044304896 0.0012683846 -0.036283243 0.012137717
000200 b2 b4 03 bd 4d 80 51 3c 9f 98 5c 3c 6f df 94 bc
       -0.032154746 0.012786937 0.013464122 -0.018172948
000210 e0 18 a1 3c b8 63 a7 bc 9c e0 01 3c 51 32 9f 3c
       0.019665182 -0.020433292 0.007927086 0.019433172
000220 a8 37 f1 3c c4 d2 b9 bc fe 94 24 bc ec 0a d4 bc
       0.029445484 -0.022683509 -0.010045288 -0.025884114
000230 56 6c f4 bc 54 18 fb bb e1 96 10 bd c3 d2 16 bd
       -0.029836815 -0.0076628122 -0.03530014 -0.03682209
000240 f6 90 41 bd ad a0 6d 3c 71 8f 75 3c f8 c9 73 3c
       -0.047257386 0.01450364 0.014987812 0.014879696
000250 06 94 c1 3c c5 6a 0c 3d e1 7d a5 bc b4 9e 42 3d
       0.023630153 0.03428151 -0.020201625 0.047514632
000260 ba d2 c9 37 7b cc 03 3d bc c9 33 3d 4f de 67 bc
       2.4059194e-05 0.03217743 0.04389356 -0.014152124
000270 11 19 32 bd ea 7a df bc 0c e9 0f bc 72 bc 22 3d
       -0.043480936 -0.02728029 -0.00878359 0.039730497
000280 96 9d 52 bc 50 a6 01 3d c8 b8 2a 3d 6d 09 ab bc
       -0.012854954 0.03165275 0.041680127 -0.020878518
000290 d0 46 8e bc 52 aa 38 3d a5 2a d0 bb ee ad bd 3c
       -0.01736775 0.045084305 -0.00635274 0.023154225
0002a0 f9 f7 78 3c 14 25 2c bd e4 e3 09 bd 07 9f 7c bb
       0.01519584 -0.042027548 -0.0336646 -0.0038546936
0002b0 a1 dd 39 3c 1d af c6 3c 46 87 99 ba 34 95 99 bc
       0.011344344 0.024253422 -0.0011713288 -0.018747903
0002c0 39 4d bb bb 24 f4 f4 bb 8f 91 fa 3b 1d 7f ad 3b
       -0.005715993 -0.007475393 0.0076467465 0.005294694
0002d0 83 30 9b bc 03 81 8d 3c 57 20 a4 bc 58 ca 9a bc
       -0.01894403 0.017273432 -0.020034952 -0.018895313
0002e0 0d 28 0f bc e3 be bb bc 20 26 31 bd 2f e6 64 bb
       -0.008737576 -0.02291817 -0.04324925 -0.003492724
0002f0 6c cd fc bb ea b2 87 3c 03 f1 28 bd b0 d6 b9 3c
       -0.007714918 0.016564805 -0.04124547 0.022685379
000300 93 48 4d b9 dc c7 38 bd 20 3f 86 bc 2d 47 d2 bc
       -0.0001957736 -0.045112476 -0.016387522 -0.025668705
000310 12 9b fa 3c 45 40 b5 bb d7 d1 9e ba 38 d4 11 3d
       0.030591521 -0.005531343 -0.001211698 0.03560278
000320 c0 3c 1f 3d a1 55 13 bc 25 06 da 3c af ef bb bc
       0.038876295 -0.0089925835 0.026614258 -0.022941438
000330 72 6b cb bb b9 0b 00 bd ce c2 02 bc f0 c8 d8 bc
       -0.006207877 -0.03126118 -0.007981015 -0.026463002
000340 fa 79 36 bc ae 7d 00 bd 4f c7 2e 3c 2d a9 f0 ba
       -0.01113748 -0.031369857 0.010667636 -0.0018360965
000350 3f e0 8b 3c 73 1f 42 bd 79 e2 e0 3c a0 09 70 3c
       0.017074702 -0.047393274 0.02745174 0.014650732
000360 75 a6 41 bd 96 7d ef 3a cf 14 ef bc 77 d3 1b 3c
       -0.047277886 0.001827168 -0.029184727 0.009510866
000370 1e 05 30 bd 51 a2 04 bd 32 11 ee 3c af 36 aa bc
       -0.04297363 -0.03238136 0.029060934 -0.020778028
000380 fd c3 fa bc f5 29 95 3b 6e 61 01 3d f5 0c 7b bc
       -0.030611033 0.004552121 0.031587057 -0.015322913
000390 94 39 72 3c 1a 25 a2 3c 6b c1 ee bb 0f 2e 1b bd
       0.0147842355 0.019793082 -0.007286241 -0.03788572
0003a0 42 35 3f bd 7a 9b 04 bd d0 44 05 bd cb f5 80 3b
       -0.04668165 -0.032374837 -0.032536328 0.003935551
0003b0 3d c4 69 bc 7f 39 88 bc 34 a6 0f 3c e2 9a 55 3c
       -0.014267978 -0.016628979 0.008767653 0.013037415
0003c0 09 55 8f bb a6 7f 05 3c c1 aa f6 3c c5 2e 07 bd
       -0.0043741507 0.00814811 0.030110719 -0.033003587
0003d0 ef 56 0c 3d ac 18 e6 3b d6 b8 c9 bc b1 c3 9e bc
       0.034262594 0.007021984 -0.02462427 -0.019380422
0003e0 4f 66 2f bc ee 53 41 3b 48 5d b7 bc 41 f3 a4 3a
       -0.010705545 0.002949949 -0.022383347 0.0012584702
0003f0 4d 7f ae 3c 91 fd 3c bd 6c 00 33 bd c9 0f 97 3b
       0.021300936 -0.046140257 -0.043701574 0.004610036

conv3.bias f4 [128]
000000 b8 ac f0 bc 80 76 ef 3c c9 d2 63 3d b9 4b 66 3c
       -0.029379234 0.02923131 0.055620942 0.01405614
000010 a3 01 37 3d fb f5 02 3d 9d b2 b9 3c 2f 9a be bd
       0.044679295 0.031972867 0.022668177 -0.09306752
000020 4c c1 36 bd 25 25 f8 bc 24 a3 54 3d 83 f8 e0 3b
       -0.044617936 -0.03029115 0.051913396 0.0068655624
000030 0d db ca 3c ad 0b 58 3d b5 b7 12 3d 37 c6 54 3c
       0.024762655 0.05274551 0.035819728 0.012986711
000040 5c fd 00 3c a1 07 c1 3c 6e d2 93 bd 1d 6b b5 bd
       0.007872906 0.023563208 -0.07217871 -0.08858321
000050 30 8e 11 bc 3f b3 a6 3c 18 17 8c bd fe d9 5a 3d
       -0.008883998 0.020349143 -0.06840342 0.05343055
000060 76 fa 9d 3c ab fc dd bc 40 08 b8 3c c7 19 95 bb
       0.019284468 -0.02709802 0.022464871 -0.004550192
000070 05 3f 23 3d 82 1c 7d bd cf 4c 92 3c e2 cd 23 bd
       0.039855022 -0.061794765 0.01785889 -0.039991267
000080 3b 4e 69 bd ea 17 56 bd 98 84 5d bd 3d 10 33 3d
       -0.056959372 -0.0522689 -0.05408153 0.043716658
000090 a4 0b 58 3d 5f a7 74 bd 65 e3 6a 3c b6 78 58 bb
       0.052745476 -0.05972993 0.014336442 -0.0033030934
0000a0 23 e1 7b 3b 4e 5f 70 3d c8 08 37 bd d9 cb 70 bc
       0.0038433752 0.05868464 -0.04468611 -0.014697039
0000b0 f6 3a 6b bd bd 41 f6 3c 15 8d 29 3d f6 95 2f 3d
       -0.057429276 0.030060643 0.041394312 0.042867623
0000c0 7b c0 8e 3c 94 82 a6 bc c4 6b ad bb 1c e0 3f bd
       0.017425766 -0.020325936 -0.0052923877 -0.046844587
0000d0 48 44 ac bc 5a dd 83 bc 98 40 43 bd b6 b2 23 3d
       -0.021028653 -0.01609676 -0.047669023 0.039965354
0000e0 9a ad 80 bc dc e4 17 3d 0c 21 bb 3c b8 ff 1e 3d
       -0.01570778 0.03708349 0.022842906 0.03881809
0000f0 80 2a 6e 3d de 3b ae 3c a0 df e0 bc da c9 64 bc
       0.058146 0.021268781 -0.027450383 -0.013964141
000100 62 a9 3c bd 21 9f 33 3c 64 0d 05 3d c8 24 83 bd
       -0.046059974 0.010963232 0.032483473 -0.064035
000110 2b dc 25 bd 63 63 dd bc 9d e4 36 bd 03 77 99 bc
       -0.04049317 -0.02702493 -0.044651616 -0.018733507
000120 36 be a4 bd 2d 84 01 3d e4 3a 6e 3c ad 77 25 bc
       -0.08044092 0.031620193 0.014540408 -0.010099334
000130 49 7f 42 3c 9d d0 e6 bc 03 45 97 3d 0a 5a c8 3c
       0.011871167 -0.028175646 0.0738621 0.024456996
000140 0c 6d 72 bc be 1c 29 bd 16 e5 d0 3c de bf 81 bd
       -0.014796507 -0.041287176 0.025499862 -0.06335424
000150 16 97 32 bd 9e 2e ab bc b5 cc c8 3c de 2b 9f 3c
       -0.043601118 -0.020896252 0.024511674 0.019430097
000160 5d 48 59 3d e0 10 d9 bc fc 7f 6e bd 2d 32 50 3c
       0.053047527 -0.026497304 -0.058227524 0.012707275
000170 f9 07 6a bd 38 73 db 3c ab 90 71 bd 36 d6 cf 39
       -0.05713651 0.026788339 -0.058975857 0.00039641716
000180 ff d3 e9 ba a0 8f c6 3c ab 8e cd bd 4b 53 82 bd
       -0.0017839669 0.024238408 -0.100369774 -0.06363543
000190 38 c7 38 bd 3a c2 3f 3d ee a2 1c bd 2f 63 c0 3c
       -0.045111865 0.04681609 -0.03824132 0.023484794
0001a0 9c 1f fa 3c ab 22 ca 3c 99 4d f5 3c da 6e f1 3c
       0.03053265 0.024674734 0.029944228 0.029471803
0001b0 4b 69 e4 bc 93 ec e2 3c e2 41 57 3b 89 3e 56 3d
       -0.027882239 0.027700698 0.0032845666 0.052305732
0001c0 37 7a 48 bc 4a f5 5e bc 0b 47 06 3d 90 fe 54 bd
       -0.01223617 -0.013608286 0.032782596 -0.052000582
0001d0 a7 37 74 bd 61 d5 71 3b 09 b3 f8 ba b7 ff 8c 3d
       -0.059623387 0.0036900865 -0.0018974255 0.06884711
0001e0 62 ed 28 3d cb ec aa 3c 28 ac ec 3c 55 60 05 3c
       0.04124201 0.020864865 0.028890684 0.008140643
0001f0 78 2f 26 3d d0 8c c1 b8 6d c5 d3 3c d3 0b c1 3c
       0.040572613 -9.2291855e-05 0.025850976 0.023565209

fc.weight f4 [10, 3200]
000000 72 3e c0 3c ff 44 34 bc 68 d5 87 bb c6 63 70 bb
       0.023467276 -0.011002778 -0.004145313 -0.0036680563
000010 f3 39 88 bc e3 09 40 bc 16 8b 1a 39 92 ce 18 bc
       -0.016629195 -0.011721107 0.00014738398 -0.009326594
000020 96 85 48 3c 9f 9e 9b 3c dc 85 28 b9 36 ce 12 bc
       0.012238881 0.018996535 -0.00016071595 -0.008960297
000030 b5 54 90 bc 35 2c 08 3c 1a 5d ef 3a ab 62 4e bc
       -0.017618516 0.008311321 0.0018261999 -0.012596766
000040 3b 52 91 bb c0 d7 26 3c 6b 43 07 3c 89 bb 3d bc
       -0.0044348515 0.010183275 0.00825582 -0.011580356
000050 be 9c 0c 3c 69 e4 e7 3b 9a b9 07 bb ef 84 2c bc
       0.008582292 0.007076789 -0.0020709992 -0.010529741
000060 84 dd c1 bc 36 5f 01 3d ca 69 b5 3c 31 12 d2 3c
       -0.023665197 0.03158494 0.02214517 0.02564344
000070 f2 7d f1 3b b1 eb b3 3c 48 62 24 3d f1 84 42 3d
       0.00736975 0.021962972 0.04013279 0.047490064
000080 1f 1b 1d bd bf 0d 75 3d 6f a9 e8 3c 9a 48 0c bd
       -0.038355943 0.059827562 0.028401105 -0.034248926
000090 e6 75 21 bd 83 c1 08 be 97 b0 ba 3c 51 d3 f3 3c
       -0.039419077 -0.13355069 0.022789283 0.02976385
0000a0 cb bd 11 3d f2 ad 9e bd 36 bd e0 bd 6b 9c 63 3d
       0.03558139 -0.07748021 -0.10973589 0.055569094
0000b0 29 d2 97 3c a3 12 ea 3c 3d e5 74 3c 1d 1f 00 bd
       0.01853283 0.02857334 0.014947233 -0.031279672
0000c0 52 40 12 3d b7 02 34 3d 23 33 cc bb 7a ee d0 3c
       0.035705872 0.0439479 -0.006231682 0.02550434
0000d0 c1 bb 10 bd 10 c3 a5 bd 35 42 cf bc 16 69 09 bc
       -0.035335306 -0.08093846 -0.025300125 -0.008386871
0000e0 80 71 35 bd fd 09 b5 bb 16 76 d1 3c 9d 56 24 bd
       -0.044297695 -0.0055248723 0.025569003 -0.040121663
0000f0 5d 6d 0d bc 1c dd 4d bd 7d 0c cf 3c 4a f6 ce 3c
       -0.008632031 -0.050259694 0.02527451 0.025263924
000100 8d 43 b2 bc 48 a3 3c 3c b6 b5 e4 bc 21 be 81 3d
       -0.021760726 0.011513539 -0.027918678 0.06335092
000110 47 c4 bb 3d 1c 01 55 bc 86 65 83 bb 81 3a 37 bd
       0.09168296 -0.013000753 -0.0040099053 -0.044733528
000120 81 05 8d 3d bf bd c0 ba 8f fe ed bc 7e f4 28 3c
       0.068858154 -0.0014704986 -0.029052047 0.010312198
000130 3c a9 c4 3b 8a d1 1c 3d 88 9e 80 bc ba 0d be 3b
       0.0060016196 0.03828577 -0.015700594 0.005799976
000140 7c be 64 3d ee a5 09 3c 1a e8 b4 3c c8 06 fc bb
       0.055845723 0.008401377 0.02208333 -0.007691238
000150 67 b3 bd bb 56 07 31 3d f5 64 72 bd 48 d4 a8 3c
       -0.0057892087 0.043219887 -0.05917831 0.020609036
000160 a6 66 22 3b e6 f0 1d bd ac ca 75 3c f0 84 5c bd
       0.0024780422 -0.038559817 0.015001934 -0.053837717
000170 26 bb 37 bd dc 76 c9 bc 81 6e 39 3c 46 76 53 3c
       -0.044856213 -0.02459281 0.01131785 0.012906617
000180 98 4f a0 3b a7 93 35 3b ef d9 29 3d 72 83 34 3d
       0.004892301 0.0027706416 0.041467603 0.04407067
000190 3a 94 be 3c ad d1 73 bc bd 26 82 3d f0 e2 3b bd
       0.02326404 -0.014881534 0.06355045 -0.04587072
0001a0 bf 77 89 3c 90 de 1f b9 f6 40 4f bd a5 59 d4 3c
       0.016780732 -0.00015246333 -0.05059906 0.025921652
0001b0 4d 55 2d bd 8b b4 e1 3c cc 75 a2 3c ef eb 6e bd
       -0.042317677 0.02755191 0.01983156 -0.058330473
0001c0 4f 33 79 3c da 58 43 bd 3a ed 62 3c a1 7a 8e 3c
       0.015209987 -0.047692157 0.0138505045 0.017392458
0001d0 43 a7 a2 bc af 90 25 3d 6e 40 57 bd 86 7a 42 bc
       -0.019855147 0.040421184 -0.05255168 -0.011870032
0001e0 6c c7 60 3a f4 34 93 bc 72 48 d0 3c e1 14 a1 bd
       0.0008574638 -0.017969586 0.02542517 -0.078653105
0001f0 f5 d0 88 3b b4 d9 09 3d d6 3a 45 3d e0 10 b1 3d
       0.0041753002 0.033654884 0.048151813 0.08645797
000200 b6 1e 46 3d 49 e8 3c 3c fa 97 11 3d 52 be 0f bd
       0.048369132 0.0115299905 0.035545327 -0.035093613
000210 d7 cc 01 3c 74 c1 25 bc ac 1a 25 3c cf 31 2a bc
       0.007922373 -0.010116924 0.01007716 -0.010387852
000220 97 8e b2 bc 0d 0c 19 bd 51 26 c5 bc d4 94 24 3d
       -0.021796508 -0.03736501 -0.024066122 0.040180996
000230 c5 00 37 3b a2 5d 83 bb 6a b0 cc bc 75 7b b3 bc
       0.0027924043 -0.0040089646 -0.024986465 -0.021909455
000240 78 e6 2b 3d e5 46 e3 3c 4b 0b cd bb 0f f4 44 bc
       0.04196784 0.027743766 -0.0062574497 -0.012021079
000250 e6 72 22 bd 7d ea 07 ba 64 71 39 3c 4c d9 1e bb
       -0.039660357 -0.0005184783 0.011318538 -0.0024238406
000260 6d 13 43 3c f4 f3 52 bc 98 de 3c 3b 92 00 06 bc
       0.011906487 -0.012875546 0.00288192 -0.008178847
000270 0e ee 1a bd 24 1a 15 3d 2f 17 82 3c 9c 6d 9b bd
       -0.037824683 0.036401883 0.015880195 -0.07589266
000280 ef 8b 86 3b 63 fb 2b 3c a6 62 e5 3d 67 b2 9f bc
       0.004106037 0.010496947 0.11200456 -0.019494249
000290 8d d7 a0 bd 22 63 1a 3c 78 df 9d bb 79 78 c6 3d
       -0.07853613 0.009423049 -0.0048178993 0.09690947
0002a0 8c 60 b0 3c 11 f4 df bc 0a 0f 07 bb a6 27 50 bd
       0.021530412 -0.02733806 -0.002060833 -0.05081906
0002b0 d2 dc d7 bb 8c 99 55 3c d4 9f 41 bd f8 df 87 3b
       -0.006587603 0.013037097 -0.047271565 0.004146572
0002c0 d5 db 8b 3a 30 9e 29 3b 7f 6d 86 3d 2f 66 2d 3c
       0.0010670373 0.002588164 0.065638535 0.0105834445
0002d0 f4 99 09 3d b9 cf 66 ba 62 a5 ae bc 77 b8 10 bc
       0.033594087 -0.0008804757 -0.021319095 -0.008833042
0002e0 bb dc da bc 7e 2c 36 3c 45 44 2f 3c 79 14 6d bc
       -0.02671658 0.011119006 0.010697429 -0.014470213
0002f0 59 ec cf 3b 07 7d e9 3c d7 07 9c 3c 15 2e 6d bc
       0.0063453135 0.028502 0.019046707 -0.014476319
000300 a6 bd 69 3c 58 2b 8b bc 62 74 37 3c de ce 29 3c
       0.014266407 -0.016988441 0.011197181 0.010364262
000310 17 0a 54 bc 60 c3 b4 ba 82 10 d9 3a 9a d8 01 ba
       -0.012941859 -0.0013791136 0.0016560706 -0.00049532356
000320 a2 84 3b 3c 1e d4 c2 3b c5 80 51 bd 32 e2 05 bb
       0.011445196 0.0059456965 -0.051148195 -0.0020429012
000330 2e e9 d0 3b 23 79 df bc 34 06 01 3d 46 3a 15 bc
       0.0063754534 -0.027279442 0.031500056 -0.009108132
000340 c8 7c 85 3c 9e 15 28 bd 56 00 38 bd 45 07 72 bc
       0.016294852 -0.04103624 -0.044922195 -0.014772241
000350 09 45 2d bd 5e 90 8b 3c 84 12 82 3c 12 09 52 3c
       -0.042302165 0.017036613 0.01587797 0.012819545
000360 9c 4b 90 bd b9 e4 48 bd b0 98 59 3d c6 58 f5 3c
       -0.07045671 -0.049046252 0.05312413 0.029949557
000370 bb b9 0b 3d ea 7a 99 3d b1 98 33 bd 21 8f 15 3d
       0.034112673 0.07494147 -0.04384679 0.03651345
000380 7b f6 33 bc 7c 5b 37 3b 6f ca 65 bc 30 42 df 3b
       -0.0109840585 0.0027978113 -0.014025315 0.00681331
000390 bd 88 0b bc cf 26 23 bc 79 4f 1b bc 97 c5 d0 bb
       -0.008516488 -0.009957983 -0.009479397 -0.006371211
0003a0 6f 41 53 bb 8c f2 0a 3c bc 3b 6c bb bb 89 19 3c
       -0.0032235046 0.008480679 -0.0036046347 0.009371216
0003b0 52 ab 32 bc 9d 1d 60 3c 2e 7b 42 bc 75 96 be bb
       -0.010905104 0.013678935 -0.011870189 -0.0058162757
0003c0 64 88 86 3c 5e 70 70 bc 48 42 90 ba ad 4e 62 b9
       0.016422458 -0.014675228 -0.0011006081 -0.00021582349
0003d0 17 30 90 3c 13 cc e8 ba 57 be 42 bc 54 00 d1 bc
       0.017601056 -0.0017761014 -0.011886201 -0.025512852
0003e0 9a bf 0d 3c 5d 90 19 bc b5 29 f5 3b 3d d9 32 3c
       0.008651638 -0.009372798 0.0074817785 0.010916051
0003f0 35 d3 bb bc 93 9b 91 3b d2 5a 98 bc 45 ac c3 3b
       -0.02292786 0.0044435947 -0.018597994 0.005971464

fc.bias f4 [10]
000000 98 d7 da 3b 69 7a 3d 3c 3c c2 57 bb 6a c2 ff bb
       0.006678533 0.011564829 -0.003292217 -0.0078051584
000010 0b 6c c3 3c f2 63 13 bb f5 12 fe b8 c0 d0 b4 ba
       0.02385523 -0.0022489992 -0.00012115195 -0.0013795123
000020 2c 14 61 bc 5f ad 07 bd
       -0.0137377195 -0.033124324
