LAB 3/Results/CNN_L2_v2_lr001_sgd.ckpt (torch, 291639 bytes, 6 tensors)

conv1.weight f4 [48, 3, 5, 5]
000000 d3 15 90 bd dc b8 84 ba 11 76 8c 3c f8 a8 c0 3d
       -0.07035413 -0.0010125893 0.017146142 0.09407228
000010 70 40 1e 3d bb 2a 9e bd 67 c5 a1 bd 16 0d 45 bd
       0.03863567 -0.07722994 -0.0789898 -0.048108183
000020 5f 4f 86 3d 2d 9e 8e 3d fc c8 bc 3a 5c b3 e6 3c
       0.065581076 0.069637634 0.001440316 0.028161697
000030 4e d0 b6 bd 4b 84 82 3d ba 26 11 3d ce fc c1 3d
       -0.0892645 0.06372889 0.035437323 0.09472047
000040 c2 3d 3d 3d 21 b8 a4 3c 9d aa cd bd 4a 8a fb bc
       0.046201475 0.02010733 -0.100423075 -0.03070559
000050 2e 0d b5 bc e0 9a 6b 3d 55 ac e4 3d 68 53 bb 3b
       -0.022101011 0.057520747 0.11165682 0.00571673
000060 24 1e 8e 3d cb bf 68 3d 7d f9 97 bc e5 76 e7 3b
       0.069393426 0.056823533 -0.018551582 0.007063734
000070 2a 68 92 bd de 44 19 3d 9e a4 25 bd f0 d2 0e 3c
       -0.07148774 0.037419192 -0.040440194 0.008717284
000080 b6 71 12 bd 55 5d e3 bd c3 29 eb bd d7 be da 3d
       -0.035752974 -0.11101786 -0.11482575 0.10680931
000090 47 8a e4 bd 1c c6 be 3a 24 fd ac bd c6 b0 cd bd
       -0.11159187 0.0014554891 -0.0844672 -0.100434825
0000a0 3e 47 40 bd 15 66 c5 bc 01 1b e5 bb ae f1 41 bd
       -0.04694294 -0.024096528 -0.0069917445 -0.047349624
0000b0 59 65 aa 3a 94 2f 36 bd dc db 89 3d 9c 65 af 3d
       0.0013000175 -0.044478968 0.06731388 0.08564302
0000c0 d1 0b 9f bd d6 97 92 3d 3c b0 b8 bd 3a 9d f3 bc
       -0.07765926 0.07157867 -0.09017989 -0.029738057
0000d0 e0 19 d5 3d 9e 50 82 3d 1f f7 d9 bd 1d 76 a2 bd
       0.10405326 0.06363033 -0.10642838 -0.079326846
0000e0 a0 d3 08 3d 15 0c cd bb fd c5 99 3b 9d dd b1 bd
       0.033404946 -0.006257544 0.0046927915 -0.086848475
0000f0 b0 66 b9 3d a6 ad 0c 3d a7 94 12 3d 0e 97 6f bd
       0.09052789 0.03434529 0.035786297 -0.058493666
000100 69 12 4a 3d 01 48 82 3d 9b ee 73 bd 7a 88 10 3b
       0.049333964 0.0636139 -0.059553724 0.0022054003
000110 0d d6 7f bb f8 75 84 3d ce e2 1e 3c fb 78 5e 3d
       -0.0039037496 0.06467813 0.009697629 0.054314595
000120 9a a6 bc 3c b5 6c c2 bd e5 a2 89 bd 09 6d dc 3c
       0.02302866 -0.094933905 -0.06720523 0.02690746
000130 ad 77 91 bd 31 63 c1 3d 8f 88 97 bc 10 0f 52 3d
       -0.071029045 0.094427474 -0.018497733 0.051283896
000140 4d eb f4 bc 62 62 65 bd 1c de bc bd b6 a6 e3 bd
       -0.029897356 -0.05600203 -0.092220515 -0.11115782
000150 74 05 e9 bd 53 4f e7 bd 2b 0a 9b 3d 37 6e df bd
       -0.11377993 -0.11294427 0.07570299 -0.10909694
000160 4d 81 c6 3d 37 57 96 bd f7 13 6c bd 82 bb ab 3d
       0.09692631 -0.07340854 -0.057636227 0.08385374
000170 61 76 16 3d 88 33 5e 3c b6 b7 2b 3d c1 95 07 3d
       0.03673399 0.013562091 0.041923247 0.0331018
000180 1c 47 0e bc b9 92 ac bd 57 bf 84 3d 9e d4 30 3c
       -0.008683946 -0.084264226 0.06481808 0.010792879
000190 46 d0 33 bd 69 fe 59 3d 4c 73 00 bc d7 c6 16 3d
       -0.043899797 0.05322114 -0.007839989 0.036810722
0001a0 28 bb d0 bd 71 cd 9a 3d 01 76 d6 bc dc 3e 66 bc
       -0.10191947 0.07558716 -0.026179316 -0.014053073
0001b0 3f 3d c2 bd ab a6 be 3d bc 54 10 3d 54 36 e5 3d
       -0.09484338 0.09309133 0.03523706 0.11192003
0001c0 37 e3 bf 3d af 4a 5a bd e9 6d ec 3c 2d 9e bc 3d
       0.0936951 -0.05329388 0.028861003 0.09209857
0001d0 15 ce f8 bc 75 46 2d bc ef ef e1 bd 3c 27 1f bd
       -0.030371705 -0.01057588 -0.11032092 -0.038855776
0001e0 3e 2a 12 bc 9b 8e 8c 3d 1b 1e a8 bd d0 bd 19 3d
       -0.008921204 0.06863137 -0.08208867 0.037534535
0001f0 da ac d8 3d 94 dd c5 3d 49 02 bc bd 70 f5 cb bb
       0.10579844 0.09661403 -0.09180123 -0.006224327
000200 43 d6 b8 bd ef 35 00 bd 62 12 ef bc 5d 01 62 bd
       -0.09025242 -0.031301435 -0.02918357 -0.05517708
000210 ca 29 27 bd f0 f3 cf bd cc a8 6e 3d b5 02 c0 bb
       -0.040811338 -0.10153949 0.058266446 -0.0058596977
000220 4c 9b ca bd 53 7c 24 3c 96 bb cf bc 1f 73 dd 3d
       -0.09892902 0.010039407 -0.025358003 0.10812973
000230 5e 52 43 3d c3 72 5c 3c 42 29 ea 3d 1b 93 1e 3d
       0.047685973 0.013455096 0.114336506 0.03871451
000240 d2 e9 ab bc 5e 97 d5 bc 29 c7 0a 3d 23 83 c9 bd
       -0.020985518 -0.026073154 0.03388134 -0.098394655
000250 29 bd 33 bd 27 4c 53 bc 51 cb a8 bc ac db 31 bc
       -0.04388157 -0.012896574 -0.020604761 -0.0108555965
000260 52 22 01 3c 2f 51 86 3d 52 07 90 bd 72 d0 e4 b8
       0.007881718 0.06558453 -0.07032646 -0.00010910713
000270 ce a5 54 bd 93 12 3b bd 0b 61 ff 3c b7 34 f1 3c
       -0.051915936 -0.04567201 0.031174203 0.029444082
000280 8d 62 2a bc 27 16 c9 bd f8 18 dc bd 3e 00 dd 3d
       -0.010399473 -0.09818678 -0.1074695 0.10791062
000290 a9 6a 6c 3d 77 e4 f0 3b 9b 20 e7 bd 1c ef a2 bd
       0.057718907 0.007351454 -0.11285516 -0.07955763
0002a0 f0 04 19 3d e7 6c 81 3d 2d ac 64 3d 83 44 c7 3d
       0.037358224 0.063195996 0.055828262 0.097298644
0002b0 4c 46 3e 3d 63 83 a1 3d 21 6c f2 bc 07 2b e5 bd
       0.04645376 0.07886388 -0.029592576 -0.111898474
0002c0 fe a2 7c bb ba 75 11 3d c3 71 cf bd e7 fc ab 3d
       -0.00385493 0.035512663 -0.1012912 0.08397847
0002d0 ae 07 6e bc 49 ef ad bd 08 67 de bd de cf dd 3c
       -0.014528198 -0.08492906 -0.108594954 0.027076658
0002e0 74 55 e6 bb 6f 18 ab 3d 7e a9 d3 bd d1 91 d6 bd
       -0.00702923 0.0835427 -0.103350624 -0.10477031
0002f0 0e 7d cf 3d 1e eb d6 3d 18 5e ca 3c 7f 35 7e bb
       0.10131274 0.10494064 0.02470307 -0.003878921
000300 d3 71 aa 3d 5e 84 81 bc 32 1d 39 3d 87 a1 40 3d
       0.083224915 -0.015810188 0.04519386 0.047029044
000310 1a 7f 6a bd 92 71 93 3d 32 5a a1 3d 0e 85 57 3d
       -0.05725012 0.07199396 0.078785315 0.052617125
000320 10 30 8e bd 7e 78 38 3c 8d f6 4b bd 92 6d e0 3d
       -0.06942761 0.011259196 -0.049795676 0.10958399
000330 d6 9d 91 bd 00 1c 64 bd 37 2c 1b bd 62 4e b6 3d
       -0.07110183 -0.055690765 -0.037883963 0.08901669
000340 19 72 6e bc 32 46 69 3d e6 33 ab bc b6 e7 d5 bd
       -0.01455357 0.05695171 -0.02089877 -0.10444586
000350 4d 46 22 bd ef 55 df 3d 76 88 ad 3d e6 f1 18 bd
       -0.039617825 0.109050624 0.084732935 -0.037340067
000360 4b cf d1 3c a0 e5 ef 3d 5b 36 1a 3b d1 6f 5e 3d
       0.02561154 0.11713719 0.0023530934 0.054305855
000370 b1 f9 c6 3c 19 06 c8 3d 76 6a c3 3d 89 11 9b bd
       0.024288984 0.09766788 0.0954179 -0.07571704
000380 bc d9 34 ba 1b b5 29 bd 04 8c 96 bc 63 bd fb bc
       -0.00068989 -0.04143248 -0.018377312 -0.030729955
000390 c3 9a 57 bd 34 0e da bd 5d 58 02 b9 ba d2 f3 bd
       -0.052637827 -0.1064724 -0.00012430684 -0.11905427
0003a0 18 5e 23 3c e8 c7 d2 3d b4 5b d9 3d b0 8d 60 3d
       0.009971164 0.10292035 0.10613194 0.054822624
0003b0 1f b8 01 3d d7 53 cc bc 78 6e 8b 3d c9 39 f2 3d
       0.031669732 -0.024942322 0.068081796 0.11827428
0003c0 fb 49 d2 bd 5c 91 8d bd 82 6d e5 bc 0a 9f af 3d
       -0.10268017 -0.06912491 -0.028006319 0.08575256
0003d0 7f 39 d5 3d 7a e3 9f bd 59 16 aa bc 89 28 8a bc
       0.10411357 -0.078070596 -0.02076261 -0.016865032
0003e0 29 2e 66 bd 11 83 8a 3d 66 e4 67 bc 65 56 4f 3b
       -0.056196366 0.0676328 -0.0141535755 0.0031637189
0003f0 11 25 43 bc aa ce 4d bd 9f 2b ff 3d e1 db ee bb
       -0.011910693 -0.05024592 0.12459492 -0.007289395

conv1.bias f4 [48]
000000 ae ee 61 bd c5 71 a9 bd 58 24 a8 bd f5 de 82 bc
       -0.055159263 -0.08273653 -0.08210057 -0.015975455
000010 56 f2 73 bd 9e 74 5c bb e8 e0 a5 bd c3 ee 84 bd
       -0.05955728 -0.0033638845 -0.08099538 -0.06490853
000020 94 38 7a bd 5b 8a ab bd fa be 74 bc 24 c4 a1 bd
       -0.061089113 -0.083759986 -0.0149381105 -0.07898739
000030 26 04 8d 3d 9d d9 31 bd b2 aa 57 3d 2a f6 bb bd
       0.06885557 -0.043420423 0.052653022 -0.091778114
000040 0f bb 08 3d 3d 51 ef 3d 89 2d 93 3d 08 cf 8b 3d
       0.033381518 0.11685417 0.071864195 0.068265975
000050 ee ba 76 bc d6 41 cf 3d 77 ff 52 bc 83 f6 a5 bb
       -0.015059216 0.10119979 -0.01287829 -0.005064787
000060 ce 42 80 bd 57 25 92 bd 06 8e ce 3d bd 84 15 3b
       -0.06262742 -0.07136028 0.100856826 0.0022814714
000070 15 8c 02 3d 20 a6 1b bc 65 77 20 3c 95 f2 92 bc
       0.031871874 -0.0095000565 0.009794091 -0.017937938
000080 4f 82 b5 3d e4 51 b0 3d 46 fa 0f bd d9 44 dc bd
       0.08862745 0.086093694 -0.03515079 -0.10755319
000090 6c 32 a1 bd e2 99 9c bc d4 9c a7 3d f2 21 c0 bc
       -0.07870945 -0.019116346 0.081842095 -0.023453686
0000a0 33 11 15 3c d1 32 a4 bd d3 cd b0 3d 38 ee 6f 3d
       0.009098339 -0.08017505 0.08633008 0.058576792
0000b0 27 c9 60 3d 1b 42 01 3e 17 6a f3 bb 4a a9 b6 bd
       0.054879334 0.12622873 -0.0074284184 -0.08919008

conv2.weight f4 [64, 48, 3, 3]
000000 36 cf 15 3d d5 27 01 3d 46 a4 03 bd 11 9d 0e bd
       0.036574565 0.031532127 -0.032139085 -0.03481776
000010 0c a6 37 3d 2a 0f 56 3c d7 0b f6 bc 2d 9e 49 bc
       0.04483609 0.013065139 -0.030034943 -0.012305778
000020 00 eb 01 3d 1a 3d 27 bd 21 76 26 bd 01 26 39 bd
       0.031718254 -0.040829755 -0.04064 -0.04520226
000030 7e 62 b5 bb a4 31 00 bd 01 63 c9 3b 6a 51 84 b9
       -0.005535423 -0.03129734 0.0061458354 -0.0002523766
000040 3f c1 03 3d 58 a6 3c bd c3 60 62 bc be 9e e2 bc
       0.032166716 -0.046057075 -0.013817015 -0.027663585
000050 93 1d 55 3b a0 e1 ac 3b fa 5d 1b 3c 01 e5 de bc
       0.0032518848 0.00527592 0.009482855 -0.027208807
000060 b2 17 3a 3d 69 df 77 3c f3 46 ec 3c 38 1c 1c bd
       0.045432754 0.015128949 0.028842425 -0.03811285
000070 f2 3b fd bc 36 a1 45 3d 9c 2a 14 3c 2b fd af 3c
       -0.030912373 0.048249446 0.009043362 0.021483025
000080 a9 fa 97 bc 90 22 87 bc 43 55 16 bd a5 8a 0d 3c
       -0.018552141 -0.016495973 -0.036702406 0.008639012
000090 b4 e6 29 3d b1 18 ee bc 8e 5d 95 bc 21 5d e0 bb
       0.04147978 -0.029064508 -0.018233087 -0.0068470393
0000a0 9d 23 a0 bc 93 71 fa 3c 30 b9 dd bc 26 0f 65 3b
       -0.019548232 0.030571735 -0.027065843 0.0034951656
0000b0 99 90 2e 3d 61 86 06 3d 5c 46 3f bd ae 14 33 3c
       0.042618368 0.032842997 -0.04669796 0.010930223
0000c0 8b 49 e1 3c ef 9a e4 3c 81 bd 42 3b 08 78 32 bd
       0.027500888 0.02790591 0.0029715004 -0.043571502
0000d0 e2 70 4c bc 54 76 ed bc 59 8b e1 bc d2 6c 1e bd
       -0.012478085 -0.028987087 -0.027532266 -0.038677998
0000e0 ad d3 c7 bc b4 be 55 bb 9c 5a 3a 3d b9 fd 65 3c
       -0.024392927 -0.0032614889 0.045496568 0.014037543
0000f0 2e ae d0 bb 3e f3 30 bd ae bc 39 bd ae 14 56 ba
       -0.00636842 -0.043200724 -0.045345955 -0.00081665337
000100 2a 53 58 bc fc 30 0b bd ae 41 df 3a 3a 68 4d bc
       -0.013203422 -0.033982262 0.0017033124 -0.012537057
000110 76 e2 18 3d ad fa e4 3c 0c c4 30 bc a9 e3 99 3b
       0.037325345 0.027951563 -0.010788929 0.0046963287
000120 62 99 93 bc c9 3a 9d bc e4 a0 2b 3c ad 51 4f 3c
       -0.018017475 -0.01919307 0.010475371 0.01265375
000130 0a b3 17 bd f3 48 10 bd 73 e0 24 3d 33 1f ec bc
       -0.03703598 -0.03522582 0.040253114 -0.02882347
000140 e2 26 42 bd f8 6d 0b 3d f9 89 8f bc a6 22 c2 3b
       -0.047400363 0.03404042 -0.017521845 0.0059245406
000150 df c3 51 3d 57 34 cb bc f4 8c 26 39 b8 d6 d6 bc
       0.051212188 -0.024805231 0.00015883503 -0.026225433
000160 43 50 af 3c 58 52 ce 3c 9d 41 9b 3b 36 9c 19 3d
       0.021400576 0.025185749 0.0047380463 0.03750249
000170 7d 61 9d bc 3d ad 27 bd 2f 95 8a bc 4a ef a4 bb
       -0.019211525 -0.040936697 -0.01691684 -0.0050334083
000180 60 de 05 bd ae 38 8d 3b d1 e4 b6 bc 13 b5 03 bd
       -0.032682776 0.0043097353 -0.022325905 -0.032155108
000190 ff f7 0c bd f6 9d 22 bc 82 26 fe bc f4 6f 3f 3d
       -0.034416195 -0.009925356 -0.031024221 0.046737626
0001a0 d4 27 39 3d 37 0f a2 3c 80 82 3e 3d 64 ca 92 bc
       0.045204 0.019782646 0.046511173 -0.017918773
0001b0 0f b0 27 3d 3b c7 64 3c 17 2e 3e 3d 7b d5 32 bd
       0.040939387 0.013963516 0.046430673 -0.043660622
0001c0 cf b7 e6 bc 97 cc 53 3c fe 4e 3e 3d f9 ce 12 bd
       -0.028163819 0.012927196 0.04646205 -0.035841916
0001d0 fe 03 84 bb b0 d0 f3 ba e8 32 d7 3b e5 33 1e 3d
       -0.004028796 -0.0018601622 0.006567348 0.03862371
0001e0 40 3c 63 3d f3 31 04 bd 60 58 24 3d ef 14 4e 3d
       0.05547738 -0.032274198 0.040123343 0.050312933
0001f0 6f 85 19 3c e9 7f 26 bd 47 b2 50 3d 9e 59 07 bd
       0.009370192 -0.04064933 0.05095127 -0.03304445
000200 62 25 ed bc 61 2e e7 3c 69 16 55 bb 7c 6a a1 bc
       -0.02894849 0.028220357 -0.0032514578 -0.019704096
000210 48 f1 02 3d 4a fb ab bc a0 0d 88 bc e5 02 fb bc
       0.031968385 -0.020993847 -0.01660806 -0.030641029
000220 d1 19 91 3b 79 11 33 bd a7 f2 52 3d 1e a7 e6 3c
       0.0044281264 -0.043717835 0.051500943 0.02815586
000230 d5 97 2e bc 20 71 38 3d 68 ff 4c 3c b7 c1 df 3c
       -0.010656317 0.04502976 0.0125120655 0.02731405
000240 c4 ce b2 bb 33 37 ec 3c 9c aa a3 3c e9 bd af bc
       -0.0054567773 0.028834915 0.019978814 -0.02145286
000250 21 4f ab 3c 66 17 87 3c 46 4d 09 3c 41 c4 83 3c
       0.020911755 0.01649065 0.00838024 0.016084792
000260 62 d5 c0 bc 0e 3e 30 bc 7c b1 cb bb cd 3c 02 3c
       -0.023539249 -0.0107569825 -0.006216226 0.007949066
000270 fd 79 02 3c 6c ef 84 3c 1a 45 de bc 68 ca f7 3c
       0.007963655 0.016227446 -0.02713256 0.030247882
000280 83 e7 df 3c 27 ef f0 bc 90 69 d9 3b 5f 4e 87 3b
       0.027332073 -0.029410912 0.0066348985 0.0041292156
000290 17 20 e3 bb 9e f9 5c 3d 56 5e cb bb 70 5e 95 3c
       -0.0069313156 0.05394899 -0.006206314 0.018233508
0002a0 15 a6 3b 3d 00 73 b6 bc fb ec 78 bc 15 05 ad bb
       0.045812685 -0.022271633 -0.015193219 -0.005280147
0002b0 25 55 59 bb 8b 19 18 3c d1 5d 28 3d bf ef 23 bd
       -0.0033162322 0.009283434 0.041105095 -0.04002356
0002c0 bf bd 35 3d d5 31 7d 3c c9 85 ed bc 0b 94 b2 3c
       0.04437041 0.015453775 -0.028994458 0.021799108
0002d0 67 6d 81 bc c0 5f 27 3d 2d f2 14 3d 71 bf 02 bd
       -0.015799237 0.0408628 0.03636377 -0.031920854
0002e0 d4 76 af bc fe 15 e5 bc a7 4b 09 3d cd 50 ce 3c
       -0.021418966 -0.027964588 0.033519413 0.025185013
0002f0 46 c3 9a bc 1c 37 1b 3d 00 44 5d bc de 1c 28 bd
       -0.018891942 0.037894353 -0.013504982 -0.041043155
000300 a5 24 70 3d 49 79 8e 3c 1c f4 b4 bc 22 d1 6c 3d
       0.058628697 0.017391818 -0.022089057 0.057816632
000310 c4 a3 b6 bc bc fa 40 3c ee 38 84 3c 66 c3 10 3d
       -0.022294886 0.01177853 0.016140427 0.035342596
000320 06 07 30 bc 5a 30 db bb d5 28 15 bd 23 cb ea bc
       -0.010743862 -0.0066891136 -0.036415894 -0.028661316
000330 fd 35 8b 3c 43 d1 19 3d c2 dd c8 bc 0b 68 31 bd
       0.016993517 0.037553083 -0.024519805 -0.043312114
000340 6d 05 98 bb a2 af 20 bd 41 0a 13 3d db 8a 2c 3d
       -0.0046393187 -0.039229997 0.03589845 0.04212461
000350 19 a7 0b 3b b0 8a 56 bb 44 5e 15 bd d3 fd 1b bd
       0.0021309315 -0.0032736473 -0.03646685 -0.038083863
000360 b5 3b 1a 3c 59 2c 59 bc 03 71 fa 3c fa 61 fa 3c
       0.009413649 -0.013255202 0.030571466 0.030564297
000370 70 db 3a bd ba 8b 81 bb 4a 69 0d 3d 41 e1 90 3c
       -0.04561943 -0.0039534243 0.03452424 0.017685534
000380 7e 05 54 bc b9 7c dc 3c 4d cf b2 ba 37 91 f5 bc
       -0.012940763 0.026914941 -0.0013642103 -0.02997647
000390 a7 42 89 ba 2f b9 59 bc b5 27 c8 bb 43 1d 24 3d
       -0.0010472134 -0.01328878 -0.006108249 0.04006697
0003a0 16 b1 6e 3b 7b 00 11 3d d0 4c 8a 3c 24 a8 2b 3d
       0.003642147 0.03540085 0.01688233 0.0419084
0003b0 58 66 bd 3c f7 99 88 bc 29 08 9b 3c de 83 e8 3c
       0.02312009 -0.016674979 0.01892479 0.028383192
0003c0 6e 4c 12 bd 71 58 08 3d b0 da 56 3b 4e 8c dc bc
       -0.03571742 0.03328747 0.0032784157 -0.026922371
0003d0 85 dc 37 3b 7e d4 b9 3b d0 dc 1b 3d ed 09 06 bd
       0.0028055024 0.005671083 0.03805238 -0.03272431
0003e0 bb 40 12 3d 09 29 20 bc db 2e f7 ba 20 43 f7 bc
       0.035706263 -0.009775409 -0.0018858569 -0.030183375
0003f0 ad 44 02 3d 15 a9 d0 3c 61 3c ca 3c ac e0 70 bb
       0.031803776 0.02547125 0.024686994 -0.0036755009

conv2.bias f4 [64]
000000 16 ea 12 bd 8e 27 24 bd 8f 33 8c bc 46 cf 10 bd
       -0.035867773 -0.040076785 -0.017114429 -0.03535392
000010 d7 97 dd 3b 04 e8 20 3d f2 5e e3 bc b1 98 80 3d
       0.0067624855 0.039283767 -0.027755234 0.062791236
000020 29 27 44 bc c0 1d 80 bd 9d 3c d8 bc 1e a4 9c 3c
       -0.011972227 -0.06255674 -0.02639609 0.019121226
000030 99 3e 40 3d 34 9f 70 3c ac 49 04 bc d3 6d 57 bc
       0.046934698 0.0146863945 -0.008074205 -0.013148743
000040 e9 31 fd 3c d0 f0 84 3d 55 bc b8 3d dd ee 32 bd
       0.030907588 0.06491244 0.090202965 -0.04368483
000050 f9 76 b8 bc f0 80 f5 bc 6c db fd 3c d5 60 0a 3b
       -0.022517668 -0.029968709 0.030988418 0.0021114845
000060 74 d1 b2 3b b5 20 0e bc 59 40 78 bc 08 cc 01 3d
       0.0054570977 -0.00867479 -0.01515206 0.03168872
000070 64 52 4f 3d 2b e8 03 3d fa e6 b6 bc 2a df 20 3d
       0.050615683 0.032203835 -0.022326935 0.039275326
000080 66 8c 30 bc b3 95 5a 3d 49 1d b0 bc 37 5c 5c bc
       -0.010775661 0.05336542 -0.02149834 -0.01344972
000090 98 39 ab bc 60 24 02 3d 87 ce 25 bd 0c 64 3e 3c
       -0.020901486 0.03177297 -0.040480163 0.011620533
0000a0 11 44 ba bc aa 0b 16 bc 0b b1 fe bc b5 3f 1f bd
       -0.022737535 -0.009158054 -0.03109028 -0.038879115
0000b0 48 b2 1c bc 42 a4 a7 3c d4 aa 29 bc 04 4a a7 3d
       -0.00956399 0.020464066 -0.01035567 0.08168414
0000c0 eb 1d 91 bb 31 3c 39 bd 2d 9a 6e 3d 31 2e 7d 3c
       -0.0044286153 -0.04522342 0.058252502 0.015452907
0000d0 d3 fb 8a bc 9a 79 4a bc 08 49 96 bc 65 f9 44 bd
       -0.016965782 -0.012358094 -0.01834537 -0.048089404
0000e0 00 e8 4e 3d 59 5b 9a 3d cf d2 2d b9 dc 54 d5 bc
       0.05051422 0.075369544 -0.00016577098 -0.02604144
0000f0 31 1e b6 bc b4 57 2f 3d f6 0a 03 bd 18 0a c4 3c
       -0.022231193 0.04280825 -0.031992875 0.023930594

fc.weight f4 [10, 4096]
000000 cf aa 35 bc 21 07 77 3a d6 da b3 3b 7d 30 32 bc
       -0.011088087 0.00094233645 0.0054887338 -0.010875818
000010 cc 21 22 3c e9 fe 85 3c 75 06 71 3b c0 85 70 bc
       0.009895753 0.016356902 0.003677753 -0.014680326
000020 f5 5b 36 bc 9f f3 a8 3b 6d 8e a1 bc 46 95 f1 bc
       -0.011130323 0.005155995 -0.019721234 -0.029490124
000030 b9 88 ee 3b 5e 9d 99 ba 6f 63 50 bb e9 5d cc bb
       0.007279482 -0.0011719873 -0.0031797548 -0.006236781
000040 24 0f 2b bc c9 05 0b 3b 4f 89 93 3b 40 9e ad bc
       -0.0104406215 0.0021213165 0.0045024524 -0.021193624
000050 fe 42 c0 b9 d9 6d a8 bb 4f 4f 12 39 db 0e 2b 3c
       -0.00036671007 -0.005140048 0.0001395319 0.010440554
000060 b5 a5 61 3c 1c a9 62 bc f0 3a cd bb 47 2a 36 bc
       0.013772418 -0.013834264 -0.0062631294 -0.011118478
000070 2c 45 6c 3c e7 49 f6 bb ae f2 eb bb d5 87 0b 3c
       0.014420789 -0.007516134 -0.0072005605 0.008516272
000080 23 93 b8 bb 13 d0 57 bb 29 d6 b5 bc e9 e5 7a bc
       -0.0056327744 -0.0032930418 -0.022196846 -0.015313604
000090 1a 35 e7 3c c2 4d c6 bb d3 2d c4 bc f2 69 3d 3c
       0.028223563 -0.00605175 -0.023947632 0.011560904
0000a0 5d 1b 83 ba 80 3b c5 3a 69 fc 8c 3b 9a c6 eb bb
       -0.0010002662 0.001504764 0.0043025506 -0.007195306
0000b0 92 cf 91 3c cb ff 6c bc c8 f3 15 bc 54 30 fb 3b
       0.017799173 -0.014465283 -0.00915236 0.0076656733
0000c0 51 80 24 3c 51 7b 20 bc 3a c3 ad 3b 0e c8 db bb
       0.010040359 -0.009795026 0.005302814 -0.006707198
0000d0 13 da c2 3c 9a cd c7 bb 3c 30 d2 bb ed 9b 73 39
       0.023785627 -0.0060975077 -0.0064144414 0.00023232373
0000e0 52 1f b2 3a 5b 46 1a bc 87 0f 00 bc 63 23 b9 3c
       0.0013589656 -0.009416188 -0.007816202 0.022599882
0000f0 01 97 f5 3c e7 68 0a bc 24 a9 16 bb e1 e5 09 3b
       0.02997923 -0.008447862 -0.0022989 0.002104156
000100 dc 76 af 3b 91 f6 64 3c d6 f5 5b bc 29 79 69 3b
       0.0053547453 0.013974802 -0.013425311 0.0035625196
000110 23 2b 7e bc 1d e1 28 bc bf 32 d6 3b 5e b5 50 3c
       -0.015513214 -0.010307577 0.006536811 0.012738554
000120 32 ad 85 3b ef d6 0d 3b b8 b3 1a 3c 21 87 a8 3b
       0.0040794844 0.0021643003 0.009442262 0.0051430617
000130 17 85 5b 3c ab bb 05 3b 0c be 3d bc 04 62 3e bc
       0.01339843 0.0020406048 -0.011580955 -0.011620048
000140 f5 da 4d 3c 7f 1d 37 3c 2a 56 b0 3b a2 b0 17 bb
       0.01256441 0.011176466 0.0053813653 -0.0023146053
000150 88 a9 96 3b 7d e7 29 3c 24 ee 20 3c 41 cd 50 3c
       0.0045978464 0.0103701325 0.009822402 0.012744249
000160 5d e7 f8 bb 0e 55 14 bb 05 aa 58 3c 6f 91 57 bc
       -0.00759594 -0.0022633704 0.01322413 -0.013157233
000170 de 45 5c bc af 40 45 bc 4f d1 44 bc 59 08 00 bc
       -0.013444392 -0.012039348 -0.012012794 -0.00781449
000180 18 c4 ee bb d0 1d 1b 3a 7c 2c 87 3a c7 97 71 bb
       -0.00728656 0.0005917223 0.001031294 -0.0036864148
000190 b5 96 b1 ba ba 73 45 3c b0 b7 28 3c 48 37 b0 bb
       -0.0013548943 0.012051517 0.010297701 -0.005377684
0001a0 6d 8f 22 3c f6 9a e9 bb ab 8f c6 3b 89 3f b4 bb
       0.009921891 -0.0071290685 0.006059607 -0.005500738
0001b0 a0 d8 36 3c c7 9f 4d bc 16 95 2c bc 93 1f 6a bb
       0.011160046 -0.012550301 -0.010533592 -0.0035724386
0001c0 7d e1 0c bc 1b 27 16 3b 40 c3 6e bb 21 51 45 3b
       -0.0085986825 0.0022911492 -0.0036432296 0.003010817
0001d0 ba 09 ca bb ea 13 05 bc 0f 86 22 3c 68 61 39 bb
       -0.0061657103 -0.008122424 0.009919657 -0.0028286818
0001e0 4a 73 e9 bb 3d 4f 84 bc 68 2d a9 bb c1 d9 58 3c
       -0.007124339 -0.016151065 -0.0051628835 0.01323551
0001f0 71 eb b0 38 e0 ad 8e 3b 65 5f 3d bc 2e d0 16 bc
       8.436188e-05 0.0043542236 -0.011558388 -0.009204907
000200 92 f2 17 3c 83 09 f4 bb 67 f0 b0 bb 16 4d aa 3b
       0.009274142 -0.007447423 -0.005399752 0.0051971776
000210 8c 09 01 bc 45 b2 42 3c bc 50 43 bc 29 e2 87 bc
       -0.007875811 0.011883323 -0.011921104 -0.016587334
000220 69 44 13 bc fa 82 15 3c f1 68 0b 3b 0d 33 a6 3b
       -0.008988478 0.0091254655 0.0021272267 0.0050720037
000230 8b 7c 58 bb 22 bc 80 3b 67 e0 a9 bc 0e 27 46 bb
       -0.0033033218 0.003928677 -0.020736886 -0.003023568
000240 83 f1 a9 bb 7c a7 85 bc 46 76 73 bc e8 57 b9 39
       -0.005186261 -0.016315214 -0.014859742 0.00035351445
000250 ec ba 0b 3c 0b 97 1f 3b 82 0e bb bc b1 c0 fa bb
       0.008528452 0.0024351503 -0.022834066 -0.007652365
000260 35 05 93 3b 4b d8 a8 bc a8 f2 c4 ba d5 2d b5 bc
       0.0044867047 -0.020610949 -0.001502593 -0.022116581
000270 27 49 cb 3c 72 a6 2f 38 25 89 78 3b 92 d8 b2 3b
       0.024815155 4.1878266e-05 0.0037923541 0.005457946
000280 46 ce e2 bb 37 b1 ff bb b4 6a 9f 3b 03 7a 73 3b
       -0.0069215624 -0.007803108 0.004865015 0.0037151582
000290 ae ca e8 3c a3 73 b4 3c 96 86 8a bc de 0e 15 bc
       0.028416958 0.022027796 -0.016909879 -0.009097783
0002a0 38 7e 01 bb 12 f6 7b bc 51 79 ce bb ca 87 48 3a
       -0.001975907 -0.015378492 -0.006301083 0.00076496287
0002b0 a3 3c cf 3b cc bf 65 3c 1a d1 34 3b c3 a0 22 bc
       0.006324367 0.014022779 0.0027590455 -0.009926024
0002c0 ee 18 10 bc c0 ad 07 3b 9d 64 7f ba 27 6e ae 3b
       -0.008795006 0.0020702928 -0.00097424706 0.00532319
0002d0 d0 dc 4b 3c d0 7a b6 3c 40 49 b5 bc 25 23 50 bc
       0.0124427825 0.022275358 -0.022129655 -0.012703692
0002e0 c4 75 4c bc 34 05 7f bc 25 5e 31 bc 82 28 6c bb
       -0.012479249 -0.015565205 -0.010825668 -0.0036034887
0002f0 00 f1 75 3b d2 94 4f 3c b6 80 4a 3c ee 16 02 3b
       0.003752768 0.012669759 0.012359789 0.0019850093
000300 ad 5c 50 3c 7b 2d c4 3a ed 2b 48 3c 97 ca 21 bc
       0.012717408 0.0014967168 0.012217504 -0.009874961
000310 d4 43 3f bc 14 ce 68 bc e3 5c 8c bb a7 f8 9c 3b
       -0.011673886 -0.014209289 -0.004283534 0.004790384
000320 86 90 63 bc 3d 6c 66 bc d8 aa 81 bc 59 45 9d bc
       -0.013889438 -0.014063892 -0.015828535 -0.019198107
000330 16 9f 7f bb 81 30 52 bc 74 0a 08 3b 78 d3 65 3b
       -0.0039004735 -0.012828947 0.0020758184 0.0035068672
000340 a8 d8 81 ba 3a de d3 b9 d9 e7 08 3c ec 2b 58 39
       -0.0009906488 -0.00040410628 0.008356058 0.00020615727
000350 f6 1b 16 bc 53 11 52 3b 99 8a 18 bc 3c eb 0d bc
       -0.00916194 0.0032053783 -0.009310388 -0.008662041
000360 b2 e7 24 3c 4c ac 44 bc f1 08 a0 3a 5d b0 3f bc
       0.010065006 -0.012003969 0.0012209696 -0.011699763
000370 61 ff 09 bb 30 c9 73 bc 1a 30 9c bb 9c 3f 93 bb
       -0.0021056759 -0.01487951 -0.0047664763 -0.004493667
000380 f5 4c ad bb 5e be a6 ba 56 1d f9 ba f3 4c 07 3b
       -0.005288715 -0.0012721529 -0.0019005935 0.002064523
000390 90 15 0c bc 3b 87 26 bc 28 bd da bb 01 4c e7 bb
       -0.008550063 -0.010164077 -0.006675381 -0.007058621
0003a0 6c dd 2b 3b 6f b1 24 3c a4 fa 1d bc 1c 9d b1 bc
       0.0026224507 0.010052069 -0.009642277 -0.02168136
0003b0 07 2f cf bb a6 b6 07 3c c8 1d c4 b9 d4 42 37 3c
       -0.006322745 0.008283293 -0.00037406222 0.011185367
0003c0 57 07 c1 3b f7 a1 5b 3a c0 ab 32 bc 3b ca 82 bb
       0.0058907676 0.00083783217 -0.010905206 -0.003991393
0003d0 a9 23 34 bc e4 b4 b7 bc b8 55 1a 3c 6b 2b 38 3c
       -0.01099483 -0.022425123 0.009419851 0.01124082
0003e0 46 29 50 bc d7 b7 08 bc a3 f6 23 bc f3 ed ba bb
       -0.012705153 -0.008344612 -0.010007533 -0.0057046353
0003f0 fc 58 9a 3b 27 99 8b bc b5 47 58 bc 72 f3 ce ba
       0.004710315 -0.017040802 -0.01320069 -0.0015789105

fc.bias f4 [10]
000000 3d ed 85 3d 7e 00 c7 3c 58 a3 ab 3c e3 1c 98 3c
       0.0653939 0.024292227 0.020951912 0.018568462
000010 5e 77 5a bc 6a 55 03 bd eb 0a 83 bc 9a 19 0d bd
       -0.013334123 -0.03206388 -0.015996417 -0.034448244
000020 e6 22 19 bd 41 7b bf bc
       -0.037386797 -0.023374202
