LAB 3/Results/CNN_L2_lr001_sgd.ckpt (torch, 107679 bytes, 6 tensors)

conv1.weight f4 [16, 3, 5, 5]
000000 4a a2 8d 3c 14 47 ba bd bb e9 a8 bb e4 b4 e1 3d
       0.0172893 -0.09095588 -0.005154816 0.1102083
000010 77 55 3a bd d2 89 15 bd cd 61 b9 bd a8 db 8d bd
       -0.045491662 -0.03650839 -0.09051857 -0.06926662
000020 2f 06 d7 3d 99 aa a4 bc 64 76 81 bd 36 6a 9e bd
       0.10499226 -0.020100879 -0.06321409 -0.07735102
000030 4a 65 ad 3d 50 f5 b1 bc 40 8d d3 bd 06 b1 62 bc
       0.08466585 -0.02172342 -0.10329676 -0.013836151
000040 07 4d d6 3c 8a 1d 83 bd d2 9c e1 3d d3 e3 a1 bd
       0.026159776 -0.064021185 0.11016239 -0.07904782
000050 17 3a cd 3d 99 fc b7 3d 3f c9 e1 bc 08 c5 bc bd
       0.100208454 0.08983726 -0.027561782 -0.09217268
000060 eb 08 75 3c b2 57 ad bd 69 82 a6 3d b4 ab 82 bd
       0.0149557395 -0.08463992 0.081303425 -0.06380406
000070 18 fc e5 3d 6f 27 84 bd 38 51 85 3c 82 b9 94 3d
       0.11229724 -0.06452834 0.01627408 0.07261945
000080 0a 3e 00 bc 41 24 d5 3c 56 25 d4 bd 0d f2 8f 3d
       -0.007827291 0.026018264 -0.10358684 0.070285894
000090 5c e2 41 bd 8f 6d 93 3d 8b 98 9c bc 98 a7 e0 bd
       -0.047335014 0.07198631 -0.019115707 -0.10969466
0000a0 01 79 9e 3c bd d1 56 bd 76 fc 3c 3d 74 a6 aa bc
       0.019344809 -0.052446116 0.046139203 -0.020831324
0000b0 52 49 88 bd 13 a3 c9 3d e1 6e 40 bd b3 e1 86 3d
       -0.0665461 0.09845557 -0.046980742 0.065860175
0000c0 ac 15 ca bd e1 78 54 3d 43 ca 95 bd 63 ea c7 bc
       -0.09867415 0.05187309 -0.07313969 -0.024403756
0000d0 5b f7 e7 3d 1d e5 9f 3d ca 71 36 bd 29 0b 27 3d
       0.11326476 0.07807372 -0.04454211 0.040782128
0000e0 8d 49 cf bb 9e 2e 4a 3d e9 37 5f 3d 12 42 a8 3b
       -0.0063259066 0.049360864 0.05449668 0.0051348293
0000f0 79 10 cb bd 33 d6 63 3c 51 1e c3 3d 83 be 9f 3d
       -0.09915251 0.01390605 0.09527267 0.07800009
000100 4e c5 cf bd db 40 4a bd ab eb b6 bc 3d ec 8c 3b
       -0.10145055 -0.049378257 -0.022329172 0.0043006227
000110 15 e5 0e bd eb 1f 20 3d e2 75 3f 3d 72 e1 82 3d
       -0.03488644 0.03909294 0.04674328 0.063906565
000120 d9 7a 26 3c 5b 62 3c 3c 22 18 e2 bd ae a5 e0 3d
       0.010161125 0.011498059 -0.11039759 0.10969101
000130 4e ad a6 3c b5 10 b6 3d c2 ef b1 3d dc e5 b5 3b
       0.02034631 0.08889905 0.08688308 0.005551083
000140 46 05 a7 3c 73 3c 92 bd 43 a9 4c bd 8c 3a 19 3d
       0.020388257 -0.07140436 -0.049966108 0.03740935
000150 d5 a4 38 3d 35 5c 0f bd b9 83 b3 3d d6 9b b5 3d
       0.04507907 -0.035000045 0.087653585 0.08867614
000160 18 49 da bd c0 3b 48 3d 45 a1 af bd e9 98 55 bd
       -0.10658473 0.048885107 -0.085756816 -0.05214778
000170 09 d5 c2 3d 2f 87 22 bd d8 6e c2 3d 97 31 d5 3d
       0.095132895 -0.039679702 0.09493798 0.10409849
000180 1c 40 55 3d 5a e2 d0 bd 63 b7 a8 bd 49 21 51 3d
       0.052063093 -0.10199423 -0.08238103 0.051057134
000190 0a a5 d3 bd 9e e1 04 bd 4a 3f ff bb f6 bc 3e bd
       -0.10334213 -0.032441728 -0.007789527 -0.046566926
0001a0 c3 30 16 3d 11 38 f6 3d 81 51 b3 3c 19 65 ae 3d
       0.036667597 0.120224126 0.02188945 0.085153766
0001b0 fb 91 d6 3d e2 a0 1d bd 51 e7 87 bd 25 70 e8 3c
       0.10477062 -0.038483508 -0.06635917 0.028373787
0001c0 22 ee ae 3d a0 4d a8 bc 93 4b a3 bd 0b 43 c1 3d
       0.08541514 -0.020544827 -0.07973399 0.094366156
0001d0 18 69 9b bd a4 7d e8 3d 40 bf 54 ba a3 d3 c2 3c
       -0.075884044 0.11352089 -0.00081156567 0.023782557
0001e0 ce c9 8c 3d a4 5b b4 bd ba 32 e7 bc d2 f6 06 3d
       0.06874429 -0.088065416 -0.02822243 0.03295023
0001f0 02 cd b1 3b 90 84 c4 3b e7 07 98 3c ee fb da 3d
       0.00542605 0.005997248 0.018558456 0.10692583
000200 f7 5f a9 3d 41 1f d2 3d 8f 2c 42 3c 3e 49 f1 3d
       0.08270257 0.102598675 0.011851444 0.11781548
000210 e3 3a 81 3d fc 6f 46 3d e9 a4 23 bd f6 c3 ce 3c
       0.0631006 0.04844664 -0.039952192 0.025239926
000220 b0 83 40 3d 3f 71 28 3d 0c 05 85 3d c5 27 f3 bc
       0.047000587 0.041123625 0.06495103 -0.02968205
000230 d5 fa f4 3b 32 47 0a bb 2e 34 a5 bd cc 44 0f bd
       0.0074761906 -0.0021099565 -0.08066593 -0.03497772
000240 23 89 d2 bd 84 1c 5f bd a5 05 c3 3d b1 36 39 3c
       -0.10280063 -0.054470554 0.09522561 0.011304543
000250 05 e2 9b bd 6c b4 9c 3c b4 2c 95 bd 82 fb 5e 3d
       -0.07611469 0.019129 -0.07283917 0.054439075
000260 10 8e 85 bc 33 21 db bc 2a bb 5d 3d 35 01 e9 bd
       -0.016303092 -0.026749229 0.05413357 -0.11377183
000270 68 65 e3 bc 15 1c 71 3d bd 27 68 bb 99 69 50 bd
       -0.027758315 0.05886467 -0.0035424076 -0.050881956
000280 7d cc be 3d 0c 63 40 bd 09 13 c1 3d 5a de d0 3d
       0.09316347 -0.04696946 0.09427459 0.1019866
000290 aa 01 f5 3d d2 de 94 3d c5 8c 45 bd c1 d5 45 3d
       0.11963208 0.07269062 -0.04822995 0.048299555
0002a0 24 56 43 3d e4 39 da bc 56 3a 65 bc d7 de e2 3d
       0.047689572 -0.026638933 -0.013990959 0.110776596
0002b0 1f e2 11 bd 89 ae a1 bd d6 a4 f9 3d c0 8a 67 bb
       -0.035616037 -0.07894618 0.12189643 -0.0035330504
0002c0 0b 3b 99 3d 44 ed 9d 3c 22 7e ed 3d 58 30 c2 3d
       0.07481965 0.019278176 0.115963235 0.09481877
0002d0 12 71 96 3d 4e 43 e3 bc c6 99 ac 3d 74 b4 ae 3c
       0.07345785 -0.027742054 0.084277675 0.021326281
0002e0 ea 55 10 bb 1f b4 c3 3d 4e 73 a3 3d 74 4d 02 3e
       -0.0022023865 0.0955584 0.07980977 0.12724859
0002f0 55 3d f5 3c 7b b2 91 bd 6a 44 14 3d 76 09 f4 bc
       0.029936472 -0.071141206 0.036198057 -0.029789668
000300 75 99 7a bd 10 60 4e bd de 04 d0 3d b3 27 d8 bd
       -0.061181504 -0.05038458 0.10157178 -0.10554447
000310 a7 49 7d bd d7 a3 ae 3d 26 e7 4d 3d 60 b6 1d 3d
       -0.06183782 0.08527344 0.05026927 0.038504004
000320 45 cd a7 3d d0 7a 6f bd 5a ad c5 bc 32 3b f5 bc
       0.08193449 -0.058466733 -0.024130512 -0.029935453
000330 3c ad de 3d 01 9c 03 bd 83 2c 04 3d b9 cf 80 bd
       0.108728856 -0.0321312 0.032269012 -0.0628962
000340 c3 c0 07 3e 1b 47 38 3d 78 61 c7 bd 50 2d 58 3d
       0.13257127 0.044989686 -0.097353876 0.05277759
000350 17 d3 a1 3d aa be fc 3d fb 98 7c bd 01 88 1c 3d
       0.0790159 0.12341054 -0.06166933 0.03821564
000360 7c b2 95 bd 36 7d bd bd 01 8f bc bc bb ba d6 3d
       -0.07309434 -0.09252398 -0.023017408 0.10484835
000370 54 3f 51 bd db 21 ec bb 48 bc 4b 3d e3 a9 00 bd
       -0.051085785 -0.0072061843 0.049740106 -0.031412017
000380 ce e5 c0 bc 7d c2 a0 bd 96 34 28 bd 2a b6 73 3d
       -0.02354708 -0.07849596 -0.041065775 0.059499897
000390 36 3f 97 bc 29 96 f8 3d 56 70 b1 3c 0c de e3 bd
       -0.018462759 0.12138016 0.021660011 -0.111263365
0003a0 f3 e5 cd 3d 6c 81 a6 bd 87 68 88 3d 1c b2 b0 3d
       0.10053625 -0.08130154 0.06660562 0.08627722
0003b0 4d a8 db 3c a5 33 d4 bd 72 08 bf 3d f5 f6 96 bd
       0.02681365 -0.10361413 0.09327783 -0.07371322
0003c0 e8 39 8b 3d 22 ff 14 3d dd 57 b0 bd 27 5f de bd
       0.06798154 0.036376126 -0.086105086 -0.108579926
0003d0 52 a4 70 bd 68 44 93 bd ac 2f 47 3d cc 24 04 3d
       -0.058750458 -0.07190782 0.048629448 0.032261655
0003e0 49 8c cf 3d 0c 6a 87 bd 13 eb 2e bc 46 14 ae 3d
       0.10134179 -0.06612024 -0.010676163 0.084999606
0003f0 87 d7 d2 bc 01 f1 94 3d 08 37 cd 3d 1a 3d a8 bc
       -0.025737537 0.0727253 0.10020262 -0.020536948

conv1.bias f4 [16]
000000 a3 06 cb bd cd e2 18 3e 6a 64 10 bc ef 7a e4 bc
       -0.09913375 0.14930268 -0.008813003 -0.02789065
000010 d1 58 83 bd 34 82 1e 3d e9 66 8a 3c 53 95 08 3d
       -0.06413425 0.03869839 0.016894775 0.03334553
000020 43 c4 af bc 48 76 58 3d 13 e7 9e 3d 5c bf 7a bd
       -0.02145589 0.052847177 0.07758918 -0.06121765
000030 8d fc 31 bd 7d 94 25 bd d4 64 e2 bd 3a 53 ca 3c
       -0.04345374 -0.040424813 -0.11054388 0.024697889

conv2.weight f4 [32, 16, 3, 3]
000000 cb b7 1e 3d b8 4a 97 3d 5e 12 68 3d 5e 7d 27 bc
       0.038749497 0.07387298 0.05665814 -0.010222761
000010 82 5d f9 bb 4a a1 08 3c 02 f3 9c 3d bc 51 1b ba
       -0.007610024 0.008339236 0.076635376 -0.000592496
000020 d1 ab 93 3c 25 fb b9 3c 63 d7 72 3d 34 e5 a8 3d
       0.018026264 0.022702763 0.05928744 0.08246842
000030 20 52 88 3c 42 f9 5c 3d ff cd 8c bd 37 98 a2 bd
       0.016640723 0.05394865 -0.06875228 -0.07939189
000040 4a ff 7e bb cc c5 9b bd 0c cf 04 bd 0a 9a 51 bd
       -0.0038909488 -0.07606086 -0.032424018 -0.051172294
000050 97 ba ab 3d 62 9c 3e bd cf 87 0f 3d 13 a3 5d 3d
       0.083851986 -0.046535857 0.035041627 0.054110598
000060 99 66 41 3b df 78 63 bb bb 9a 8a bd 3c 75 2b bd
       0.0029510616 -0.0034709496 -0.06767794 -0.04185985
000070 97 77 a7 3d 8d 60 83 3d 5d 0f 7b 3d fc 87 3a 3d
       0.08177107 0.064149 0.06129395 0.04553984
000080 ac ef 75 bd d0 b2 8b bd 0c 71 a8 3d d1 46 8f bd
       -0.060043022 -0.06821215 0.08224687 -0.06995929
000090 d8 35 6f 3d 27 c6 fa bc 23 c1 92 bd 9e f9 17 3d
       0.05840096 -0.030612065 -0.07165744 0.037103288
0000a0 56 f2 18 3c 0a 74 a8 bd 67 fd 4e 3d eb 92 00 3d
       0.009335121 -0.08225258 0.050534632 0.031390112
0000b0 dd 2c 03 bd ab 8d 0c bd bf 5b 95 3c 0b 4b 84 3d
       -0.032025207 -0.034314793 0.018232225 0.06459626
0000c0 d9 38 86 bd 98 06 11 bd 6a 23 b5 bc 3c 1e 85 3d
       -0.065538116 -0.03540668 -0.022111613 0.064999074
0000d0 e5 71 55 3c 4d b3 a0 3c 09 d2 1b 3a 0d 28 4f bd
       0.013027643 0.019616747 0.00059440784 -0.050575305
0000e0 2e ec 33 3d 22 be 46 bd 44 a3 10 bd b9 64 84 3d
       0.04392641 -0.04852117 -0.035311952 0.06464524
0000f0 43 1c 6c bd d0 e2 79 bd e5 95 d3 bc 71 98 7c 3d
       -0.05764414 -0.06100732 -0.025828311 0.061668817
000100 df 41 ad 3c 2f d6 3a bd 19 08 5e 3b 5d 72 3c bd
       0.021149574 -0.045614418 0.0033879338 -0.046007503
000110 f7 32 03 bd 0e ce 45 bd ac 48 93 3d 75 9b 80 3d
       -0.032031026 -0.048292212 0.071915954 0.06279651
000120 f0 fc 10 bc 6b ed 76 bd 81 8e 28 3a d9 4e a4 bd
       -0.0088493675 -0.060285013 0.0006429926 -0.080228515
000130 3f f5 45 bc de 13 42 bc d9 99 84 ba 71 af e3 3c
       -0.012082397 -0.011845557 -0.0010116651 0.027793618
000140 c8 86 66 bd 1b ea 6c 3c ee 3c 35 bd 27 23 9c 3d
       -0.05628088 0.014460112 -0.04424756 0.07623892
000150 66 74 bf bc 32 49 ef bc 6d df 52 bd 01 61 a6 bc
       -0.023370933 -0.029209707 -0.051482607 -0.020309927
000160 65 5c af bc da 58 05 bd 27 2a 5c bb db 4b 03 bd
       -0.021406362 -0.03255544 -0.003359446 -0.032054763
000170 8c e8 36 3d dd 1a 82 3d 17 1f 9d bd 68 d3 10 3d
       0.044655368 0.0635278 -0.076719455 0.035357863
000180 c0 e6 24 3d 69 64 0d bd 71 e6 85 3c bb 19 ce 3c
       0.040259123 -0.034519587 0.016345235 0.025158754
000190 6a 4b 14 bd 62 60 1b 3c 95 24 d6 3b 9e 66 3e bc
       -0.036204733 0.009483429 0.0065351226 -0.0116211455
0001a0 25 78 ea bc 0b fb 16 3d 63 b3 92 bd 91 00 4e 3c
       -0.028621743 0.036860507 -0.071631216 0.012573377
0001b0 5e 82 53 bd b9 25 60 bd f0 58 63 bb 0e b5 38 3d
       -0.051638 -0.054723475 -0.0034690462 0.045094542
0001c0 3a 34 ff bc 60 da 82 3d 14 1b 1f bd 33 1b 7a bd
       -0.031152833 0.06389308 -0.038844183 -0.061061095
0001d0 28 fd 8a bd 54 25 3f 3d 73 d5 2c bd df f9 95 bd
       -0.06786567 0.04666646 -0.04219575 -0.0732305
0001e0 15 9c 2f 3d 4f d5 13 3d 14 29 a6 3d 74 36 1a 3d
       0.04287346 0.0360921 0.08113304 0.037649587
0001f0 7a 49 a0 bd a3 4e 20 3d 4a da a4 3d 72 3a 43 bd
       -0.078265145 0.039137494 0.08049448 -0.04766316
000200 a1 51 9d 3d bf 2a 9a 3d 5a 0f 40 3d e5 f3 95 bc
       0.07681585 0.075276844 0.04688964 -0.018304775
000210 a8 ae 6f bd 00 c9 8f bd 6c f3 d5 bc 77 00 98 bd
       -0.058516175 -0.070207596 -0.02611705 -0.07421964
000220 51 81 4f 3d ff ee 46 bd 7c ab 88 bd 2f fc 77 3d
       0.050660435 -0.04856777 -0.06673333 0.060543235
000230 06 a2 54 bd 6d df 71 3d 3a 28 9a bd b4 ea 57 bd
       -0.05191233 0.059050966 -0.07527204 -0.052714065
000240 16 0f fe 3c d0 75 0b bd 80 20 30 3b d0 a6 47 3d
       0.031013053 -0.0340479 0.002687484 0.04874307
000250 f4 76 9e bd 60 14 55 3d 00 b9 8b bd 70 8e 6f 3d
       -0.07737532 0.052021384 -0.06822395 0.05848545
000260 6b 3f f3 bc 86 c1 50 bd ab ad 4e 3c a6 46 00 bd
       -0.029693326 -0.05096581 0.012614648 -0.031317376
000270 f6 58 30 bc 89 a4 f5 bc d8 ed fa 3b db 3b 0e bd
       -0.010763397 -0.029985683 0.0076577477 -0.03472505
000280 05 9b d4 3b 54 09 a7 3d e0 23 9c bd 86 ed 8c 3c
       0.0064882063 0.08156076 -0.0762403 0.017203104
000290 c0 8c 04 3c 2b 21 90 3c a2 0f c3 bb 32 9b 8b 3d
       0.008090198 0.01759394 -0.0059527913 0.068167105
0002a0 76 8c 98 3c 18 40 f4 bb 9e 08 ff bc 00 6c a3 3b
       0.018621664 -0.0074539296 -0.031132039 0.00498724
0002b0 16 c1 1e bd ab fc 1a 3a 80 80 91 3c 96 d5 e0 bb
       -0.03875836 0.0005912284 0.017761469 -0.006861399
0002c0 5b 7c 54 3d 16 4a 73 bc 70 40 cd 3c f2 d8 a0 bd
       0.051876407 -0.014849206 0.02505514 -0.07853879
0002d0 db 0b 85 3d 7b 67 7d 3d 83 89 6b bd ab 83 6d bd
       0.06496402 0.061866265 -0.05750419 -0.057986896
0002e0 74 8b d8 3c 36 0f a8 3d 76 33 1d 3d 2b 8b fb 3c
       0.026433684 0.08206026 0.038379155 0.030706009
0002f0 c6 1f 2e 3d 4b b7 a0 3c 80 b2 56 bc 36 d1 b5 3c
       0.04251077 0.01961865 -0.013104081 0.022194486
000300 8f 44 9f 3d 8c f0 9e 3d 50 86 1e bd 46 1b 61 bd
       0.077767484 0.077607244 -0.03870231 -0.05495765
000310 60 da e9 bc 36 6c 01 bc 90 fc 52 3d 28 62 2f bd
       -0.028546512 -0.007899335 0.051510394 -0.04281822
000320 f8 e4 7b bd 38 27 a0 bd 73 91 63 3c 0b ca 92 bd
       -0.06149766 -0.078199804 0.013889658 -0.07167443
000330 36 bc 7f bd d1 55 84 bd 38 33 04 bd a0 10 0e 3c
       -0.06243535 -0.06461681 -0.03227541 0.008670956
000340 1e 8f 14 bd 18 3c 63 bd 78 a1 60 bd be 70 83 bd
       -0.0362693 -0.05547723 -0.05484149 -0.06417988
000350 ec 58 a9 bc 96 bc c3 3b 01 19 0a bd d6 a6 96 3d
       -0.020672284 0.005973409 -0.03371525 0.0735604
000360 c0 1e 47 bc 0e 11 1a 3d 06 f3 a1 3c e6 ac 2f bd
       -0.012153327 0.03761392 0.019769203 -0.0428895
000370 3f e9 2c 3b 02 b9 18 bd f8 dd 37 bd a9 86 a7 3d
       0.0026384143 -0.037285812 -0.04488942 0.08179981
000380 ce 5c bd bc 1b ab 6f bd 2b 8b ee 3c 33 fa 9d bd
       -0.023115542 -0.05851279 0.029119095 -0.07713737
000390 a4 7b 85 bd e4 54 08 bc 2b fb c8 3b 00 39 0b 3b
       -0.06517723 -0.008321021 0.006133457 0.0021243691
0003a0 b0 66 bc bc 40 29 d4 3c 76 f6 7f bc a8 73 09 3d
       -0.022998184 0.025898576 -0.015622726 0.033557564
0003b0 8b 08 87 bd db fc af 3c d7 5f db 3b d3 d0 79 3c
       -0.06593426 0.021482876 0.0066947746 0.0152475415
0003c0 a0 4e c9 3c 6e 44 6e bd 60 b8 c5 bc 3b b4 d5 bc
       0.024573624 -0.05817073 -0.024135768 -0.026086917
0003d0 36 09 23 3c f8 cc 99 bd 6b e7 9c bd c4 90 a4 bd
       0.0099509265 -0.07509798 -0.07661327 -0.08035424
0003e0 1b 7c 54 3c 76 bf b8 bc eb 1f 66 bd 0c 67 d0 3c
       0.012969042 -0.022552233 -0.056182783 0.025439762
0003f0 cb e9 55 3d c0 73 24 bc a3 02 32 bd ac 71 90 3d
       0.052224915 -0.010037363 -0.043459546 0.07052931

conv2.bias f4 [32]
000000 65 97 bb bc 16 88 83 bd ba 37 91 3c 04 88 cf bc
       -0.022899339 -0.06422441 0.017726768 -0.025333412
000010 ca a7 a0 3c 04 1e 15 3c 17 de 5e bd f3 e2 c1 3d
       0.019611258 0.009101395 -0.05441102 0.09467115
000020 7d e6 13 bd a4 58 56 bd a4 12 56 bc c0 ba 10 bd
       -0.036108483 -0.052330628 -0.013065968 -0.03533435
000030 07 83 b8 3d d6 02 67 bd 50 e8 40 3d c8 09 e6 3c
       0.090093665 -0.05639919 0.04709655 0.028080836
000040 23 53 fb bc 3a 55 12 bd 24 cd 3c 3d 4e 71 03 bc
       -0.030679291 -0.03572581 0.046094075 -0.008022619
000050 8a 11 a0 bd f7 61 04 3e 7e f5 b7 bc 49 dd 6d 3d
       -0.07815845 0.12927996 -0.022455927 0.058072362
000060 f9 23 85 bd 0d 7d 32 bd 91 46 2f bd 46 df 0a bd
       -0.06501002 -0.04357629 -0.042791907 -0.033904336
000070 34 2e f3 3c d5 33 9d bd 49 03 85 bd 8e e8 1b 3e
       0.029685117 -0.07675902 -0.06494767 0.15225431

fc.weight f4 [10, 2048]
000000 dc cd 5a 3b bb d1 ac 3c 01 41 96 3b 00 88 8f bc
       0.0033386862 0.021096101 0.004585386 -0.017520905
000010 e2 cd ef bb e1 de 1e bc cb 43 f4 3b 1e 6c 9b bc
       -0.0073182443 -0.009696693 0.0074543706 -0.018972453
000020 bf d7 bd 3b 71 bb 6b 3c d1 cf 6a bc eb 79 b1 3c
       0.005793541 0.014387951 -0.014331774 0.02166458
000030 10 16 aa 3c 5f 1a a1 3c ef 64 6b bc b6 d8 6d bc
       0.020762473 0.019665895 -0.014367326 -0.014517
000040 48 f9 b1 bc b7 89 a8 bc b1 c8 6e 3c 23 e0 94 bc
       -0.021725312 -0.02057348 0.014574216 -0.018173283
000050 44 93 e0 3b 2b 7c 58 3c 78 40 a0 3c 0d c1 28 bc
       0.006853493 0.013213198 0.019561991 -0.010299933
000060 ff ea 5b bc 7e d3 f1 3b 0a 90 90 3c 98 e4 ac 3c
       -0.013422727 0.007379948 0.017646808 0.021105096
000070 7b f3 89 3c de c1 7b bc 9e e2 86 3c 03 45 f4 ba
       0.016839733 -0.015366046 0.016465481 -0.001863629
000080 3b 3e 0b ba bc be 37 3c c0 f5 a7 3c 26 2e d8 39
       -0.0005311702 0.011214908 0.020502925 0.00041233114
000090 c4 a3 ac bc 3f 66 5a bc ce 1a a3 3b bb 94 de bb
       -0.021074183 -0.013330041 0.0049775606 -0.0067926324
0000a0 8a 1c 0e 3c d7 f6 41 bc 05 27 3a 3c 02 9b a9 3b
       0.008673796 -0.011838636 0.011361842 0.005175949
0000b0 0d 28 49 3b 8a 8e 64 3c 96 02 94 3c cc aa 9e 3b
       0.0030694038 0.01395 0.01806764 0.004842138
0000c0 1f 7c b6 b9 85 84 ce ba c0 f0 9f bb b2 09 77 bc
       -0.00034806223 -0.0015756047 -0.0048809946 -0.015077995
0000d0 45 b2 b2 bc 15 4f 56 bc 6a 81 a7 3c 62 f1 72 3c
       -0.021813521 -0.013080378 0.020447452 0.014828058
0000e0 33 e9 91 bb b4 40 05 3c 90 8a 4b 3c bd 4b ea 3b
       -0.0044528483 0.008133102 0.012423173 0.007150142
0000f0 09 71 a2 3c ca d1 9e 3b 26 20 75 bc 9f e7 25 bc
       0.01982929 0.004846786 -0.014961278 -0.010126024
000100 e6 8a 46 ba e3 f4 40 3b cd fc a1 bc c7 c8 ad 3c
       -0.0007573798 0.002944284 -0.019773865 0.021213902
000110 4b 01 26 ba 01 22 3a 3c 7c 6a 88 3c dd 63 2d bc
       -0.000633259 0.011360646 0.016652338 -0.010582891
000120 72 2c 18 3c 71 64 1a ba 23 a5 b0 bc 6e 26 56 3c
       0.00928794 -0.0005889601 -0.021563118 0.013070686
000130 8f 48 58 3c 90 fa 6d bc e2 cb ae 3c 44 8e b1 3c
       0.013200893 -0.014525071 0.021337453 0.021674283
000140 ee ea 19 3c b1 d9 d8 3b 7f 21 b1 bb 40 17 9f bc
       0.0093943905 0.0066177477 -0.0054056044 -0.019420266
000150 44 8a 8d bc 22 db ec bb ea d2 14 bc 23 03 af bc
       -0.017277844 -0.007228271 -0.009083489 -0.0213638
000160 88 49 0c bc 49 78 d9 39 e0 2b 92 3c e7 40 ef bb
       -0.008562453 0.00041479085 0.017843187 -0.007301438
000170 87 90 52 3c 49 27 e0 3b 51 46 86 3b d6 41 66 bc
       0.012851841 0.0068406207 0.004097738 -0.014053782
000180 2d c3 2e bb 7f ae 29 bb 62 f2 37 3c 01 3a d7 3b
       -0.0026666627 -0.0025891361 0.011227222 0.006568194
000190 40 d1 37 b9 6f af b4 3b 01 8c 42 3c a7 57 23 bc
       -0.00017530192 0.0055140774 0.0118742 -0.009969628
0001a0 0d 46 9b bb ca f9 85 bc 9d 6e 10 3b e1 c4 ba ba
       -0.0047385753 -0.01635446 0.0022038587 -0.0014249348
0001b0 72 47 10 3c 04 93 9a bc 9d 13 98 bc 77 4d 71 3c
       0.008806096 -0.01886893 -0.01856404 0.014727942
0001c0 5e 17 24 bc 1f e7 27 bb ee df 7d bc b1 27 b0 bb
       -0.010015337 -0.0025619937 -0.0154952835 -0.0053758253
0001d0 d8 2d 19 3c d6 95 f9 3b f8 6e 03 38 d6 fb 3e bc
       0.009349309 0.007616739 3.133618e-05 -0.011656722
0001e0 fc 6b 14 bb b6 7e a4 3c 83 00 54 3c 52 c6 b9 bb
       -0.0022647372 0.020079952 0.012939575 -0.0056693936
0001f0 8c 40 a3 bc 3e 5f 8a 3b df 0f cd 3b 27 34 06 3c
       -0.01992824 0.0042227795 0.0062579955 0.008191145
000200 50 2d 90 3c 88 84 8f 3c 3f e0 88 bc 05 0a bf bb
       0.017599732 0.01751925 -0.016708491 -0.005830052
000210 9e 29 8d 3b b5 a1 9b 3c 2a 81 b6 bc 69 27 0b 3c
       0.0043079397 0.018998006 -0.022278387 0.008493283
000220 f4 db 48 bc 41 20 e8 3b a0 56 b2 3c b5 68 12 bc
       -0.012259472 0.007083923 0.021769822 -0.008936097
000230 81 eb 81 3b aa e3 2b 3a 87 9c a7 bc c1 1b a5 3b
       0.003964842 0.0006557057 -0.02046038 0.005038709
000240 f4 ec 42 3c be ee 9a 3b 55 97 d0 bb 19 a9 94 3c
       0.011897314 0.0047281673 -0.0063656964 0.018147038
000250 63 f2 27 3b 2e 64 20 3c 90 7e 6e bb 59 db 48 3c
       0.0025626651 0.00978951 -0.0036391355 0.012259328
000260 88 59 c7 3b 15 29 b7 bc f4 85 a2 bb 69 d8 f0 3c
       0.006083671 -0.022358457 -0.004959816 0.029400067
000270 8a c2 c0 bb c4 64 8e bb 70 55 5b bc 0f b3 14 3c
       -0.005882566 -0.0043455083 -0.013387069 0.009075894
000280 dc c2 94 3c 65 03 b9 bc 47 d0 8c 3c ab 5a 15 3c
       0.018159322 -0.022584626 0.017189158 0.009115855
000290 ba 6a 9a bb 69 61 4f 3c 8c 6f 92 3c 29 e3 66 bc
       -0.00471243 0.012657502 0.017875455 -0.014092245
0002a0 b1 e4 81 3c fd 15 ab bc c7 04 ba ba 86 9f 5f bc
       0.015856119 -0.020884508 -0.0014192098 -0.013648873
0002b0 f8 14 6d 3b 8e 21 7c 3c 59 30 44 3c 3d cb 6a 3c
       0.0036175828 0.015388859 0.011974418 0.014330682
0002c0 f1 95 98 bc 8a 3f dc bc 4e 84 80 bc 00 c0 3a 3c
       -0.018626185 -0.026885767 -0.015688088 0.011398315
0002d0 ad d7 2a bc c1 ea a2 3c 8d fc ee 3a 67 74 0d 3c
       -0.010427398 0.01988733 0.0018233225 0.0086337095
0002e0 7f 0e 62 bc 35 2e 40 3c 54 64 a0 bc ab 2d 6f bb
       -0.013797401 0.011729767 -0.01957909 -0.0036495726
0002f0 50 6d a3 3a 46 ce 56 bc 4e 9d cf 3b 00 70 67 bc
       0.0012468491 -0.013110703 0.006335891 -0.014125824
000300 f0 74 8a 39 71 35 e5 3b 1e cc a4 3c 7b fe 5a bc
       0.00026408536 0.006994896 0.020116862 -0.013366337
000310 06 08 ad bc 77 a6 4b bb 89 29 8c bb 6b 8f ac 3c
       -0.02112199 -0.0031074563 -0.0042774123 0.02106448
000320 28 81 6e bb a3 9b 99 bc 02 3d 9e bc bf b1 eb bb
       -0.00363929 -0.018750971 -0.0193162 -0.00719282
000330 0d c5 ab bc 50 87 0a 3c be fb 37 3c 13 5b 68 3c
       -0.020967985 0.008455113 0.011229454 0.01418187
000340 6d 11 9e 3c cf 2c 6a 3b 92 c7 b3 3c ae 81 a2 bc
       0.019295419 0.0035732274 0.021945748 -0.019837227
000350 8a 46 08 bb f8 be 50 3c 2c 99 83 bc 53 37 ac bc
       -0.0020793998 0.012740843 -0.016064249 -0.021022474
000360 9c d1 a3 3c 33 f2 99 3c 41 3c 16 bc f9 ec 60 3c
       0.01999741 0.018792247 -0.009169639 0.013728374
000370 7f cc 80 3c 03 f8 06 bc 23 10 89 bc e0 c6 79 3c
       0.015722511 -0.008237842 -0.016731327 0.015245169
000380 a2 8f b8 bb d0 71 17 bb 46 a1 78 bb cc 09 61 bc
       -0.0056323567 -0.002310861 -0.0037937923 -0.013735246
000390 e1 59 3c bc 15 a5 fe 3b cb ba a9 bc 93 98 e8 38
       -0.011496038 0.007771144 -0.020718953 0.00011091041
0003a0 c3 62 ea 3b 39 3f b1 3c e3 e4 b0 bc bd 9f 37 3b
       0.0071528866 0.021636592 -0.021593517 0.0028018795
0003b0 8e 0b 68 bc 45 54 4b bb b2 e2 21 3b 08 92 40 bc
       -0.014162911 -0.003102557 0.0024701771 -0.011753567
0003c0 48 37 02 bb f4 0b 4b bb e8 a5 96 bc a7 ba b6 bb
       -0.0019869376 -0.0030982466 -0.018389657 -0.00557645
0003d0 d2 12 97 bc 6d 52 85 3c 08 53 54 3c 6a 62 6a 3c
       -0.018441591 0.016274655 0.012959249 0.01430569
0003e0 d9 ac 50 bb 14 c5 a6 3c 58 e3 bc 3b 9d c3 35 bc
       -0.0031841306 0.020357646 0.005764406 -0.011094001
0003f0 f1 a1 81 bc d1 e3 2f 3c 0f 5a a8 3c 07 8f f4 bb
       -0.01582429 0.010735468 0.020550756 -0.0074633393

fc.bias f4 [10]
000000 87 79 ea 3d 28 38 ac 3c d7 29 e4 3c 1a ae 94 3c
       0.11448961 0.021022871 0.027851982 0.018149424
000010 64 b0 52 bc 4d c3 08 bd 94 a2 ee bc 9b be 6b bd
       -0.012859438 -0.03338938 -0.029130258 -0.057554822
000020 2a 07 73 bc 8e 1f 21 bd
       -0.014833251 -0.039336734
