LAB 3/Results/CNN_L3_lr005_sgd.ckpt (torch, 748329 bytes, 8 tensors)

conv1.weight f4 [48, 3, 5, 5]
000000 08 b0 c0 bd 6e d4 b0 bd 15 34 e6 bd 34 e7 2e 3d
       -0.09408575 -0.08634268 -0.112404026 0.04270096
000010 2a 2b b3 3d 6c 71 25 bc 28 ef 1e bd 02 d4 c0 bd
       0.08748467 -0.010097843 -0.038802296 -0.09415437
000020 68 0d de bd ee d8 96 3d 88 2c 1b bd b8 29 dc bb
       -0.10842401 0.07365595 -0.037884265 -0.0067188405
000030 e5 1b e9 3d a9 e0 9b 3c 48 54 99 bc 6f a7 3e 3c
       0.113822736 0.019028025 -0.018716946 0.011636599
000040 14 fe dc bd 4d d7 88 bd 5e 46 81 bc 64 30 da 3d
       -0.10790649 -0.0668169 -0.015780624 0.10653761
000050 e3 4c bc 3c 58 ed 95 3d bb ed 47 bd ec 28 93 3c
       0.022985881 0.0732066 -0.0488107 0.017963849
000060 37 06 59 3d 24 0f e6 3c 23 b0 c1 3d 3c a2 a9 3d
       0.052984443 0.028083391 0.094574235 0.08282897
000070 05 33 ec bc d3 bb cd bd 16 1d e4 bd 67 15 e4 3d
       -0.028832922 -0.1004559 -0.1113836 0.11136895
000080 96 17 dd 3d 67 83 dd bb c7 56 4b 3d ee 79 cc 3d
       0.10795514 -0.006760049 0.049643304 0.09984194
000090 c4 86 8e bd 68 7e dc 3d 45 38 a3 3c 4f 80 64 bd
       -0.06959298 0.107662976 0.019924292 -0.055786427
0000a0 aa ea 7c 3d e3 3b d2 bd be b0 d0 bd 79 af e4 bd
       0.06174723 -0.10265329 -0.10189961 -0.11166281
0000b0 16 67 e3 bc 7f bd 8c 3c c0 12 81 3b 66 c0 d6 bd
       -0.027759116 0.017180203 0.0039390028 -0.10485916
0000c0 8a b1 01 bd 6b 51 a3 bd b4 cc bb 3d ee 59 1f 3d
       -0.031663455 -0.079745136 0.091699034 0.038904123
0000d0 a2 50 b8 bd 5f e5 db bd 64 73 75 bc fd bd 5c bc
       -0.089997545 -0.107371084 -0.014981125 -0.013473031
0000e0 51 0b 7c bc 2f d3 bc bd 95 93 82 bd b3 77 57 3d
       -0.015383557 -0.092199676 -0.06375805 0.05260439
0000f0 c1 e9 36 bd b0 01 80 bd aa ef b0 bd e5 60 42 3b
       -0.04465652 -0.06250322 -0.08639462 0.0029659804
000100 ff fe b7 3b a2 62 c8 3a fa 0b 8a bd 84 73 e8 bc
       0.0056151147 0.0015288184 -0.067405656 -0.028375395
000110 f0 6c e0 3d 5f 77 a6 3b 48 ea 06 3c 50 a2 28 bd
       0.10958278 0.005080148 0.008234568 -0.04117042
000120 33 57 aa bd 71 09 3e bd 1d 9d 5e bd 87 7b 31 3d
       -0.08317413 -0.046395723 -0.054349054 0.043330695
000130 43 3e a8 3d 46 d0 75 3c 8f 7f 30 3e be 3a 48 3c
       0.082150005 0.01500327 0.1723616 0.0122210365
000140 f5 28 c3 bd 96 c1 97 3d 51 83 23 3d cf a7 0b 3d
       -0.09529296 0.074099705 0.039920155 0.03409558
000150 65 33 a5 3c 3a 46 b0 bd 93 60 7f bb 18 75 ad 3d
       0.020166108 -0.08607145 -0.0038967475 0.084695995
000160 b0 f0 e5 3d 30 3d 08 3e 8b fc 35 3c 8d b7 ef 3d
       0.11227548 0.13304591 0.011107574 0.117049314
000170 28 be ce 3d 10 d9 59 3d 00 cd 27 bc ef 74 89 3d
       0.10094863 0.053185523 -0.010241747 0.067117564
000180 72 da 4d bd e0 91 16 bb fa b8 74 3d 77 d3 88 bd
       -0.050257154 -0.0022975132 0.05974672 -0.06680959
000190 14 ca ae bd 73 d4 2b bd 7e d0 fa 3d f9 a4 0e 3e
       -0.08534637 -0.041950654 0.12246798 0.1393012
0001a0 8d 25 6e bd d3 34 c5 3d 1c 02 23 3d 6c f2 2e 3e
       -0.05814128 0.09629216 0.039796934 0.17084664
0001b0 90 9f 30 3e 1f 05 d8 3d 53 fd a6 3c f5 bf 10 3e
       0.17248368 0.10547852 0.020384466 0.14135726
0001c0 4a 80 d0 3d fe 3f c5 3d 48 72 98 bb 2f f4 ab bd
       0.10180719 0.09631346 -0.0046522953 -0.08396184
0001d0 53 81 19 3e 7b 2c d2 3d 5d e4 75 3d 28 5c 99 3d
       0.1499074 0.1026239 0.060032237 0.074882805
0001e0 09 ac 0f be 09 99 00 bb 81 fe 1e 3e 5b 15 8a 3d
       -0.1403047 -0.0019622466 0.15526773 0.067423545
0001f0 c0 7a df bd 69 9f 05 be 3b be b9 3d 40 0f 0c 3e
       -0.109120846 -0.13049091 0.09069487 0.13677692
000200 ee 3d dc 3d e8 18 e2 3d ba 7c 09 be 6c 8e 3e bd
       0.10754 0.11039907 -0.13426486 -0.046522543
000210 db 85 25 3e 81 a4 37 3d ed 4d 99 bd a1 4e ee bd
       0.16164343 0.044834618 -0.07485566 -0.11636091
000220 20 0e d8 bc 58 4e e2 3d 4c dc 01 bd e2 c7 72 bd
       -0.026373923 0.11050099 -0.031704232 -0.059272654
000230 a1 26 94 3d 21 5e d4 3d 7f c2 39 3e 95 1c c9 3d
       0.072339304 0.10369516 0.181406 0.09819905
000240 8f 29 f8 bb 8a 82 60 3d bd 73 87 3d f2 f7 1e 3d
       -0.0075733135 0.05481199 0.06613872 0.038810678
000250 59 e4 d7 3d 6a b4 dd 3c 6f a0 25 be b5 dd 4a be
       0.10541601 0.027063567 -0.16174482 -0.19811137
000260 29 51 c9 bc 12 0b e7 3c 79 75 a2 3d bf 38 be bb
       -0.024574833 0.02820352 0.079325624 -0.0058051045
000270 5a 84 22 be 8d ef 9d 3d fe 01 ac 3d 6a 66 a0 3d
       -0.158708 0.07711706 0.083988175 0.07832034
000280 e6 1c 31 be 07 3f 95 3c 57 fb 4e 3c 68 fa 2d 3e
       -0.1729618 0.01821853 0.012633166 0.16990054
000290 10 4d 88 3d 41 a7 3b bd bf d6 81 bd f1 f0 3c 3d
       0.066553235 -0.045813803 -0.06339788 0.046128217
0002a0 4e 42 04 3e 2f 84 30 3e 83 53 1d be 24 66 34 be
       0.12915918 0.17237924 -0.15363888 -0.17617089
0002b0 c7 8e c8 3d 2b 9d cf 3c 50 16 ac 3d a4 c2 22 be
       0.097928576 0.025343498 0.08402693 -0.15894562
0002c0 f4 de 26 be ea 43 81 bd f2 64 08 3e 41 41 12 3e
       -0.16295987 -0.06311782 0.13319758 0.14282705
0002d0 bf 80 ce bd e1 55 25 bc 6f 1e dc bd f6 d1 39 3e
       -0.1008315 -0.010091276 -0.10747992 0.181465
0002e0 51 e4 5e 3e 63 33 32 bd bf 88 cf bd 96 78 86 bd
       0.21766783 -0.043506037 -0.10133504 -0.06565969
0002f0 b6 7c c4 bc 98 d8 31 3e 6d 4f 3b bd 56 83 14 be
       -0.023985248 0.1736778 -0.045730043 -0.14503226
000300 c0 9a 32 bd 19 db 40 3e f6 29 3e 3e ce b7 c9 bc
       -0.043604612 0.18833579 0.18570694 -0.024623778
000310 c3 9b 3b be b5 e2 54 3d 85 cd 31 3d 6e 30 2b 3e
       -0.18321137 0.051974017 0.04340889 0.16717693
000320 3e 18 31 bd 5e bf ad bd 5a 09 12 bd a0 a9 d5 bb
       -0.04323601 -0.08483766 -0.03565345 -0.006520465
000330 7d 70 02 3e 55 3a 0d be 27 a2 27 3d 23 f8 e8 bd
       0.12738223 -0.13791783 0.040926125 -0.11375453
000340 be 9f 1d 3e a1 80 be bc c7 46 89 bd aa 4c 9a bd
       0.15392968 -0.023254694 -0.06702953 -0.07534154
000350 8b 6a da 3b 29 c0 29 3d cd b2 57 3e 65 52 fd bd
       0.006665533 0.041443024 0.21064301 -0.12369231
000360 b7 26 98 bd 0c 02 bb bd d4 d0 07 3e 2f 30 45 3d
       -0.07429259 -0.0913125 0.13263255 0.048141655
000370 53 09 cd 3c cb 08 cd bb a6 ea 31 3c e9 a2 b1 3d
       0.02502886 -0.0062571517 0.010859167 0.08673651
000380 88 87 45 3e e8 80 d0 3d 52 63 72 3c 54 61 82 3d
       0.19289982 0.10180837 0.014794188 0.0636622
000390 13 bc 15 3e eb d7 84 bc 58 20 f5 3d c0 83 03 3d
       0.14622526 -0.016216239 0.1196906 0.03210807
0003a0 89 98 05 3e a9 0e b9 3a 6e a8 0e 3e 20 e5 28 bd
       0.13046469 0.0014118749 0.13931438 -0.041234136
0003b0 2f dd 0d bd d2 77 c1 3d 0f 7a 89 bd 85 8a 15 3d
       -0.034634765 0.09446682 -0.06712734 0.036509056
0003c0 f8 f4 d8 bd 45 bb 17 be 5b 70 f6 bd 14 64 fb bd
       -0.10593599 -0.14817531 -0.12033149 -0.12274948
0003d0 05 8b 8c 3d 7e 6c 3a bc 7d 00 90 bd 08 74 04 be
       0.06862453 -0.011378406 -0.07031343 -0.12934887
0003e0 b0 cf 93 bd d6 57 80 3d e5 c1 a5 bc 94 24 d1 3d
       -0.072173476 0.062667534 -0.020234058 0.10212055
0003f0 d9 29 36 3e 35 62 cb 3d 60 68 f1 3a 96 bb 88 bd
       0.17789401 0.09930841 0.0018417947 -0.06676404

conv1.bias f4 [48]
000000 2d 58 21 3d 79 b6 88 3d 00 ab ae 3d e5 e4 77 3d
       0.03939073 0.06675429 0.085287094 0.060521025
000010 2b f6 bf 3d c2 3d 16 3e 72 c7 cd bd d7 bb 04 3e
       0.09373125 0.14671996 -0.10047807 0.1296228
000020 4c 94 c2 bd 77 55 27 bd 30 98 35 bd 6a f0 f1 bc
       -0.09500942 -0.04085299 -0.04433459 -0.029533584
000030 de 2e 8d 3d 9c 52 14 bc 31 0e 98 be 6c 9f 45 3a
       0.06893705 -0.009052899 -0.29698327 0.00075387093
000040 c2 af 50 3d b9 01 f6 bd 25 ce 14 3d 84 a4 10 3c
       0.050948866 -0.12012047 0.036329407 0.008828286
000050 bc ef 57 bd 60 02 3c 3d c9 c0 ed 3c 40 09 4b 3d
       -0.052718863 0.045900702 0.029022591 0.04956937
000060 74 62 4e bc 7e 95 1a 3e c7 bf db 3b 34 de b1 bd
       -0.012596715 0.15096089 0.0067062113 -0.0868496
000070 6e 19 1b bc 96 94 1d bd 0d 01 e2 3a ed 4b 8f bb
       -0.009466512 -0.03847178 0.0017242745 -0.0043730647
000080 2f 90 bc bc 1a 9d b8 bc b6 9c 48 be f1 fb 84 bd
       -0.02301797 -0.02253585 -0.1959103 -0.064933665
000090 e4 b9 a5 3d ae 52 3a 3d 96 8a 38 be 22 6f d3 bd
       0.080920964 0.045489006 -0.18021616 -0.10323931
0000a0 c0 ce 55 3c 79 68 33 ba b4 6f 1d bd f8 2a a9 bc
       0.013049781 -0.0006843876 -0.038436607 -0.020650372
0000b0 4b d5 ea bc 2a b0 22 3c 1b 98 c0 bd 76 c4 ab bd
       -0.02866616 0.009929696 -0.09404012 -0.08387081

conv2.weight f4 [64, 48, 5, 5]
000000 e0 a6 de bb 9d 9a b4 bc fb d5 34 bb 26 65 49 3c
       -0.0067947954 -0.022046382 -0.0027593363 0.012292182
000010 0a 07 8c bc a2 6f 2e bc 3c e3 11 3b 7b 2e 9e bc
       -0.0170932 -0.0106467325 0.0022260686 -0.019309273
000020 67 4d c0 3c a8 c9 81 3a ce 55 38 3c eb 33 7f bc
       0.023474408 0.0009902017 0.011250926 -0.015576343
000030 b4 01 97 3a 6a bb d9 3c 77 6c 6f bb 52 b4 cf 3c
       0.0011520893 0.026578624 -0.0036533156 0.025354538
000040 b3 cd 6f 3c 28 03 42 3c 94 09 d6 bc 74 ad b3 3c
       0.014636445 0.011841573 -0.026127614 0.021933295
000050 a9 10 96 3c d7 ed 80 3c d7 66 e2 bc 37 ef 95 bc
       0.018318491 0.01573841 -0.027636928 -0.018302543
000060 f2 09 51 bc cf 91 c9 bc 73 48 cd bc 99 ed 06 3d
       -0.012758719 -0.02460566 -0.02505896 0.032941435
000070 fe 8c d1 3c ec 73 01 3d 7a 1b 00 bd 3f 69 b7 bc
       0.025579926 0.031604692 -0.031276204 -0.022389052
000080 53 8d ed 3b 5b e4 8e 3a 96 59 58 3c 00 87 fa bc
       0.007249513 0.0010901795 0.013204953 -0.030581951
000090 15 41 8a bc e0 4f e2 ba fd 2b 48 3c a9 02 24 3c
       -0.016876737 -0.0017266236 0.012217519 0.0100104
0000a0 1f 7e 10 bd 58 b8 22 3b d4 0f 92 bc 41 0f 72 bb
       -0.03527653 0.0024829116 -0.017829813 -0.0036935362
0000b0 68 8d 4b bb 3e 4f 22 bd f1 58 06 3c 15 dd 73 3c
       -0.0031059626 -0.039626352 0.008199916 0.014884253
0000c0 28 91 8d 3c b6 e6 20 3d 60 39 6e 3c 73 2f 71 3c
       0.01728113 0.039282523 0.014540046 0.014720785
0000d0 07 58 2c 3c 6d 9a 96 3c 1c 48 c5 3b df e2 a7 3c
       0.010519034 0.018384183 0.006020559 0.020493923
0000e0 79 67 e3 3b 95 ce 18 3d ef 8a 1e bc bd 55 b0 bb
       0.006939825 0.037306387 -0.009676679 -0.0053813145
0000f0 35 84 c0 bc f9 6b e4 3c 94 f3 60 3b 56 8a 89 bc
       -0.023500541 0.027883517 0.0034324871 -0.016789597
000100 cc bd c1 bc 4d e4 86 3c 58 ec f9 3c df d9 27 38
       -0.023650073 0.016466284 0.030508205 4.001881e-05
000110 72 d0 21 bc e4 78 c9 3c 6b 4a 88 3c ca 54 cb 3b
       -0.009876357 0.024593778 0.016637048 0.006205176
000120 b2 65 3d 3c 8d 60 76 3c 13 2a c2 bc d4 f1 17 3c
       0.011559891 0.015037668 -0.023701703 0.009273965
000130 e5 65 15 bc c6 e6 28 bc aa 0b 7d 3c 36 96 c6 3b
       -0.009118532 -0.010308927 0.015444675 0.006060387
000140 d4 9d 47 bc 55 38 ca ba f1 82 04 3b 29 22 6c bc
       -0.012183625 -0.0015428165 0.0020219649 -0.014412441
000150 44 d8 cf bc bb 0e 1f 3c 11 dd bd 3c 36 23 62 3b
       -0.025371678 0.009708102 0.023176702 0.003450585
000160 7b 96 5e bc 67 54 a1 bc b7 f4 89 3c d9 0a f4 ba
       -0.013585682 -0.019693566 0.016840322 -0.0018618956
000170 69 8b 9b bc ea d7 82 3c 9a 13 7c 3b 40 55 d9 bc
       -0.018987374 0.015972096 0.0038463832 -0.026529908
000180 d2 e3 95 bb a0 f7 e2 bc 2d b0 8e bc e2 25 fd bb
       -0.0045742774 -0.027705967 -0.017417992 -0.0077254632
000190 39 7e 92 3c 00 ef 08 3c e6 98 22 bc 1f 96 a8 bc
       0.017882453 0.008357763 -0.009924149 -0.020579396
0001a0 9b 1f ea 3b d7 7c 01 3c 67 20 f7 3b 35 83 51 3a
       0.007144881 0.007903299 0.0075417045 0.00079922687
0001b0 51 83 d3 bc 63 a3 af bc 63 9e b0 bb 98 67 a2 3c
       -0.025819452 -0.021440214 -0.005389975 0.019824788
0001c0 7e 55 e9 3c 2b 40 22 3c b2 ea d7 bc 95 4b cf 3c
       0.028483149 0.009902994 -0.026357029 0.025304595
0001d0 13 f3 ec 3c 92 05 7a 3c d6 07 79 bc 4a bf 68 3c
       0.0289245 0.015260117 -0.015199622 0.014205763
0001e0 5f 17 a3 bc c2 28 14 bc cf 20 9a 3c 4a b7 b4 bc
       -0.019908605 -0.009042921 0.018814472 -0.022060055
0001f0 7e 75 e4 bc 96 d9 3f 3c 8b 80 03 3d 1e 5c ac 3c
       -0.027888056 0.011709591 0.03210501 0.021040019
000200 d0 5b c6 3c e2 f1 80 3b cc 2d 79 3c 46 62 0c 3c
       0.024213701 0.0039350847 0.015208673 0.008568352
000210 37 f0 2c bb de fe 05 bb 09 c0 e0 bc 74 41 98 3c
       -0.0026388296 -0.0020446102 -0.02743532 0.018585898
000220 be 61 e2 bb a7 40 bd 3c 35 d6 a2 bc 97 c8 67 bc
       -0.0069086244 0.023102118 -0.019877532 -0.014146945
000230 45 79 a1 3a 99 ef 5f 3c c8 1b c6 3c d6 ee b6 3c
       0.0012319466 0.013667964 0.024183169 0.022330683
000240 0a 92 1c bc 01 2e d1 bc 92 d1 69 3c 4a ca 5a 3c
       -0.009556303 -0.025534632 0.014271157 0.0133538935
000250 15 f8 c8 3c 28 e9 27 bc 41 68 3c 3c 72 e0 89 bb
       0.024532357 -0.01024846 0.011499465 -0.004207664
000260 81 a5 a9 bc 6e 1a a3 3a cc be 9f bb c8 ac f0 3b
       -0.020708801 0.001244379 -0.0048750397 0.007344816
000270 60 fd bb bc d7 80 ee 3b ec 70 9d bc d4 9c ba bc
       -0.022947967 0.0072785425 -0.019218884 -0.02277986
000280 1a 2e c9 bc ff 52 a9 3c c8 9d c2 bc 3d fe 41 bc
       -0.024558116 0.020669458 -0.023756877 -0.0118404
000290 f2 e6 47 3c a5 87 81 bc b1 88 a5 3c 46 ea be bc
       0.012201058 -0.01581175 0.020206781 -0.02330507
0002a0 a5 a7 c6 3b 2c 17 e9 bc 5c 31 b6 3b bc 3b 91 bc
       0.0060624653 -0.028453432 0.0055600833 -0.017728679
0002b0 db a0 99 bc e5 c2 b9 bc b0 1c d5 bb 86 8d c9 3b
       -0.01875346 -0.02267594 -0.006503664 0.006150904
0002c0 31 f7 e2 bc fb 87 17 bd 05 a2 97 bc 79 4c eb 3c
       -0.02770576 -0.036994915 -0.018509874 0.028722988
0002d0 5c cd aa bc 7a 64 9e bc c9 27 9c bb 36 25 96 3a
       -0.020849876 -0.01933502 -0.004765485 0.0011455182
0002e0 5b 7d 79 3c 39 6e 0e bd d8 34 2b bd 41 39 bb bc
       0.015227641 -0.034773085 -0.041798443 -0.02285445
0002f0 2a 9d cc ba 66 d5 cc bc fa cb a1 3c f1 73 2a bc
       -0.0015610803 -0.0250041 0.019750584 -0.010403619
000300 45 55 a5 bb 15 8b 3b 3c eb 99 e9 bc 63 4a 2c 3c
       -0.0050455653 0.011446734 -0.028515777 0.010515782
000310 90 22 9e bc 49 f9 24 bd 15 f3 23 3c 0e a6 1a ba
       -0.01930359 -0.0402768 0.010006686 -0.0005899378
000320 59 2f dc 3c 60 8d ce bb 43 eb 8a 3b bf 57 8b 3b
       0.026878046 -0.0063034743 0.004239471 0.0042524035
000330 2f e1 de bc 27 34 b8 bc 78 63 6c 3b 14 4c 96 bb
       -0.027206985 -0.022485806 0.003607003 -0.004586706
000340 1c 54 b9 3c 74 66 b4 3c 53 d8 77 bc d8 bb d7 bc
       0.022623114 0.02202151 -0.015127259 -0.026334688
000350 80 39 e9 3b 11 c9 a2 3c 77 4b ce bc 43 73 31 3c
       0.0071174502 0.019871267 -0.025182469 0.010830703
000360 ec d1 a1 3c 88 a1 20 3b 87 a7 c3 bc ff 7b 2d 3c
       0.019753419 0.0024510343 -0.023883594 0.010588645
000370 df e2 10 3c dc 8b be bc 95 78 b7 bc ee 76 db bc
       0.008843153 -0.02326005 -0.022396365 -0.026790109
000380 44 50 b6 3c a3 d3 32 bc ef f9 56 bc 45 62 85 3c
       0.02225507 -0.010914716 -0.013121112 0.01628221
000390 0b 5a 9a bb c9 40 96 38 58 2e 16 bc 4c ea b5 3c
       -0.004710441 7.1646245e-05 -0.009166323 0.022206448
0003a0 16 1b 06 bb 4e 20 f3 3c 31 57 5a 3c 2e e7 91 bb
       -0.0020462922 0.02967849 0.013326452 -0.0044526076
0003b0 41 85 93 bc f6 66 94 3c f4 1a d7 bb 42 48 71 bc
       -0.018007876 0.018115502 -0.0065644924 -0.0147267
0003c0 2a 2f eb bc 07 46 5c bc 9d 06 13 3d e2 e6 bd bb
       -0.028709013 -0.01344443 0.03589498 -0.0057953456
0003d0 56 ea 16 3d 6b 79 1e bd 37 a4 55 3c aa 14 d0 ba
       0.036844574 -0.038690012 0.01303964 -0.0015875299
0003e0 2b de d2 ba fe 0b 3f 3d c4 87 99 3c 07 e5 85 bc
       -0.001608794 0.046642296 0.018741496 -0.01634456
0003f0 c4 96 85 bb b3 93 24 bc ff a9 16 bc a5 e2 bb 3c
       -0.0040768106 -0.01004498 -0.009195804 0.022935221

conv2.bias f4 [64]
000000 a6 10 18 3d 04 84 98 bd c2 7a d3 bc 17 11 aa bc
       0.037125252 -0.07447055 -0.025815371 -0.020760102
000010 95 c5 78 bc f2 e8 69 3d ab c9 99 3c 49 57 ea bc
       -0.015183826 0.05710692 0.01877292 -0.028606074
000020 7c 08 17 3d c2 e6 f1 3c 6a e8 22 bd ea 4a 57 bd
       0.036873326 0.02952898 -0.03977243 -0.052561678
000030 b5 6d 25 3b be fc 3e bd 8f 41 33 3d 4f b9 bb bb
       0.0025242392 -0.046627752 0.043763693 -0.0057288776
000040 28 84 41 bc d6 ad 29 bd 22 15 a3 3b 5c d9 87 3c
       -0.011811294 -0.04142555 0.0049768845 0.016583137
000050 8a 65 ab 3b fd 11 c6 3c 89 96 02 3c bb 06 02 3d
       0.0052306103 0.0241785 0.007970461 0.0317447
000060 41 1c 11 3c 1c e6 00 3d c2 ea d9 3b 40 4f f0 bc
       0.008856834 0.03146945 0.0066502998 -0.029334664
000070 0b 9f 04 bd f3 5a e6 bc a0 69 df ba 35 f0 a9 bc
       -0.032378238 -0.02811954 -0.0017045029 -0.020744422
000080 2f 96 02 bd 9c 3d 85 bc 0f 10 9a 3c e9 89 98 3c
       -0.031881507 -0.01626473 0.018806485 0.018620448
000090 a6 1b 85 3c d4 cb ba bc d6 f3 de 3c 64 a7 3f 3d
       0.016248535 -0.022802271 0.02721588 0.046790496
0000a0 56 15 a2 bb 0c 2c 26 3d e0 b8 29 3b b6 e5 c9 3c
       -0.004946391 0.04056935 0.0025897548 0.024645668
0000b0 52 f1 ba bc 6b 38 d7 bc fe 84 18 bd 11 55 0f bd
       -0.022820149 -0.02627202 -0.037236206 -0.034993235
0000c0 92 80 73 3c a5 15 a0 3c 06 53 90 3c 17 fa 60 3c
       0.0148621965 0.01954157 0.017617714 0.013731501
0000d0 37 a4 e7 bc 53 81 31 3d a1 5c 92 3c 67 34 0b bd
       -0.028276546 0.043336224 0.017866435 -0.03398552
0000e0 4b 06 9b 3d 5b 95 8a ba ef 84 6f 3c 57 cf 02 3b
       0.0756956 -0.0010573076 0.014619096 0.001996001
0000f0 51 4d d7 bc 03 e3 07 bd 53 85 7a 3c 8b f8 59 3d
       -0.026281985 -0.03317548 0.015290576 0.053215545

conv3.weight f4 [128, 64, 3, 3]
000000 b8 75 17 3d 1e d9 3f 3d 20 98 cf 3c 80 c9 d3 3b
       0.0369775 0.04683792 0.025341094 0.0064632297
000010 53 ec dd bc 77 8b cd bc 4f cc 4a bd 20 60 18 3d
       -0.027090227 -0.025090916 -0.04951125 0.037201047
000020 7a 74 29 3d 7e cb 57 bd 66 27 03 3c d0 e5 e2 3d
       0.041370846 -0.0526843 0.008004999 0.110789895
000030 02 61 81 3c 2f 30 02 bd d7 5c 46 3c 8f 8a 11 bb
       0.015793327 -0.031784233 0.012107096 -0.0022207831
000040 1b d5 1a bd a4 70 ac bd ed 7f e8 bc 2c 63 00 bc
       -0.03780089 -0.08419922 -0.028381312 -0.007836144
000050 fa 53 77 3b 28 26 24 3d 3d d1 a4 3c be 87 05 bd
       0.0037739263 0.04007545 0.020119304 -0.032600157
000060 36 48 b2 3b cc 6c ee 3c 5c d7 80 3c 5e d0 28 bc
       0.005440737 0.029104613 0.015727691 -0.010303585
000070 52 84 2a bc 01 93 16 3d 81 61 e5 3c af 18 e0 3c
       -0.010407524 0.036761288 0.028000595 0.02735552
000080 48 ce e3 3c 06 2f 8f 3b e4 bb 83 bc a7 12 cd bc
       0.027808324 0.0043696193 -0.016080804 -0.025033308
000090 d3 d3 95 3c 90 40 01 3d 50 de fc bc 5e ac 51 3b
       0.018289482 0.031555712 -0.030867726 0.0031993608
0000a0 6b f4 86 3c 5e dd 14 bd bc f0 1f 3c 74 05 7a 3c
       0.01647397 -0.036343925 0.009761985 0.015260089
0000b0 2e 17 31 bd 38 b1 32 3c d4 81 79 bd 28 8b 43 bd
       -0.043234996 0.01090651 -0.06091483 -0.04774013
0000c0 19 cb 2b 3d 8f b6 ba bc b5 81 be bc bd e8 fb 3b
       0.041941736 -0.022792129 -0.023255209 0.0076876567
0000d0 ab 08 30 3d d8 5d c6 3c 72 a9 ff 3c 5e 69 d8 bc
       0.042977016 0.02421467 0.031208728 -0.02641743
0000e0 5c 6b f7 b7 de a7 ca bc 20 48 16 3d 5d 0d ae bc
       -2.9494688e-05 -0.024738248 0.036689878 -0.021246606
0000f0 d1 02 12 bd 0e 64 a4 3c a0 ef a2 3b de 5f e8 bc
       -0.035647217 0.020067241 0.004972413 -0.028366026
000100 45 4f 65 bc 41 97 16 3d c7 e8 b2 3c 4d e6 cf ba
       -0.01399595 0.03676534 0.021839513 -0.0015861482
000110 10 0b 5a 3c 53 52 c9 bb b8 cb ea 3c 93 1f 7c bd
       0.013308302 -0.006143847 0.028661594 -0.06155355
000120 77 73 48 bd ba 72 99 bd 42 d2 16 bd 02 e0 be bc
       -0.04893824 -0.074925855 -0.03682161 -0.023300175
000130 b7 6b d9 bc f6 de 2f 3d 4f 0a ca ba 36 19 74 3d
       -0.02654062 0.04293724 -0.0015414449 0.059594356
000140 87 1f 39 3d b5 28 f3 bc fb af fd 3c bd 9e dd bc
       0.045196082 -0.029682497 0.030967703 -0.027053231
000150 d5 f8 9c 3c a3 04 2d 3c 5f ea d5 3c a6 47 1a bd
       0.019161621 0.0105601875 0.026112733 -0.037665986
000160 73 33 17 3d c6 2c d3 bc 87 53 a5 3c 88 79 1c bd
       0.0369143 -0.025778186 0.02018143 -0.03820184
000170 9b 76 33 bd 05 b9 76 bc 51 c2 0d 3d 84 92 ef bc
       -0.043814283 -0.0150587605 0.034609143 -0.029244669
000180 1f b4 32 bc d6 db 24 3d 93 53 07 3a dd 63 b6 bb
       -0.010907202 0.040248714 0.0005162295 -0.005566104
000190 0b 98 6e bd 94 43 b2 3c 7b a3 03 bd c3 19 fd bc
       -0.05825047 0.02176074 -0.03213833 -0.030896073
0001a0 a5 90 4a bd 17 f3 8f 3c 72 09 f3 bc 93 e0 09 bd
       -0.04945435 0.017571969 -0.02966759 -0.033661436
0001b0 1e 31 0d 3b aa 0f c1 bc 24 b0 09 bb b5 1c 31 3d
       0.0021544169 -0.02356704 -0.002100953 0.043240268
0001c0 c6 02 fe bc ae 6b 08 bd 18 ef 74 3c e1 51 7b 3d
       -0.031007182 -0.033305816 0.0149495825 0.061357383
0001d0 dd d4 49 bc e1 03 64 3c 5e 36 4f bc 8a cb 42 bd
       -0.012318817 0.01391694 -0.0126472395 -0.04755739
0001e0 50 bf 0e bb 27 34 95 3c 0a 73 03 bd 3d 13 17 bc
       -0.0021781512 0.018213345 -0.03209213 -0.009220895
0001f0 89 fa 9f bb 14 4f ce bb 07 6f 87 bc fd 44 19 3c
       -0.004882161 -0.006296048 -0.016532434 0.009354827
000200 df 39 24 bd da 5c e3 bc e7 e6 8b 3c 83 51 4c 3b
       -0.040094253 -0.027754236 0.017077876 0.0031176514
000210 0a e1 a7 3c a4 bd 39 3d db 5d 43 3d e1 9e 6d bc
       0.02049305 0.04534687 0.04769693 -0.014503212
000220 01 fa 87 3c 11 79 5d 3c 4e 10 ab 3c 67 9e 39 3c
       0.016598703 0.013517634 0.020881798 0.01132927
000230 40 de f4 bc f4 3d 0e 3c cf af fd 3b fa 03 04 bd
       -0.029891133 0.008681763 0.0077419053 -0.032230355
000240 a2 48 9b 3b 80 46 e8 3c b7 8b 73 bc d8 91 1f 3c
       0.004738883 0.02835393 -0.014864854 0.009739362
000250 86 40 e4 bb a5 10 b9 3c 61 4b 0f 3c 8c 89 e8 bc
       -0.0069656996 0.022590945 0.008745999 -0.0283859
000260 6e ee 70 3d ab 01 55 bd c9 b0 01 bd 32 7e 76 bc
       0.058821134 -0.052003544 -0.031662736 -0.015044736
000270 4e b9 0b 3d b5 5f 29 bd 1c 8a 3a bd 44 e0 84 bd
       0.034112267 -0.04135104 -0.045541868 -0.06488088
000280 69 98 50 bc 83 4c b5 3c fa e1 2c 3c 33 fa b0 3b
       -0.01273165 0.02213121 0.010551924 0.00540092
000290 95 a5 44 bd 9f 27 57 bc 2b 13 26 bd c9 ec 3f bd
       -0.048009474 -0.013132005 -0.040545624 -0.046856675
0002a0 58 a1 4c bd e2 d6 99 bc de 37 0b 3d 06 ea 15 3d
       -0.049958557 -0.018779222 0.033988826 0.036600135
0002b0 d9 9d 89 bc 81 bf 3e bd e4 6f d2 bc 46 7d fa ba
       -0.0167989 -0.04656935 -0.02568812 -0.0019110821
0002c0 a5 a5 b0 3c 1b 2d f8 3c 16 c6 18 bd b0 d9 cc 3c
       0.02156336 0.030294945 -0.037298284 0.025006145
0002d0 f4 9e 09 3d 56 fb 0e bd 71 cb 18 bd e3 af d2 bc
       0.033598855 -0.03490766 -0.03730339 -0.025718635
0002e0 6c bc 8e 3d 17 4c c8 bc bc 46 8f bc 2a 3e 13 3d
       0.06969532 -0.024450345 -0.017489783 0.035947956
0002f0 15 d4 f0 bb 9b cf 99 3b 2f 23 8c 3c fa 04 99 3c
       -0.007349501 0.004693938 0.01710662 0.01867913
000300 c9 19 cc bc 7c d0 92 bc 9e 86 35 bd d5 3e 68 3c
       -0.02491464 -0.017921679 -0.044317834 0.014175137
000310 11 de 12 3d 64 35 28 3d f3 b0 b1 bc 5b 33 f9 bc
       0.03585631 0.041066542 -0.021690821 -0.030419996
000320 85 78 b7 3c 0e 8b 0a bd f1 00 da 3b 37 88 b3 bc
       0.022396335 -0.03382402 0.0066529443 -0.021915538
000330 76 b8 3d bc 35 3e da bc bc 01 6a bb 33 39 0c bd
       -0.011579623 -0.02664099 -0.00357066 -0.034234237
000340 0c d5 65 bd a3 2c 8e 3b e7 c3 c2 bc 40 8c 12 bc
       -0.05611138 0.004338817 -0.023775054 -0.008944571
000350 c5 6b 32 bd f5 dd 1d 3d f7 2f 0c 3c b1 48 02 3b
       -0.04355981 0.038541753 0.008556358 0.0019879753
000360 0c 9f 78 3c 65 79 33 3d 7d bd cb bc f8 8c e9 3c
       0.0151746385 0.043816943 -0.024870628 0.028509602
000370 eb bf 83 3c 0c fb 94 3d 25 dc 05 3d a7 77 81 bc
       0.016082725 0.07274446 0.03268065 -0.015804125
000380 f6 3c d9 bb 68 37 b1 3c 44 9b c2 bc 8d b1 e0 bc
       -0.0066295816 0.021632865 -0.023755677 -0.027428413
000390 58 ca 32 3a ef c5 26 3d 92 a9 e6 bc f4 6a e9 3c
       0.00068203127 0.040716108 -0.02815703 0.028493382
0003a0 f1 e3 df 3b a7 f4 15 3d 6c 16 a1 bc db 54 f1 3c
       0.0068325927 0.03661027 -0.019664012 0.029459408
0003b0 ed d7 4a bd 3b 5c a1 3c 61 b7 05 3d 0a b2 2d 3d
       -0.04952233 0.0196973 0.032645587 0.04240612
0003c0 31 20 6f 3d e0 db 9c bc 10 8b ab 3c 97 ca 78 3c
       0.05838031 -0.019147813 0.020940334 0.01518502
0003d0 2f 08 6f bc 12 fd 02 bd eb 17 41 3c 99 3c 16 bd
       -0.014589353 -0.031979628 0.011785488 -0.036678884
0003e0 0d 70 4c bd d1 8a c2 3c b5 f4 7b bd 08 f0 65 3c
       -0.049911547 0.023747833 -0.061512668 0.014034279
0003f0 70 c7 04 bd a1 bb 46 3c ba e8 a2 bc 9d 94 0a bd
       -0.03241676 0.012129695 -0.019886363 -0.033833135

conv3.bias f4 [128]
000000 bd f1 c3 bc 51 04 18 ba f4 58 e9 3c 6b 72 c8 bc
       -0.02391898 -0.0005798983 0.028484799 -0.024468621
000010 4c 59 ed 39 5f aa 6c bd c8 07 fe bb f8 74 97 bc
       0.00045270694 -0.057779666 -0.0077523924 -0.018488392
000020 d3 92 8d bd 4c 99 32 bc 80 fe 80 3d 73 7e 6a bc
       -0.0691277 -0.010900807 0.06298542 -0.014312374
000030 6a 6e e2 bc 40 dc 3c bc d5 9a 85 3b 84 22 ce 39
       -0.02764054 -0.011527121 0.0040772953 0.00039317098
000040 0b 26 32 bb 54 d6 06 bd 6a 76 81 3d 73 09 f2 bc
       -0.002718332 -0.032919243 0.06321414 -0.029545521
000050 f9 12 50 bb f7 c2 04 bd 30 23 1a bd 6b a5 88 bc
       -0.003174959 -0.032412495 -0.037631214 -0.01668044
000060 64 33 6c 3d a0 8f 2e 3d d0 08 24 3d f0 ca 3a bd
       0.057666197 0.04261744 0.040047467 -0.045603693
000070 14 25 2a 3d 4b 60 15 bd 11 64 5f 3d 4b ee 50 3d
       0.041539267 -0.036468785 0.05453879 0.051008504
000080 c8 a2 14 bc a3 3d 10 3d c0 33 22 3d 44 96 40 bb
       -0.009072013 0.03521503 0.039600134 -0.002938644
000090 e5 2d 2a bd c0 07 c7 3b 79 61 d9 3b 24 f9 59 3d
       -0.041547675 0.006073922 0.006633934 0.053216115
0000a0 6c 0d eb 3b 36 88 00 bc 80 3a bc bc 76 86 c3 bc
       0.007173231 -0.007844975 -0.022977114 -0.023867827
0000b0 a9 36 87 bb 20 88 b4 3c bd 77 17 3d aa 12 15 3a
       -0.004126389 0.022037566 0.036979426 0.000568668
0000c0 8b fa 05 3b 00 af 2e bd 1b ba b7 3c 8e 92 79 3d
       0.0020443525 -0.04264736 0.02242761 0.06093078
0000d0 16 fa 90 bc eb b8 09 bd 06 1a 01 bb 0c ad fe bc
       -0.017697375 -0.033623617 -0.001969935 -0.031088375
0000e0 b4 fc 52 3d d2 dc 7b bd 72 22 2b 3d f7 f6 5b 3c
       0.051510528 -0.061489888 0.041780896 0.01342558
0000f0 f4 e9 1a 3d 37 ac 20 bd cd b9 be bc 19 b6 59 bc
       0.03782077 -0.039226737 -0.023281956 -0.013288044
000100 bc 40 30 bd 64 53 f9 bc d7 8d 2d b9 da bf 40 bd
       -0.043030486 -0.030435272 -0.00016551405 -0.047057964
000110 fe c2 54 3d 0a 14 b0 3d a2 eb ab 3c 04 6b d1 bc
       0.05194377 0.08597572 0.020986382 -0.025563724
000120 49 98 43 3d e3 74 68 bc df 9b a1 3c 64 d8 00 3d
       0.047752652 -0.014188024 0.019727645 0.031456366
000130 8c b9 2c 3b ab 01 0e 3c b7 4c 84 3c ca 12 2b bd
       0.0026355712 0.00866739 0.016149862 -0.041765966
000140 93 c3 b4 3b 94 f8 da bc 78 d2 1a bc 96 84 f3 3b
       0.0055164783 -0.02672986 -0.009449594 0.007431577
000150 19 dc 07 bd 89 8b d1 3c 17 77 6a 3d 69 68 0c bc
       -0.033168886 0.02557923 0.05724248 -0.008569815
000160 19 d5 6d bd 32 e4 9a 3d c9 de 10 bd e6 fe 0c 3c
       -0.058064554 0.07563056 -0.035368714 0.008605694
000170 37 d2 99 bc 49 87 f8 3c 43 6c 44 3d b9 2c 84 3d
       -0.018776996 0.030337946 0.04795481 0.06453843
000180 0a 75 01 bd 63 80 5f 3d 2a 61 05 3d 75 99 82 3d
       -0.031605758 0.0545658 0.032563366 0.06376926
000190 70 2e ef bc dc b3 cf 3c 52 15 78 3d 4f 01 5b bd
       -0.029196948 0.025354318 0.060567208 -0.053468045
0001a0 e2 c3 bd 3c 6c 98 ba bc 22 0a 65 3d 52 c4 4f 3d
       0.023164693 -0.022777759 0.055917867 0.050724335
0001b0 62 ff 57 3c a4 91 24 3a dc c6 d9 bc 63 59 6c 3d
       0.013183447 0.00062778057 -0.026584081 0.057702433
0001c0 d8 bd a0 bc b4 0e da bc 6d e0 39 bc 91 63 32 3c
       -0.019621775 -0.02661834 -0.011345011 0.010887996
0001d0 f4 0f 36 bd 9f d0 27 3c e1 b7 45 3d f6 8a e5 38
       -0.044448808 0.01024261 0.048271064 0.000109454544
0001e0 63 c6 9f 3d 73 f4 84 3d 85 82 1d 3b ee 36 77 3d
       0.07801511 0.064919375 0.0024034095 0.06035512
0001f0 e5 9c 10 3d 07 07 c6 3c 42 aa c7 bc ee e1 fa bc
       0.035305876 0.024173273 -0.024373177 -0.03062531

fc.weight f4 [10, 3200]
000000 6b f0 9f 3c 11 9f 0a 3c 14 fd 10 3d 38 d4 dc bc
       0.01952382 0.008460776 0.035397604 -0.026956663
000010 41 9f 8d bc 26 d4 37 bc 69 3f fb bc c9 7e a3 bc
       -0.017287852 -0.011220014 -0.030669885 -0.019957917
000020 de 45 6f bc 7d f4 96 bc 32 41 83 bc 05 77 c9 3c
       -0.01460406 -0.018427128 -0.016022298 0.024592886
000030 77 a6 13 3d 64 37 96 bc 20 46 4f bc 0f d9 bb bc
       0.036047425 -0.01833696 -0.012650996 -0.02293065
000040 97 e0 31 3d e2 a6 00 3d 92 3b d0 3b 6f a3 94 3a
       0.043427076 0.03140915 0.0063547576 0.0011340211
000050 eb 77 32 3c 4f 56 87 3b da 0e 8c bc 23 fe b1 3c
       0.0108928485 0.004130162 -0.017096926 0.021727627
000060 1b 08 c8 3b 43 c2 83 b8 f1 a3 b8 3c 9d 4b e8 3b
       0.006104482 -6.282751e-05 0.02253911 0.007089092
000070 07 c5 49 bc 1b 39 fa 3b 6c 79 9d bc 63 50 ca 39
       -0.012315041 0.007636202 -0.019222938 0.00038588335
000080 15 1f 25 3d 0b 3c ee bc d4 88 88 3c c0 3d 3d bc
       0.040312845 -0.029081365 0.016666807 -0.011550367
000090 d7 50 be bc 40 7b 83 3c f3 39 78 bc 2e 08 1a bb
       -0.023231907 0.016049981 -0.015150535 -0.002350341
0000a0 9d 33 14 3c d7 6b 59 bd da 22 02 3b cb b7 29 3d
       0.009045509 -0.05308136 0.00198572 0.041435044
0000b0 c3 f7 03 3d c7 52 b7 3c 12 ca a1 bc 52 73 fa 3c
       0.032218706 0.022378339 -0.019749675 0.030572567
0000c0 31 ea 48 3c 9f 9b 42 3c 76 be b0 bc fb a2 6e 3b
       0.012262867 0.011877923 -0.021575194 0.0036413062
0000d0 5d 20 5a bc 76 8b 09 bc 58 52 7e bc b7 1e d4 bc
       -0.01331338 -0.0083950665 -0.015522562 -0.025893552
0000e0 20 05 4d 3c 8f b3 2b 3c 8e 8e 4f 3d d6 c7 7a bb
       0.012513429 0.010479822 0.05067306 -0.0038266084
0000f0 de bc e5 bc ab 02 3f 3b 6f 00 5b 3b de 6e e3 3c
       -0.02804416 0.0029145877 0.0033417006 0.027762827
000100 89 7a a9 bc 89 c0 f1 bb 24 02 c2 3c 64 d4 4d 3d
       -0.020688312 -0.0073776883 0.023682661 0.05025138
000110 c9 01 cc bb bf a0 9d 3b 1f 79 8d 3c b7 56 29 3c
       -0.0062257987 0.004810422 0.01726967 0.010335616
000120 d5 78 0c 3d 69 ca 87 bb 45 1e 96 bc 34 23 a8 bc
       0.034294922 -0.004144002 -0.01832498 -0.020524599
000130 b5 f4 ee 3a f0 0a 17 3c 7e e9 7d bc b7 51 e1 ba
       0.0018230887 0.009218916 -0.015497563 -0.0017190491
000140 3f 5f ff 3c 46 6b 92 3a 21 35 f2 3c 92 ea ba bb
       0.031173347 0.0011170886 0.02956635 -0.0057042325
000150 31 b4 b0 3c f1 fd d8 3c ae 81 23 3b c9 61 9f bc
       0.021570297 0.026488276 0.0024949121 -0.019455807
000160 d1 13 ab bc 31 36 07 3d 54 71 0c 3c 0b 3d 21 bd
       -0.020883473 0.033010665 0.008571941 -0.039364856
000170 0a 74 d8 3c a7 0b 2f bc b1 21 f3 3c 24 f6 a7 bb
       0.02642252 -0.0106839305 0.029679151 -0.005125778
000180 18 a5 21 bd af 6a 18 bd 9b af 66 bc 8d 75 14 3c
       -0.039464086 -0.037211116 -0.014079954 0.009061229
000190 23 c4 db ba 73 8c 3b 3c 92 44 df 3a f7 c2 54 3c
       -0.0016766827 0.01144706 0.0017033985 0.012985936
0001a0 1f 07 53 bb 8d eb 35 bc 7b 52 c8 3c f9 1d 71 bb
       -0.003220029 -0.011103523 0.024453392 -0.0036791547
0001b0 ae d1 09 3c 72 1e 93 3c 02 b9 63 bc 7b ac 36 3b
       0.008411808 0.017958853 -0.01389909 0.0027873802
0001c0 47 34 11 3c eb e4 30 bb 6b 98 00 ba 9e e2 fc 3b
       0.008862562 -0.0026991914 -0.00049055245 0.0077174446
0001d0 6f 2b 88 3c ac 91 7c 3c 11 d8 31 bc 03 91 7b 3c
       0.016622273 0.01541559 -0.010854737 0.015354398
0001e0 15 37 ef bb 56 28 4a 3a 1e 01 65 bc 2e 46 31 3c
       -0.0073002675 0.0007711699 -0.013977317 0.010819955
0001f0 5e be 2b 3b 08 16 08 bb 8a 7d 14 bc 74 4c 00 3d
       0.0026205997 -0.0020765085 -0.009063134 0.03132291
000200 d1 87 73 3c ed 2f 19 bc 49 a9 2d 3c 35 3b 75 bd
       0.014863924 -0.009349805 0.010599443 -0.059870917
000210 39 40 69 3c 03 79 0b 3c 7c 30 8d bb cf 0c 9c 3a
       0.014236503 0.008512738 -0.0043087583 0.0011905673
000220 76 71 b2 bd 75 b7 91 bc 61 c1 d8 3c 04 e9 fa 3b
       -0.08713047 -0.017787674 0.026459398 0.007657172
000230 8f 8c 98 bb a8 47 e1 bc d6 6e 13 3d c1 8a 72 3b
       -0.0046554278 -0.027499989 0.035994373 0.0037008973
000240 d0 69 a6 b9 f5 c5 4e bc 88 24 fb 3b 92 ae 0b 3c
       -0.00031740824 -0.012620439 0.007664267 0.0085255075
000250 47 fe 47 bc 5f 86 e0 ba df ab 67 bc 61 8e b6 bc
       -0.012206621 -0.001712989 -0.014140098 -0.022284688
000260 d1 3f 17 3d 29 59 0a 3d 20 6c 37 3c 33 cc 2b bc
       0.036926094 0.033776436 0.011195213 -0.010485697
000270 98 b4 43 ba a2 3a 57 3b ff 4a 87 3d f6 09 ad 3c
       -0.000746557 0.0032841344 0.06606101 0.021122914
000280 f0 1c 9c 3b 8b 05 2b bd 81 05 7e bd fd 5d 1f 3c
       0.004764192 -0.041753333 -0.062016968 0.009726998
000290 5d db b8 3b 9b 49 ad 3b 7d 2e 28 bd 0e 35 c7 bc
       0.0056413845 0.0052883155 -0.04105996 -0.02431729
0002a0 30 70 b3 3b 00 a2 b3 3b be 67 dd 3c c2 05 40 3d
       0.0054760203 0.0054819584 0.027027007 0.04688049
0002b0 a0 64 ab bc a5 0e 4d 3b e9 d9 f4 3b 2e 06 9b bc
       -0.020922005 0.0031289246 0.007472266 -0.018923845
0002c0 d7 d3 b7 b8 99 cf 01 bd 83 93 43 bb 60 85 0e bb
       -8.765578e-05 -0.03169212 -0.0029842563 -0.0021746978
0002d0 f4 3b 1c 3a 66 1c 0d 3c 20 2b 1c 3d e2 5b 93 ba
       0.00059598614 0.008612728 0.038127065 -0.0011242593
0002e0 2f a0 3f bc ef 58 c9 bb 7e 87 8b ba d6 82 e7 3c
       -0.011695906 -0.006144635 -0.0010645238 0.02826063
0002f0 81 fa c1 bc e8 a8 8a 3c 44 2c 2e bc 59 c3 1f 3c
       -0.02367902 0.016926244 -0.010630671 0.009751164
000300 0f c3 3a bc 80 b6 06 bb 42 47 83 3c c5 c4 7d bc
       -0.011399045 -0.0020555556 0.01602519 -0.015488808
000310 72 5c 49 3d e1 3b cb 3b 36 84 45 bd 8c 74 3f bc
       0.04916043 0.0062022065 -0.04822179 -0.011685502
000320 d6 ac d4 3a 7e 65 ca bb c0 3c a9 bc 76 9b b2 38
       0.0016225826 -0.0061766496 -0.02065885 8.516658e-05
000330 fa bd d4 3b ea 89 83 bc 7c c5 a6 bc 54 25 09 3d
       0.0064923735 -0.016056973 -0.02035784 0.033482864
000340 2d b9 2b 3c 26 34 9e bc 45 49 06 bd 89 e5 15 bd
       0.010481161 -0.019311976 -0.03278472 -0.036595855
000350 7a 98 10 bd d0 2b 6c 3c ea c9 58 bc d2 85 f2 3b
       -0.035301663 0.014414743 -0.013231734 0.0074012065
000360 c9 0d d6 3b b5 0f 76 3d c9 db f7 3c 1b 0f aa 3a
       0.006532405 0.060073573 0.030256169 0.0012974472
000370 a8 fe b2 bc e3 26 33 bd 00 11 ab 3c fd c0 97 bc
       -0.021849945 -0.043738257 0.02088213 -0.018524641
000380 b1 a5 fd bb aa c6 11 3c 1a be 4c bc 61 06 34 bc
       -0.007740699 0.008897463 -0.012496496 -0.010987849
000390 29 69 c5 bb 9a 15 0e 3b 97 24 3e bc 6b 2e f6 3c
       -0.006024499 0.0021680356 -0.011605403 0.03005143
0003a0 ff ae 51 bd 64 e0 43 3d c5 c3 1f bc 88 01 9f ba
       -0.05119228 0.047821417 -0.009751265 -0.0012131194
0003b0 0a 43 be 3c b6 56 84 bd 36 77 d1 3b bb 56 35 3c
       0.023225326 -0.06461851 0.006392385 0.011068041
0003c0 49 f9 70 3b ae 2c 1f bc 45 f6 f7 3b e6 e8 ad 3c
       0.003676968 -0.009715242 0.0075671994 0.021229219
0003d0 5e 5c 9b bc 62 71 f0 3b 35 7c c1 bc ad 4c 75 3d
       -0.018964943 0.007337735 -0.023618797 0.059887577
0003e0 65 a2 ea bc 64 ec 1a bc c4 72 44 3b 4d 03 eb 3b
       -0.028641889 -0.009455774 0.0029975632 0.0071720243
0003f0 38 af 06 3d 80 19 de 3a ba a4 35 3c 9c ee 92 39
       0.032881945 0.0016944855 0.011086637 0.00028025068

fc.bias f4 [10]
000000 69 40 06 3e 60 3f d3 3d 28 94 2c 3d dc b0 bc bc
       0.13110508 0.10314822 0.04213348 -0.023033552
000010 d5 8b 9b 3c 6a 87 31 bd 27 de 43 bd 12 b4 a7 bd
       0.018987576 -0.04334203 -0.047819283 -0.081886426
000020 bc ef 55 bd b2 b8 57 bd
       -0.05223058 -0.052666374
