LAB 3/Results/CNN_L2_v2_lr001_adam.ckpt (torch, 291647 bytes, 6 tensors)

conv1.weight f4 [48, 3, 5, 5]
0	0xbd2f6330	-0.042819202
1	0xbe068f89	-0.13140692
2	0xbcb0e5f5	-0.021594027
3	0xbd9a75ce	-0.07542001
4	0xbdd5848a	-0.104256704
5	0xbdeadce7	-0.11467915
6	0xbda936f3	-0.08262434
7	0xbdece94c	-0.11567935
8	0x3d28d7f1	0.041221563
9	0x3ba343e1	0.004982457
10	0x3d3f732f	0.046740707
11	0x3cd32a84	0.025777109
12	0x3d4ef7af	0.05052918
13	0x3c8afb30	0.016965479
14	0xbdfdef84	-0.123991996
15	0x3cc73c52	0.024320755
16	0x3d028dad	0.031873394
17	0xbcf058cd	-0.029339219
18	0x3df4264f	0.11921369
19	0xbc20535b	-0.0097854985
20	0x3e38dd1f	0.18053101
21	0x3dce230e	0.1006528
22	0x3df0f530	0.11765516
23	0x3d09d019	0.033645723
24	0x3d89a2d0	0.06720507
25	0x3d17bde4	0.03704633
26	0xbdffe348	-0.12494522
27	0xbc102033	-0.008796739
28	0x3be28a11	0.0069134315
29	0xbdb920c2	-0.09039451
30	0xbc3c2b1f	-0.01148489
31	0x3d089d1a	0.03335295
32	0xbe2bd3fe	-0.16780087
33	0x3c924b44	0.017858155
34	0x3d842221	0.06451822
35	0xbdc189c9	-0.094501086
36	0xbd8ad39c	-0.067786425
37	0xbd71bc3a	-0.059017397
38	0xbe09627c	-0.13416475
39	0xbdbc0d70	-0.091822505
40	0xbcc14d73	-0.023596501
41	0x3d20a297	0.039217558
42	0xbc927f83	-0.017883068
43	0xbb851c37	-0.0040622014
44	0x3dfa215b	0.12213393
45	0x3cd5bd6f	0.026091306
46	0x3e4b9240	0.19880009
47	0x3db444f7	0.088022165
48	0x3d4ce15e	0.050019614
49	0x3dd8029c	0.10547373
50	0xbd04b41a	-0.03239832
51	0xbe009f48	-0.12560761
52	0xbdfbcb12	-0.12294592
53	0x3d664746	0.056220315
54	0xbd9e4466	-0.0772789
55	0xbd8ab971	-0.067736514
56	0xbc39f56d	-0.011350018
57	0xbd3af0a4	-0.04563965
58	0xbdb0fe5f	-0.086422674
59	0x3dbcc08b	0.09216412
60	0xbdd17333	-0.10227051
61	0xbdf1a207	-0.117984824
62	0xbcd2a7cb	-0.025714776
63	0x3c2295c2	0.0099234
64	0xbc86e795	-0.016467849
65	0xbd08a738	-0.033362597
66	0x3e0bc8e8	0.13650858
67	0x3df85e1d	0.12127326
68	0x3c8ce095	0.017196933
69	0x3de4da0f	0.11174404
70	0x3e35aa1f	0.17740677
71	0x3e202af1	0.15641381
72	0x3e2dd612	0.16976193
73	0x3e080f28	0.13287032
74	0xbd729144	-0.059220567
75	0xbd6bb803	-0.057548534
76	0xbd3ad133	-0.045609664
77	0xbd62a0e8	-0.055329233
78	0xbdfbb94d	-0.12291203
79	0xbe62599f	-0.221045
80	0xbd165f92	-0.036712237
81	0x3b957692	0.004561254
82	0x3cc3eb5c	0.023915939
83	0xbdf553d8	-0.119788826
84	0xbe0fe129	-0.14050736
85	0x3db61db3	0.088923834
86	0x3e0581f9	0.13037862
87	0xbb4b2583	-0.00309977
88	0xbdab0cab	-0.083520256
89	0xbe4f1e84	-0.20226485
90	0x3cae9345	0.021310458
91	0x3e0187ff	0.12649535
92	0x3e3b643b	0.18299954
93	0x3c30e738	0.010797314
94	0xbdeac33b	-0.114630185
95	0xbd22a649	-0.039709363
96	0x3dcf7643	0.101299785
97	0x3e44d7a0	0.1922288
98	0x3e001529	0.12508072
99	0xbe14157d	-0.14461322
100	0x3e15071e	0.14553496
101	0x3da63f4a	0.0811754
102	0xbe3541be	-0.1770086
103	0xbe577350	-0.21040082
104	0xbe66edfa	-0.22551718
105	0x3e24295d	0.16031404
106	0x3d751a58	0.059839576
107	0x3d712853	0.058876347
108	0xbe1b78c8	-0.15182793
109	0xbe0b4deb	-0.13603942
110	0x3d9b9ee1	0.07598663
111	0x3e34bfc2	0.17651275
112	0xbd2c532e	-0.042071514
113	0xbd2ff5a6	-0.042958878
114	0xbde3e94d	-0.11128483
115	0x3d81df01	0.06341363
116	0xbbb01d35	-0.0053745755
117	0x3e2bcb5b	0.16776793
118	0x3d7d576d	0.061850954
119	0xbe269ba6	-0.16270313
120	0x3e168da7	0.14702474
121	0x3df5c41f	0.12000298
122	0x3e3406fe	0.17580792
123	0x3d5ba88c	0.053627536
124	0xbe208ea0	-0.15679407
125	0x3db81f73	0.089903735
126	0x3d6aba0e	0.05730634
127	0xbda30092	-0.07959093
128	0xbe435f1d	-0.19079252
129	0xbe2bb59b	-0.16768496
130	0x3d9f89d8	0.077899635
131	0xbdaafc8d	-0.083489515
132	0xbdac7a5c	-0.08421776
133	0xbd0dae72	-0.034590192
134	0xbe381af6	-0.17979035
135	0x3d1f34c9	0.0388687
136	0x3d5560cb	0.052094262
137	0x3d2cb93f	0.042168852
138	0x3be37ec2	0.006942601
139	0x39bb6425	0.00035742033
140	0x3d210427	0.0393106
141	0x3e309c58	0.1724714
142	0x3e1665b2	0.14687231
143	0x3dcdd4e2	0.1005037
144	0xbbb3c58c	-0.005486196
145	0xbcce366f	-0.02517244
146	0x3e2efb3e	0.17088029
147	0x3d743d1c	0.05962859
148	0x3e0da9b8	0.13834274
149	0xbd8e24be	-0.06940602
150	0x3cec603a	0.028854478
151	0x3e02d786	0.12777528
152	0x3c735b92	0.014853375
153	0x3e2cf1cc	0.16889113
154	0x3e7bbce0	0.24583769
155	0xbe51b63a	-0.2047967
156	0xbd538246	-0.05163791
157	0x3e21204b	0.15734975
158	0x3e431735	0.19051822
159	0x3e251b3b	0.16123669
160	0xbe51610e	-0.2044718
161	0xbe0635a9	-0.13106407
162	0xbddcabc7	-0.107749514
163	0x3c805a2a	0.015667994
164	0x3e46b03e	0.19403169
165	0xbd8251e3	-0.06363275
166	0xbe716f44	-0.235776
167	0xbda38cf9	-0.07985873
168	0x3d9dec67	0.07711106
169	0x3dba8263	0.091069005
170	0xbe30cbdf	-0.1726527
171	0xbe7e7308	-0.24848568
172	0xbd9df72d	-0.07713161
173	0x3cd26938	0.025684938
174	0x3cef41d7	0.0292062
175	0x3cb56050	0.022140652
176	0x3d9ad155	0.07559458
177	0x3e463dfa	0.1935958
178	0x3e4c21ea	0.19934812
179	0x3ddbccad	0.10732398
180	0xbe5161d3	-0.20447473
181	0xbdf2f309	-0.118627615
182	0x3db4c311	0.088262685
183	0x3e037a43	0.12839608
184	0x3e3cc32c	0.18433827
185	0xbe70fcb1	-0.23533894
186	0xbe6220e5	-0.22082861
187	0x3d8215d0	0.06351817
188	0x3e394dfe	0.18096158
189	0x3d298d2b	0.041394394
190	0xbe4c297e	-0.19937703
191	0xbe8a5ca4	-0.27023804
192	0x3b0196a5	0.001977363
193	0x3d0eebb8	0.034892768
194	0x3e1df303	0.15424733
195	0xbe0818be	-0.13290688
196	0xbdc48a7d	-0.09596727
197	0xbe464d55	-0.19365437
198	0x3c501e39	0.012702518
199	0x3dd9cd84	0.10634902
200	0x3d8bda32	0.06828727
201	0x3cd195bc	0.025584094
202	0x3de0acee	0.10970484
203	0x3d1c16d4	0.038107708
204	0x3e5a90d8	0.21344316
205	0x3c846638	0.016162023
206	0x3cc94700	0.024569988
207	0x3ddd8f43	0.10818341
208	0x3d9024d3	0.07038274
209	0x3e434fcd	0.1907341
210	0xbd2f8ddb	-0.042859893
211	0xbd2ae4bc	-0.041722044
212	0x3d7a4c26	0.061107777
213	0xbcf04593	-0.02933005
214	0x3c74bb8f	0.014937296
215	0xbe6bddac	-0.2303378
216	0xbe204d6d	-0.15654536
217	0xbe367fb2	-0.1782215
218	0x3d0da0be	0.034577124
219	0x3e354da2	0.17705396
220	0xbdc5fd91	-0.096675046
221	0xbe0563e1	-0.13026382
222	0xbdde399c	-0.10850832
223	0xbdc6b671	-0.09702767
224	0x3e2a5e66	0.16637573
225	0xbdef2aad	-0.11678062
226	0x3ce741ae	0.02822956
227	0xbdecd0c6	-0.11563258
228	0xbda6f7ff	-0.0815277
229	0xbe943dd3	-0.28953418
230	0xbc8f22fb	-0.017472735
231	0x3e6b9dc7	0.23009406
232	0x3dacac40	0.084312916
233	0xbdad44bb	-0.08460375
234	0xbe8db6af	-0.2767844
235	0x3d873054	0.06601015
236	0x3e5b8151	0.21436049
237	0x3e6eb743	0.23312096
238	0xbc84722e	-0.016167726
239	0xbe64b63f	-0.22335146
240	0x3e1afe9f	0.15136193
241	0x3e4e5673	0.20150165
242	0x3de51215	0.111850895
243	0xbb32c88e	-0.0027280184
244	0xbdfecbba	-0.124412015
245	0x3da6b371	0.081396945
246	0x3cf03536	0.029322248
247	0x3dd182ef	0.10230052
248	0x3cc81c85	0.024427662
249	0xbd146985	-0.036233444
250	0xbc7eedfc	-0.01555967
251	0x3d024d58	0.031812042
252	0xbe047299	-0.1293434
253	0xbe43b577	-0.19112192
254	0xbe5f489c	-0.21805042
255	0x3e218362	0.15772775

conv1.bias f4 [48]
0	0x3cdc7fd7	0.026916428
1	0x3df2e035	0.1185917
2	0x3db10b14	0.08644691
3	0xbc980826	-0.018558573
4	0x3ce1b5b0	0.027552456
5	0xbd500707	-0.05078795
6	0x3e217914	0.15768844
7	0x3d46f105	0.048569698
8	0x3d11b862	0.03557623
9	0x3cc682fb	0.024232378
10	0x3d97a103	0.074037574
11	0x3e04a9bd	0.12955375
12	0x3e0c6810	0.13711572
13	0xbd4fade7	-0.050702956
14	0x3b0d285a	0.0021538944
15	0xbe10c205	-0.14136513
16	0x3d46a845	0.048500318
17	0x3d758a71	0.05994648
18	0x3dc9b037	0.098480634
19	0xbd28b0dc	-0.04118429
20	0x3d865487	0.06559091
21	0x3ac9d902	0.0015399756
22	0x3dd2429d	0.10266612
23	0xbd1cfc0b	-0.038326304
24	0x3ca2bcd5	0.019865433
25	0xbdf8bad6	-0.12145011
26	0xbd59ed4d	-0.053204823
27	0x3e2fb1af	0.17157625
28	0xbd9b7c55	-0.07592074
29	0x3e3e37c8	0.18575966
30	0x3dd6f15b	0.10495254
31	0xbe261e06	-0.1622239
32	0xbac67d10	-0.0015143473
33	0x3da20300	0.079107285
34	0x3ddb42a7	0.10706072
35	0x3cb4117c	0.021980993
36	0xbdebfb51	-0.11522544
37	0x3d622ead	0.055220295
38	0xbcf69384	-0.030099638
39	0x3d788ea2	0.0606829
40	0x3d8d9146	0.06912474
41	0x3cb7e4a4	0.022447892
42	0x3dbfd673	0.09367075
43	0xbd070777	-0.032966103
44	0xbdff408e	-0.12463485
45	0x3c11fb88	0.008910067
46	0xbb689906	-0.00354916
47	0x3dd5b65c	0.10435173

conv2.weight f4 [64, 48, 3, 3]
0	0xbb163e78	-0.0022925418
1	0x3cb657f8	0.022258744
2	0x3d134a9a	0.035959817
3	0x3abfe4a7	0.0014640287
4	0xbce4fc28	-0.027952269
5	0xbcf90600	-0.030398369
6	0x3b502818	0.003176218
7	0x3d31c335	0.043399055
8	0xbc861016	-0.016365092
9	0x3cce58eb	0.025188884
10	0xbd61ee28	-0.055158764
11	0x3bfccbd9	0.00771473
12	0xbd0eed08	-0.03489402
13	0xbbfe2d5e	-0.007756873
14	0x3ce57b72	0.028012965
15	0x3d0728cb	0.032997888
16	0xbd2d088a	-0.04224447
17	0x3c190435	0.009339382
18	0x3bdf5913	0.0068160384
19	0x3bdb3725	0.0066899233
20	0xbc2aae45	-0.010417526
21	0xbd362feb	-0.044479292
22	0xbd0d1831	-0.0344469
23	0x3ccc38ad	0.024929369
24	0x3c0eda39	0.0087190205
25	0xbc95183d	-0.018200034
26	0xbd4c16ba	-0.04982636
27	0xbca91934	-0.0206419
28	0xbd57402c	-0.052551433
29	0xbc2d0216	-0.010559579
30	0x3c8e5876	0.017376166
31	0xbb762ef3	-0.0037564605
32	0x3b44f4bc	0.00300531
33	0xb942aec1	-0.00018566383
34	0x3c89c485	0.01681734
35	0x3c9271d2	0.01787654
36	0x3c389a98	0.011267327
37	0xbd03c301	-0.032168392
38	0x3bfe405e	0.007759138
39	0x3c96e952	0.018421803
40	0xbb5356ed	-0.0032247857
41	0x3c7d2590	0.01545085
42	0x3ce087a4	0.027408428
43	0xbc0ae2e8	-0.00847695
44	0x3b53de74	0.0032328637
45	0x3d055953	0.03255589
46	0xbd62846f	-0.05530208
47	0xbcf8ffe0	-0.030395448
48	0xbd0d67a6	-0.034522675
49	0x3cb487d6	0.022037428
50	0x3bf47c9a	0.0074611427
51	0x3d1b03ab	0.037845295
52	0xbd1afaa5	-0.03783669
53	0x3c8a6894	0.01689557
54	0x3cf25b6a	0.029584605
55	0xbac01d98	-0.0014657257
56	0x3cd9c2a1	0.026582064
57	0x3d199712	0.037497588
58	0xba73313c	-0.0009277051
59	0xbd06f0b5	-0.0329444
60	0xbcf1c70a	-0.029513855
61	0x3c28d23a	0.010304028
62	0x3bca8fc2	0.006181688
63	0x3cd8a908	0.026447788
64	0xbc764010	-0.015029922
65	0xbd2ddc24	-0.04244627
66	0x3c4dacc6	0.012553399
67	0xbc49439b	-0.012284185
68	0x3cdc09f4	0.026860215
69	0xbcef6d77	-0.029227002
70	0xbc3f183d	-0.011663494
71	0xbb7d0ee3	-0.003861361
72	0x3b4037df	0.0029330177
73	0x3d4fce6a	0.05073396
74	0x3bd6c5e7	0.0065543535
75	0xbd3e52a3	-0.046465527
76	0x3d24c4bc	0.040226683
77	0xbd24867c	-0.040167317
78	0xbd099f80	-0.033599377
79	0xbccbf402	-0.024896625
80	0x3cd1518f	0.025551585
81	0xbc88504c	-0.016639851
82	0xbd3c3b0c	-0.04595475
83	0xbd4136c0	-0.047171354
84	0x3cb1bc50	0.02169624
85	0xbd5e2111	-0.054230753
86	0xbcf3759e	-0.02971917
87	0x3cefebfa	0.029287327
88	0xbd0cce60	-0.034376502
89	0xbd0f1a8f	-0.034937438
90	0x3d243844	0.04009272
91	0xbcd94ac9	-0.026524918
92	0x3d2841bf	0.041078325
93	0x3d0c6b61	0.034282092
94	0x3d20a938	0.03922388
95	0x3d293d93	0.041318487
96	0xbceb81d6	-0.028748434
97	0xbc9eaa51	-0.019368323
98	0x3cb20429	0.0217305
99	0xbd52a2e2	-0.05142487
100	0x3be8adfa	0.0071008177
101	0x3bba4950	0.005685009
102	0xbc818cb7	-0.015814168
103	0x3c0a8590	0.008454695
104	0xbc979608	-0.018504158
105	0xbac5067b	-0.0015031839
106	0xbb85bf18	-0.004081618
107	0xbbea47df	-0.007149681
108	0xbc49c7a9	-0.012315669
109	0xbd4be0ef	-0.04977506
110	0xbb1c0ad6	-0.002381017
111	0x3ca7546d	0.020426
112	0x3ccece8b	0.025244972
113	0xbca53336	-0.02016602
114	0xbc5ade0e	-0.013358606
115	0xbba1fe91	-0.0049436768
116	0xbcc39c48	-0.023878232
117	0xbcd83cd4	-0.026396193
118	0xbc4fb007	-0.0126762455
119	0xbd138bc1	-0.03602195
120	0xbc1aeeeb	-0.009456377
121	0xbcb26ee7	-0.021781398
122	0xbce03a91	-0.027371677
123	0xbc00543f	-0.007832586
124	0xbd0de498	-0.034641832
125	0xbc482e88	-0.012218125
126	0x3cbc7cb9	0.023008691
127	0x3ce1c686	0.027560484
128	0xbccf2ec4	-0.025290854
129	0x3b6f4831	0.0036511535
130	0x3c84f3a5	0.01622946
131	0x3bb81b3a	0.00561848
132	0xbd1fb20f	-0.03898817
133	0x3cb9a915	0.022663632
134	0xbc8286e5	-0.015933463
135	0x3b67f61d	0.0035394498
136	0xba8fef12	-0.0010981283
137	0x3b286f97	0.0025701278
138	0x3c882ca8	0.016622856
139	0xbbe86624	-0.0070922542
140	0xbcf3084a	-0.029667038
141	0xbcec0f56	-0.028815906
142	0x3c75bb8e	0.01499833
143	0xbc14f1b4	-0.00909083
144	0xbca27405	-0.019830713
145	0xbd1d0cdc	-0.03834234
146	0xbd171b0b	-0.036891025
147	0x3cdd2ad9	0.02699797
148	0xbb2f2098	-0.0026722308
149	0x3c674a60	0.0141168535
150	0xbd474ec9	-0.04865912
151	0xbd446a58	-0.04795298
152	0xbc15f70f	-0.009153142
153	0x3d0f6ec0	0.03501773
154	0x3d1de9a2	0.038552888
155	0xbcdf6c10	-0.027273208
156	0xbd14ee23	-0.036359917
157	0x3c80181f	0.015636502
158	0xbd1d8012	-0.038452215
159	0xbd3f3681	-0.04668284
160	0x3b26a6e4	0.0025429064
161	0xbd24980b	-0.040184062
162	0xbd153a21	-0.03643239
163	0xbc960245	-0.01831163
164	0xbc33086b	-0.0109273
165	0xbd0870df	-0.033310767
166	0xbc2482fb	-0.010040994
167	0xbbdc3033	-0.006719613
168	0x3cf9f805	0.030513773
169	0xbd299e67	-0.04141083
170	0x3c201c15	0.00977232
171	0xbd4a672b	-0.049414795
172	0x3cc4a2b5	0.024003366
173	0xbd03f68a	-0.03221754
174	0x3cdff885	0.027340183
175	0x3af49ae0	0.0018661879
176	0xbcad2464	-0.021135516
177	0x3c8447c0	0.016147494
178	0xbbe9215a	-0.0071145715
179	0xbcb0a30c	-0.021562122
180	0x3c946c87	0.018118156
181	0x3c779f11	0.015113608
182	0x3d07b474	0.033131078
183	0x3c5d4ef8	0.013507597
184	0xbb816a62	-0.0039494494
185	0xbc419504	-0.011815313
186	0x3d2c5dab	0.042081516
187	0xbd3a9ec4	-0.045561567
188	0xbd670c10	-0.056407988
189	0x3bd76a0a	0.00657392
190	0x3cb2da8c	0.021832727
191	0xbd618d1d	-0.055066217
192	0x3c149f16	0.009071132
193	0xbd373b16	-0.044734083
194	0xbc40b20f	-0.0117612025
195	0x3d2bf2eb	0.04197971
196	0x3d29bc61	0.041439418
197	0xbc9fb83e	-0.019497033
198	0x3c0419f0	0.008062825
199	0xbc90103d	-0.017585868
200	0x3d13599b	0.035974126
201	0x3c8e4b99	0.017370032
202	0xbd30febc	-0.043211684
203	0xbb5106ab	-0.0031894844
204	0xbd260771	-0.04053444
205	0xbca2084f	-0.019779352
206	0xbd5dd111	-0.05415446
207	0x3afee483	0.0019446764
208	0x3d2554fa	0.040364243
209	0xbc2d8a4f	-0.010592057
210	0x3ce1b017	0.027549786
211	0x3d1e208b	0.038605254
212	0xbbd02aa8	-0.0063527413
213	0xbd139582	-0.036031254
214	0xbd3228b8	-0.043495864
215	0xbd076ddf	-0.033063766
216	0x3c5f6e13	0.013637084
217	0x3d19c5b7	0.03754207
218	0x3bdb14fb	0.0066858507
219	0x3cd4a720	0.025958598
220	0xbd485f4c	-0.048919007
221	0x3ce0a8e1	0.027424278
222	0x3cab4298	0.020905778
223	0x3ca73ed2	0.020415697
224	0x3ce8bb8b	0.02840974
225	0x3d0816fe	0.033225052
226	0xbc854a1c	-0.01627069
227	0x3b551950	0.0032516308
228	0x3ce71fc5	0.028213391
229	0x3cfca7f3	0.030841803
230	0xbc48985f	-0.012243359
231	0x3cb1cbe1	0.021703662
232	0x3d28a598	0.041173548
233	0xbc070e18	-0.008243106
234	0xbbd66e45	-0.006543907
235	0x3d3f0126	0.046631955
236	0x3d21fb6f	0.039546426
237	0xbd4e4f3b	-0.05036853
238	0x3cece779	0.028918969
239	0xbc9cbe81	-0.019133808
240	0x3bd9bc9b	0.006644798
241	0xbd0048ac	-0.031319305
242	0x3d38426a	0.044985212
243	0x3d1a038f	0.03760105
244	0x3ceb9763	0.02875871
245	0x3ca9a0af	0.020706503
246	0xbbfa7f0b	-0.0076445392
247	0xbbc97988	-0.006148521
248	0x3cc77e7b	0.024352303
249	0xbd2fc124	-0.042908803
250	0xbd4dce89	-0.050245795
251	0xbc00e2d6	-0.007866582
252	0x3c1ee02b	0.0096970005
253	0xbb4177e9	-0.0029520935
254	0x3b8b3e56	0.0042493744
255	0xbd62e87b	-0.055397492

conv2.bias f4 [64]
0	0xbd55ddca	-0.052213468
1	0x3da0f959	0.07860059
2	0x3cbaac74	0.02278731
3	0xbd0433d0	-0.032275975
4	0xbd1c1842	-0.03810907
5	0x3d13822d	0.036012817
6	0x3cff5e6a	0.03117295
7	0xbd674001	-0.056457523
8	0x3d9e37a1	0.07725454
9	0x3ddb18bd	0.10698078
10	0xbd3313dc	-0.04372011
11	0xbd42b94f	-0.047540005
12	0xbcf9725a	-0.030450035
13	0xbcb1d5f1	-0.02170846
14	0x3d171ef8	0.03689477
15	0x3c846d1e	0.016165312
16	0xbce1c334	-0.0275589
17	0xbceca718	-0.02888827
18	0xbd33f411	-0.04393393
19	0xbb080de4	-0.0020760233
20	0x3cc521c7	0.024063958
21	0x3d9cf053	0.07663026
22	0xbbcaffe8	-0.006195057
23	0x3d30a01c	0.043121442
24	0xbc95427a	-0.018220175
25	0x3ca72f6f	0.02040836
26	0xbd25af5f	-0.04045045
27	0x3dcec535	0.10096208
28	0x3b17d728	0.0023169015
29	0xbd0bc4d6	-0.034123264
30	0x3d2499a2	0.04018558
31	0xbd19ea13	-0.037576746
32	0x3d0963f4	0.03354259
33	0x3d7e28bb	0.062050562
34	0x3c9c501a	0.019081164
35	0x3dc45876	0.09587185
36	0xbd19af37	-0.037520614
37	0xbd1b4023	-0.037902962
38	0xbd364456	-0.044498764
39	0x3d5edd90	0.054410517
40	0x3dc3ec76	0.09566586
41	0x3d35f551	0.044423405
42	0x3c9c764f	0.019099383
43	0xbb9ecc0d	-0.004846102
44	0x3dde9db5	0.10869924
45	0xbcdb0695	-0.026736537
46	0x3c9796d3	0.018504536
47	0x3d9b07d5	0.07569853
48	0xbca3965d	-0.01996916
49	0x3c833439	0.016016113
50	0x3d76c83f	0.060249563
51	0xbc862df2	-0.01637933
52	0xb929445c	-0.00016142562
53	0x3c173fac	0.009231489
54	0xbd53d56f	-0.051717218
55	0x3b46fe23	0.003036388
56	0xbd06ac9d	-0.03287946
57	0xbc69a178	-0.014259689
58	0x3d5de20a	0.054170646
59	0xbd41770a	-0.047232665
60	0x3bf285c2	0.007401199
61	0xbd2b81f7	-0.04187199
62	0x3cd67939	0.02618085
63	0x3bbfbc41	0.005851299

fc.weight f4 [10, 4096]
0	0x3c76ce05	0.015063767
1	0x3bc404c6	0.0059820144
2	0x3c119ae9	0.008887031
3	0x3b357f57	0.0027694309
4	0x3c9ecdc6	0.01938523
5	0x3c10da8a	0.008841166
6	0xbc5d88a9	-0.013521352
7	0xbacae543	-0.0015479702
8	0xbc249af6	-0.010046711
9	0x3c361620	0.011113673
10	0x3c0cef3c	0.00860196
11	0x3bec056b	0.0072027943
12	0xbc6fb962	-0.014631601
13	0xbb327dd0	-0.0027235635
14	0x3ca3f8fa	0.020016182
15	0xbc99b5da	-0.018763471
16	0x3b714f20	0.0036820844
17	0x3bd1410f	0.0063859294
18	0x3bc4a05a	0.0060005607
19	0xba653d4e	-0.0008744792
20	0xbc641e54	-0.013923246
21	0x3c4a6dd3	0.012355286
22	0x3bc497f8	0.0059995614
23	0xbb00bb29	-0.0019642806
24	0x3c491670	0.012273416
25	0xbb2f5d00	-0.0026758313
26	0x3c64f730	0.01397495
27	0xbc5ba4ce	-0.013405992
28	0xb9c4c41e	-0.00037530152
29	0x3aa65412	0.001268985
30	0xbbcb968b	-0.0062130145
31	0x3b874a57	0.004128735
32	0x3b488cbf	0.003060147
33	0xbb1030b0	-0.0022001676
34	0xbc608024	-0.013702426
35	0x3c1d1037	0.009586385
36	0xbc3230e0	-0.0108759105
37	0x3c240f66	0.010013437
38	0x3a9d7c40	0.0012015179
39	0xbbdd8136	-0.006759788
40	0x3b30ab8d	0.002695772
41	0xbc28bb6f	-0.010298594
42	0xbc990af9	-0.01868199
43	0x3afa8e8a	0.0019115966
44	0x39bad7c0	0.0003563743
45	0x3bffeefa	0.0078104706
46	0xba937f9c	-0.001125324
47	0x3c293051	0.010326461
48	0xbab27130	-0.0013614055
49	0xbb9b94a9	-0.0047479463
50	0xbc7f9f0e	-0.015601886
51	0xbc9d7a98	-0.019223496
52	0x3bb2757c	0.005446134
53	0x3b8ce5ab	0.0042998395
54	0x3c6bd1cc	0.014393281
55	0x3c10539c	0.0088089965
56	0xbba03e2f	-0.0048902254
57	0xbb337d59	-0.0027387945
58	0xb9a51b1d	-0.00031491453
59	0x3b3494a4	0.0027554417
60	0xbc4c1339	-0.012455755
61	0x3b908b4b	0.0044111363
62	0xbba6c3cd	-0.0050892592
63	0xbbf175ed	-0.007368794
64	0xbc263931	-0.010145471
65	0xbc68325f	-0.014172166
66	0xbd46f91d	-0.048577417
67	0x3d1185b9	0.03552792
68	0x3d1c0a9b	0.03809605
69	0xbcd42a28	-0.025899008
70	0xbd0b7049	-0.03404263
71	0x3b7eba0d	0.003886822
72	0xbcd0889c	-0.025455765
73	0xbc129de4	-0.008948777
74	0xbc9a1b21	-0.018811764
75	0x3ddd0439	0.10791821
76	0x3e0a268f	0.13491271
77	0xbc72d96c	-0.014822345
78	0xbd40bd41	-0.047055487
79	0xbd977214	-0.073948056
80	0xbb2414cc	-0.002503681
81	0xbc969f45	-0.018386493
82	0x3c8e6861	0.017383756
83	0x3d5b9431	0.053608123
84	0x3dcb95d1	0.099406846
85	0xbd487801	-0.04894257
86	0x39c41bd4	0.00037404767
87	0xbb502f69	-0.003176654
88	0xba86f0df	-0.0010295174
89	0xbcd1b61c	-0.025599532
90	0x3a90c996	0.0011046405
91	0x3d8ca438	0.0686726
92	0x3e0fed66	0.14055404
93	0xbc996763	-0.018726056
94	0x3abf40af	0.0014591421
95	0xbbd38bc4	-0.0064558703
96	0xbcd14735	-0.02554665
97	0xbb98fcd5	-0.004668812
98	0x3d1b1f5f	0.037871715
99	0x3dca0639	0.09864468
100	0x3e0ae3d9	0.1356348
101	0xbd3b1b4e	-0.045680337
102	0x3c8ff0bf	0.017570851
103	0x3ba4a946	0.005025062
104	0xbcb95f40	-0.022628427
105	0xbd27975b	-0.04091583
106	0x3cd28757	0.0256993
107	0x3de60fdb	0.11233493
108	0x3dd01d0b	0.101617895
109	0xbc81a7f5	-0.015827158
110	0x3cb64e63	0.022254175
111	0x3d884c69	0.06655199
112	0xbcb51575	-0.022104958
113	0xbd50c839	-0.050972197
114	0xbc5db985	-0.013533001
115	0x3dc0f0b7	0.09420913
116	0x3d6b5ee2	0.057463534
117	0xbd2f6a38	-0.042825907
118	0xbc988d91	-0.018622192
119	0x3d90eda1	0.07076574
120	0xbb73000b	-0.0037078883
121	0x3c4e73c9	0.0126008475
122	0xbd996573	-0.07490053
123	0x3ccd7d65	0.025084207
124	0xbcd9794b	-0.026547095
125	0x3d38ef63	0.045150172
126	0xbd27e890	-0.040993273
127	0x3d9405ba	0.07227655
128	0x3c2fa4e4	0.010720465
129	0xbc5ef4eb	-0.013608198
130	0x3c5f55e0	0.013631314
131	0xbbbb4c97	-0.0057159173
132	0xbb5f25a2	-0.003404953
133	0x3b1320b8	0.0022449922
134	0x3be664c0	0.0070310533
135	0x3bf7fbd1	0.0075678607
136	0xbc8c9967	-0.017162992
137	0x3b767c35	0.0037610654
138	0xbbc08767	-0.005875516
139	0x3a3890f7	0.00070406444
140	0x3c4f3d81	0.012648941
141	0xbc6c74d1	-0.014432148
142	0x3c72c2ee	0.014816983
143	0x3cc5aa79	0.02412914
144	0xbacde7e8	-0.0015709372
145	0xbb1c813a	-0.0023880736
146	0xbb76db62	-0.0037667383
147	0x3c86558d	0.016398216
148	0xbaade371	-0.0013266635
149	0x3bd9b3d4	0.0066437516
150	0xbb0ef50d	-0.0021813542
151	0x3b9dbd9e	0.004813864
152	0xbc56a5d2	-0.013101058
153	0xbb5dc142	-0.0033837114
154	0xbb2bf337	-0.0026237497
155	0xba38bde9	-0.0007047342
156	0x3b3c831d	0.0028764673
157	0x3c4ae8f2	0.01238464
158	0xbc268e95	-0.01016583
159	0x3c892ee8	0.016746
160	0xbc47f72a	-0.012204925
161	0xbca11fe2	-0.019668523
162	0xbbffcdef	-0.0078065316
163	0x3ca2740f	0.019830732
164	0x3b27c0cd	0.0025597096
165	0xbb8589b4	-0.0040752534
166	0x3c69f163	0.0142787425
167	0x3b29f666	0.0025934218
168	0xbbd4d6d9	-0.0064953384
169	0xbc898ea5	-0.016791651
170	0xbc175151	-0.009235696
171	0x3c7e5869	0.015524008
172	0x3abd6a8a	0.0014451307
173	0x3af76b2c	0.0018876544
174	0x3c29f211	0.010372655
175	0x3c7fda4e	0.015616013
176	0xbb793f35	-0.003803206
177	0x3bbe4ded	0.0058076293
178	0x3bd49f32	0.006488704
179	0x3c914420	0.01773268
180	0x3cab3db3	0.020903444
181	0x3acf7070	0.0015826356
182	0x3c944e7a	0.018103827
183	0x3c5d35d4	0.013501603
184	0x3c1d2803	0.009592059
185	0xbbd21912	-0.00641168
186	0x3c5a1587	0.013310797
187	0x3c0a6cc8	0.008448787
188	0x3cc5b9f6	0.024136525
189	0x3caa4987	0.020787014
190	0xbb3844b3	-0.002811712
191	0x3bc5c80f	0.0060358117
192	0xbaae3e1f	-0.001329366
193	0x3b0065ac	0.001959185
194	0xbbf761dc	-0.0075495075
195	0x3bebe41f	0.007198825
196	0x3ca0bad4	0.019620337
197	0x3b9fe82f	0.0048799734
198	0xbb91252b	-0.0044294796
199	0x3be6869e	0.0070350906
200	0xbccf99fa	-0.025341976
201	0xbd804d61	-0.06264759
202	0xbc91bae1	-0.017789306
203	0xbd3a0f99	-0.04542503
204	0x3d8527f9	0.06501765
205	0x3d387e3e	0.04504227
206	0x3bba851e	0.0056921383
207	0x3bf704fc	0.007538436
208	0x3d78377c	0.06059979
209	0x3bc839ec	0.0061104205
210	0x3d63b34d	0.055590916
211	0x3c3fe912	0.011713283
212	0xbd03f220	-0.03221333
213	0x3d468f52	0.048476525
214	0x3c97fd83	0.018553501
215	0xb988758a	-0.00026027515
216	0x3d217eb8	0.03942749
217	0xbc301afb	-0.01074862
218	0x3d4be9df	0.049783584
219	0x3cffda9e	0.031232174
220	0x3c225ef0	0.00991033
221	0x3d5fab4a	0.054606713
222	0xbcb6e25a	-0.02232473
223	0x3aac0b44	0.0013125916
224	0x3c9ef585	0.019404182
225	0xbcb811d5	-0.02246944
226	0xbd1c181a	-0.038108923
227	0x3de6f0dc	0.11276409
228	0x3e0bd863	0.13656764
229	0x3d23ff49	0.04003838
230	0xbd35b823	-0.04436506
231	0x3cbd472e	0.02310523
232	0xbd096d3d	-0.033551443
233	0xbbafd03c	-0.0053653996
234	0xbd78a0ad	-0.060700107
235	0x3dbf2cae	0.09334694
236	0x3ddf3656	0.10899036
237	0xbc1456a0	-0.009053856
238	0xbdaf1434	-0.08548775
239	0x3c9427e1	0.018085422
240	0xbca56590	-0.02019003
241	0x3ce6ba19	0.02816491
242	0xbcb87cdf	-0.02252048
243	0x3d5b3148	0.053513795
244	0x3d4f8b61	0.05067003
245	0x3c002f9d	0.007823852
246	0xbd39f6b6	-0.045401298
247	0xbbadf96b	-0.005309274
248	0x3c3769ef	0.01119469
249	0x3c97d203	0.018532759
250	0xbdee948e	-0.11649428
251	0xbd3b90df	-0.045792457
252	0x37ad65d0	2.0670617e-05
253	0x3c8ee157	0.017441435
254	0x3d0148fa	0.031563736
255	0xbcc57538	-0.024103746

fc.bias f4 [10]
0	0x3d2ad836	0.0417101
1	0x3cea5ed7	0.028609676
2	0xbc8eebd6	-0.01744644
3	0xbc50423d	-0.012711105
4	0x3b1e1ac8	0.002412485
5	0xbc8ed1d6	-0.017434042
6	0xb9cb086a	-0.00038725446
7	0xbd0a666e	-0.03378909
8	0xbce14f96	-0.02750377
9	0x3cbc41cb	0.022980591
