LAB 3/Results/CNN_L2_lr005_adam.ckpt (torch, 107687 bytes, 6 tensors)

conv1.weight f4 [16, 3, 5, 5]
00000000: c6c4 eb3b 4c09 cc3c 8cd2 06be ead9 1fbb
00000010: 26e0 a8bc b069 6e3c 80af bdbd eece b2bd
00000020: 2b61 04bd 2b24 e6bd d8de 15bd be6e d1bd
00000030: 09fc 433c 80f1 c4bc acf8 8abd f938 dcbd
00000040: f730 60bd 37c0 2fbe cdd2 b43b 621f c03c
00000050: 6de6 c4bd e017 27be 75c7 b9bc b0b4 1dbe
00000060: 9b01 ddbd 7ff3 013b 76dd 0c3d 776f e8bc
00000070: ea93 11be bdfc febd 0685 233d 0ff9 493b
00000080: ebd5 5dbd eb7a abbd 2a9b e6bd d3ca 263c
00000090: 4782 e3bd 4a6f 123d 8b0d 91bc db17 00bc
000000a0: 62f7 04bd 8180 d9bd 4899 59bd 2e0b c5bd
000000b0: 7a08 133d 0d36 e0bd 4632 51bd 6468 1abe
000000c0: b899 a1bd 8013 bdbd da07 c03d 9b66 6cbc
000000d0: 9f38 893a c051 93bc 4ede f0bd e03b c43c
000000e0: 100d bc3d b324 093b 5a87 d03d f48e 7ebc
000000f0: 3399 293d d227 ac3d 1d43 d3bd 4670 b6bd
00000100: b4eb b6bd e685 31be f047 37be 36d4 cebc
00000110: 4eaf 04bc a922 2dbd de63 83bd 8ef2 46be
00000120: 8fc7 cdbd 4609 30bd 5dce 43bd db6f b7bd
00000130: c523 983d 0013 5bbb b7b9 5b3d d03b a8bb
00000140: cba9 a7bd ab87 31bc 77e0 f1bd 3782 77bd
00000150: f826 fbbd 7b2b f9bd 6a8d 12be 0d6a 9cbd
00000160: ab8f 843d 5ef3 4fbd 805b 97bd 2fff 6e3d
00000170: 1aed a43d d142 21bd 554c b6bc ac8f c5bd
00000180: f2bc c6bd 21fb 0c3d c778 a13d 1200 6d3d
00000190: 21a8 80bd c700 bfbb c29a 05be bccc a93c
000001a0: e83e 08be bcb4 7abd 60b1 0bbe 0984 a3bd
000001b0: a65d 2c3d b402 af3d 5b71 ecbd caa0 8fbc
000001c0: 9207 f0bd 5127 5b3d f3e7 4d3d 7701 823c
000001d0: add7 2fbd bf6b 74bd 11a3 163d 4bcb e5bd
000001e0: e329 babd 7422 843d ac47 a73c 0dbc a5bd
000001f0: 43a1 bf3d 1840 e6bd d0d2 933c d023 423d
00000200: a4c8 89bd 6720 ccba f01c 9cbb c8ef 8d3d
00000210: fd30 54bd 6937 b73c e2a9 d6bd 1fae 563d
00000220: c256 873c 8b31 9cbd bb58 02be e982 a93d
00000230: 0de7 18bd 0ca7 f9bd 8ac3 0a3d 2b08 c4bd
00000240: 9c12 bcbd 89d9 aa3c ea2b 68bd 8911 01be
00000250: 7e9d 183d 4310 a73c c61b 343c 1000 c7bd
00000260: 4c4c 83bd 2fff 0abe ff7b ae3d 95cd a6bc
00000270: 4e00 c4bc 7238 e8bd 9a0b dbbd 2436 39bc
00000280: bc8d b3bd 234e 0e3d 0933 12be ca68 de3c
00000290: ebfb e03d d47f 833c 27fd e43c b558 18be
000002a0: b6d7 fcbb 1e99 acbd 2ed8 b0bd 6a53 363c
000002b0: 34d7 d1bc 3ecc d93a 8610 6fbc 3c50 a13d
000002c0: 94aa 09bd 7561 92bd d1bc ae3d 2d5a c9bd
000002d0: 2e66 e2bb b2b1 653d 44ef 683d b4c0 abbd
000002e0: 5220 b8bd 38c6 09be 177c 353d dfcd 40bd
000002f0: 00c4 18be 019d e53d 98be 94bc bd7e 01be
00000300: cced e5bd 0a12 e9bd 3633 4d3b 4b6a ccbc
00000310: c1a7 b7bd e850 8c3c 34ca 9bbd 129f 993d
00000320: 2d10 80bd 63e3 d03c 024f 843c d95f 193d
00000330: 9643 d7bd c63d 54bd 6c72 aabd f2a9 08bd
00000340: cacf 55bb ec91 b9bd 2392 d03c 05ae 09be
00000350: 8358 a33c 5a0f c9bd 92c5 a7bd b09f 8d3d
00000360: 5f16 0abe db83 f5bb cd86 0e3d 8c59 a8bc
00000370: b926 4d3c e452 a3bd 7851 18be da3d bebd
00000380: 0499 d93c 5d32 43be 38e9 babe ffdc c0be
00000390: 4ee0 2dbe 9064 063e a0b5 bb3c c10a 5bbd
000003a0: dea6 8cbe ad78 d6bd d03e cc3d 184d 233e
000003b0: c4ad 063d 169d 9cbe a360 c0bd 5b01 183d
000003c0: ee0f 653e 6efb 733e 3f6b 26bd 7282 6fbd
000003d0: 312c 313c ca01 e43e 09b7 9f3e 7d5e b33e
000003e0: a151 85bb e3a1 353d f93b 9bbe d392 dbbe
000003f0: c2cd f2be 0a73 72be 2f65 3e3e 289d 75bd
0.007195088 0.024906777 -0.13166255 -0.0024391362 -0.020614695 0.014551565 -0.092619896 -0.08730875
-0.03231923 -0.11237367 -0.036589473 -0.102262005 0.011961945 -0.024040937 -0.06785712 -0.10753054
-0.054734197 -0.17163168 0.0055182935 0.023452464 -0.09614263 -0.16317701 -0.022678116 -0.15400958
-0.10791322 0.0019828973 0.03439089 -0.028373463 -0.14216581 -0.1245055 0.039921783 0.0030818617
-0.054159086 -0.08373054 -0.11260064 0.010180193 -0.11108833 0.035750665 -0.017706653 -0.007818188
-0.032462485 -0.10620213 -0.053124696 -0.09621273 0.035896756 -0.10947809 -0.051073335 -0.15078884
-0.07890648 -0.09232235 0.093764976 -0.01442876 0.0010469145 -0.017983317 -0.11761151 0.023954332
0.09182179 0.0020926415 0.10182066 -0.015537012 0.041405868 0.084060326 -0.10315535 -0.08908133
-0.089316756 -0.17336234 -0.17898536 -0.025247674 -0.0080984365 -0.042269383 -0.064155325 -0.19428465
-0.100478284 -0.042977594 -0.047804225 -0.089568816 0.074286975 -0.0033428073 0.05364391 -0.0051340833
-0.08186682 -0.010835568 -0.118103914 -0.060426917 -0.12263292 -0.12166496 -0.14311758 -0.07637415
0.06472715 -0.050769202 -0.07390499 0.05834883 0.08053036 -0.03937036 -0.022253195 -0.09646544
-0.09704007 0.034419183 0.078843646 0.057861395 -0.06282068 -0.00582895 -0.13047317 0.020727508
-0.13305247 -0.061207518 -0.13641882 -0.07984168 0.042081498 0.085454375 -0.11545058 -0.017532725
-0.11720194 0.053504292 0.050270032 0.01586984 -0.042930294 -0.059673067 0.036776606 -0.11220416
-0.090900205 0.06451884 0.020419918 -0.080925085 0.0935693 -0.11242694 0.01804486 0.047397435
-0.06727722 -0.0015573621 -0.004764192 0.069305 -0.05180453 0.022365289 -0.10481621 0.05241215
0.016520862 -0.07626637 -0.1272916 0.08276922 -0.037329722 -0.12190065 0.033877887 -0.095718704
-0.09183237 0.020855682 -0.056682505 -0.12604345 0.03725957 0.020393496 0.01099295 -0.09716809
-0.06411037 -0.13573907 0.08519744 -0.020361701 -0.023925927 -0.11338891 -0.10695572 -0.011304412
-0.08767268 0.034742486 -0.14277281 0.027149577 0.109855495 0.016052164 0.027952744 -0.14877589
-0.0077161444 -0.08427642 -0.08634983 0.011128286 -0.025615312 0.0016616655 -0.014591342 0.078766316
-0.03360994 -0.07147495 0.085321076 -0.09831653 -0.0069091534 0.056077667 0.056868806 -0.083863646
-0.089905396 -0.1345452 0.044307794 -0.047071334 -0.14918518 0.11211587 -0.018157288 -0.12646003
-0.11226997 -0.11380394 0.0031311042 -0.024953028 -0.089675434 0.017128423 -0.076069266 0.075010434
-0.06253085 0.025499051 0.016150955 0.037444923 -0.10510938 -0.051816724 -0.083226055 -0.033365197
-0.0032625073 -0.090610355 0.025460308 -0.1344529 0.019939667 -0.09817381 -0.081919804 0.069152236
-0.13485096 -0.007492525 0.034796525 -0.020550512 0.012521439 -0.079747945 -0.14874828 -0.09289141
0.026562221 -0.19062181 -0.36506057 -0.37668607 -0.16980097 0.13124299 0.022913754 -0.053477053
-0.2747106 -0.10472236 0.09972918 0.15947378 0.03288056 -0.30588597 -0.09393432 0.037110668
0.22369358 0.23826382 -0.04062962 -0.05847401 0.010813759 0.44532615 0.31194332 0.35033026
-0.004068569 0.04434384 -0.30319193 -0.42885455 -0.47422606 -0.23676696 0.18593286 -0.05996433

conv1.bias f4 [16]
00000000: 3ddb 5abd 835b 2d3b a35c 33be 3f20 ae3e
00000010: a72f 81bd 575c 1dbd d7e2 c5bb e6f4 ce3d
00000020: c95e 9a3c a1d0 e7bd b9cd 8ebc 580f dfbd
00000030: 5196 06be 544e 59bd 7740 fabd d7b5 893a
-0.05343174 0.002645225 -0.17515807 0.34008977 -0.06307917 -0.03841814 -0.0060390043 0.101053044
0.018844025 -0.1131909 -0.01743208 -0.108915985 -0.13143279 -0.053053215 -0.12219327 0.0010506463

conv2.weight f4 [32, 16, 3, 3]
00000000: fd18 36bd b362 23bd 3f82 cbbd ddb9 353d
00000010: 10e7 cfbd 6798 113d 9e91 50bd 1319 88bd
00000020: fb76 e1bc 181a 87bc 2a0d 44bd 9f47 abbd
00000030: da05 21bd c063 4b3d 5d57 413c ff25 36bd
00000040: 2337 413d 6a98 2dba 2f78 b03d 2121 d33d
00000050: 1882 e43c 23fa 4fbd 613a bf3d b4f7 a03c
00000060: 2682 a23c 47eb d3bb 11f6 d0bc ca7f 13bd
00000070: c129 cabc 0918 96bd d0f4 81bd 4b36 e5bd
00000080: e5c9 f8bc 0f20 e8bc 914a d8bd 0e55 c9bc
00000090: 41a3 de3c f88c 3cbd 491c 463d c242 c3bd
000000a0: 382d 41bb 7f9c cdbd 8f69 1ebd 8d44 75bd
000000b0: 3e6f e33c de99 92bd 4858 90bc 1198 e33c
000000c0: 822a a03c 377a 1d3d 68ee 4d3d b5d9 3ebd
000000d0: c826 563d 7420 263d 0e5f 42bd 1553 b53a
000000e0: 7149 6abd 10ec 303d 4333 b3bc 2619 d8bd
000000f0: 048c dabc eda2 cebd 8e44 49bc 05b9 c7bd
00000100: 3e6b 13bd fb9d 1a3c c0b6 a03c 53f4 1e3d
00000110: 2456 2dbd d8cd 173c b677 c7bd f82f d8bc
00000120: f6ba f7bc a624 083d ef26 14bc 72c8 ec3c
00000130: a928 c2bc cda7 25bc fbc8 49bd 4d90 a73c
00000140: 5ab5 b2bc 57bf de3c 9a0d 213d 6a39 db3b
00000150: 0911 e2bd 775c 36bd db83 85bd 6678 603c
00000160: f010 523d dc95 23bd a07c 9cbd 29d5 b53c
00000170: cc61 033d 86a4 8fbd 7dc8 33bd 7fb0 b5bd
00000180: 6150 703d 528c a43c d00f ccbd 0893 ca3d
00000190: a9d6 58bd 08d6 b7ba 5d8b c5bd 1f07 dcbd
000001a0: 0e70 703d 8f38 673d 7794 343d 929d ecbc
000001b0: 7a5b dd3d f113 87bc 3fe1 b9bd 3ed6 c93d
000001c0: 5342 483c 1560 8bbc 6b68 1c3d e8c6 ffbc
000001d0: 9a4b 973c 2a11 febc eac9 bc3c 8576 0dbd
000001e0: a884 333d 71ae dcbd f5fe 0e3d bff4 8ebd
000001f0: 599c d3bb c601 93bc 96cd d13c 1877 e53c
00000200: edf2 25bd 0848 223d 6934 4e3d 2357 d6bd
00000210: e0a1 0dbc 2271 a33c 412a b0bd d0bc 953b
00000220: ac96 3d3d 5dd1 6bbb cbbb a9bc ae69 e3bd
00000230: a01f 3c3b 2d34 adbc 21d8 0dbd e646 f63c
00000240: 0c1d 01be bd2f cbbd 38b6 cabb a2b4 b0bd
00000250: 03e4 dbbd 03db 50bd 43ae 85bd eccc 99bd
00000260: f20b cb3c 5afb d9bd 03c2 b0bd 3ac9 313d
00000270: 45f2 54bd 2dd3 c2bd feb0 c6bd 5ddc 48bb
00000280: 1ff4 86bd 8e21 a6bd 1c39 363d 405c 963b
00000290: e03a d03c 283a 213d ab5b 933a b3fb afbd
000002a0: d053 6fbd 839b a2bd d173 cebd 55ff c0bd
000002b0: 8637 6bbd 03db 8fbd f093 53bd 0231 19bd
000002c0: deb9 5fbd 5ec7 acbd 9052 6abc 5105 99bd
000002d0: e8a8 24bd 8a9c 87bd 9939 a9bd 547c 27bd
000002e0: ced8 573c 5785 3dbd 95ff f2bc eef0 053b
000002f0: 6d9b 56bd d623 10bd 01a5 043d 3f5b 52bd
00000300: 188b b3bd e4f3 e9bd be10 01bd e820 5fbc
00000310: 33e1 2bbc 2526 1abd 93db bb3c 6b6c cf3c
00000320: e0ec 333d 3a58 1dbd 4f26 d9bd 60b1 c3bc
00000330: f115 94bd 95ec 8fbd 4163 66bd e143 eb3b
00000340: 6093 95bd 4c49 98bd 746e f3bd 08e0 45bd
00000350: 8928 1fbd eca2 d5bd b986 61bd e9d3 b0bd
00000360: 0703 dd3c daee f93c b29b b1bd dc1c a6bd
00000370: bcbe f8bc 543b 36bb cfb7 0b3b bd03 70bd
00000380: e871 acbd 1b33 a53c d801 11bc fc8f 153d
00000390: 0042 933c 7e3c 86bd ec6f 12bd 4a9f 22bd
000003a0: 451c 373d 370e cbbd 282c c6bd 9f92 d1bd
000003b0: c1be a8bd 0720 fcbc cf99 ebbd 67fe b4bc
000003c0: b8f7 c2bd 4db2 573d f63d 753c 1980 843c
000003d0: 0d45 04bd e529 b13d e7cb a2bd 4ac5 81bd
000003e0: 6bb4 133c 5a2c 4ebd a902 01bd 5dd7 4e3d
000003f0: c8a5 97bc f27d 273d 1ffd 9abd 82fe dfb9
-0.044457424 -0.03988905 -0.09936952 0.044366706 -0.101514935 0.035545733 -0.05092012 -0.066454075
-0.027522555 -0.016491935 -0.047864117 -0.0836327 -0.03931222 0.049655676 0.011800614 -0.04446983
0.047171723 -0.0006622138 0.08616673 0.10309053 0.027894065 -0.05077566 0.09337307 0.019649364
0.01983745 -0.006467256 -0.025507959 -0.03601054 -0.024678113 -0.07328803 -0.063455224 -0.11191996
-0.030369708 -0.0283356 -0.105610974 -0.02457669 0.027177455 -0.046032876 0.04836682 -0.095342174
-0.0029476415 -0.10039615 -0.038674887 -0.05987983 0.027763005 -0.07158254 -0.01762022 0.027782472
0.01955152 0.03844663 0.05027619 -0.04659434 0.05228308 0.040558293 -0.047453932 0.0013833964
-0.057198945 0.043193877 -0.02187503 -0.10551672 -0.026678093 -0.100896694 -0.012284411 -0.097520865
-0.035990946 0.00943708 0.019618392 0.038807224 -0.04231848 0.009265386 -0.0973963 -0.02639006
-0.030240517 0.033238076 -0.009042486 0.028904174 -0.023701029 -0.010110808 -0.049263936 0.02045455
-0.02181499 0.027190847 0.039319612 0.006690194 -0.110384054 -0.044521775 -0.0651929 0.01370058
0.051285684 -0.03993784 -0.07640958 0.02219637 0.03207569 -0.07013802 -0.043892372 -0.088715546
0.058670405 0.020086441 -0.099639535 0.09891325 -0.05293909 -0.0014025578 -0.09645722 -0.10743546
0.058700614 0.056450423 0.0440869 -0.02888373 0.108084634 -0.016489001 -0.090761654 0.098553166
0.012222844 -0.017013589 0.03818552 -0.031222776 0.018468667 -0.031014044 0.023045499 -0.034536857
0.043827683 -0.107754596 0.034911115 -0.06980275 -0.006457847 -0.017945182 0.025610726 0.02801089
-0.040514875 0.039619476 0.05034295 -0.10465839 -0.008644551 0.019951407 -0.08601809 0.0045696273
0.04628627 -0.0035982945 -0.02071943 -0.11104141 0.0028705373 -0.021143043 -0.034629945 0.030063104
-0.12608737 -0.09921215 -0.006186273 -0.08628203 -0.10736849 -0.050990116 -0.065273784 -0.07509789
0.02478597 -0.10643645 -0.08630755 0.043404795 -0.05198886 -0.09512935 -0.09701727 -0.0030648925
-0.06589531 -0.08111869 0.044488057 0.004588634 0.025418699 0.039362103 0.0011242529 -0.0859293
-0.05842954 -0.07939818 -0.10080684 -0.09423701 -0.057426 -0.07024195 -0.051654756 -0.037400253
-0.054620616 -0.08436464 -0.014301911 -0.07471717 -0.040200144 -0.06621654 -0.08262939 -0.040890053
0.013174249 -0.04626974 -0.029662887 0.0020437795 -0.05239432 -0.035190426 0.032383922 -0.05135655
-0.087667644 -0.114234716 -0.031510107 -0.013618685 -0.010490703 -0.037634034 0.02293185 0.025320252
0.043927073 -0.038414218 -0.1060301 -0.02388829 -0.072307475 -0.07027546 -0.056247 0.0071797227
-0.073035 -0.07435855 -0.11886302 -0.048309356 -0.038857017 -0.104314655 -0.055060122 -0.08634169
0.026978983 0.030509401 -0.08672275 -0.08110973 -0.030364387 -0.0027806358 0.0021319275 -0.058597315
-0.084201634 0.02016597 -0.008850537 0.036514267 0.017975807 -0.06554507 -0.03575127 -0.03970269
0.044704694 -0.09914821 -0.09676391 -0.10233044 -0.082395084 -0.03077699 -0.11503946 -0.022093965
-0.09519905 0.052660275 0.014968386 0.016174363 -0.032292414 0.08650569 -0.079490475 -0.06336458
0.009015183 -0.050335266 -0.031496678 0.050498355 -0.018511668 0.040891595 -0.0756781 -0.00042723498

conv2.bias f4 [32]
00000000: 2a4a 26bd 3325 0dbd c651 143e 7bad 02bd
00000010: c71f 67be 1e74 4abd e54b 5ebe b557 8abc
00000020: 99b8 d6bd 70bd 61bd 93be 5abe 5d5e 48be
00000030: 51c7 fa3d f00b a0bc a946 03bd 8019 113e
00000040: b273 6ebc 6ed2 4a3e 3553 e23d 48d3 0bbe
00000050: 005e 42bc e7aa ecbd 8151 b73d 90f1 48bd
00000060: e0b2 e0bd 3406 193e eeca 6d3e 6970 36bd
00000070: f622 aabd 2719 f4bc 1d7d 3bbe 5c4e 31bd
-0.040598072 -0.034459304 0.14484319 -0.031903725 -0.22570716 -0.049427144 -0.21708639 -0.016887525
-0.10484428 -0.055112302 -0.21361761 -0.19567247 0.12245048 -0.019536942 -0.03204981 0.14169884
-0.014553951 0.19806835 0.11051027 -0.13654816 -0.011863232 -0.115560345 0.089510925 -0.049058497
-0.10971618 0.14943773 0.23221943 -0.044540796 -0.083074495 -0.02979715 -0.18309446 -0.04328762

fc.weight f4 [10, 2048]
00000000: 7a4a e63c 05a7 cdbb 720c 6b3c 9d79 f33c
00000010: 81ba 1f3c e119 9a3c 1883 063c e673 a1bc
00000020: d54e d53b c45e 3b3c 1b4c bd3c 09ed 203d
00000030: 960e f53c 71f9 fc3c 47de cb3c 20a4 293d
00000040: d3b5 443c f1d6 ae3b e9df 59bb d6b9 223d
00000050: 3e2b 743c d362 713c 75eb 0c3d 3206 023c
00000060: afa6 0eba 4230 343c c65f 223d 1206 233d
00000070: 1b93 bb3c b76b 983c f7c8 b63c 3803 033b
00000080: 1f70 e33c 4670 013d 8a09 ae3a abd1 fe3c
00000090: 88db dd3c 38ce ab3c bcc8 d33c 0238 f43c
000000a0: 4e79 a43b 735b 943c 4107 223c e646 bd3c
000000b0: edcc 1b3d cadf 4d3c 0ce3 233d 5015 593c
000000c0: 843e 033d f868 be3c 24e8 153d ee06 113d
000000d0: 5b05 eb3c a7a9 0f3d fd9c 623c 96fa 8e3c
000000e0: cc35 153c d23e b23c feee 623c a5fc 263c
000000f0: eba6 b63c 5abf a03c 28f7 54ba 7922 f13c
00000100: 32f1 a83c 273a 323d 0483 dc3c 41d5 fa3c
00000110: b25f 403d eea9 533d c309 3c3c 652a 3b3d
00000120: ddde 7a3c 5623 353d 1471 483d 1b44 5e3c
00000130: 1e91 c13c 5f42 203d eb57 3d3d 1f7c 0a3d
00000140: f267 063d 0126 1b3d 7ea9 843c f408 283d
00000150: 385f dc3c a084 ba3c 6c13 983c de02 2d3d
00000160: be36 be3c cd8c 883c 698e 733c 5b9e 2c3d
00000170: 4faf 393c c032 b03c cf55 d93c 8112 d23c
00000180: a037 943c 19ad 123d 49c6 2a3d 0ebb 1a3c
00000190: 01a3 513c f4bd 993c 85c9 343c 25e8 cb3c
000001a0: 98ab f03c c014 2a3c 6c53 0a3d 4f10 323d
000001b0: 245a 393d 0017 0c3d fb55 2f3d d149 0d3c
000001c0: 17e0 143c a663 df3b 975c c83c d28e c53b
000001d0: 7c01 bc3c 56b7 fc3c e1ae 373d fdba 943c
000001e0: 4c03 a23c 7806 f63c bc7b b53c da6b 833b
000001f0: f115 a03c ee27 193d ed29 a63b 74d5 333c
00000200: 3e7a 9bbd 3e64 79be d393 1dbd e9aa 37be
00000210: 262f a1bd 78a1 86bd 862f 15be 3aa4 52be
00000220: 0cf1 8c3d 68ee 5dbe 80bf 8cbb afcb b03e
00000230: 26d6 c7be bf85 11bf 281c 8dbe fd59 62be
00000240: 8ac3 a5bc 74d2 8cbe 2b86 0ebe 9244 f43e
00000250: 632d f43e 088f 47be ba5d 7ebe fe7c 76be
00000260: afbc cdbd 02d0 a5be 9858 c0be ed46 813e
00000270: c30a 613f 4aa3 1abc d9ad 87be 9ff5 91bc
00000280: 6b7f 56bc c13d 8ebe 91ea ed3d 2365 2f3f
00000290: 8e1d 153f 3fdb 02be 398b 8fbe d6ce 9bbd
000002a0: 9f7a 1dbe 1b70 0dbe 1e0d 2fbe 5ed8 053f
000002b0: c9cb 533f de59 943e 3a40 6bbe dafb b5bd
000002c0: 0aa3 08bb c281 b4bc 2038 c9be 85e4 1e3e
000002d0: a82e 4c3f 3902 983e baf2 d0bd 62ea dbbc
000002e0: c2d9 473e d957 893d f953 413e 5ade c63e
000002f0: f7b7 eb3e 037b 02be 58ca 0b3c 5814 713e
00000300: 675f 723d b620 3b3d c255 8e3d c1de f23c
00000310: 56cf f33c 3c15 7f3d ee29 3a3d a956 2cbc
00000320: b1e2 c53b 3a1b 81bb c3f3 00bd af3d 823c
00000330: b2a2 9d3c 2a09 e039 8802 5f3c 2ab1 c33d
00000340: 2ffa e63c 0ad1 34bb d7ae a9bc b7b2 813c
00000350: cd82 b7b9 8f51 1fbd 4fe8 5a3b 25ec 37bd
00000360: c947 0cbb 8c99 b5bb fe3b 92bb e76d 8e3b
00000370: e87b d9bc 0357 b0ba 55e3 1c3c 07ee 103c
00000380: 3b0c 2abc 8b05 05bd 2cc7 e5bc ea99 823c
00000390: 8114 7cbc f6ce 033c 8ef4 a6bb 7256 a23c
000003a0: 9d76 dd3b 8d3a d4bc dbd9 05bd 3122 923c
000003b0: 5122 f9bc 4f12 1fbc 3afe 84bc 4249 abbd
000003c0: 5548 1a3d e4ce 4d3b 16f7 15bd 80bc 833c
000003d0: 272e e13b 3e45 a5bd 2705 923b 8c87 d63a
000003e0: ade4 3d3c 38b0 45bd ba2d 72bd d1e1 53bc
000003f0: 9a05 6cbc 69bc 76bd 1a56 95bd 29b2 f9bc
0.028111685 -0.006276014 0.014346229 0.029721076 0.009749056 0.018811168 0.008209966 -0.019708585
0.0065096417 0.011436168 0.023107579 0.039288554 0.029914182 0.030880662 0.024886264 0.041416287
0.012006241 0.0053356816 -0.0033245033 0.03972801 0.014902888 0.014733034 0.034404237 0.007936047
-0.0005441708 0.010997834 0.039642118 0.03980071 0.022897294 0.01860605 0.022312624 0.0019990932
0.027763424 0.031601213 0.0013277989 0.031105837 0.02708222 0.020972356 0.025852554 0.029811863
0.0050193435 0.018110013 0.009889425 0.023105096 0.03803723 0.0125655625 0.04001145 0.01324971
0.03204204 0.023243412 0.03659834 0.035407 0.028689077 0.035073902 0.013831374 0.017453473
0.009107064 0.02175847 0.0138509255 0.010192071 0.02229639 0.019622494 -0.00081239874 0.029435383
0.020622823 0.04351249 0.026917942 0.030619266 0.046966262 0.05167573 0.011476937 0.045694727
0.015311924 0.044223152 0.048935965 0.013566042 0.023628768 0.039125796 0.046226423 0.033809777
0.032813974 0.03787804 0.016194101 0.041024163 0.026900873 0.022768319 0.018563949 0.042239062
0.023219462 0.016668702 0.014865496 0.042143207 0.011333301 0.021508574 0.026530175 0.025643589
0.01809293 0.03580961 0.041693006 0.009444011 0.012795211 0.018767335 0.011034374 0.024890969
0.029378697 0.010380924 0.033770964 0.043472584 0.04525198 0.034201622 0.042806607 0.008623556
0.00908663 0.006817299 0.024458213 0.0060289884 0.022949927 0.03084914 0.044844512 0.01815557
0.019776963 0.030032381 0.022153728 0.0040106596 0.019541712 0.037391596 0.005070916 0.010976184
-0.07591675 -0.24354646 -0.038471054 -0.17936291 -0.07870321 -0.065737665 -0.1456891 -0.2057046
0.068819135 -0.21672976 -0.0042952895 0.34530398 -0.3903057 -0.56844705 -0.27560544 -0.2210464
-0.020234842 -0.27504313 -0.13918369 0.47708565 0.47690877 -0.19488156 -0.24840441 -0.24071118
-0.10045754 -0.3238526 -0.37567592 0.25249425 0.87907046 -0.009438345 -0.26499823 -0.017817317
-0.013091902 -0.2778149 0.116170056 0.685137 0.5824822 -0.12778948 -0.28035906 -0.0760781
-0.15378807 -0.13812296 -0.17094848 0.52283275 0.82732826 0.28974813 -0.22973719 -0.088859275
-0.0020849132 -0.02203453 -0.39300632 0.15516861 0.7975869 0.29689196 -0.102025464 -0.02684516
0.19516662 0.06706209 0.1887969 0.38841516 0.46038792 -0.12742238 0.008532129 0.23542917
0.059173014 0.045685492 0.06949951 0.029647233 0.029761951 0.06227611 0.045450144 -0.010518708
0.0060389866 -0.0039400132 -0.03148247 0.015898554 0.019242618 0.00042731437 0.013611443 0.09555276
0.028195469 -0.0027590417 -0.020713253 0.015832288 -0.00035001934 -0.03889614 0.0033402627 -0.04490294
-0.0021405092 -0.005541986 -0.004462718 0.0043465975 -0.02654834 -0.0013453666 0.009575685 0.008845813
-0.0103788925 -0.03247599 -0.028049074 0.015942533 -0.015385748 0.008044949 -0.005095071 0.019816611
0.0067585246 -0.025906825 -0.032678466 0.01783857 -0.030411871 -0.009708955 -0.016234506 -0.08363582
0.037666637 0.0031403834 -0.036612593 0.016081095 0.006871957 -0.080698475 0.0044561806 0.00163673
0.011590165 -0.04826376 -0.05912564 -0.012932257 -0.014405632 -0.060238276 -0.07291813 -0.030480461

fc.bias f4 [10]
00000000: 6d23 cb3e 15e8 333e 76bb e0bc feae b13d
00000010: 7f82 86bd cf19 37be 7aec e1bc f013 80be
00000020: f041 3bbe cb0d 50be
0.39675465 0.17569001 -0.027433138 0.08675955 -0.06567859 -0.17880939 -0.027578581 -0.2501521
-0.18286872 -0.20317762
