LAB 3/Results/CNN_L2_v3_lr001_adam.ckpt (torch, 291647 bytes, 6 tensors)

conv1.weight f4 [48, 3, 5, 5]
0.041763566 -0.036402974 -0.05358593 0.017097764 0.055125643 -0.051857658 0.06966968 0.079280555
-0.062293172 -0.076881275 -0.013420883 0.054307573 -0.007047954 0.08632221 -0.020725429 0.07284754
-0.04463513 -0.047259647 0.058807336 -0.033689078 0.07414538 0.032689095 0.0034339707 0.02999499
-0.0726522 0.018239269 -0.08591667 -0.066277824 -0.11446168 -0.01803597 6.883775e-05 -0.030641565
0.020360345 -0.06795423 -0.052943084 0.03791387 0.035283756 0.045238014 0.072156385 -0.10444458
-0.023146918 0.009626154 0.10873518 -0.08245184 0.08186807 0.076480135 0.040905304 -0.019853175
-0.025331642 0.048087597 0.087038815 0.02730476 0.020105202 -0.007740088 -0.10315978 -0.020092731
-0.00048268805 -0.092324644 -0.07270297 0.02869986 0.075892605 -0.074199416 -0.0027498733 0.092455134
0.019684633 0.083723 0.04339373 0.11624344 -0.056533594 0.11295905 0.02767301 -0.032460578
-0.059789337 0.068904124 0.021488838 0.029699499 -0.10293462 0.10896223 0.08544426 0.069177546
0.08123082 -0.10980784 -0.07506083 -0.10941108 -0.036654606 0.093941875 -0.02185358 0.09537528
-0.09390419 0.058388527 0.023751816 0.09805972 -0.0791378 -0.010504356 -0.059673272 0.10637932
-0.040212862 -0.0410971 0.01013795 0.018539371 -0.066085696 0.062309545 0.05555461 0.021345763
-0.048671287 -0.0954729 -0.10544536 0.04537887 0.03130601 0.021261709 0.04337231 0.007944622
0.03923652 0.0051929695 -0.11083395 -0.011570485 0.11459343 -0.06121995 0.03607719 -0.036693968
-0.003750941 0.07330197 -0.0011934284 -0.03661059 -0.11069822 -0.09989392 -0.021480665 -0.064875595
-0.081390664 0.098261796 -0.11467184 0.050765157 -0.060443204 0.08916235 -0.08021242 -0.04255897
0.07033606 -0.053820338 0.104523845 -0.043530673 0.007526496 0.066167824 0.050722472 0.04276634
0.07186591 0.10392206 -0.08505466 0.1036825 -0.019392228 0.069080584 0.067191 -0.105351426
0.103184365 0.07611609 0.013890036 -0.11331404 -0.11030025 -0.03364353 -0.016375257 -0.09283011
-0.05829595 0.070872866 0.003569861 0.10029071 0.07283091 0.115087435 0.035789255 -0.022207966
-0.018934298 0.104070045 -0.09786337 -0.08209523 -0.096840724 -0.06220109 -0.091089085 0.01229641
0.05101934 0.0271287 0.018541763 0.024655797 0.067069754 0.08277289 -0.09851842 0.052936807
0.10158416 0.02604065 -0.035599355 -0.027283244 0.08825425 0.032512058 0.041785788 0.021497337
0.055600207 -0.059592206 0.04394578 0.080722265 0.0962017 0.11057647 0.06830473 -0.043637116
-0.080241114 -0.01973526 0.0718627 0.048579793 0.014418416 0.076115675 0.045168344 0.08621363
0.06997504 0.07399999 0.011692552 -0.056692306 -0.048037477 0.026735695 0.10521148 0.009052967
0.08507035 -0.09593182 0.047969785 0.010250063 0.07074654 0.096525714 0.0375284 0.030546183
-0.114889644 0.06365746 0.08227489 0.044953715 0.05040226 0.039941944 0.10517504 -0.015686903
-0.039035067 0.04402132 -0.08657415 -0.10771262 0.07949784 -0.10819747 0.10247922 -0.07138709
0.055852037 -0.07865261 -0.070559956 0.0779278 -0.034745622 -0.080935456 -0.10625526 -0.078258514
0.11436253 0.03469838 -0.046245355 -0.06366266 -0.1111138 0.0022409558 -0.015709512 0.04136732
00000000: 4610 2b3d 491b 15bd ec7c 5bbd 9c10 8c3c
00000010: 6dcb 613d b268 54bd faae 8e3d d85d a23d
00000020: 2027 7fbd ee73 9dbd 43e3 5bbc 9e71 5e3d
00000030: 86f2 e6bb b3c9 b03d 60c8 a9bc 1731 953d
00000040: 53d3 36bd 5593 41bd f6df 703d 8ffd 09bd
00000050: 88d9 973d 00e5 053d 780c 613b 0eb8 f53c
00000060: adca 94bd 856a 953c 14f5 afbd abbc 87bd
00000070: e36a eabd 2cc0 93bc fc5c 9038 0504 fbbc
00000080: bdca a63c 962b 8bbd d9da 58bd 934b 1b3d
00000090: b385 103d 7f4b 393d bac6 933d 0ae7 d5bd
000000a0: 9b9e bdbc 04b7 1d3c 8db0 de3d 83dc a8bd
000000b0: 72aa a73d 9ea1 9c3d 528c 273d 20a3 a2bc
000000c0: 4e84 cfbc 80f7 443d 6841 b23d 3bae df3c
000000d0: aab3 a43c 90a0 fdbb 6f45 d3bd 8399 a4bc
000000e0: 4b11 fdb9 b414 bdbd 4be5 94bd f81b eb3c
000000f0: 956d 9b3d ddf5 97bd 3837 34bb 1e59 bd3d
00000100: ab41 a13c f776 ab3d a0bd 313d 0a11 ee3d
00000110: c58f 67bd 1357 e73d 82b2 e23c 62f5 04bd
00000120: aae5 74bd 9b1d 8d3d 5c09 b03c 5d4c f33c
00000130: 63cf d2bd 9727 df3d 66fd ae3d f5ac 8d3d
00000140: 585c a63d efe2 e0bd 7eb9 99bd eb12 e0bd
00000150: 2423 16bd 9964 c03d 4706 b3bc 1d54 c33d
00000160: d750 c0bd cf28 6f3d 2b93 c23c 89d3 c83d
00000170: 0013 a2bd 761a 2cbc f66b 74bd 67dd d93d
00000180: 3eb6 24bd 6f55 28bd a519 263c e1df 973c
00000190: f057 87bd 4b38 7f3d 3b8d 633d 4fdd ae3c
000001a0: 8b5b 47bd 4c87 c3bd bdf3 d7bd 32df 393d
000001b0: bb3a 003d 092d ae3c 2aa7 313d 292a 023c
000001c0: 79b6 203d c929 aa3b e9fc e2bd 2292 3dbc
000001d0: f6af ea3d c5c1 7abd adc5 133d 6a4c 16bd
000001e0: 59d2 75bb 581f 963d d06c 9cba fcf4 15bd
000001f0: c0b5 e2bd 2f95 ccbd 38f8 afbc 7fdd 84bd
00000200: 26b0 a6bd 7b3d c93d 12d9 eabd 20ef 4f3d
00000210: 4b93 77bd c09a b63d 6946 a4bd 5152 2ebd
00000220: 5a0c 903d b772 5cbd 9910 d63d 384d 32bd
00000230: d3a0 f63b ff82 873d 5ec2 4f3d c22b 2f3d
00000240: 6f2e 933d 17d5 d43d 2331 aebd 7e57 d43d
00000250: 73dc 9ebc 1f7a 8d3d 6f9b 893d 7dc2 d7bd
00000260: 5352 d33d c1e2 9b3d 0993 633c 3111 e8bd
00000270: 19e5 e1bd cccd 09bd 6725 86bc b61d bebd
00000280: bcc7 6ebd cb25 913d 54f4 693b 3765 cd3d
00000290: 5f28 953d f6b2 eb3d c197 123d 7bed b5bc
000002a0: 1a1c 9bbc ad22 d53d 976c c8bd 8b21 a8bd
000002b0: 6e54 c6bd 92c6 7ebd ea8c babd e276 493c
000002c0: a8f9 503d 023d de3c e5e4 973c f4fa c93c
000002d0: de5b 893d d584 a93d 06c4 c9bd 44d4 583d
000002e0: 5b0b d03d 3453 d53c a1d0 11bd 1c81 dfbc
000002f0: a5be b43d 5d2b 053d 9327 2b3d 2f1b b03c
00000300: 0bbd 633d f516 74bd 7d00 343d b751 a53d
00000310: 6605 c53d eb75 e23d 5ae3 8b3d d5bc 32bd
00000320: 7455 a4bd d7ab a1bc c02c 933d 9bfb 463d
00000330: 383b 6c3c 89e2 9b3d 7102 393d c690 b03d
00000340: 134f 8f3d 4f8d 973d 1e92 3f3c 3136 68bd
00000350: f2c2 44bd d104 db3c 1e79 d73d e552 143c
00000360: 5d39 ae3d e777 c4bd f77b 443d e1ef 273c
00000370: 90e3 903d 46af c53d 61b7 193d fd3b fa3c
00000380: 434b ebbd d85e 823d bd7f a83d 6321 383d
00000390: 9a72 4e3d 2a9a 233d 0366 d73d d281 80bc
000003a0: 3ce3 1fbd b34f 343d ca4d b1bd 6f98 dcbd
000003b0: c3cf a23d a396 ddbd a0e0 d13d 6533 92bd
000003c0: 1bc5 643d 9f14 a1bd bd81 90bd 9c98 9f3d
000003d0: 6d51 0ebd 7dc1 a5bd 5c9c d9bd 0046 a0bd
000003e0: e736 ea3d e31f 0e3d c56b 3dbd 9261 82bd
000003f0: a28f e3bd 00dd 123b 3cb1 80bc c770 293d

conv1.bias f4 [48]
-0.022153314 -0.077198416 -0.041134357 0.10321064 -0.014074161 -0.08776328 0.071989544 -0.03803837
0.06642636 -0.10094533 -0.06788604 0.07299688 0.110723406 0.04660866 0.12101244 0.02673255
-0.00627099 0.06399756 -0.0993739 -0.02833698 0.09344405 -0.034646317 -0.0743523 0.09328261
0.02601532 0.108928666 0.0658354 0.06449613 -0.0029343376 -0.06337963 0.0133990785 0.054902185
0.08241544 -0.10647486 0.10344486 0.0053204047 0.0057694586 -0.02129651 0.016277548 0.07995845
-0.0192654 -0.100912355 -0.0805457 -0.0972637 -0.089226976 0.04609567 0.053170513 -0.008846878
00000000: de7a b5bc 341a 9ebd 807c 28bd 1a60 d33d
00000010: 4f97 66bc 3cbd b3bd 416f 933d 1fce 1bbd
00000020: 8b0a 883d 6dbc cebd d607 8bbd 637f 953d
00000030: f4c2 e23d b9e8 3e3d 5fd5 f73d 38fe da3c
00000040: e07c cdbb 2711 833d 8b84 cbbd f422 e8bc
00000050: 985f bf3d 4ce9 0dbd 0546 98bd f40a bf3d
00000060: 151e d53c fe15 df3d b6d4 863d 8c16 843d
00000070: 044e 40bb 2ecd 81bd cf87 5b3c 1de1 603d
00000080: 6dc9 a83d 7e0f dabd e6da d33d ca56 ae3b
00000090: ba0d bd3b 0576 aebc 7e58 853c 41c1 a33d
000000a0: 79d2 9dbc 23ab cebd 25f5 a4bd 3132 c7bd
000000b0: a2bc b6bd d0ce 3c3d 53c9 593d 7ff2 10bc

conv2.weight f4 [64, 48, 3, 3]
0.007500033 -0.008078405 -0.0068808845 0.009747011 -0.00521193 0.011078752 -0.032571558 0.012956787
-0.00634798 0.039620683 -0.03307722 0.02637212 -0.0046450137 0.0023006427 0.027706396 0.038152035
0.0033226623 0.026895253 0.015900059 -0.0014061454 0.005288671 0.0445195 0.0042737797 0.03902286
0.040693548 0.049679946 0.018271917 0.022499673 -0.029418506 0.031741127 0.0418309 -0.016271621
0.0073663457 -0.0020470212 0.03337362 0.035734702 -0.009568937 -0.03858427 -0.006049654 -0.004197901
-0.0032736484 0.04549524 0.0024960346 -0.02021352 0.03414138 -0.041022066 0.044153262 0.02196997
0.024076913 0.018603392 0.013017827 -0.042581152 0.04733906 0.029502757 -0.037714 -0.04388955
-0.03582825 -0.013157337 0.020328283 -0.0017992464 0.031411353 0.001442759 -0.0040544737 0.00809361
-0.029753665 -0.037231095 0.013264363 0.020049801 0.036167424 0.026220864 0.021730384 -0.010508337
0.003697079 0.039538108 -0.00791777 -0.021370474 0.047400948 0.045702484 -0.015014248 -0.015713086
-0.022540027 0.012359483 0.019192412 -0.030265167 -0.0312243 0.0040602414 -0.035669584 -0.0033110892
0.019884925 -0.01503055 -0.022430938 -0.025868474 -0.021207714 -0.011700267 -0.032020368 -0.024973428
-0.036159102 0.031077377 0.04349182 -0.021677885 0.03816832 0.012227714 0.023628827 -0.019693427
0.026271367 0.014406597 -0.040194504 -0.018732606 0.03327339 -0.031802557 0.003940897 -0.024669822
0.046394933 0.033200912 0.04291637 -0.036746953 -0.0076341047 -0.0075302953 -0.020682052 -0.021172104
-0.034198683 0.0126547245 0.00855266 -0.0042181294 -0.029445449 0.034055974 -0.008212817 0.00013787231
0.0056019905 0.0127407545 0.010519096 0.03215292 0.03559234 0.04640808 0.02280452 -0.015539393
0.012910235 0.039290242 0.023336085 -0.017099977 0.022044597 -0.043777097 0.018927693 0.014044222
0.003933571 -0.03453033 -0.035599735 -0.008313344 -0.044507246 -0.012467746 0.007237543 0.024437191
0.04433941 -0.03694516 -0.039942663 -0.016925072 -0.013131884 -0.035988815 0.002682188 0.008200489
-0.041282173 -0.0075591747 -0.015757477 0.03637351 -0.018022299 -0.015295775 0.0063974746 0.02407888
0.016444668 0.007652307 0.037056945 0.04026493 -0.024983242 0.03909793 -0.03525763 0.03235382
-0.040871296 0.032304864 0.02656931 -0.02268245 -0.03184513 -0.040891897 -0.023498945 -0.041250333
0.046912093 0.040953875 -0.030403357 0.046355024 -0.017795708 -0.0011299992 -0.0071061747 0.0073345713
0.017734054 0.019932326 0.012834966 -0.015552098 0.04698162 0.003419447 -0.038932823 -0.010055643
-0.04628666 -0.036473647 -0.039241597 -0.031433146 0.015367453 0.0002561571 0.040821344 -0.046784718
-0.015572807 -0.03811558 -0.040554456 0.04712754 -0.036665265 0.0442185 -0.017496964 0.015999414
-0.027176335 0.026632609 0.043039512 0.007751856 -0.018210365 -0.040138334 -0.0029879194 0.024599645
0.027274555 0.040030863 -0.04100951 0.029813403 0.024976963 0.040196653 0.008021308 -0.02566683
0.004564992 -0.040203746 -0.0066128187 0.00911657 0.04251402 0.01114715 -0.018403804 0.0021034656
-0.010844174 0.020603914 -0.045203634 0.046376407 0.03149357 0.0005760733 -0.029548876 -0.016342916
-0.0017656771 0.033197653 0.0057016895 -0.038964808 -0.00079196075 0.038267724 0.012585622 -0.01503784
00000000: d6c2 f53b 495b 04bc 0b79 e1bb edb1 1f3c
00000010: d6c8 aabb a783 353c c169 05bd b448 543c
00000020: b702 d0bb 4c49 223d fb7b 07bd 580a d83c
00000030: 3335 98bb 61c6 163b 86f8 e23c 4f45 1c3d
00000040: 06c1 593b 6f53 dc3c d740 823c 694e b8ba
00000050: 964c ad3b 145a 363d 100b 8c3b 6fd6 1f3d
00000060: 47ae 263d 337d 4b3d fdae 953c 3c51 b83c
00000070: 14ff f0bc fc02 023d e156 2b3d 104c 85bc
00000080: 6361 f13b 5127 06bb c7b2 083d 8d5e 123d
00000090: 08c7 1cbc 8a0a 1ebd 2d3c c6bb 8c8e 89bb
000000a0: b58a 56bb 3759 3a3d 8394 233b d396 a5bc
000000b0: d5d7 0b3d c106 28bd 0dda 343d 5efa b33c
000000c0: f23c c53c 2466 983c b948 553c 9369 2ebd
000000d0: 9ae6 413d c4af f13c ff79 1abd 87c5 33bd
000000e0: a5c0 12bd df91 57bc 8087 a63c b1d4 ebba
000000f0: 31a9 003d f51a bd3a 64db 84bb 109b 043c
00000100: f5bd f3bc a27f 18bd c552 593c 7b3f a43c
00000110: 4b24 143d 23cd d63c eb03 b23c 292b 2cbc
00000120: b14a 723b b6f2 213d 89b9 01bc 2211 afbc
00000130: 7f27 423d 8732 3b3d 52fe 75bc bbb8 80bc
00000140: dda5 b8bc 6e7f 4a3c 6839 9d3c a8ee f7bc
00000150: 1aca ffbc c60b 853b 451a 12bd dcfe 58bb
00000160: b6e5 a23c b242 76bc 16c1 b7bc 1fea d3bc
00000170: cdbb adbc 7ab2 3fbc ca27 03bd 1395 ccbc
00000180: 911b 14bd fc95 fe3c 7b24 323d d295 b1bc
00000190: 6256 1c3d c056 483c 3e91 c13c 1c54 a1bc
000001a0: 0d37 d73c a609 6c3c fea2 24bd 1f75 99bc
000001b0: ae49 083d 6643 02bd a422 813b 5e18 cabc
000001c0: 9d08 3e3d aefd 073d 13c9 2f3d f983 16bd
000001d0: 8327 fabb b2c0 f6bb 686d a9bc 1f71 adbc
000001e0: eb13 0cbd c355 4f3c 7520 0c3c 3c38 8abb
000001f0: 9537 f1bc 477e 0b3d 0d8f 06bc d191 1039
00000200: e790 b73b 99be 503c 4958 2c3c c8b2 033d
00000210: 46c9 113d 6616 3e3d 8bd0 ba3c f098 7ebc
00000220: 7385 533c ceee 203d 512b bf3c 4015 8cbc
00000230: df96 b43c 9d4f 33bd 400e 9b3c bd19 663c
00000240: 2fe5 803b ad6f 0dbd 07d1 11bd b134 08bc
00000250: 3b4d 36bd 8445 4cbc e928 ed3b 8130 c83c
00000260: 3e9d 353d cf53 17bd eb9a 23bd 73a6 8abc
00000270: 1d27 57bc 0269 13bd a6c7 2f3b 585b 063c
00000280: 7f17 29bd f4b2 f7bb d315 81bc 64fc 143d
00000290: 80a3 93bc 219b 7abc e8a1 d13b 1241 c53c
000002a0: f8b6 863c 34c0 fa3b 06c9 173d d7ec 243d
000002b0: a8a9 ccbc 2725 203d 4e6a 10bd 7085 043d
000002c0: a968 27bd 1b52 043d e2a7 d93c 8cd0 b9bc
000002d0: 0a70 02bd 437e 27bd dc80 c0bc 1cf6 28bd
000002e0: e526 403d 40bf 273d 7610 f9bc c4de 3d3d
000002f0: 4ec8 91bc 7b1c 94ba eada e8bb d856 f03b
00000300: 0247 913c 1e49 a33c c049 523c 3ace 7ebc
00000310: cd6f 403d cd18 603b 0678 1fbd 6cc0 24bc
00000320: 1597 3dbd 6465 15bd ccbb 20bd 0bc0 00bd
00000330: c5c7 7b3c d34c 8639 4834 273d 55a1 3fbd
00000340: 1625 7fbc 151f 1cbd 6e1c 26bd cf08 413d
00000350: 512e 16bd 751e 353d cb55 8fbc 3411 833c
00000360: e8a0 debc a12c da3c 334a 303d 4803 fe3b
00000370: e72d 95bc 1868 24bd f8d0 43bb 3285 c93c
00000380: e36e df3c 67f7 233d 97f9 27bd 3d3b f43c
00000390: 7d9c cc3c 3fa5 243d ce6b 033c 3e43 d2bc
000003a0: ee95 953b afac 24bd 58b0 d8bb ab5d 153c
000003b0: 2e23 2e3d 89a2 363c 93c3 96bc 4cda 093b
000003c0: c3ab 31bc 8ac9 a83c 7227 39bd 30f5 3d3d
000003d0: 67ff 003d a003 173a 7c10 f2bc 94e1 85bc
000003e0: 4b6e e7ba 43fa 073d 3dd5 ba3b 9099 1fbd
000003f0: 969b 4fba 9ebe 1c3d ed33 4e3c 4661 76bc

conv2.bias f4 [64]
0.012458392 -0.0012652052 0.002564088 -0.00012311757 0.0190538 0.030821387 0.041742653 -0.028083233
0.026717054 0.007931653 -0.01385836 -0.019937381 0.013419655 0.03174984 0.018010916 0.037324484
0.04755338 0.025652215 -0.019995546 -0.025076516 0.005050477 0.003890935 0.0089434115 -0.029818302
0.04505097 0.023984713 0.0043792618 0.014203727 -0.010556637 -0.044228256 0.042055994 0.04017984
0.05522819 0.05052386 0.01907027 -0.034206796 0.027385848 -0.041291893 -0.036371563 0.043889474
0.049781084 -0.034607083 0.04048992 -0.029361801 -0.024225637 -0.009986143 -0.03598761 -0.001094326
-0.04747613 0.036450475 -0.025695013 0.0053969617 0.02730511 0.055889014 -0.022455826 0.048565462
-0.039574787 0.03197917 -0.004553457 0.04562163 -0.03795522 -0.044985626 -0.030597577 0.045807432
00000000: 491e 4c3c 3ed5 a5ba 420a 283b 1f19 01b9
00000010: b716 9c3c 227d fc3c 58fa 2a3d cf0e e6bc
00000020: b9dd da3c c4f3 013c 2d0e 63bc b853 a3bc
00000030: 1dde 5b3c 1f0c 023d a18b 933c 8fe1 183d
00000040: 55c7 423d 9824 d23c b3cd a3bc 446d cdbc
00000050: 797e a53b 0fff 7e3b 6387 123c 8345 f4bc
00000060: 5e87 383d 977b c43c e97f 8f3b c0b6 683c
00000070: bff5 2cbc b028 35bd e842 2c3d 9e93 243d
00000080: f436 623d 1bf2 4e3d 4139 9c3c 6d1c 0cbd
00000090: 4958 e03c b021 29bd 59fa 14bd 73c5 333d
000000a0: 40e7 4b3d 28c0 0dbd c2d8 253d 2988 f0bc
000000b0: d874 c6bc eb9c 23bc bf67 13bd 7d6f 8fba
000000c0: 5576 42bd 184d 153d 597e d2bc ffd8 b03b
000000d0: f7ae df3c e1eb 643d 48f5 b7bc 94ec 463d
000000e0: 2c19 22bd 97fc 023d 2a35 95bb bfdd 3a3d
000000f0: ef76 1bbd d942 38bd c5a7 fabc 93a0 3b3d

fc.weight f4 [10, 4096]
-0.011056573 0.006392637 -0.012976294 0.007848908 -0.0068877186 -0.0025573485 0.01677031 -0.0026114117
-0.0077047483 -0.007027012 -0.013613362 0.00012911682 -0.005996317 -0.0039562737 0.009646218 -0.0059262174
-0.00081261125 -0.013055405 -0.004992704 0.012530236 0.010847956 -0.007982802 0.004843695 0.0130765615
-0.009948102 -0.0076983096 -0.0041282666 0.006095094 0.008647767 -0.0030217932 0.01520916 -0.0022605392
-0.003698119 0.0066337674 -0.008787273 0.0142629 -0.010633793 0.00419116 0.0024084926 0.006350219
-0.013076373 -0.012944869 -0.010564384 0.021927083 -0.001470783 -0.0128276255 0.0150792375 -0.0041871346
-0.0024123003 0.008012328 -0.012607477 0.022569405 0.0058429395 -0.012956868 0.006795542 0.02191382
-0.009390661 0.009842781 -0.0032498795 0.002702304 0.013648413 0.0061478196 0.012371229 0.016528208
0.0029117395 -0.0149787525 0.009577204 -0.007323866 -0.010434109 -0.002540434 0.0012276918 0.0040921425
-0.0010356156 0.0049650637 -0.014392921 -0.006801942 0.015148529 0.002733296 -0.0074691745 -0.0042457865
0.011569638 0.008945683 0.01400857 -0.009538584 0.010335249 0.013683283 -0.0037146069 0.013554042
-0.011920823 0.0029057462 -0.0016597013 0.01746635 0.0058110403 0.0046609407 -0.008668645 0.002262053
-0.0029956324 0.0071600247 -0.0016009696 0.017546233 0.018832004 0.0070330263 0.004943357 0.0074106045
-0.0045859674 0.011350912 -0.0021853587 0.005508425 0.009152442 0.0041927574 -0.013418265 0.008987917
0.0117605105 -0.0110671185 -0.00911911 -0.006749781 0.0024349631 0.0011549968 0.002524521 0.005179142
0.011091212 0.0017741919 -0.0028718463 -0.0054848283 -0.009928168 -0.0020462961 0.0132716 0.0009469324
0.007921207 0.010295724 -0.003007001 -0.015081522 -0.00081648043 0.010017839 0.014279393 -0.0015289071
-0.014433795 -0.0031295682 -0.009541359 0.0021659245 0.0044408357 0.00048064263 -0.0024537975 -0.0061536883
-0.004042995 0.011350335 0.006726138 -0.009363195 0.0028293007 -0.0055785547 0.010608331 0.0077210474
0.0136508215 -0.00353862 0.007264577 0.008883502 -0.01359608 0.00028737402 -0.0055845263 0.00036597997
-0.0065311133 -0.0039202278 0.014990083 -0.0099347085 -0.01173368 0.011132416 -0.006079806 0.015929922
0.007012538 0.006734778 0.0081883855 -0.00053021335 0.010223889 0.010168081 0.00012287365 -0.011591736
0.0017353278 0.0044669886 -0.015610454 0.0108883595 -0.015406452 0.00043798742 -0.013399925 -0.010642121
0.009286034 0.0071991323 0.00049792975 -0.004338078 0.010634354 0.0021637662 -0.011925978 -0.008823582
-0.0062535657 0.015298467 0.008558218 0.006704061 -0.0055046645 0.009375555 0.0073811705 -0.006363741
-0.0062161675 -0.009414683 0.009439182 0.0027208885 -0.015467884 -0.008735772 0.0017912486 -0.0034534023
0.0017048644 0.0063124285 -0.010760742 -0.0133120455 0.00214275 -0.011859529 0.0032620747 0.007895026
-0.010894098 0.008196823 0.011312764 0.008237384 0.0050188755 -0.00040511225 0.001167548 0.011770337
0.0021497381 -0.016459612 0.010384394 -0.004135489 0.012760284 0.010660223 0.009006895 -6.958787e-05
-0.003437717 -0.015096054 -0.014903538 -0.015529062 -0.0015454564 -0.008672237 0.019307587 0.010751902
-0.010239312 -0.008327044 -0.015830215 -0.0072566997 0.015801307 0.0060565197 0.0053338297 0.018407013
0.0012245154 -0.010031906 -0.002197631 0.0026506432 -0.0016616505 0.019372348 -0.002382507 -0.004773673
00000000: a126 35bc 5379 d13b 869a 54bc b598 003c
00000010: 5fb2 e1bb 3099 27bb e461 893c 3824 2bbb
00000020: 1d78 fcbb d942 e6bb 940a 5fbc 8863 0739
00000030: c17c c4bb a1a3 81bb 2c0b 1e3c b730 c2bb
00000040: 6b05 55ba 56e6 55bc d699 a3bb 9e4b 4d3c
00000050: a0bb 313c 4cca 02bc dcb7 9e3b 133f 563c
00000060: 5dfd 22bc 1a42 fcbb 6946 87bb 5bb9 c73b
00000070: 5daf 0d3c 4709 46bb d72f 793c 8e25 14bb
00000080: 245c 72bb 1360 d93b 7ff8 0fbc f0ae 693c
00000090: 5c39 2ebc 0056 893b cdd7 1d3b 7f15 d03b
000000a0: 493e 56bc b716 54bc 3d16 2dbc 6da0 b33c
000000b0: 4ac7 c0ba f62a 52bc e80e 773c 3b34 89bb
000000c0: af17 1ebb 2446 033c 978f 4ebc 79e3 b83c
000000d0: 2176 bf3b 0b49 54bc 23ad de3b 9d84 b33c
000000e0: 49db 19bc 9e43 213c eefb 54bb 2319 313b
000000f0: 989d 5f3c a673 c93b b2b0 4a3c 2a66 873c
00000100: e2d2 3e3b 7169 75bc b4e9 1c3c 0afd efbb
00000110: d3f3 2abc 697d 26bb 80ea a03a 6117 863b
00000120: 7ebd 87ba f9b1 a23b 49d0 6bbc d3e2 debb
00000130: 8931 783c 1921 333b fabf f4bb 3d20 8bbb
00000140: 948e 3d3c ea90 123c 3484 653c b947 1cbc
00000150: 2d55 293c d92f 603c c370 73bb c611 5e3c
00000160: 8e4f 43bc 556e 3e3b 568a d9ba 9715 8f3c
00000170: 8a6a be3b ceba 983b ef06 0ebc f43e 143b
00000180: 5f52 44bb a49e ea3b a0d7 d1ba 1ebd 8f3c
00000190: 9345 9a3c 4d75 e63b e2fb a13b a8d4 f23b
000001a0: e245 96bb 2df9 393c 3c38 0fbb 0580 b43b
000001b0: 20f4 153c 6663 893b 48d8 5bbc 0e42 133c
000001c0: 28af 403c dc52 35bc 5268 15bc 442d ddbb
000001d0: e793 1f3b 4363 973a 6f72 253b cbb5 a93b
000001e0: eab7 353c 008c e83a 9635 3cbb 13ba b3bb
000001f0: c1a9 22bc 271b 06bb 2071 593c 8f3b 783a
00000200: f3c7 013c 65af 283c 1b11 45bb 7d18 77bc
00000210: 1309 56ba dd21 243c 1df4 693c 9c65 c8ba
00000220: b97b 6cbc 7119 4dbb 5c53 1cbc 2ff2 0d3b
00000230: 6e84 913b c3fe fb39 e4cf 20bb e1a4 c9bb
00000240: 1a7b 84bb c1f6 393c ef66 dc3b 1668 19bc
00000250: ca6b 393b 4fcc b6bb 91ce 2d3c d700 fd3b
00000260: b2a7 5f3c 31e8 67bb b00b ee3b 1c8c 113c
00000270: 18c2 5ebc b0aa 9639 67fe b6bb 00e1 bf39
00000280: f302 d6bb 4175 80bb f798 753c 30c5 22bc
00000290: 9f3e 40bc bd64 363c 1c39 c7bb 787f 823c
000002a0: 6fc9 e53b 6aaf dc3b 9428 063c 04fe 0aba
000002b0: 1982 273c 0698 263c a5d7 0039 44eb 3dbc
000002c0: f073 e33a d15f 923b fdc2 7fbc 1765 323c
000002d0: 586b 7cbc ada1 e539 5c8b 5bbc 4a5c 2ebc
000002e0: 7324 183c b3e6 eb3b 8087 023a 7026 8ebb
000002f0: b73b 2e3c f9cd 0d3b 2d65 43bc c990 10bc
00000300: b6ea ccbb 6ca6 7a3c c537 0c3c bdad db3b
00000310: 7960 b4bb ee9b 193c bfdd f13b ee86 d0bb
00000320: feb0 cbbb 0b40 1abc cca6 1a3c ef50 323b
00000330: 026d 7dbc 7c20 0fbc 54c8 ea3a 7a52 62bb
00000340: c275 df3a 7dd8 ce3b d34d 30bc c41a 5abc
00000350: 616d 0c3b 784e 42bc 88c8 553b 245a 013c
00000360: 297d 32bc f84b 063c 2c59 393c 18f6 063c
00000370: 6175 a43b 3f65 d4b9 6908 993a 5fd8 403c
00000380: 9fe2 0c3b 4fd6 86bc 4e23 2a3c ff82 87bb
00000390: 8310 513c 37a8 2e3c a891 133c b4ef 91b8
000003a0: 524b 61bb 7155 77bc f82d 74bc 9b6d 7ebc
000003b0: e990 caba 0016 0ebc f22a 9e3c bf28 303c
000003c0: cac2 27bc 276e 08bc 5eae 81bc 9cc9 edbb
000003d0: be71 813c c575 c63b 68c7 ae3b 4eca 963c
000003e0: eb7f a03a dd5c 24bc 2106 10bb 6ab6 2d3b
000003f0: bdcb d9ba c2b2 9e3c d623 1cbb 796c 9cbb

fc.bias f4 [10]
0.03825265 0.012183845 -0.0072707 0.0052480265 0.010522932 -0.025784524 -0.0025878148 -0.018481575
-0.033293866 -0.030086445
00000000: d0ae 1c3d c09e 473c 0d3f eebb a3f7 ab3b
00000010: 6068 2c3c 113a d3bc 5498 29bb ac66 97bc
00000020: 265f 08bd d977 f6bc
