LAB 3/Results/CNN_L2_lr005_sgd.ckpt (torch, 107679 bytes, 6 tensors)

conv1.weight f4 [16, 3, 5, 5]
000000 cf 05 df 3d 6e f3 7d bd bd d2 14 be 67 1c c5 3c
       0.1088978 -0.06199973 -0.14533515 0.024061395
000010 af 19 7b 3d 84 16 c2 3d 97 a8 07 bd 26 af 7b 3d
       0.06130379 0.09476951 -0.033119764 0.06144633
000020 45 75 83 bc 6a c7 47 bc 7e 1b b3 3d e0 29 15 3c
       -0.01604713 -0.01219354 0.08745478 0.009104222
000030 a3 ca e4 bd 88 ec 7c bd 05 78 82 3d 77 15 4d 3e
       -0.111714624 -0.06174901 0.06370548 0.2002772
000040 fe 96 87 bc 68 5f 39 bd 6f b8 fc bc 5f 1c c9 3d
       -0.01655149 -0.045257002 -0.030849664 0.098198645
000050 f9 9c cf 3c 7c 31 1d bd 8e 07 ac bd 7c 03 6a bc
       0.025343405 -0.03837727 -0.083998784 -0.014283057
000060 43 8b 20 3d 83 7c 8a 3c b4 5f 8c 3d 1e c4 1e bd
       0.03919531 0.016905075 0.068541914 -0.03876125
000070 8d d4 eb bd 4d 54 af bb af 2c 6a 3e f5 83 3d bd
       -0.1151515 -0.0053506256 0.22868608 -0.046268422
000080 0b ad 8d bc 26 6c 79 3c 45 63 af bd 7d 78 0e 3e
       -0.017294427 0.0152235385 -0.08563856 0.1391315
000090 f6 fa 32 bd 50 92 95 bd a3 f9 05 bb 77 05 a9 3d
       -0.043696366 -0.073032975 -0.0020442985 0.082529955
0000a0 36 d9 53 3e f2 68 5f bd 5f 7d d3 bd d8 b3 4d 3d
       0.20688328 -0.054543443 -0.10326647 0.05022034
0000b0 c8 30 e0 bd 95 a3 44 3e 14 6e 5f 3d de 33 38 bd
       -0.10946804 0.19203027 0.054548338 -0.04497134
0000c0 da 0f 1d be 67 ef 07 3d a4 30 be 3d 2d 61 76 bc
       -0.15338078 0.033187296 0.09286621 -0.015037817
0000d0 c1 d3 93 3b 61 ea 05 be d3 02 9b 3d 4d f2 30 3e
       0.004511327 -0.1307769 0.07568898 0.1727993
0000e0 27 80 0d bc 5f fc 7f 3d a7 d9 e9 bd 3e 75 3c bc
       -0.008636511 0.06249654 -0.11418467 -0.011502562
0000f0 d7 d0 21 3e 88 de d7 3d ef 48 0f be ab 07 0c bd
       0.15802322 0.10540491 -0.13992666 -0.034187
000100 47 a9 a9 bd 6c c1 35 3e 96 06 ca 3d 36 13 6c 3d
       -0.0828424 0.17749566 0.098645374 0.05763551
000110 e9 42 73 bd 7c a9 d3 bd 4e bb 39 3e 73 ef c3 bc
       -0.059389982 -0.10335061 0.18137857 -0.02391789
000120 67 e6 08 be e1 9b 0b be 0c b9 e2 3c de b4 0f be
       -0.13369142 -0.13633682 0.027676128 -0.14033839
000130 20 51 20 be 2e 6e 9c 3d ed f3 85 3c bc 93 69 bd
       -0.15655947 0.076382026 0.016351664 -0.057025656
000140 e4 73 02 be 2f 26 bb bd 20 60 df 3d fe 73 f1 3d
       -0.12739521 -0.09138142 0.10907006 0.11789702
000150 49 87 ef 3d d2 1b 84 3a 3f 26 fc 3d f6 de 32 3e
       0.116957255 0.0010079092 0.12311982 0.17467865
000160 2f 85 b5 3b 96 c6 ad 3d 2b b6 e9 bc b3 09 c8 3d
       0.0055395584 0.08485143 -0.028529247 0.09767475
000170 9d 40 08 3e ad 83 00 3d ed 4b ba 3d e1 da 4e 3d
       0.13305898 0.031375576 0.09096513 0.050501708
000180 1a 04 48 3b ff ba 8a 3d 24 3e 9b 3d 7e 2e 1d bd
       0.0030520023 0.06773948 0.07580212 -0.038374417
000190 df 5c d0 bd a0 51 92 bd 3d 68 08 bc db ec 9b 3d
       -0.10173964 -0.07144475 -0.008325634 0.07613536
0001a0 ef 7d 90 bc 68 db 39 3d f0 1d 45 3c cf a5 be 3d
       -0.017638175 0.045375258 0.012031063 0.09308969
0001b0 91 7f c1 3d 9c 22 90 3c 17 c7 e9 bd be 6e 14 bc
       0.094481595 0.017594628 -0.114149265 -0.009059606
0001c0 5b b3 29 3d 01 21 96 bc 31 d3 f0 3c 94 ef ef bd
       0.041430812 -0.018326284 0.029397579 -0.11715618
0001d0 cc a9 e0 3c 2d b7 0e 3e 30 43 3e 3e 97 b6 bd bc
       0.027424715 0.13937064 0.18580317 -0.023158355
0001e0 43 04 ea bc 0d c4 85 3d 72 1c 9c 3d bd 2e 1e bd
       -0.028566485 0.06531534 0.07622613 -0.03861879
0001f0 3d 9a ae bd 06 5f 9c 3b 5a b9 0e be df f5 9d 3d
       -0.08525512 0.00477207 -0.13937894 0.07712912
000200 55 2d 77 3d fa d4 e8 3d 89 e6 ff bd 5a a1 8f 3c
       0.060345966 0.11368747 -0.12495143 0.017532993
000210 5e 8b 12 3d 3d 12 08 3c dd 78 b1 bd fb 08 0f bc
       0.035777442 0.00830513 -0.08665631 -0.008730168
000220 d8 2b f6 3d 1d eb e8 3d 82 92 22 3e ba 75 76 3d
       0.12020081 0.11372969 0.15876201 0.060170867
000230 79 e7 cd 3d 13 1e f4 3d 88 7a 75 3d e9 00 0d 3e
       0.100539155 0.11919799 0.059931308 0.13769878
000240 f3 24 f4 3c 50 8d a0 bd 37 70 b7 3d 2d a6 2b 3c
       0.029802775 -0.07839453 0.0895695 0.010476631
000250 f3 fe 69 bd 5e 20 9f 3d 45 57 f5 bc c2 72 21 3d
       -0.057127904 0.077698454 -0.02994884 0.039416082
000260 f1 8e 45 3d 43 e5 c3 bc 54 10 a0 3d a3 25 a5 3d
       0.048232023 -0.023913031 0.07815614 0.08063819
000270 19 68 2f 3e ad 14 4d bb be 65 27 3e ef e9 86 3d
       0.17129554 -0.0031292841 0.16347405 0.06587588
000280 45 20 e6 3d e8 ce 06 3e 43 65 a5 3d d4 9f 64 bc
       0.11236624 0.13164866 0.08075955 -0.013954122
000290 af 8a 89 3c 7f e3 b0 bc b8 e5 ae 3c 9c 99 6b bd
       0.016789762 -0.021592854 0.021349773 -0.05751954
0002a0 cf f2 e3 3c 9c f4 9a 3d 86 1e 2d be b8 dd 40 be
       0.027825741 0.07566187 -0.16906175 -0.18834579
0002b0 69 62 97 bc 8a 75 e0 bd 83 27 0b be 38 21 9e bb
       -0.018479543 -0.10959919 -0.13589291 -0.0048257373
0002c0 fd e6 62 3d 46 48 35 ba 9d 27 84 3d 9b 14 9f 3d
       0.05539607 -0.00069153716 0.06452868 0.07767602
0002d0 bf 50 aa 3c 8f 47 cf 3d b2 74 eb 3d 3d 25 0a 3e
       0.020790456 0.101210706 0.11496867 0.13490768
0002e0 50 aa e4 3d c8 b4 a2 3d 2a c8 c7 3d 5c ac d2 3d
       0.11165297 0.079446375 0.09754975 0.10286781
0002f0 f7 8d b6 3d 1b 2e 18 3d 25 06 c9 bb ce 81 a0 3d
       0.089137964 0.037153345 -0.0061347657 0.07837258
000300 33 e9 f7 bc 5e e5 b2 bd 41 55 07 3d 2e e4 2b be
       -0.030262565 -0.087351546 0.03304029 -0.16786262
000310 ce 89 c5 3c c6 33 2c be e2 ae 0e be ef b5 27 be
       0.024113562 -0.16816625 -0.139339 -0.16377996
000320 60 e5 f0 3d ea 96 28 bd 6d 1d d9 3d 2a f0 eb 3c
       0.117625 -0.041159548 0.10601316 0.028801043
000330 36 4b 95 3d a0 14 28 3d 5b 99 01 3e fe ba d7 3d
       0.07289736 0.041035295 0.12656157 0.10533713
000340 a9 1c 33 3e 7d a0 b3 3c cd fe 8f 3d 45 95 4f bc
       0.17491402 0.021927113 0.07031021 -0.012669866
000350 6b 9b 8b 3d bd 03 c3 3d 4b c9 98 3c 66 65 09 be
       0.06816753 0.095221974 0.018650671 -0.13417587
000360 fa 54 b5 ba 4a 0a c5 bd 43 89 a1 3d e7 7d ba bc
       -0.0013834529 -0.09621103 0.07887509 -0.022765113
000370 41 31 83 bd 4c 62 23 be 82 3c bc bd 2c 3a e4 3b
       -0.06405879 -0.15955466 -0.091912284 0.0069649424
000380 07 26 16 be fb d8 ce bc 85 a2 0a bd e4 1a 87 bc
       -0.14662944 -0.025249949 -0.033846397 -0.016492315
000390 04 11 79 bd 4f fd da 3d 60 87 89 3d 14 92 da 3d
       -0.060807243 0.10692846 0.06715274 0.106723934
0003a0 11 51 3d bd 1a 9b 3c bd cb c8 fc 3c f0 78 13 3d
       -0.04621989 -0.046046354 0.030857464 0.036004007
0003b0 50 6d 9b 3d f4 2a 62 3b 94 04 52 3c 70 37 9d 3d
       0.07589209 0.0034510465 0.012818474 0.076765895
0003c0 da 87 a2 3d 72 3f 8e bd 4e 60 b7 3d 5d bc fe bc
       0.07936068 -0.06945695 0.089539155 -0.031095678
0003d0 67 64 84 3d fd e9 ec bd 50 86 04 3d de 36 0f 3d
       0.06464463 -0.11568067 0.032354653 0.034964435
0003e0 6e f9 e9 bd 87 25 95 bc 3f 59 31 bd 56 af a4 3d
       -0.11424528 -0.018206371 -0.043298002 0.08041255
0003f0 19 f8 99 3d 80 7e b2 3c ae fd ab bd 89 71 f6 3c
       0.07518024 0.021788836 -0.08397995 0.030083435

conv1.bias f4 [16]
000000 26 f1 85 3d c4 ad d1 3c 2e be 32 3c a1 41 01 be
       0.06540136 0.025595553 0.0109096 -0.12622692
000010 8e 4a d7 bb 30 73 d8 3d e9 aa 09 3e 7c 51 a9 3d
       -0.006570167 0.10568845 0.13444103 0.08267495
000020 e7 08 35 bd 0a b5 35 bd 6b 99 5d bb e6 83 58 3d
       -0.044197943 -0.044362105 -0.0033813368 0.052860163
000030 df 2f 6e bc 65 92 bd 3c 82 38 ea 3d 9e 1d 2b 3e
       -0.014537781 0.023141095 0.11436559 0.16710517

conv2.weight f4 [32, 16, 3, 3]
000000 9b 63 02 bd f4 92 b3 3d 49 f6 4c 3d 13 b9 a5 bd
       -0.031833272 0.087682635 0.050039563 -0.08091941
000010 3e b0 9f 3d a9 bf f1 3c c9 29 52 bd e9 75 fc bc
       0.077972874 0.029510336 -0.05130938 -0.030817943
000020 65 5b 67 bd d2 f1 66 bd 2c 1b eb bd 5e 2f d4 bd
       -0.056483645 -0.05638296 -0.11479792 -0.10360597
000030 cd d8 e5 bb fb 21 57 bd 3e f4 90 bd ae 49 d0 bc
       -0.00701437 -0.05252264 -0.070778355 -0.025425758
000040 ad 04 ea bb 68 f3 31 bb b5 ed 99 bd 26 ab f9 3c
       -0.0071416707 -0.0027153138 -0.07516042 0.030477118
000050 7a be dd bd b4 51 c4 3c 2c 6f 49 3d af e3 d2 bd
       -0.10827346 0.02396474 0.049178287 -0.102973334
000060 d3 8f 3a bc 16 c0 54 3d 6b d4 69 3d ba eb 2a bd
       -0.011386829 0.051941 0.057087343 -0.041728713
000070 9a 80 f5 3c 72 09 01 bd 32 35 c1 3c f9 be f3 bb
       0.029968549 -0.03150315 0.023584936 -0.007438537
000080 f9 eb d4 bc a0 19 34 3d 6c b3 d2 3c c9 7e 77 3d
       -0.025991427 0.04396975 0.02572032 0.060423646
000090 eb f9 f8 3d 31 1b 7f 3e e2 ff ed bd 7f c6 cc bd
       0.12157043 0.24912716 -0.116210714 -0.099987976
0000a0 ed dc cd 3d ae 07 5e 3d 77 d8 a4 be a4 8b 49 3d
       0.10051904 0.054206543 -0.321964 0.049205437
0000b0 2e 1e 1c 3e 4f 8c 8d bc 9f 3b 12 be 98 a7 aa bc
       0.15245888 -0.017278818 -0.14280556 -0.020831868
0000c0 1f 5a 0b bd 04 d4 e9 bd 3e 01 db bc 4f fe 87 3d
       -0.034021493 -0.11417392 -0.02673399 0.066403024
0000d0 e5 83 b2 bd 86 9f 84 3d df 1f 9d 3d 6a 06 28 3d
       -0.08716563 0.06475739 0.076720946 0.041021742
0000e0 65 08 bb 3a 88 57 80 3d b5 ea 18 3c 91 83 ad 3d
       0.001426947 0.06266695 0.009333302 0.0847236
0000f0 66 6f a6 bd 98 29 30 bd 75 95 42 bc 87 5d 1a 3d
       -0.08126716 -0.043008417 -0.011876454 0.03768685
000100 34 9f eb bc cc 98 9c bb 46 e5 43 bd 44 b4 80 bd
       -0.028762437 -0.004778957 -0.047826074 -0.06284383
000110 99 89 b6 bd 9c 99 cb 3d b9 e3 22 3d 56 36 20 bc
       -0.089129634 0.09941408 0.039767954 -0.00977858
000120 e1 83 8e bd ca 49 e3 bc f5 8f 1c 3d d8 56 89 3d
       -0.06958748 -0.027745146 0.038223226 0.06706017
000130 30 cf a4 bd ca a1 48 b8 e9 a8 68 bc f1 02 cd bc
       -0.080473304 -4.7834394e-05 -0.014200428 -0.025025817
000140 e4 87 2c 3d d5 46 03 3d 9f fd 63 bd 38 ee b2 bc
       0.042121783 0.032049973 -0.055661794 -0.021842107
000150 07 f8 e2 3c 10 e9 e5 bc c7 5d e0 3c fb c8 0c bc
       0.02770616 -0.028065234 0.027388467 -0.008592839
000160 1b ca 91 bd 41 a7 93 bd 54 43 8e 3d 60 49 6a bd
       -0.07118627 -0.072096355 0.069464356 -0.057198882
000170 84 b1 94 bd 0d d4 f7 bc f5 fd f1 bc 1f 1e 42 3d
       -0.07260421 -0.03025248 -0.029540041 0.047392007
000180 f2 2a 2a 3c 6c 36 8d 3d 4c 62 11 bb 26 70 89 3c
       0.0103862155 0.06895146 -0.0022183834 0.01677711
000190 7f 0f 02 be 17 44 86 bd 62 7e e8 3d f8 bf 96 bd
       -0.12701224 -0.06555956 0.113522306 -0.07360834
0001a0 5b 65 67 bd fe 0c d9 3d 9e a6 47 3d b3 02 65 bd
       -0.056493144 0.10598181 0.048742883 -0.055910777
0001b0 ab cb b7 bc d2 6d 82 bd ed bb a2 bb ef 4d fe bc
       -0.022435984 -0.06368603 -0.00496625 -0.031043021
0001c0 ca c5 37 bd fc 2c 43 3d e7 cf 90 3c 5a ea 1f bc
       -0.04486636 0.047650322 0.01767726 -0.009760464
0001d0 16 6d e4 3d 9c 38 e5 bd 49 5a 58 bc 78 6f 26 3e
       0.11153619 -0.11192438 -0.013205119 0.1625346
0001e0 9d c0 0a be 1b 4b f4 3d d3 2f b8 3d 09 2b 80 bc
       -0.13550039 0.11928388 0.08993497 -0.01564552
0001f0 d4 a0 70 bc bb ee a8 3d 91 8c f6 3c 96 ad c3 3d
       -0.014686782 0.08248659 0.030096324 0.09554593
000200 16 a4 3a bc 80 a1 09 3d ae 54 34 3d ef 10 8f bc
       -0.01139166 0.033601284 0.04402607 -0.01746413
000210 67 6a 13 be 1e ad cb bd 38 b8 1b 3d 08 be 5f 3d
       -0.14396058 -0.09945129 0.03801748 0.054624587
000220 de 4b bd bd 73 0e f5 bc 6d 92 d0 3d 56 db f3 bc
       -0.09242986 -0.029914116 0.101841785 -0.029767673
000230 77 c5 7c 3d 59 ee 98 3c 2b 68 96 3d 6a d8 ee bd
       0.061711755 0.01866834 0.07344087 -0.116623715
000240 b0 76 35 3b 5d f0 61 3d 49 96 56 3d f0 39 08 bc
       0.0027689151 0.05516087 0.052389417 -0.008314595
000250 48 21 c1 3b 07 2d 2b bc 24 b3 2d 3b 85 36 67 3c
       0.00589386 -0.010447747 0.0026504481 0.01411212
000260 bf f4 3c 3d dd 27 05 3d a9 9b aa bd df 46 02 3d
       0.046131846 0.03250872 -0.08330471 0.03180587
000270 60 98 20 3c d2 06 27 bd 8d 99 88 3d 70 02 84 bd
       0.009801954 -0.04077799 0.066699125 -0.064457774
000280 01 5a b7 3d 00 4d 7d 3d 64 87 23 3d 0e 04 80 3c
       0.08952714 0.06184101 0.03992404 0.015626933
000290 52 25 83 3d aa aa 51 3d ea d7 69 bd a3 f6 2a bd
       0.06403603 0.05118815 -0.057090677 -0.041739117
0002a0 88 c6 a8 bc d5 1d 0a 3d d4 36 b9 bd ba c8 a9 3d
       -0.02060248 0.033719856 -0.09043661 0.08290239
0002b0 f7 a3 45 3d f5 cc d5 bc 6b 0d 95 bd 08 8b 63 3d
       0.048252072 -0.026098708 -0.0727795 0.055552512
0002c0 21 2b 7c bd 51 1e 21 bd dc bb b0 bd 98 02 54 bc
       -0.06156457 -0.039335553 -0.08629581 -0.0129400715
0002d0 8d b4 b4 3d a5 17 df 3c ad f8 ee bc e7 53 f9 3d
       0.088235 0.027232954 -0.029171312 0.12174206
0002e0 54 19 5a 3d b6 91 b6 bd 71 55 32 bd 47 24 01 be
       0.05324681 -0.08914511 -0.043538515 -0.12611495
0002f0 c0 50 2c 3c 1e 6c 1e 3d e9 bb 3b 3d 3c d6 1b 3d
       0.010517299 0.038677327 0.045833502 0.038046107
000300 f7 30 60 3d 08 0d 89 3d 15 64 11 bd b0 f5 83 3d
       0.054734197 0.06691939 -0.035495836 0.064433455
000310 9f c8 53 bd 3b 8a 56 3c 73 d1 fe 3c 52 9f 10 3d
       -0.051705 0.01309448 0.031105733 0.03530819
000320 8e ae 82 3c 38 aa 21 3d 2f 07 55 bd 26 ed d8 3c
       0.015952375 0.039468974 -0.052008804 0.026480269
000330 44 e4 05 bd d9 1b 62 bd 10 1f 53 bd e3 51 00 bd
       -0.032688394 -0.05520234 -0.051543295 -0.031328093
000340 7e 96 b4 3c 97 19 bb 3b d8 17 91 bb 3f 6c c9 3a
       0.022044417 0.0057098377 -0.004427891 0.0015367343
000350 15 86 74 3d 4e 2b 87 3d cf 1b c8 bd 7b 79 db 3c
       0.059698183 0.066000566 -0.09770929 0.026791325
000360 96 85 88 bc 34 19 0f 3d e5 80 9c 3d b4 80 01 3d
       -0.016665261 0.034936145 0.07641772 0.03161688
000370 c3 3c fb bc 4d b6 dc 3b 2d 88 a7 3d 02 04 97 bd
       -0.030668622 0.006735599 0.0818027 -0.07373811
000380 83 4a ee bc e8 0c 5a bd 57 61 99 bd 6e 78 16 3d
       -0.029088264 -0.053234965 -0.07489269 0.036735944
000390 a9 91 a9 bd f4 0b 66 bd 38 f5 31 bd 02 38 9d bb
       -0.082797356 -0.056163743 -0.04344675 -0.0047979364
0003a0 55 97 57 bd 0e a5 84 3d 65 86 4f bd 26 51 8e 3c
       -0.052634556 0.06476794 -0.050665278 0.017372679
0003b0 a4 57 36 bd 87 d8 92 3c 3d f9 b4 bc bc 42 57 bd
       -0.044517174 0.017925514 -0.022091502 -0.052553877
0003c0 86 ca 3c 3c 94 7f 8a 3d 49 e5 81 3b c9 30 95 3c
       0.011522895 0.06762615 0.0039641005 0.01821174
0003d0 3d cf 00 3d c1 7f 85 bc fc 76 30 bd 2c 15 01 3c
       0.031447638 -0.01629627 -0.043082222 0.007878583
0003e0 e4 6d 28 3d c5 b1 b5 bd f9 ad 6a 3d af d0 76 bc
       0.041120425 -0.088717975 0.05729482 -0.0150644025
0003f0 cd 14 1f bd 2b 9b b4 bd 65 81 3c 3d b5 cf cc bd
       -0.038838197 -0.088186584 0.046021838 -0.100005545

conv2.bias f4 [32]
000000 76 73 7f 3d f4 18 18 bd 1f c3 dd 3a ef 6e fb 3c
       0.06236597 -0.037133172 0.0016919113 0.030692546
000010 bb 33 73 bd ee 9c 64 bd 07 66 08 bd e1 13 62 bd
       -0.059375506 -0.055813722 -0.033300426 -0.05519474
000020 a0 87 cc 3d b2 25 0e 3d e1 ae 30 3d 06 ec 41 3d
       0.09986806 0.034703918 0.043135528 0.04734423
000030 ef 3c 7e 3d 0d b2 04 3d 15 68 2a 3d 22 2f 88 bc
       0.06206983 0.032396365 0.041603167 -0.016624037
000040 60 70 4e 3d 71 c1 8b bd 3d e1 47 3d 32 7f 6f bc
       0.050400138 -0.068240054 0.04879879 -0.014617728
000050 ad 11 9e bd 7f a7 66 bd 37 14 2f bc 40 9d 3e bd
       -0.07718215 -0.05631208 -0.010685972 -0.046536684
000060 08 5e 99 bd 45 fa f5 bd d3 f6 d9 bd 72 d8 bf bd
       -0.07488638 -0.12010626 -0.10642781 -0.093674555
000070 52 a5 cc bb 47 b1 04 bc 4d cf f3 3d 70 8e 5b 3e
       -0.0062452937 -0.008098907 0.11904774 0.21441054

fc.weight f4 [10, 2048]
000000 11 4c 66 3c 71 91 01 3c cb 4b be 3c d4 79 c7 bb
       0.014056222 0.007908211 0.0232295 -0.006087521
000010 e5 55 94 bc e3 ed 12 bd 7d f2 63 3c 5b c4 7f bb
       -0.018107364 -0.035871398 0.013912794 -0.003902695
000020 34 7e 2e 3c a8 17 c6 bc 2b 71 d2 ba 29 32 39 3c
       0.010650206 -0.024181202 -0.0016055455 0.011303463
000030 34 93 b2 bc f1 bb 88 bd 2d dc 84 bb 9a e8 d0 3b
       -0.021798708 -0.06676472 -0.0040545673 0.0063753845
000040 e4 10 d1 3b 08 05 0b bc 94 4d 33 3a 74 d6 c1 3c
       0.0063801873 -0.008485086 0.0006839868 0.02366183
000050 5e 4f 51 3d c3 70 4d bd 83 e0 d4 bc 7e 1a 1d bc
       0.05110108 -0.050156366 -0.025985962 -0.009588836
000060 d7 a4 98 3c f5 c6 14 bd d4 1b a9 3b 60 27 67 3d
       0.01863329 -0.036322553 0.005160788 0.056434035
000070 9e 71 a8 3d 22 ec c2 bc c2 6d a4 3a 72 5b fb bb
       0.08224796 -0.023794238 0.0012544917 -0.0076708132
000080 6d aa dc 3c df 2e b0 3b ac 54 a1 3c 3f cf 94 3d
       0.026936734 0.005376681 0.019693695 0.072660916
000090 4a 72 94 3d 93 5c 9d bb 1d 19 89 bb b1 ca 82 bc
       0.072483614 -0.0048022955 -0.004183902 -0.015965791
0000a0 bd fd ef bb 96 55 25 bd 9c 0c 07 bd ac 99 eb 3b
       -0.007323949 -0.040364824 -0.03297101 0.00718995
0000b0 d3 56 a2 3d a5 51 9a 3b 84 34 ec 3b d2 92 6f bc
       0.07926717 0.00470944 0.007208409 -0.014622407
0000c0 5b a2 c0 3c 0d df e0 bc 8e 03 5d bd 90 cb 04 bd
       0.023514917 -0.027450109 -0.05395847 -0.032420695
0000d0 e0 53 a0 3d 8d 25 dc 3c 55 b4 0a 3c 7f 98 a7 bb
       0.07828498 0.026873374 0.008465846 -0.0051146145
0000e0 3f 22 5c bc c2 9b 1e bd fc 23 64 bd 97 5b c3 3c
       -0.013435899 -0.03872276 -0.05569838 0.023847384
0000f0 84 00 7e 3d 30 24 16 3c 3a e2 be 3b 23 2b 17 bc
       0.06201221 0.009163901 0.005825308 -0.009226593
000100 a5 c1 6d bc e5 f3 2b 3c bc 85 66 bc de 35 85 bc
       -0.0145115005 0.010495161 -0.014069971 -0.016261037
000110 80 d3 be 3c 0d 7c 58 3c 96 42 59 3c 25 25 06 bb
       0.02329421 0.01321317 0.013260504 -0.0020468917
000120 ac c6 c9 3b 79 2c 21 3b 8f 07 6a bb 0e 7f df bc
       0.0061577167 0.0024593158 -0.0035710072 -0.027282264
000130 a8 c4 7a 39 88 6e 14 b8 e9 8d 87 bb 63 ed ba ba
       0.00023915118 -3.538889e-05 -0.00413679 -0.0014261421
000140 fa 6c 22 bb 53 2f 48 3c 66 98 6c bc fe bd 4b bb
       -0.0024784193 0.012218314 -0.0144406315 -0.0031088586
000150 51 d9 4e bc cd 2f e8 bc 4e 3a e4 3a 46 7f 33 3c
       -0.012625054 -0.028343106 0.0017412396 0.010955637
000160 35 69 5b 3c 4d 2e 9b 3c bc 7e 49 3c d2 62 15 bd
       0.0133917825 0.018942976 0.012298282 -0.036471196
000170 c3 5d 2e bd 12 08 c2 bc b0 f1 0e bc f7 d1 3f bc
       -0.042569887 -0.023685489 -0.008724615 -0.011707774
000180 49 e2 78 3c f8 b7 36 bc 3d 83 21 3c 78 10 ee bc
       0.015190669 -0.01115226 0.00985795 -0.029060587
000190 4b f2 48 bc f7 1b 3e bc e8 34 18 3c 8a ab 90 3c
       -0.012264798 -0.011603347 0.009289958 0.017659921
0001a0 b4 f6 32 bc e0 fe 22 bb 21 ba 68 3c dc 6d 87 bb
       -0.010923076 -0.0024871156 0.014204533 -0.0041329693
0001b0 4d d1 1c bd c9 95 2d bd a9 c7 78 3c f2 19 4a 3c
       -0.038285542 -0.042379174 0.015184321 0.012335287
0001c0 10 21 2f 3c 28 4b 40 bc ce ce 77 3c 77 93 55 3c
       0.010689035 -0.011736669 0.01512499 0.013035647
0001d0 fd 30 d4 bc c5 a0 c4 bc 3c d6 84 3c 5c 93 67 b9
       -0.025902266 -0.024002442 0.016215436 -0.00022084772
0001e0 66 4d 21 bc 2a ff 91 bc e1 79 7c b9 2e 6a dc bc
       -0.009845113 -0.017821867 -0.00024077996 -0.0269061
0001f0 44 1d 08 bc 04 95 00 3c 46 e5 5e bc a6 ad b7 bc
       -0.008307759 0.007848028 -0.013604468 -0.02242167
000200 a9 2a 1a bc fc 1b 2f bc 50 3c 30 bb db b4 ab 3c
       -0.009409585 -0.010687824 -0.0026891418 0.020960262
000210 c7 b3 90 3d c9 55 4a 3d 7e 03 cd 37 70 90 88 bb
       0.0706554 0.049398217 2.443953e-05 -0.004167609
000220 88 5b a3 bc 10 ce 9b bb 3b d6 7f bd 4f ad 9f bd
       -0.019941106 -0.004754789 -0.062460165 -0.07796728
000230 00 9a 98 3d cc 7c 09 3d 0d c6 7e 3c 6c 3b 81 3c
       0.07451248 0.03356628 0.015550149 0.015775405
000240 2b 62 4e bc a1 18 52 bc a8 5a 43 bd 44 98 b5 bd
       -0.012596647 -0.012823255 -0.04769388 -0.08866933
000250 be 92 70 bc 60 18 e7 bc fb a8 53 3b 26 bb 1e 3c
       -0.014683424 -0.028209865 0.0032296765 0.009688174
000260 98 2f 9d bc 58 b6 0b bd a1 cb 30 bc fc ec ad bd
       -0.019187734 -0.034109443 -0.010790736 -0.08492467
000270 fe 42 57 bd d4 0c 2c bd 91 64 a0 3c 9f 58 5f bc
       -0.052554123 -0.04200442 0.019579204 -0.013631969
000280 ff 6f ad 38 b9 c5 12 bc 58 23 55 bd f1 9a 8d bd
       8.270144e-05 -0.008958274 -0.05203566 -0.06914318
000290 19 61 2e bd 28 a9 0c bd 4a ec 43 3c 76 51 6e 3c
       -0.04257307 -0.034341007 0.011958191 0.014545789
0002a0 e2 7d ea 38 60 5d 16 bc f0 a1 bc bc 36 92 4c bd
       0.00011181437 -0.009177536 -0.023026437 -0.049944125
0002b0 cb 31 53 bd ab a2 a7 bd 72 5d 01 bc c3 e8 bd 3c
       -0.05156116 -0.08185323 -0.007895814 0.023182278
0002c0 7f 2f 10 3c 44 cc 85 bb 23 01 e3 3b 0b 20 4d 3b
       0.008800386 -0.0040831883 0.0069276257 0.0031299617
0002d0 a0 31 7b bd 0c e4 d2 bd fc b6 e2 3b 57 53 01 3c
       -0.061326623 -0.10297403 0.006918786 0.007893405
0002e0 92 94 d7 ba 91 4b ae bc fc a7 0e bd 00 a2 b3 bb
       -0.0016447476 -0.021276267 -0.03482817 -0.0054819584
0002f0 09 47 0c bd 87 74 63 bd 9c 82 d7 bc 5a 03 a7 bc
       -0.034247432 -0.05553105 -0.026307397 -0.02038734
000300 5f 24 37 bc 30 ae 88 3c a1 2c 9f 3c cf 91 8d 3c
       -0.011178105 0.016684622 0.01943046 0.017281441
000310 27 26 9d 3c db 6e fc 3b 7c 28 21 3c 8b 53 8f 3b
       0.019183232 0.0077036447 0.009836312 0.004373973
000320 1e 05 9c bc ae 62 03 3d 2d 59 55 bc 3b ea e4 3c
       -0.019045409 0.03207653 -0.013021749 0.027943721
000330 19 ed 12 3c a6 ef 7e 3c cf 5f 9a 3b ba a3 a4 bc
       0.008967661 0.015560066 0.0047111283 -0.020097602
000340 8c 6d 55 bc 2a d4 0b 3c 88 e3 9e 3c da aa c8 3c
       -0.013026606 0.008534471 0.019395605 0.02449553
000350 58 6f 61 3c 3a de 9e 3c 03 22 79 bc ef 24 ad 3c
       0.013759457 0.019393075 -0.015205863 0.021135775
000360 73 14 d8 3b 05 82 dc 3c a9 f0 d6 3b 3d 5d 0e 3a
       0.0065942346 0.026917467 0.0065594506 0.00054307637
000370 51 5a 85 3b 32 07 d4 3c 04 85 69 3c 34 2d 55 3c
       0.0040696044 0.025882337 0.014252905 0.013011266
000380 a9 e8 30 bb 23 08 f1 3c cd 1b a0 3c 21 db df 3c
       -0.0026994145 0.029422825 0.019544506 0.027326168
000390 1f b4 09 3d 8a 7f a8 3c bc 07 b5 bc 51 bb 67 bc
       0.033619042 0.020568628 -0.022098415 -0.014143781
0003a0 d4 f0 5a ba 51 90 66 3b 05 f7 00 3c 1e 2b 11 3b
       -0.0008351926 0.0035181234 0.007871394 0.0022150944
0003b0 54 63 29 3d 06 48 30 3c de e7 b0 bb db 59 cf bb
       0.041354492 0.010759359 -0.0053987345 -0.0063278503
0003c0 aa fb c7 3a fb f8 f5 3c 6d 16 e5 3c ab 6a a1 bb
       0.0015257497 0.03002595 0.027964795 -0.004926046
0003d0 9d 9c 99 3c 92 67 de 3b dc c1 e3 bc 33 ab a0 3c
       0.018751437 0.006787249 -0.0278024 0.019612884
0003e0 71 98 ff bb 77 5e 43 bc f8 e5 96 bb 12 72 1b 3d
       -0.007800155 -0.011924378 -0.004605051 0.037950583
0003f0 f0 7b 1c 3c 5a 19 da bb 6a bf 80 bc 90 ba 02 bc
       0.009551033 -0.006655854 -0.015716273 -0.00797905

fc.bias f4 [10]
000000 5e 04 44 3e 8a 75 60 3d 40 7f 69 b9 bb 90 94 3c
       0.19142291 0.054799594 -0.00022268016 0.01813542
000010 0a 30 7e bc af df 84 bd 6a c7 f8 bc 99 7b c3 bd
       -0.015514383 -0.06487977 -0.030368526 -0.09545059
000020 52 8c 99 bd 7a b6 36 bd
       -0.07497467 -0.044607617
