LAB 3/Results/CNN_L3_lr005_adam.ckpt (torch, 748339 bytes, 8 tensors)

conv1.weight f4 [48, 3, 5, 5]
0	0xbdb3cfdd	-0.08779881
1	0x3d10ba88	0.03533414
2	0xbd79c26f	-0.060976442
3	0xbdaaf3ed	-0.083473064
4	0x3dc84075	0.09777919
5	0xbdc99c47	-0.09844261
6	0xbceb71b0	-0.028740734
7	0xbc85ff88	-0.016357198
8	0x3dd42972	0.103594676
9	0x3db0eb74	0.08638659
10	0x3cd0837b	0.02545332
11	0xbdab9d86	-0.083796546
12	0x3d91cf06	0.07119565
13	0xbda72ae7	-0.0816248
14	0xbde49ebd	-0.111630894
15	0x3cfd324d	0.030907774
16	0xbe05467f	-0.13015173
17	0x3d85308d	0.06503401
18	0x3d748668	0.059698492
19	0xbd9df27d	-0.077122666
20	0x3b939d5e	0.0045048436
21	0xbd508753	-0.050910305
22	0x3ce023a9	0.027360754
23	0xbdff3431	-0.124611266
24	0xbdbd13a1	-0.092322595
25	0x3d07cbda	0.033153392
26	0xbafe6a41	-0.0019410328
27	0xbdba6859	-0.09101934
28	0x3d743bb9	0.05962727
29	0xbcfd6e89	-0.030936496
30	0xbd86e7ae	-0.06587158
31	0x3da07431	0.07834662
32	0x3cda0953	0.026615774
33	0xbd6d06c3	-0.057867777
34	0xbdd4f777	-0.10398763
35	0xbd5af56a	-0.0534567
36	0x3cbcf42a	0.023065645
37	0x3d822456	0.06354587
38	0xbda04591	-0.07825769
39	0x3d09fbd7	0.03368744
40	0x3d010e53	0.0315078
41	0xbb823c5e	-0.0039744815
42	0x3d1ae2f6	0.037814103
43	0x3c8b961e	0.017039355
44	0xbd89eb41	-0.06734324
45	0xbdcac64a	-0.09901102
46	0x3d6220cc	0.05520706
47	0x3d898d50	0.06716406
48	0xbdf553fe	-0.11978911
49	0x3b879aae	0.0041383123
50	0xbcdf3480	-0.027246714
51	0xbdea6430	-0.114448905
52	0xbd98acfa	-0.07454868
53	0xbdd10656	-0.102062866
54	0xbc65632c	-0.014000695
55	0x3d4b69ae	0.04966133
56	0xbdf48bff	-0.11940765
57	0x3c0efe6f	0.008727654
58	0xbe192422	-0.1495519
59	0x3dff258d	0.12458334
60	0xbe125dc0	-0.14293575
61	0x3bb02c23	0.0053763553
62	0xbdc483e1	-0.095954664
63	0x3d71d7a8	0.059043556
64	0xbd32d366	-0.043658637
65	0x3d9df7f4	0.07713309
66	0xbd956f14	-0.07296577
67	0xbd3ba17a	-0.045808293
68	0xbdcf74db	-0.1012971
69	0xbde37973	-0.11107149
70	0xbdd593c1	-0.104285724
71	0xbd9e18dc	-0.07719585
72	0xbde3ab14	-0.11116615
73	0xbd300b8c	-0.042979762
74	0xbc4ebd00	-0.012618303
75	0x3cde2af5	0.027120093
76	0xbd83b49d	-0.064309336
77	0xbd0bcfb4	-0.034133628
78	0xbd501a8b	-0.050806563
79	0x3c5666ec	0.013086062
80	0xbd6107c6	-0.054939054
81	0x3c693074	0.0142327435
82	0x3d300618	0.04297456
83	0x3d9e0a3f	0.07716798
84	0x3abbd9ad	0.001433184
85	0x3dbb5e53	0.0914885
86	0x3c62a325	0.013832842
87	0x3d559a44	0.052149072
88	0xbb949592	-0.0045344317
89	0xbbb04d0c	-0.0053802785
90	0x3d87e3b5	0.066352285
91	0xbe10a684	-0.1412602
92	0xbd4e245f	-0.050327655
93	0xbe085f0d	-0.13317509
94	0xbe0697d9	-0.13143863
95	0xbba4553b	-0.005015043
96	0xbd42b5db	-0.047536712
97	0xbcaf7ec8	-0.021422759
98	0x3cf2f1b9	0.029656278
99	0x3d822034	0.063537985
100	0xbcbb4196	-0.022858422
101	0xbd0476fb	-0.03234003
102	0xbdb53843	-0.08848622
103	0xbd1bb9a6	-0.038018845
104	0xbccf2a95	-0.02528886
105	0xbdcb4535	-0.099253096
106	0xbdd2a2b8	-0.102849424
107	0xbb2b1676	-0.0026105917
108	0xbdc04dc0	-0.0938983
109	0x3c21c43f	0.009873449
110	0x3ba67b58	0.0050806217
111	0x3b8bedb0	0.004270278
112	0x3d0d5e78	0.03451392
113	0x3c9d933b	0.019235244
114	0x3ac3f26d	0.0014949568
115	0x3cb16173	0.021652913
116	0x3aadf885	0.0013272917
117	0xbd313bf6	-0.043270074
118	0x3d0d386f	0.034477647
119	0xbde6e581	-0.11274243
120	0x3d80775a	0.062727645
121	0x3d92266c	0.07136235
122	0xbcf01a6c	-0.029309474
123	0xbdfa10a3	-0.122102045
124	0xbdb567ef	-0.088577144
125	0xbc9eae13	-0.019370114
126	0xbe08c07e	-0.1335468
127	0x3d5095f5	0.05092426
128	0xbd3462b1	-0.044039432
129	0x3dbc7303	0.09201624
130	0xbdf69c2d	-0.12041507
131	0xbdb1d049	-0.08682305
132	0xbd0b384b	-0.033989232
133	0xbdd8cb04	-0.10585597
134	0x3ccdd942	0.02512801
135	0x3c38f113	0.011287945
136	0x3d8b2de5	0.06795863
137	0xbde0b161	-0.10971332
138	0x3d75bf18	0.059996694
139	0x3d27e110	0.04098612
140	0xbd58cf14	-0.05293186
141	0xbcad77e7	-0.021175338
142	0xbd9db976	-0.077013895
143	0xbdf88a8f	-0.12135803
144	0xbda57b8a	-0.08080204
145	0xbdb7a348	-0.0896669
146	0xbe0aeefa	-0.13567725
147	0x3cce7458	0.025201961
148	0xbe100dd3	-0.14067774
149	0x3d8b927c	0.06815049
150	0xbddcb902	-0.10777475
151	0xbd95e2b9	-0.073186345
152	0xbd46a5a9	-0.04849783
153	0xbe2ed808	-0.17074597
154	0x3cc9a5e6	0.02461524
155	0xbcef3ce5	-0.029203841
156	0x3c9a4f18	0.018836543
157	0xbe281219	-0.16413154
158	0xbdf95d20	-0.12175965
159	0xbe14b89b	-0.14523546
160	0xbb8c46a0	-0.00428088
161	0x3ccfc5a7	0.025362803
162	0x3d8d1b9b	0.06890031
163	0xbcbb0fa3	-0.022834605
164	0xbe34e1c3	-0.17664246
165	0x3c5d281e	0.013498334
166	0xbdfe1c4c	-0.12407741
167	0xbe18db6f	-0.14927457
168	0xbd8ffbdd	-0.07030461
169	0xbd394e83	-0.04524089
170	0xbe16c75f	-0.14724492
171	0xbdf52dac	-0.11971602
172	0xbdab9d8d	-0.0837966
173	0xbd7025aa	-0.05862967
174	0x3d6c297a	0.057656743
175	0xbdce11fc	-0.10062024
176	0xbe2656d6	-0.16244063
177	0x3c1a0678	0.009400956
178	0xbd884175	-0.0665311
179	0x390e2918	0.00013557484
180	0xbd36adb0	-0.044599235
181	0xbdad77c2	-0.084701076
182	0xbe2a6fae	-0.16644165
183	0xbd87e6f4	-0.06635848
184	0xbc9feae1	-0.019521179
185	0xbd45cff4	-0.048294023
186	0x3d939d2b	0.07207712
187	0xbd2d3f4f	-0.042296704
188	0xbb89c13c	-0.0042039435
189	0x3c406b95	0.0117444
190	0xbbead03a	-0.007165936
191	0xbe19e0e1	-0.1502719
192	0xbc6a2455	-0.014290889
193	0xbe49958e	-0.19685957
194	0xbdd8086a	-0.1054848
195	0xbd3a84b4	-0.04553671
196	0xbe00c898	-0.1257652
197	0xbd0e4928	-0.034737736
198	0xbda003f5	-0.07813255
199	0xbdfdcd14	-0.12392631
200	0x3e1a1972	0.15048769
201	0xbd800101	-0.062501915
202	0x3e18e659	0.1493162
203	0x3ccb984f	0.0248529
204	0x3d5dbcae	0.054135017
205	0x3e21c475	0.15797599
206	0x3d5a5664	0.053305045
207	0x3d9aa76c	0.075514644
208	0x3dc8a043	0.097961925
209	0x3bc7dacd	0.006099081
210	0x3d110569	0.03540555
211	0x3e05fa4d	0.13083763
212	0xbc2da47c	-0.010598298
213	0x3db9283f	0.090408795
214	0xbd584a55	-0.052805264
215	0xbdcae2d2	-0.09906544
216	0xbdc8170d	-0.097700216
217	0xbe1d91ea	-0.15387693
218	0x3d835151	0.06411994
219	0xbe08aa19	-0.13346137
220	0x3d8af33a	0.06784673
221	0xbd2cf5dd	-0.04222666
222	0xbd1c13a6	-0.038104676
223	0x3cd15cab	0.025556883
224	0xbd9fc0f8	-0.07800478
225	0xbb672c75	-0.0035274301
226	0xbd830da3	-0.063990854
227	0x3d122ca6	0.03568711
228	0x3d11c1be	0.035585158
229	0xbdc2df9b	-0.095153056
230	0xbca234eb	-0.019800624
231	0xbe1b9bce	-0.15196154
232	0xbcd0d3d7	-0.025491638
233	0xbe0631f9	-0.13105
234	0x3da16ab0	0.07881677
235	0xbc0bcb5e	-0.008532373
236	0xbd6b7444	-0.057483926
237	0x3d0e8e37	0.034803595
238	0x3d0bb536	0.034108363
239	0x3d94d0f6	0.07266419
240	0xbe1711bb	-0.14752857
241	0xbc983ea4	-0.018584557
242	0xbd8498bc	-0.06474444
243	0xbd8fd7f9	-0.070236154
244	0x3d823602	0.063579574
245	0xbb082195	-0.002077197
246	0x3d1cd966	0.038293265
247	0x3d6b4147	0.0574353
248	0xbd9e6248	-0.077335894
249	0xbb8a5091	-0.00422103
250	0xbe04d2c9	-0.12971033
251	0xbe15e9ed	-0.14640017
252	0xbcbb0f09	-0.022834318
253	0x3c585867	0.0132046705
254	0xbd1ca769	-0.038245592
255	0xbdf75557	-0.12076824

conv1.bias f4 [48]
0	0xbddcdfde	-0.10784887
1	0xbdb931c6	-0.09042697
2	0x3e63cded	0.22246523
3	0xbe120c3c	-0.1426248
4	0xbd9a35d4	-0.07529798
5	0x3d068f85	0.032851715
6	0xbdf324c8	-0.1187225
7	0xbd40bdbb	-0.04705594
8	0xbd8bc840	-0.06825304
9	0x3cbb5ce7	0.022871448
10	0xbd3b6516	-0.0457507
11	0xbd8368e3	-0.0641649
12	0x3b06252c	0.0020468934
13	0xbde06f86	-0.109587714
14	0xbe0796d5	-0.13241132
15	0xbdbf2853	-0.09333863
16	0x3e024371	0.1272104
17	0x3bbe53dd	0.005808337
18	0xbca30de6	-0.019904088
19	0x3e499b9a	0.19688264
20	0x3b7af2c8	0.0038291682
21	0x3d5cc43a	0.053898074
22	0x3c59193d	0.013250646
23	0xbda8aa8c	-0.08235654
24	0xbdc68f71	-0.09695328
25	0xbd9b4964	-0.075823575
26	0x3da0fee3	0.07861116
27	0x3d187b72	0.0372271
28	0xbdc30011	-0.09521497
29	0xbbf7afc1	-0.0075587933
30	0xbdbe62f0	-0.092962146
31	0xbda54cf2	-0.08071317
32	0x3d041d15	0.032254297
33	0x3e487556	0.1957601
34	0x3ca6b57e	0.020350214
35	0xbe1168f6	-0.14200196
36	0x3d0484ac	0.03235309
37	0xbdbadbf0	-0.09123981
38	0x3d33131c	0.043719396
39	0xbbb7338a	-0.0055908607
40	0x3e25c994	0.16190177
41	0xbd455ed4	-0.04818614
42	0xbd220219	-0.03955278
43	0xbd8869b2	-0.06660785
44	0xbc7f17fc	-0.015569683
45	0xbe2849fd	-0.16434474
46	0xbe05a805	-0.13052376
47	0xbb874e14	-0.0041291807

conv2.weight f4 [64, 48, 5, 5]
0	0xbc888059	-0.016662763
1	0xbcfd99c8	-0.030957118
2	0x3c54c545	0.012986486
3	0x3bec67bd	0.007214515
4	0xbcdb8098	-0.026794717
5	0x3be8d64b	0.007105624
6	0xbcaffc51	-0.021482619
7	0x3d6d2688	0.057898074
8	0x3cef943c	0.029245488
9	0xbd3b6da4	-0.04575886
10	0x3d68b96a	0.05681745
11	0x3d6ac57e	0.05731725
12	0x3d02bc1d	0.03191768
13	0x3d0aa842	0.03385187
14	0xbd02c74e	-0.031928353
15	0x3b3d0a2c	0.0028845174
16	0x3d2633b1	0.04057664
17	0xbcaa2c42	-0.020773057
18	0x3cb20fd5	0.021736065
19	0xbcb047b6	-0.02151857
20	0x3c344362	0.011002393
21	0x3cf3d8f2	0.029766534
22	0x3c857200	0.016289711
23	0x3d685f86	0.056731723
24	0xbcdf2995	-0.027241508
25	0x3d64d29a	0.055864908
26	0x3c9ec211	0.019379647
27	0x3c4a602c	0.012352031
28	0x3bccf246	0.006254467
29	0x3caf0ae6	0.021367501
30	0x3d2ae8ae	0.041725807
31	0x3c7ee6d3	0.0155579625
32	0x3d05bd72	0.032651372
33	0x3cdba695	0.026812831
34	0x3cf78393	0.030214107
35	0xbc880c6e	-0.01660749
36	0xbcd811d0	-0.026375681
37	0xbcc4f0e3	-0.024040645
38	0x3b833fd6	0.0040054126
39	0xbd39dc8d	-0.04537635
40	0xbd42c2a2	-0.047548898
41	0xbd29da49	-0.04146794
42	0xbb896ec2	-0.0041941116
43	0xbbdace52	-0.0066774273
44	0xbd04887c	-0.032356724
45	0x3ad08c56	0.0015910964
46	0xbb9582f1	-0.0045627286
47	0xbcf74568	-0.030184463
48	0xbcc3463c	-0.023837201
49	0xbbd765c9	-0.006573413
50	0xbedfe495	-0.43729082
51	0xbe58deeb	-0.21178786
52	0x3ef2b121	0.47400764
53	0x3dc8611e	0.09784149
54	0x3e7a7cc8	0.24461663
55	0xbe86c8f4	-0.2632519
56	0xbdc54b6a	-0.09633525
57	0x3ec41a6f	0.38301417
58	0x3c64da83	0.013968113
59	0x3e817837	0.2528703
60	0xbde9070c	-0.11378297
61	0xbdcdc86b	-0.10047992
62	0xbc3e4e97	-0.011615417
63	0xbe1470a8	-0.144961
64	0xbd5edee8	-0.0544118
65	0xbd956dfc	-0.072963685
66	0xbdf55ccc	-0.1198059
67	0x3df6fed4	0.12060323
68	0x3c924d7d	0.017859215
69	0x3c297b55	0.010344346
70	0xbcb30f3b	-0.021857848
71	0xbd3544bf	-0.044255015
72	0x3de41e16	0.11138551
73	0x3c8e9139	0.017403232
74	0x3cd6bd75	0.026213387
75	0x3d22e46b	0.039768618
76	0xbc82454f	-0.01590219
77	0x3b72c29e	0.003704227
78	0xb9f03cf0	-0.0004582177
79	0xbc4b29dc	-0.012400117
80	0x3be0866e	0.006851963
81	0xbc46016c	-0.0120853
82	0x3ca05fd5	0.019576946
83	0xbcc97778	-0.0245931
84	0xbb7babfc	-0.0038402071
85	0xbcf28308	-0.029603496
86	0xbcd53211	-0.02602485
87	0xbd07974e	-0.03310328
88	0x3b06abfe	0.0020549293
89	0xbd092af4	-0.03348823
90	0xbd8a3690	-0.06748688
91	0xbd11b888	-0.035576373
92	0x3c748315	0.0149238305
93	0x3b8874da	0.0041643204
94	0x3d2aa855	0.04166444
95	0xbcbaba22	-0.022793833
96	0xbd403038	-0.046920985
97	0xbc429d65	-0.011878346
98	0x3d0b2dfc	0.0339794
99	0x3d50b80b	0.050956767
100	0xbcdbc6e2	-0.026828233
101	0xbb1315cf	-0.002244342
102	0xbd5657fa	-0.052329995
103	0xbd4d22a5	-0.050081868
104	0x3be9f552	0.00713984
105	0x3d142e60	0.03617704
106	0x3d049b57	0.032374706
107	0xbcdd5f8c	-0.0270231
108	0x3ca539de	0.020169195
109	0x3bff8e22	0.007798926
110	0xbd3a7f0d	-0.04553132
111	0x3b8b4e28	0.0042512603
112	0x3c5fd9b2	0.013662742
113	0xbd4de452	-0.05026657
114	0x3d671bb0	0.05642289
115	0x3bd7da2a	0.0065872865
116	0xbc1eac72	-0.009684669
117	0x3d35a741	0.04434896
118	0x3d459546	0.04823806
119	0x3d86ed07	0.06588178
120	0xbb76121a	-0.003754741
121	0xbb2a39fe	-0.0025974507
122	0x3cac3a86	0.021024
123	0x3b84d253	0.004053393
124	0x3d5d181f	0.05397808
125	0x3bd23f1a	0.0064162137
126	0x3e81e35a	0.25368768
127	0x3e111498	0.14168012
128	0x3d92d8d4	0.07170263
129	0x3d27546b	0.04085199
130	0x3db61aae	0.088918075
131	0x3d8fab64	0.07015112
132	0x3d3bbb0f	0.04583269
133	0x3d58f027	0.052963402
134	0x3e73ba52	0.23801544
135	0xbd2ef96f	-0.042718347
136	0xbc9c24dd	-0.019060547
137	0xbc7d805b	-0.015472497
138	0xbd4200d0	-0.047364056
139	0xbd466922	-0.048440106
140	0xbcb7c78b	-0.022434017
141	0xbc3a3e1d	-0.011367348
142	0xbd0c756f	-0.03429168
143	0x3b7a7647	0.0038217471
144	0xbdbc626a	-0.091984585
145	0x3c8681c5	0.0164193
146	0xbd324c54	-0.043529823
147	0xbd5ccec1	-0.053908113
148	0xbd8a9784	-0.067671806
149	0xbde8b400	-0.11362457
150	0xbd006eb6	-0.031355582
151	0x3c146d7f	0.009059309
152	0xbd577a37	-0.052606788
153	0x3b9942bf	0.004677146
154	0x3b416e72	0.0029515293
155	0xbd21b901	-0.039483074
156	0xbd7ee573	-0.06223054
157	0xbd48502d	-0.048904587
158	0x3d14cdee	0.036329202
159	0xbd12f658	-0.035879463
160	0xbcecc912	-0.028904472
161	0xbd3d817b	-0.04626606
162	0xbd783e7c	-0.060606465
163	0x3ca0c0ba	0.01962315
164	0xbc314bf1	-0.0108213285
165	0xbaa5fff7	-0.0012664784
166	0xbc86fcf7	-0.016478045
167	0xbbf0c819	-0.0073480722
168	0xbd50c237	-0.050966468
169	0xbcbf680b	-0.023365041
170	0x3ca68f70	0.020332068
171	0xbc262709	-0.010141143
172	0xbbdc060d	-0.0067145885
173	0xbc81a0af	-0.01582369
174	0xbc3a143c	-0.011357363
175	0xb9934c33	-0.00028094798
176	0xbca6d77f	-0.020366428
177	0xbc84e4fa	-0.016222466
178	0x3b879cec	0.0041385796
179	0x3cb85094	0.02249936
180	0xbd15a587	-0.036534812
181	0x3c1c9fb9	0.009559565
182	0x3c851c78	0.016248927
183	0x3c5eed67	0.013606406
184	0xbc195fef	-0.009361251
185	0xbce3c2f7	-0.027802927
186	0xbd313fb3	-0.04327364
187	0xbbb6fb79	-0.005584177
188	0xbbc34b97	-0.0059599387
189	0xbc32e7e6	-0.010919547
190	0xbd5742a5	-0.05255379
191	0xbce3cdd2	-0.027808104
192	0x3b812575	0.003941233
193	0xbd20093b	-0.039071303
194	0xbc45a328	-0.012062825
195	0xbd2301af	-0.039796527
196	0xbd1b330e	-0.037890486
197	0xbc2a1e1b	-0.010383154
198	0xbd3fb603	-0.04680444
199	0xbd29378f	-0.04131275
200	0x3d2e3dd6	0.04253944
201	0x3d870ef3	0.06594648
202	0x3c48c7af	0.0122546395
203	0xbcd30566	-0.02575941
204	0xbd146cfe	-0.036236756
205	0x3d63efad	0.055648495
206	0x3d381f9a	0.044952013
207	0x3cceacc1	0.02522886
208	0xbce24912	-0.027622733
209	0x3c8a1b50	0.016858727
210	0x3cb5170c	0.022105716
211	0x3d08961e	0.033346288
212	0x3d53760f	0.05162626
213	0x3d405010	0.046951354
214	0x3ea757a5	0.32684055
215	0x3ba2f7e4	0.0049733985
216	0xbce7103e	-0.028205987
217	0xbc6d6e75	-0.014491667
218	0xbbffb143	-0.0078031137
219	0xbcf19ace	-0.029492762
220	0xbd07173e	-0.03298115
221	0xbca3a6de	-0.01997703
222	0xbbb1c647	-0.005425248
223	0xbb403e40	-0.002933398
224	0xbd569f91	-0.052398268
225	0x3e77d6d3	0.24203043
226	0x3da100e3	0.07861497
227	0x3e420dc0	0.18950558
228	0x3bb5ac6a	0.005544235
229	0xbce7f69a	-0.028315831
230	0x3dd57a41	0.10423709
231	0x3ce82d7d	0.028342003
232	0x3dfb6034	0.12274209
233	0xbc8b3741	-0.01699412
234	0xbd045dc8	-0.032316
235	0xbc87e830	-0.016590208
236	0xbc858e18	-0.016303107
237	0x3d1c0acd	0.038096238
238	0xbbb12855	-0.0054064193
239	0xbd06b7cd	-0.03289013
240	0xbaa0637b	-0.0012236679
241	0x3c894d9b	0.016760638
242	0x3c89f27e	0.016839262
243	0x3bf4524b	0.007456099
244	0xbd348bf9	-0.0440788
245	0x3ce8fc60	0.028440654
246	0xbc812c53	-0.015768206
247	0x3d1318b9	0.03591225
248	0xbce16323	-0.027513092
249	0xbc2c72bc	-0.010525402
250	0x3cfe47ee	0.031040158
251	0xbd42d342	-0.047564752
252	0xbc7c54a9	-0.015401044
253	0xbcf312c5	-0.029672036
254	0xbb80a03e	-0.0039253524
255	0x3d8cabdb	0.06868716

conv2.bias f4 [64]
0	0xbddf858d	-0.10914145
1	0xbde9cef6	-0.11416428
2	0xbd8968fc	-0.06709477
3	0xbc9c5ec4	-0.019088157
4	0xbd49d1af	-0.049272235
5	0xbd38674c	-0.045020387
6	0xbd3f5f48	-0.046721727
7	0xbe174839	-0.14773645
8	0xbdd2a35b	-0.10285064
9	0xbcff9b52	-0.031201992
10	0xbd485702	-0.048911102
11	0xbd36d0b6	-0.044632636
12	0xbdb71cc9	-0.08941037
13	0x3d34e92b	0.04416768
14	0xbd3fa50b	-0.046788257
15	0xbcb03dbd	-0.021513814
16	0xbe433b23	-0.19065528
17	0x3d80ebf6	0.06295006
18	0xbd5e4e7e	-0.054274075
19	0xbdc3a7d1	-0.09553493
20	0xbd290f08	-0.0412741
21	0xbd3320d8	-0.043732494
22	0xbd5b8fef	-0.053604063
23	0xbd0b26aa	-0.03397242
24	0xbd9f490b	-0.07777604
25	0x3ddddc4a	0.108330324
26	0xbd111640	-0.03542161
27	0xbd55bd9f	-0.05218279
28	0xbcb11daa	-0.02162059
29	0xbd5c2a14	-0.053751066
30	0xbd512cd8	-0.051068157
31	0xbcfc1fe4	-0.030776925
32	0x3e969cbf	0.29416463
33	0x3defed74	0.117152125
34	0xbdc7b391	-0.097510464
35	0xbc59eb01	-0.013300658
36	0x3da54a6c	0.080708355
37	0xbcc09162	-0.023506824
38	0x3e6cc9ce	0.23123857
39	0x3e81329c	0.25233924
40	0xbbc94bf1	-0.006143086
41	0xbd3c528d	-0.045977164
42	0xbcdfe79f	-0.027332125
43	0xbe456915	-0.19278367
44	0xbd448b01	-0.047984127
45	0xbd183662	-0.03716124
46	0x3e96d926	0.29462546
47	0xbcd628f5	-0.026142577
48	0xbd35cb02	-0.044383056
49	0x3e1fb2ec	0.15595597
50	0xbd5ad872	-0.053429075
51	0x3cbdd10b	0.023170969
52	0xbe35eded	-0.17766543
53	0x3d7e58a6	0.06209626
54	0xbdd06422	-0.10175349
55	0xbd36ee88	-0.044661075
56	0x3eac5502	0.33658606
57	0xbd5c05d0	-0.05371648
58	0xbd0cfd63	-0.034421336
59	0xbbc48a2f	-0.005997918
60	0xbd9a2d6b	-0.07528194
61	0xbd91781f	-0.071029894
62	0xbd0eb102	-0.034836777
63	0xbd32c69a	-0.043646432

conv3.weight f4 [128, 64, 3, 3]
0	0xbe4fc9a4	-0.20291764
1	0xbf585305	-0.8450168
2	0xbe22584a	-0.15853992
3	0xbe1e3318	-0.15449178
4	0xbf0c1d4b	-0.547322
5	0xbe65a3a9	-0.22425713
6	0xbe7355c9	-0.23763193
7	0x3dc787b3	0.097426794
8	0x3cd3b407	0.02584268
9	0xbb1ad139	-0.0023623242
10	0xbd834ce4	-0.0641115
11	0xbe7b5ba6	-0.2454668
12	0x3d0b2895	0.03397425
13	0xbe55c78d	-0.20876904
14	0xbc1dc9ac	-0.009630602
15	0xbda63397	-0.08115309
16	0xbe4c9213	-0.19977598
17	0x3e45eb01	0.19327928
18	0x3ce63ad7	0.028104229
19	0xbd4072b3	-0.046984386
20	0xbc169456	-0.0091906395
21	0xbcd9212e	-0.02650508
22	0x3d8145b8	0.06312126
23	0xbd534217	-0.0515767
24	0xbc96f21d	-0.018425995
25	0xbb94705b	-0.0045299954
26	0xbc2c96fc	-0.010534044
27	0x3ca17a37	0.019711597
28	0xbcdca5ee	-0.02693459
29	0xba64e68b	-0.00087318633
30	0x3be2e045	0.0069237077
31	0xbc088267	-0.008331872
32	0x3c1632a8	0.009167351
33	0xbca6b417	-0.020349545
34	0xbc8b2801	-0.016986849
35	0x3c96a022	0.018386904
36	0xbd260b27	-0.04053798
37	0xbd41e1ce	-0.047334485
38	0xbbb07990	-0.005385585
39	0xbd2dbba1	-0.042415265
40	0x3b0a23ff	0.0021078584
41	0x3d9fe835	0.07807962
42	0xbcb8fa20	-0.022580206
43	0x3da19891	0.07890428
44	0xbbfcd9a3	-0.007716374
45	0x3cd004fd	0.025393004
46	0xbd5cf168	-0.05394116
47	0xbd58e1f2	-0.052949853
48	0x3cc62753	0.024188673
49	0xbd431585	-0.047627944
50	0xbd66efe1	-0.05638111
51	0xbd0e9d38	-0.034817904
52	0xbadf5bcf	-0.0017040911
53	0xbd40fabb	-0.047114115
54	0xbccc75dd	-0.024958545
55	0xbd89c3ea	-0.06726821
56	0xbd25d97e	-0.04049062
57	0xbd7510cd	-0.059830476
58	0xbd29a824	-0.041420117
59	0x3c9c22a4	0.019059487
60	0xbd79a88d	-0.06095176
61	0x3bc910a2	0.006136016
62	0xbb3b9665	-0.0028623578
63	0xbe555842	-0.20834449
64	0xbd896dc9	-0.06710393
65	0xbd5e786c	-0.054314062
66	0x3c576b7a	0.013148183
67	0x3de04c46	0.10952048
68	0xbdbb5495	-0.09146992
69	0xbd65df64	-0.056121245
70	0xbe88f56f	-0.2674975
71	0xbe93cff1	-0.28869584
72	0x3e842385	0.2580835
73	0xbe224774	-0.1584757
74	0xbf014b7d	-0.5050581
75	0x3e004670	0.1252687
76	0xbd59902b	-0.053116005
77	0xbe9f1333	-0.31069335
78	0xbe1807ec	-0.14846772
79	0xbd78be2a	-0.06072823
80	0xbd4067ab	-0.046973865
81	0xbd6f96ae	-0.05849331
82	0xbccad3b9	-0.02475916
83	0xba9cc6f2	-0.0011961146
84	0x3ca49d89	0.02009465
85	0x381e3930	3.7723396e-05
86	0xbc985426	-0.018594813
87	0xbc89a580	-0.01680255
88	0xbd4610b8	-0.048355788
89	0xbd0778d0	-0.0330742
90	0xbc6bce2f	-0.01439242
91	0xbcbc0efd	-0.022956366
92	0xbc78912c	-0.01517133
93	0xbd5abe9a	-0.053404428
94	0xbd85a859	-0.065262504
95	0xbce143b0	-0.027498096
96	0xbc9eb977	-0.019375546
97	0xbca9bf87	-0.02072121
98	0x3c7f129e	0.0155684035
99	0xbd68a868	-0.05680123
100	0xbd37131a	-0.04469595
101	0xbd1e231a	-0.038607694
102	0xbcfcb638	-0.030848607
103	0x3dcd5bcf	0.10027277
104	0xba836a3c	-0.0010026167
105	0xbd7ddc27	-0.06197753
106	0x3c9a49e4	0.018834062
107	0xbce84423	-0.028352803
108	0x3c452fbc	0.012035307
109	0xbe506cd0	-0.20354009
110	0xbe679719	-0.22616233
111	0xbd9f0361	-0.07764316
112	0xbe391af1	-0.18076684
113	0xbe947d16	-0.29001683
114	0xbe5cf9aa	-0.21579614
115	0xbee748a6	-0.45172614
116	0xbeab1613	-0.3341528
117	0x3e898107	0.26856253
118	0xbe14d234	-0.14533311
119	0xbcd25697	-0.025676055
120	0x3c671d4c	0.014106106
121	0xbde7d58a	-0.11320026
122	0xbe69d115	-0.22833665
123	0x3d743ff4	0.059631303
124	0xbe3de8f4	-0.18545896
125	0xbe82a04c	-0.25512922
126	0xbd390d94	-0.045178965
127	0xbd8bf901	-0.06834603
128	0xbd036c9d	-0.032086004
129	0xbd04d896	-0.032433115
130	0xbd303e42	-0.043028124
131	0xbd1dcac4	-0.03852345
132	0xbd118cb3	-0.03553457
133	0x3b9e6883	0.004834236
134	0xbd80fc41	-0.062981136
135	0x3d14deec	0.036345407
136	0xbd8ddeb1	-0.06927241
137	0x3a502fc8	0.000794169
138	0x3d20b61a	0.039236166
139	0xba7f53ce	-0.0009739966
140	0xbd6064cf	-0.05478364
141	0xbbc9b0de	-0.0061551174
142	0x3ada14dd	0.0016638298
143	0xbcf5329d	-0.02993136
144	0xbe422f48	-0.18963349
145	0xbe59f76c	-0.2128579
146	0xbd8eadf3	-0.06966772
147	0x3e773b1d	0.24143644
148	0x3dcbe82c	0.09956393
149	0x3e0ed597	0.13948666
150	0x3da986fd	0.082777
151	0xba43f3cb	-0.00074749877
152	0xbe42fef8	-0.19042575
153	0x3e98a796	0.29815358
154	0x3ef7673f	0.48320958
155	0xbee3f484	-0.44522488
156	0x3d9b9d69	0.07598383
157	0xbe27c537	-0.16383825
158	0xbe436d54	-0.19084674
159	0xbe219a53	-0.15781526
160	0xbefc1e8e	-0.4924206
161	0xbd916240	-0.07098818
162	0x3c140d45	0.009036367
163	0xbd54eaab	-0.05198161
164	0x3894dc10	7.09818e-05
165	0xbd67f3b4	-0.056628898
166	0xbd8fc2e7	-0.070195965
167	0x3c3e5a39	0.01161819
168	0xbd1fcae8	-0.039011866
169	0x3c415649	0.011800357
170	0x3cf487c3	0.029849892
171	0x3e8be9f2	0.27326924
172	0x3e495b36	0.196637
173	0xbe0745d8	-0.13210237
174	0x3e108fbd	0.14117332
175	0x3c9730f5	0.018455962
176	0xbed6db3a	-0.41964132
177	0x3bee341b	0.007269395
178	0xbd69f68b	-0.057119887
179	0xbe967e10	-0.29393053
180	0xbd49dafb	-0.0492811
181	0xbd23b9c5	-0.039972086
182	0xbc202909	-0.009775409
183	0xbd89872a	-0.067152336
184	0xbd6ca50c	-0.05777459
185	0xbd2f455c	-0.042790756
186	0xbc3cafe9	-0.01151655
187	0xbcad0a1c	-0.021122985
188	0x3c8131a4	0.01577074
189	0xbd164717	-0.03668889
190	0xbd7b231d	-0.061312784
191	0x3b5228d8	0.0032067802
192	0xbd802891	-0.062577374
193	0xbb9e64c5	-0.00483379
194	0x3b4ddcf8	0.0031412225
195	0xbc6bdeeb	-0.0143964095
196	0xbd869a22	-0.06572367
197	0x3d2c34b5	0.042042453
198	0xbcae85e3	-0.021304077
199	0x3cab7d14	0.020933665
200	0xbd3470c6	-0.04405286
201	0xbbf0342b	-0.0073304377
202	0xbd339abe	-0.043848746
203	0x3ce55af5	0.027997473
204	0xbd77f8ce	-0.060540013
205	0xbcbc41e9	-0.022980647
206	0x3d319205	0.043352146
207	0x3c95da08	0.018292442
208	0xbd72c98b	-0.059274238
209	0xbcd4f684	-0.025996454
210	0x3d2e690d	0.042580653
211	0x3d8eba43	0.0696912
212	0x3d53fa35	0.051752288
213	0x3bd7d15a	0.006586236
214	0xbd5ab136	-0.053391658
215	0x3ca6b886	0.02035166
216	0x3bcd18ba	0.006259051
217	0x3b2679f5	0.0025402282
218	0xbd6e7580	-0.058217525
219	0x3d842033	0.06451454
220	0xbbe70a64	-0.007050799
221	0xbcd05d32	-0.025435064
222	0x3d430223	0.04760946
223	0x3d530eb4	0.051527694
224	0xbc241a3b	-0.010016019
225	0x3c1fd26d	0.009754759
226	0xbd4091d3	-0.04701407
227	0xbd8b4e2c	-0.068020195
228	0xbe07ea0c	-0.13272876
229	0x3c14b1d9	0.009075605
230	0xbe10c19c	-0.14136356
231	0xbe7c919c	-0.2466492
232	0xbf04ba37	-0.5184664
233	0xbe893454	-0.26797736
234	0x3cab2634	0.02089224
235	0x3e8518a3	0.2599536
236	0x3e41d021	0.18927051
237	0xbc8bc287	-0.017060531
238	0x3e8686f6	0.26274842
239	0x3e2cbd81	0.16869165
240	0x3dfc2887	0.123124175
241	0x3e5cc8bb	0.21560948
242	0x3aa5bd0b	0.001264484
243	0xbc558086	-0.013031131
244	0x3b3e1791	0.0029005746
245	0x3ba5943d	0.005053072
246	0xbd86b829	-0.065780945
247	0xbd28b647	-0.04118946
248	0xbd21cf9c	-0.039504632
249	0x3b2d659f	0.0026458276
250	0xbd54d613	-0.05196197
251	0xbd854796	-0.065077946
252	0x3c8c0056	0.017090004
253	0xbc9cff5d	-0.019164735
254	0xbc9f28be	-0.019428607
255	0x3c2cba16	0.010542413

conv3.bias f4 [128]
0	0x3d8df846	0.0693212
1	0xbd1b8f38	-0.03797838
2	0xbdc8a8d4	-0.097978264
3	0xbd17018e	-0.036866717
4	0xbd51d255	-0.05122598
5	0xbd301387	-0.042987373
6	0xbe2688b6	-0.16263089
7	0x3e154a8b	0.14579217
8	0x3d881286	0.06644158
9	0xbd1328a4	-0.03592743
10	0x3cabc0fc	0.020966046
11	0xbda86484	-0.08222297
12	0x3d8518e0	0.06498885
13	0x3d5c0afc	0.053721413
14	0xbd46a20c	-0.048494384
15	0xbe7e0669	-0.24807133
16	0x3c10aab9	0.008829766
17	0xbd78c6fd	-0.060736645
18	0xbdfd1c0c	-0.12358865
19	0xbd6c689b	-0.057716947
20	0xbdcd1571	-0.10013855
21	0xbd70d20e	-0.058794074
22	0x3bf22ddb	0.0073907203
23	0x3daf1866	0.085495755
24	0xbcf28d72	-0.029608462
25	0xbe9ac2be	-0.30226701
26	0xbc384925	-0.011247908
27	0xbd3cda75	-0.046106774
28	0xbcb9d56a	-0.022684772
29	0xbd16253d	-0.036656607
30	0xbdbda928	-0.092607796
31	0x3da01732	0.07816924
32	0xbbb4afea	-0.0055141347
33	0xbc7540de	-0.014969079
34	0xbd3bec9e	-0.045879953
35	0xbd11c8a7	-0.035591748
36	0xbdc9dc44	-0.098564655
37	0xbded4ec3	-0.11587288
38	0xbd8904a5	-0.06690339
39	0xbd975ddd	-0.0739095
40	0xbd3bc49a	-0.04584179
41	0xbcacd218	-0.021096274
42	0xbc8eb3e8	-0.01741977
43	0xbd80a8b4	-0.062821776
44	0xbd905eff	-0.07049369
45	0xbd887b5d	-0.06664155
46	0xbd30d1c0	-0.043168783
47	0xbce27520	-0.02764374
48	0xbd9c0d74	-0.076197535
49	0xbd96450e	-0.0733739
50	0xbced0c4c	-0.028936528
51	0x3dccb96f	0.09996306
52	0xbdfe3391	-0.12412179
53	0xbce1579e	-0.0275076
54	0x3d9592e0	0.07303405
55	0xbc3a41a3	-0.011368188
56	0xbd8deecc	-0.069303125
57	0xbe00fd5f	-0.12596653
58	0xbdf1bf2e	-0.11804043
59	0xbc858e29	-0.016303139
60	0xbd20f70e	-0.03929811
61	0xbce31683	-0.027720695
62	0xbc056f38	-0.008144192
63	0xbe028d62	-0.12749246
64	0xbd2a6a9d	-0.04160558
65	0xbce840d3	-0.028351223
66	0xbdeeaf5b	-0.1165454
67	0x3bf27f8f	0.00740046
68	0xbdd04ad0	-0.10170519
69	0x3b93067d	0.0044868574
70	0xbd0ac7c7	-0.03388193
71	0xbd992cf5	-0.07479278
72	0x3d555bb9	0.052089427
73	0xbe1843fc	-0.14869684
74	0xbcd265b2	-0.025683258
75	0x3b66ce50	0.0035218187
76	0xbd532942	-0.05155302
77	0xbd8f9452	-0.07010712
78	0xbd9f1116	-0.07766931
79	0xbdd79584	-0.10526565
80	0x3c62d0cf	0.013843729
81	0xbd57cad4	-0.052683666
82	0xbd85aa69	-0.06526644
83	0xbddc6413	-0.10761275
84	0xbda01b87	-0.078177504
85	0xbd59d51a	-0.053181745
86	0xbd0ac91f	-0.03388321
87	0x3bd5e690	0.0065277293
88	0xbd98f757	-0.07469051
89	0xbcaf2b44	-0.021382935
90	0x3e2234f7	0.15840517
91	0x3bd3198d	0.006442255
92	0xbcd38b04	-0.025823124
93	0xbea27de8	-0.31736684
94	0xbd8e858f	-0.06959068
95	0xbd58d958	-0.05294165
96	0xbd84ed45	-0.06490568
97	0xbd479d2d	-0.04873388
98	0x3e05b647	0.13057815
99	0xbcb385d7	-0.021914406
100	0xbd107f4b	-0.035277646
101	0x3c94841a	0.018129397
102	0xbdd469bb	-0.10371729
103	0xbd420a43	-0.047373068
104	0xbd1136dc	-0.03545271
105	0xbc685cd3	-0.014182287
106	0xbd99a288	-0.075017035
107	0xbdbe7c1d	-0.093010165
108	0xbc3bb734	-0.011457253
109	0xbd85f350	-0.06540549
110	0x3c9cf441	0.019159438
111	0x3dce396d	0.10069547
112	0x3c5b747b	0.01339447
113	0xbcb48844	-0.022037633
114	0xbd9b27fb	-0.07575985
115	0x3e16b7d1	0.14718558
116	0xbd09c0d9	-0.03363118
117	0xbd4c7710	-0.049918234
118	0x3dc7d2c0	0.09756994
119	0xbd03cfe0	-0.032180667
120	0xbda0e27f	-0.07855701
121	0xbe4881cb	-0.19580762
122	0xbd6efa0b	-0.05834393
123	0xbdf06bd3	-0.11739316
124	0x3e5006cf	0.20315097
125	0x3d2e902f	0.042617973
126	0x3c4c89c8	0.0124840215
127	0xbc56609b	-0.013084556

fc.weight f4 [10, 3200]
0	0xbc8c7be9	-0.017148929
1	0x3c3169fe	0.010828493
2	0x3db5f1d9	0.088840194
3	0xbdc35922	-0.09538485
4	0x3c2d07d1	0.010560946
5	0x3cd21966	0.025646877
6	0xbacfbacf	-0.001584852
7	0xbdf3ab7a	-0.11897941
8	0x3d9df1bd	0.077121235
9	0xbd3e7a76	-0.046503507
10	0xbd803872	-0.06260766
11	0xbda91a99	-0.08257026
12	0xbc92c302	-0.017915253
13	0x3dfe4637	0.12415736
14	0x3cc598f4	0.024120785
15	0xbbaf252b	-0.005345007
16	0x3d927d43	0.07152798
17	0x3e7733c5	0.24140842
18	0x3d68d66a	0.056845106
19	0x3c086966	0.00832591
20	0x3d173ad2	0.03692133
21	0xbd8efb17	-0.06981485
22	0x3df1b80c	0.11802682
23	0xbe53bf32	-0.20678404
24	0xbcff42b1	-0.03115973
25	0xbc3b0825	-0.011415516
26	0xbcfd1966	-0.0308959
27	0xbc50dd08	-0.01274801
28	0xbc264096	-0.010147234
29	0x39438580	0.00018646382
30	0xbce4a67e	-0.02791142
31	0xbd02daf0	-0.031947076
32	0x3ad8b937	0.001653469
33	0xbca62c43	-0.020284778
34	0xbce714e0	-0.028208196
35	0xbc915d40	-0.01774466
36	0xbceac3e5	-0.028657863
37	0x3c3aaa07	0.011393077
38	0xbca78e26	-0.020453524
39	0xbceb3ccc	-0.028715514
40	0xbc15b04e	-0.009136273
41	0xbcf9f11c	-0.030510478
42	0x3b8db060	0.004324004
43	0x3bf70a49	0.007539068
44	0xbd09b335	-0.03361817
45	0xbceb2774	-0.028705336
46	0xbd1ff3a1	-0.039050702
47	0xbb4efd92	-0.0031584245
48	0xbcd87875	-0.026424626
49	0xbcab2369	-0.020890908
50	0x3e11e0bc	0.14245886
51	0x3d925a66	0.071461484
52	0x3e42e639	0.19033135
53	0x3e625a62	0.22104791
54	0xbd651a92	-0.055933543
55	0x3cb26c2a	0.021780092
56	0xbcc6559a	-0.02421074
57	0xbc450415	-0.012024899
58	0xbc86677b	-0.016406765
59	0xbd1caaa5	-0.038248677
60	0xbbd357f0	-0.006449692
61	0xbc9ee5f9	-0.019396769
62	0xbc49d450	-0.012318686
63	0xbb89c311	-0.004204162
64	0xbcb962fd	-0.02263021
65	0xbcddfbcc	-0.027097605
66	0xbc642206	-0.013924127
67	0xbcc0a290	-0.023515016
68	0xbcf02e4f	-0.029318957
69	0xbc20bdc8	-0.009810872
70	0xbc99f897	-0.018795295
71	0xbc873ebe	-0.01650941
72	0xbcd37a24	-0.025815077
73	0xbcd0dea3	-0.025496786
74	0xbce307aa	-0.027713615
75	0xbd2069b1	-0.039163295
76	0xbccdba51	-0.025113257
77	0xbc8aed0b	-0.016958734
78	0xbca650ea	-0.020302255
79	0xbb9fefa2	-0.0048808614
80	0xbd048380	-0.03235197
81	0xbd02adab	-0.031903904
82	0xbc5e3f21	-0.013564856
83	0xbbf3ed13	-0.007444033
84	0xbcb57523	-0.022150582
85	0xbcea245e	-0.028581794
86	0xbcc270f8	-0.023735508
87	0xbc51224f	-0.012764527
88	0xbc0202d9	-0.007935249
89	0xbd0191ad	-0.031633068
90	0xbc8613cc	-0.016366862
91	0xbcf4e0b6	-0.029892307
92	0xbcaf027e	-0.021363493
93	0xbcb457d6	-0.02201454
94	0xbc50eb7d	-0.012751457
95	0xbc754add	-0.014971462
96	0xbd12532b	-0.035723846
97	0xbcd1e3a8	-0.02562125
98	0xbd3b7f2f	-0.04577559
99	0xbd1d26dc	-0.038367137
100	0xbc7c778a	-0.01540936
101	0xbcaaa098	-0.02082853
102	0xbb2392c0	-0.0024959296
103	0xbb86aebf	-0.004110187
104	0xbca2d692	-0.019877706
105	0xbc23ceb9	-0.009998017
106	0xbd06f4b3	-0.032948207
107	0xbc0479fa	-0.008085722
108	0xbcd6f91b	-0.02624183
109	0xbd046e25	-0.032331605
110	0xbc3957ec	-0.011312466
111	0xbc1d342f	-0.009594961
112	0x3bfe261d	0.0077560083
113	0xbc6ce4a5	-0.01445881
114	0xbaa61d33	-0.0012673497
115	0xbcb5c6c2	-0.022189502
116	0xbcc14046	-0.023590218
117	0xbc147154	-0.009060223
118	0xbaab977c	-0.001309141
119	0xbb9ee7a7	-0.0048493925
120	0xbcb1306a	-0.021629531
121	0xbc25f406	-0.0101289805
122	0xbc8b0fb8	-0.016975269
123	0xbaf43520	-0.0018631555
124	0xbc154b16	-0.00911214
125	0xbd92945f	-0.07157206
126	0xbd4738dc	-0.04863821
127	0x3e1ad4d0	0.15120244
128	0x3cfbdae3	0.030744022
129	0xbc148766	-0.009065485
130	0xbc32c964	-0.010912273
131	0xbd0ee8ee	-0.034890108
132	0xbced5e5b	-0.028975656
133	0xbcaacfcb	-0.020851037
134	0xbcde1c2f	-0.027113048
135	0xbc4a37a6	-0.012342369
136	0xb90adb5f	-0.00013242428
137	0xbc8e62e0	-0.017381132
138	0xbcf7b205	-0.030236254
139	0xbd19c327	-0.037539627
140	0xbc849204	-0.016182907
141	0xbc169f15	-0.009193202
142	0xbce406bb	-0.02783524
143	0xbb6188cd	-0.0034413815
144	0xbc438ae5	-0.0119349705
145	0xbd1189aa	-0.035531677
146	0xbb5d6808	-0.0033783931
147	0xbc5a2655	-0.013314803
148	0xbc8ee1e4	-0.017441697
149	0xbd0f9a02	-0.035058983
150	0x3cd1e8ac	0.025623642
151	0x3c9479cd	0.018124485
152	0x3b10fa6a	0.0022121915
153	0x3d544f29	0.051833306
154	0xbdc417c8	-0.095748484
155	0x3d121634	0.035665706
156	0x3d9ee03e	0.077576146
157	0xbd40eeed	-0.047102857
158	0xbd418f1d	-0.047255624
159	0xbde2b367	-0.110693745
160	0xbd1b0c67	-0.037853625
161	0xbdfda1f0	-0.12384403
162	0x3d6d7215	0.057970125
163	0xbd7029e8	-0.058633715
164	0xbdeb51c7	-0.11490207
165	0xbcd484bb	-0.025942197
166	0xbd1e0912	-0.03858287
167	0xbd159bfe	-0.03652572
168	0xbe0ca6c1	-0.13735487
169	0xbdcc4092	-0.09973253
170	0xbb05005c	-0.0020294404
171	0xbdc834a6	-0.09775667
172	0xbce82200	-0.028336525
173	0xbdfe6589	-0.1242171
174	0xbddcd243	-0.10782292
175	0xbd8b1caf	-0.0679258
176	0x3e3ab615	0.18233521
177	0x3c55bd5e	0.013045637
178	0xbe2297e1	-0.1587825
179	0xbd7bae0b	-0.061445277
180	0x3ccd16e6	0.025035333
181	0xbce64d22	-0.028112952
182	0x3e125367	0.14289628
183	0xbc96e438	-0.01841937
184	0xbec030aa	-0.37537128
185	0xbd666a40	-0.05625367
186	0xbd9ec843	-0.07753041
187	0x3ec5b1f5	0.38612333
188	0x3e8cec34	0.2752396
189	0xbe4f9ecf	-0.20275424
190	0xbdb77e19	-0.08959598
191	0x3bafdd0b	0.0053669265
192	0x3ef434d2	0.4769655
193	0x3e8d2c31	0.27572778
194	0x3bfeee24	0.0077798534
195	0xbd3a6960	-0.04551065
196	0xbde7ad56	-0.11312358
197	0x3dd4ad62	0.10384633
198	0xbd359566	-0.04433193
199	0x3e32d977	0.17465769
200	0x3cb4e0e5	0.022079894
201	0x3e15a355	0.14613087
202	0x3dc1b0dc	0.094575614
203	0xbe20cd97	-0.15703426
204	0xbd5e839c	-0.05432473
205	0xbc8f4080	-0.01748681
206	0x3d1ec9f9	0.038766835
207	0x3ddc2ec0	0.10751104
208	0xbe13034f	-0.14356731
209	0xbe02b21f	-0.1276326
210	0x3d5746da	0.052557804
211	0x3e575a76	0.21030602
212	0x3e45423c	0.19263548
213	0xbe1738c0	-0.14767742
214	0xbd3d0cf9	-0.04615495
215	0xbdc849d4	-0.097797066
216	0x3e73bead	0.23803206
217	0x3dbfa24a	0.09357126
218	0xbe8beabd	-0.2732753
219	0xbcdb1f44	-0.026748307
220	0x3dc0a45b	0.09406348
221	0xbde95d4d	-0.11394749
222	0xbd93f396	-0.07224195
223	0x3dea0059	0.114258476
224	0xbc61e89b	-0.013788368
225	0x3d974a7c	0.07387254
226	0x3e1e25ac	0.15444058
227	0xbd875f02	-0.06609918
228	0x3cfe93d8	0.031076357
229	0xbca2f565	-0.019892404
230	0xbc597979	-0.01327359
231	0xbc637fc0	-0.013885438
232	0xbb2ff8e5	-0.0026851234
233	0x3cea9809	0.02863695
234	0xbccd5804	-0.025066383
235	0x3de816f8	0.11332506
236	0x3c0da7f1	0.008645997
237	0xbdcaa2d2	-0.09894337
238	0x3d6a44ee	0.057194643
239	0xbb073596	-0.0020631305
240	0x3d5f93b4	0.05458422
241	0x3b0d9d7c	0.002160876
242	0x3e462446	0.19349775
243	0x3e134f6d	0.14385767
244	0xbc9c7d5b	-0.019102743
245	0xbc2f2ef5	-0.010692348
246	0xbd6f5182	-0.05842734
247	0x39fe7df8	0.0004854051
248	0xbb3fcf56	-0.002926787
249	0xbc1271c0	-0.008938253
250	0xbb77685e	-0.0037751417
251	0x3c525bbf	0.012839257
252	0xb8d90140	-0.00010347599
253	0xbce0cf40	-0.027442575
254	0x3d2ce922	0.04221452
255	0x3c4158e6	0.01180098

fc.bias f4 [10]
0	0xbc741526	-0.01489762
1	0x3a9e3c14	0.0012072348
2	0xbd19196b	-0.037377756
3	0xbd07ccd7	-0.033154335
4	0x3c0dc107	0.008651978
5	0xbd4fe7b4	-0.05075808
6	0xbdacb807	-0.08433538
7	0x3db9d383	0.09073546
8	0x3d80931b	0.06278058
9	0x3ccc459c	0.024935536
