LAB 3/Results/CNN_L3_lr001_sgd.ckpt (torch, 748329 bytes, 8 tensors)

conv1.weight f4 [48, 3, 5, 5]
000000 d0 48 96 bc bd d7 3c bd 7a 83 64 bd 61 7f 60 bd
       -0.018345267 -0.04610418 -0.05578945 -0.054808978
000010 cb b3 d6 bd bb 77 97 bc 8d bc bb 3d 47 a4 14 3c
       -0.104835115 -0.01848971 0.091668226 0.00907237
000020 e1 4f 31 bd ba 7e db bd f5 c2 c5 bd d7 82 b6 3b
       -0.04328907 -0.107175305 -0.09656326 0.0055697965
000030 68 52 81 bb da a7 e9 3d 9a d0 bc 3d ab ee 64 3d
       -0.003946591 0.11408968 0.09219475 0.055891674
000040 71 c9 4b bd 2c aa 87 3d 45 b0 fa bb 86 a8 81 bb
       -0.049752656 0.066242546 -0.0076504075 -0.003956857
000050 d8 8c a4 3d e4 24 10 bc 14 60 bc bd 8a 38 98 bb
       0.08034676 -0.008797858 -0.09198013 -0.004645412
000060 fb b4 be 3d e2 fc bc bd fa 79 e9 bd 20 77 ce 3d
       0.09311863 -0.09227921 -0.11400218 0.10081315
000070 f5 ee bc 3d c7 08 b2 bd 9a 75 10 3d eb 76 ad bc
       0.09225265 -0.086930804 0.035268404 -0.021174869
000080 a9 82 61 bb 4b 37 45 bc ed 6f 89 3c 09 9a cb 3c
       -0.0034410155 -0.012037109 0.016777003 0.024853723
000090 ca 79 c0 3b 00 cd c9 bc 4f ce 7d 3d ed 52 4b bd
       0.0058738934 -0.024633884 0.06196433 -0.04963963
0000a0 59 74 0e 3d cc 5a 68 3d 84 81 d8 bd dd fa 1e 3d
       0.034778927 0.056727216 -0.10571578 0.03881346
0000b0 f4 ad e3 3d d5 83 54 bd 60 09 93 3d fe 7e 85 bd
       0.11117163 -0.051883537 0.071795225 -0.065183625
0000c0 6f fa 67 bd a1 ad ec 3d 1f 18 c3 bd 97 f0 28 bd
       -0.056635316 0.115565546 -0.09526085 -0.04124507
0000d0 5a fa 0f bd 4a 6c a3 bc 02 10 a7 3d 7f f1 59 3d
       -0.035150863 -0.019949097 0.0815735 0.053208824
0000e0 7f eb 8f 3d cb b8 b7 bc 9a db 87 3d 54 66 94 bd
       0.07027339 -0.022426983 0.066336825 -0.0724608
0000f0 b5 cd 96 3d 16 02 c0 bd 84 d7 ba bd 92 f5 fe bc
       0.07363454 -0.09375398 -0.091231376 -0.031122956
000100 1d 04 5b 3d ea 3a c3 bd 01 24 f9 bb 58 04 99 3d
       0.05347072 -0.09532721 -0.007603169 0.07471532
000110 e6 a8 c4 3d 17 5f f1 3c 97 bb a6 3d f4 6e ba 3c
       0.09602527 0.029464288 0.08141249 0.022757985
000120 17 7a b2 bd c1 f9 e4 3d b3 e6 df 3d d8 26 ae 3d
       -0.08714693 0.11180449 0.10932674 0.085035026
000130 35 09 1f 3d 09 3c ef 3d 2b 7a cf bd f6 8f 9f bd
       0.03882714 0.11681373 -0.101307236 -0.0779113
000140 31 a2 5d 3d 4f 4d 92 bb d3 bf e8 bc c3 cf e3 bd
       0.054109756 -0.0044647823 -0.028411781 -0.11123612
000150 71 90 2d 3c b3 c3 64 bc 04 97 ab 3d ed d7 8f bd
       0.01059352 -0.013962674 0.08378413 -0.070236064
000160 35 27 11 bd 53 2c 86 3d 91 56 ca 3c 0e ed f2 3a
       -0.03543778 0.06551423 0.024699481 0.0018533783
000170 10 9a d9 3d 6c 60 26 bd 85 dc 10 bd a9 10 81 bd
       0.10625088 -0.0406193 -0.035366554 -0.06302006
000180 81 9e c2 bd 46 3d 98 bd 7a c6 64 39 a9 ec 73 3d
       -0.095028885 -0.07433562 0.00021817713 0.05955187
000190 79 ad af bd 90 46 a8 bb 48 b7 98 bc ec d3 d5 3c
       -0.08578009 -0.005135365 -0.018642083 0.026102029
0001a0 dc b1 a8 3c 9c 6c b9 3d 15 c8 70 3d c2 06 bd 3d
       0.020592622 0.09053919 0.058784563 0.092298046
0001b0 db b9 b6 3d 2e f6 7b bd 67 bf 7d 3c 17 e6 d4 bd
       0.08922168 -0.061514072 0.015487528 -0.10395449
0001c0 ea b0 28 3d f8 e7 60 bd 6e ec 98 bd f3 2c 8b 3d
       0.041184343 -0.054908723 -0.074669704 0.06795683
0001d0 9e 42 a2 bc c5 24 da bd da 5b e3 bd 8d 55 50 bd
       -0.019807156 -0.106515445 -0.11101504 -0.050862838
0001e0 06 df 38 bc 2a 6f 8b bd 27 c3 48 3d dc 50 e3 3d
       -0.011283642 -0.06808312 0.049014237 0.11099407
0001f0 03 58 61 bd 89 f8 f9 bc 9d ef 2c 3d c7 81 cc bc
       -0.055015575 -0.030514019 0.0422207 -0.024964226
000200 b2 fd ea 3c 3f 52 f4 3c e6 00 ee 3d 11 44 5e 3d
       0.028685424 0.029824374 0.11621265 0.054264132
000210 bc 8e d4 3d 54 b2 b3 3d 2e 0e 98 bd dc e0 06 3d
       0.10378787 0.08774248 -0.074245796 0.032929286
000220 1f 5c 02 3c d9 2e cd bd 5f 65 02 3c 79 4b c6 3d
       0.007956534 -0.10018701 0.007958739 0.09682364
000230 fc 67 2b 3d 3e b7 32 bb 04 e4 ca 3d 48 f0 bf bc
       0.041847214 -0.0027269865 0.09906772 -0.023430005
000240 3a 61 9a 3d 42 86 a2 3d a5 9a 4d 3d 81 0e b1 bd
       0.07538076 0.07935764 0.05019631 -0.086453445
000250 5e 35 d4 bd 1f 6e e2 3d aa b9 8d bd cd 98 a8 bd
       -0.103617415 0.1105616 -0.06920178 -0.082322694
000260 5c c6 d7 bc 0d fd 86 bd aa 4f 48 bd f8 9f fe bc
       -0.026339702 -0.06591234 -0.0489041 -0.031082138
000270 bf 66 40 bd ae 18 c3 bc 74 3e d2 39 5e 0f b8 3a
       -0.046972986 -0.02381548 0.00040100852 0.0014042666
000280 41 09 72 3d d0 0e fe 3b b6 0f 72 bd 13 81 c8 3d
       0.059090856 0.0077532306 -0.059097014 0.09790244
000290 f7 22 d6 bc 51 c3 c5 3d d1 c8 15 3d fc 34 07 3d
       -0.02613972 0.09656394 0.036568467 0.033009514
0002a0 fc d4 db b7 14 c4 74 3c 1c 22 d0 bb 08 4a b5 bd
       -2.6206013e-05 0.014939327 -0.0063517224 -0.08852011
0002b0 f4 e6 75 bd 9e a0 38 bd 25 92 d0 bc ce 84 d6 bd
       -0.060034707 -0.04507505 -0.025460312 -0.10474549
0002c0 42 8f c2 3d 46 8b 53 3d 8e 42 6a bd db 8d bd 3d
       0.094999805 0.051646493 -0.057192378 0.092555724
0002d0 76 a3 39 3c c6 bf 61 bd 81 ba 82 3c 91 dd e3 3c
       0.011330476 -0.05511453 0.015958073 0.027815612
0002e0 a4 6c 39 bd 64 ff c5 bd 56 bb 3d bc dd d5 8e bc
       -0.045269623 -0.096678525 -0.011580309 -0.017435962
0002f0 63 c3 30 bd 95 81 20 3d ce d4 37 3d 19 6f 1e 3d
       -0.043155085 0.03918608 0.04488068 0.03868017
000300 3d ec 8f 3d 10 ea 9c bc a1 92 bb bd c9 db e3 bd
       0.07027481 -0.019154578 -0.091588266 -0.11125905
000310 26 b6 2e bd 61 90 cb 3d 38 c8 2a 3d d9 9f 3e 3d
       -0.04265418 0.099396475 0.04169485 0.04653916
000320 99 a8 11 3d 18 82 c3 bd 4b 44 ce bd 4c 9d e4 3d
       0.035561178 -0.09546298 -0.100716196 0.111628145
000330 ba e4 95 bd cb 99 bd 3d 6b c4 ab bc 7a ed 55 3b
       -0.07319017 0.09257849 -0.020967683 0.0032642768
000340 b8 11 6d bd d6 b4 3d bd d0 c5 ee bc 82 e4 95 bd
       -0.057878226 -0.046315037 -0.029147059 -0.07318975
000350 e2 b3 b6 3c a4 6a 71 bd b7 80 d6 3a 22 c3 ba bd
       0.022302572 -0.05893959 0.0016365264 -0.0911925
000360 f8 32 ab bd 36 ce c4 bc 9b 1d a7 bd a6 60 9b 3d
       -0.08359331 -0.02402411 -0.08159944 0.075867936
000370 4d 71 a1 3d c8 dd 84 bd 69 67 c7 bb 52 6e e5 3d
       0.078829385 -0.06487614 -0.0060853255 0.112026826
000380 2c b5 a9 3d bc a6 75 ba e8 77 dc 3d 42 52 14 bd
       0.08286509 -0.00093708537 0.10765058 -0.03621126
000390 49 c5 60 3b d3 d4 d5 3d fa e4 24 3b a5 bc 42 bd
       0.0034297279 0.104409836 0.0025160895 -0.047543187
0003a0 eb 67 9d 3d 3b 79 b6 bc ef 20 bc 3d 1e 60 46 3c
       0.076858364 -0.022274604 0.09185969 0.012107877
0003b0 14 c9 da 3d b8 70 9f 3b 13 5a 90 3c 5a 00 f8 3c
       0.10682884 0.004865732 0.017621076 0.030273605
0003c0 25 81 0e 3d 70 ec e7 3d 5b 6a 99 3d 50 76 8c bd
       0.03479113 0.11324394 0.07490989 -0.06858504
0003d0 36 6e 9c bd ef f4 b9 3d 40 34 49 3d 06 1c 24 bb
       -0.076382086 0.090799205 0.049122095 -0.0025041117
0003e0 58 5a ac bd c7 76 ab bb 2e b1 d7 bd 3d 2f 67 3d
       -0.08415669 -0.005232665 -0.10531841 0.056441534
0003f0 01 98 97 bd 18 4b a5 bd 96 e1 b0 3d 90 38 e5 bd
       -0.07402039 -0.080709636 0.08636777 -0.11192429

conv1.bias f4 [48]
000000 af 75 bd 3d 8b 5c b6 bc 54 57 6f 3c 75 5e f6 3d
       0.09250962 -0.022260925 0.014608223 0.12029735
000010 6e 38 43 bd c9 ba d6 3d b6 06 a5 bd e0 96 e0 bd
       -0.047661237 0.10484845 -0.08057921 -0.10966277
000020 45 2f 7a 3d f5 77 36 bd 86 7c b1 bd c1 91 a9 3d
       0.061080236 -0.044547994 -0.08666329 0.082797535
000030 c9 ca d4 3d aa b3 85 bd 90 8c 3a 3d 33 47 3d bd
       0.10390241 -0.06528409 0.045544207 -0.04621048
000040 27 bc 7d 3d eb 59 d6 bd 03 9a 33 3d 25 11 da 3d
       0.061947014 -0.10466369 0.04384805 0.10647801
000050 09 a1 a7 3d 1a fe c9 3d 24 63 a1 3d 48 e2 e1 ba
       0.08185012 0.09862919 0.07880238 -0.0017233575
000060 51 00 42 3d 1d 74 5a 3c a3 70 4b bd f9 77 09 bd
       0.047363583 0.013333348 -0.049667966 -0.03356168
000070 e1 10 e3 3c 5f 3a e8 3d 6c a6 43 3c 81 30 82 bd
       0.02771801 0.113392584 0.011941534 -0.06356908
000080 9d 6f 9b 3c ea bf b5 b9 e6 81 1f bd 58 ab d2 bc
       0.01897412 -0.00034665997 -0.03894224 -0.025716469
000090 ad d2 b1 39 4a 73 82 bd 98 6d 85 bd f8 06 e9 bd
       0.00033917036 -0.06369646 -0.06515044 -0.11378282
0000a0 7a ce b5 3c bd 95 80 3d 4a cd e2 3d 2c 55 95 bc
       0.022193182 0.0627856 0.11074312 -0.01822909
0000b0 10 cd 64 3d b1 df 55 3b 2c ff ab 3d a4 28 dd bd
       0.055859625 0.0032634551 0.083982795 -0.10798767

conv2.weight f4 [64, 48, 5, 5]
000000 0b 3c 69 3c ed 22 db bc 0b 94 cd 3c 54 68 cc bc
       0.014235507 -0.026750052 0.025095006 -0.024952091
000010 72 63 e7 bb 48 ea 9c bc af 3c 2d 3c 20 02 b4 3c
       -0.0070614154 -0.019154683 0.01057355 0.02197367
000020 f5 dc 11 bc 3c 3b 20 bc 37 44 bb bc c2 f7 83 3b
       -0.008902778 -0.009779748 -0.022859676 0.004027338
000030 01 64 b4 bc ab 09 69 3c c2 c3 59 3c c6 d3 ab 3c
       -0.022020342 0.014223496 0.013291301 0.020975005
000040 0c 10 fa 3a 0e 10 97 3b 07 85 8f 3b 09 63 c3 bc
       0.0019078269 0.004610068 0.0043798718 -0.023850935
000050 ab 7f 80 bc 66 a0 b7 3c c7 99 32 ba 20 86 ae bc
       -0.015685877 0.022415351 -0.0006813076 -0.02130419
000060 3a 8f 9a 3c df 3f 47 3c bd 63 85 3c 91 01 d2 3c
       0.018867124 0.012161224 0.01628291 0.025635513
000070 0a c0 6b 3c 48 6c e6 3c d8 3b d0 3c 29 5a 91 3c
       0.014389047 0.028127804 0.02541916 0.017743187
000080 ec 68 4e 3c 0b fd 22 bc 84 56 43 3c 1b db 76 bc
       0.0125982575 -0.009948025 0.011922482 -0.015066887
000090 22 ed 89 3c 23 c3 05 bc a2 da 5f bc 0f 46 b0 3c
       0.016836707 -0.0081642 -0.013662966 0.021517782
0000a0 26 fc bd 3b 1e de 96 3c e1 9c eb bc 8c 92 19 bc
       0.0057978807 0.01841646 -0.02876133 -0.009373318
0000b0 08 c2 8f bc 99 ec ce 3c fb c0 ad 3c 3c 2d 6f 3c
       -0.017548576 0.025259303 0.021210184 0.014598187
0000c0 8e 4b c7 bb 9d a1 99 3c 4a 54 97 bb bb 11 6d 3b
       -0.006082005 0.018753821 -0.0046182023 0.0036173898
0000d0 9e aa 4e bc 7a 24 86 3b f4 d3 d1 bc ca 1b 06 bc
       -0.0126139205 0.004093704 -0.025613762 -0.008185336
0000e0 98 48 95 39 bb f6 ce bc 39 4c 18 bc 9a 91 db 3c
       0.0002847358 -0.025264135 -0.009295517 0.026802827
0000f0 5b 2e 7b bc df e7 1b bc 5d b4 04 bb ad 5c 9e 3c
       -0.015330876 -0.009515732 -0.0020249106 0.0193313
000100 58 d9 93 3c 2f df b6 3c da 56 8b 3c 33 52 87 bc
       0.018047974 0.02232322 0.017009187 -0.016518688
000110 5c 06 d9 bb 32 57 3d 3c 18 47 a9 bc dc f1 98 3c
       -0.0066230725 0.0115564335 -0.020663783 0.018670015
000120 62 78 a5 3c de 68 05 3b f4 09 0e bc 86 4a d8 bc
       0.020199005 0.0020356695 -0.008669365 -0.026402723
000130 80 59 7b 3c b7 64 ec 3c 32 ac 92 bc 27 56 0c 3c
       0.015341163 0.028856618 -0.017904375 0.008565462
000140 35 63 8f bc d8 ff 8a 3a fc d9 ac 3b 1c e9 4b 3c
       -0.01750336 0.0010604812 0.005275009 0.012445714
000150 21 34 e3 bc 9f 6f 63 3c 9f 0d 7e ba 5e c8 30 3a
       -0.027734818 0.013881593 -0.0009691361 0.0006743724
000160 88 0d 2c 3c 7d 4f 38 bc 07 c1 a7 bc e0 71 04 3b
       0.010501273 -0.01124942 -0.020477785 0.0020209476
000170 23 73 2d bc a8 8d cc 3c f9 ca a3 bc c6 ee bf bc
       -0.010586533 0.02496989 -0.019994246 -0.023429286
000180 93 36 8e 3c 5c a8 e2 3c e6 af 1c 3c 01 0d 96 3c
       0.017360007 0.02766817 0.009563422 0.018316748
000190 d2 bf cc bc c5 4d 86 3c 06 4b 6c bc 72 d1 ce ba
       -0.02499381 0.016394505 -0.014422184 -0.0015778972
0001a0 85 13 6e 3c b9 ec 58 3b 39 93 aa bb 3a ba 83 bc
       0.014531021 0.0033100082 -0.0052055386 -0.01608001
0001b0 4f 00 d5 3c 66 73 9a 3b ac 8e 59 3b ef 81 51 bc
       0.026001124 0.0047134636 0.0033196611 -0.012787326
0001c0 43 ab c1 bc 1e be da bc 5c 19 85 bc 5b 4b 35 bc
       -0.023641234 -0.026701983 -0.016247444 -0.011065329
0001d0 b2 57 3a 3c 71 e5 15 3c a4 15 99 3c bf a0 8d 3c
       0.011373447 0.009148941 0.018687077 0.017288564
0001e0 e3 13 af 3c fc d0 57 3c 7a 6b 86 3c 46 ce 91 ba
       0.021371787 0.013172384 0.01640867 -0.0011124096
0001f0 e6 9a 0d bb 06 86 99 3c 38 05 ba 3b 48 87 de bc
       -0.002160722 0.018740665 0.0056768917 -0.027164117
000200 16 51 2e bc 57 62 94 3c 3d 74 ba 3c 06 14 76 3c
       -0.01063945 0.018113298 0.022760505 0.015019422
000210 0b 24 3a bc 98 3d fc bb 5e 8c 91 3c c3 26 e1 3c
       -0.011361132 -0.0076977722 0.017767128 0.027484303
000220 27 36 42 bc 79 95 2a 3c db 5f 56 3c 9d a8 eb 3c
       -0.011853731 0.010411614 0.013084377 0.028766925
000230 15 3a 4a bc ca 92 a7 3c a9 ed 86 bc 62 18 72 3a
       -0.012342949 0.020455737 -0.016470747 0.00092352007
000240 38 a9 b5 3c 99 cb 49 bc 03 97 8c bc 96 ac 25 3c
       0.022175416 -0.012316608 -0.017161852 0.0101119485
000250 49 9a d4 bc fb 9c 5c bb 67 55 8a ba 25 03 c0 3b
       -0.025952475 -0.0033662904 -0.0010554016 0.00585975
000260 8d 85 f6 3b 42 67 0d bc a2 ff ce 3b c2 b5 d6 3b
       0.0075232447 -0.008630576 0.006317095 0.006552429
000270 f0 73 cb 3b f0 90 99 3c bf 51 85 3c d9 8f ef bb
       0.006208889 0.01874587 0.016274331 -0.007310849
000280 08 f0 67 bc f4 07 73 bc 91 39 ac 3c b6 36 e2 3c
       -0.014156349 -0.014833439 0.021023544 0.027613979
000290 e1 10 fc 3b 38 05 09 3c d3 c1 65 3c f6 4e bd 3c
       0.007692442 0.008363061 0.014023262 0.02310894
0002a0 a0 40 a4 3c 3d 00 95 bc 93 b6 2f 3c 43 8c 18 3c
       0.020050347 -0.01818859 0.010724681 0.009310785
0002b0 2b 30 84 39 56 94 cc bb 19 55 b5 bc 1b 3e c4 3b
       0.0002521289 -0.006243269 -0.022135304 0.005988849
0002c0 a9 65 9a 3c 26 3a 1c 3b cc 26 39 3c 9c 05 ec 3c
       0.018847303 0.002383837 0.011300754 0.028811269
0002d0 e5 cd 9e 3c 4a 24 51 bc 6d 0d 32 3c c4 15 14 3c
       0.019385288 -0.012765 0.010867459 0.009038392
0002e0 05 5b 91 bc 81 5d 90 bc 85 90 09 b9 1b e4 ab bc
       -0.017743597 -0.017622711 -0.00013119176 -0.020982793
0002f0 16 19 59 3c 9f e1 f2 3a 76 99 01 bc fe aa a4 3c
       0.01325061 0.0018530375 -0.007910123 0.020101067
000300 10 5e 87 bc d0 a3 3c 3c f1 59 d2 3c 5e 79 c4 ba
       -0.016524345 0.011513665 0.025677653 -0.0014989784
000310 a4 f0 15 3c 40 f4 db 3b 77 13 66 3c 4c 6b b5 bb
       0.0091516115 0.0067124665 0.014042727 -0.0055364724
000320 d4 54 b2 3a 7a 0f cb bb f3 1b 9c bc b3 77 81 bc
       0.0013605603 -0.0061969133 -0.019056296 -0.015804147
000330 8c 3e a5 bc e0 e4 45 ba 29 a6 9b bc 77 48 08 3c
       -0.020171426 -0.00075490586 -0.01900013 0.008318058
000340 6b 73 32 3c fb 83 8c 3b 49 93 bd 3c 5e 5f 41 bc
       0.010891776 0.0042881942 0.02314152 -0.011802522
000350 81 1f 46 bb 19 c8 94 3c 47 34 d7 bc 3a 4c 94 3c
       -0.003023118 0.01816182 -0.026270045 0.018102754
000360 9a 5b bd bc 77 a9 5e bc b6 19 ba bc 97 b6 97 bc
       -0.023114968 -0.013590208 -0.022717338 -0.018519683
000370 e6 be 8b 3c ce 1e 92 3c 83 a2 1f 3a 59 0a d4 bc
       0.0170588 0.017836954 0.0006089585 -0.02588384
000380 a6 1d 9d bc 1f 3e 87 3c e2 5f 96 3c 81 b5 61 bc
       -0.019179177 0.016509114 0.018356267 -0.013776184
000390 eb fd 47 3c d6 f8 dc bc 7a df af bc a0 ea 10 bc
       0.012206535 -0.026974123 -0.021468867 -0.008845001
0003a0 c6 d8 be bc 33 4b f5 3a e7 3b 92 bc de 90 dc bb
       -0.023296725 0.0018714428 -0.01785083 -0.0067311367
0003b0 7e 95 cc bc 66 33 92 bb 16 05 9f 3c b6 f0 98 bc
       -0.024973627 -0.0044616936 0.019411605 -0.018669467
0003c0 23 59 68 3c b5 f8 50 bc 79 d1 6c 3c fc 98 91 bc
       0.014181408 -0.012754609 0.014454239 -0.017773144
0003d0 54 05 55 3b 3f e1 60 bc bb 1d aa bc 08 95 c9 3c
       0.0032504397 -0.013725578 -0.02076613 0.024607196
0003e0 65 a4 d2 3a 92 b0 69 39 44 6e b2 3c c2 35 ec bb
       0.0016070722 0.00022286389 0.021781094 -0.007208557
0003f0 b5 20 35 bc 7e 3a 75 bc 5a 17 da 3c ba 7f 72 bb
       -0.011055161 -0.014967559 0.026622463 -0.00370024

conv2.bias f4 [64]
000000 e5 54 69 bb 63 27 ff 3c e3 ab 95 bc f1 73 8a bc
       -0.003560358 0.03114671 -0.018270439 -0.016900988
000010 40 7c 45 3c f8 47 17 bb 34 40 0a 3c 53 ba 7b bc
       0.012053549 -0.0023083668 0.008438159 -0.015364247
000020 08 59 cf bc 08 98 14 3c 5a 62 e2 bb 35 9d d1 bb
       -0.025311008 0.00906945 -0.006908697 -0.0063969144
000030 0b 1b db bc e2 5a af 3a ab 00 b4 3b 57 14 f6 bb
       -0.026746294 0.0013378526 0.0054932437 -0.007509749
000040 16 47 7d 3c c0 17 b3 3a 13 53 c9 3c 99 a6 03 3d
       0.015458843 0.0013663694 0.024575746 0.0321413
000050 41 15 a1 3a bf 1d 7c bc 1c 46 06 3c f3 34 7e 3b
       0.0012289659 -0.015387951 0.008195426 0.0038788884
000060 38 4f 19 3c ad 52 db 3c da df 28 3d e1 61 98 bc
       0.009357266 0.026772821 0.041229106 -0.01860136
000070 d9 aa a0 b8 7c cd 57 3c 7b bf aa bc 08 35 bd 3c
       -7.6612174e-05 0.01317155 -0.020843258 0.023096576
000080 d9 d9 b6 3c 3a 32 ab 3c 32 58 a6 bc 5e 8d cb 3b
       0.022320675 0.020897973 -0.020305727 0.0062119206
000090 0f 9a b6 bc 59 0a 35 3d bd c7 89 3c 75 97 0e 3c
       -0.022290258 0.04419932 0.016818875 0.008703102
0000a0 3e 76 9d bc 38 7f ec bc 41 78 25 3c f0 e1 18 3d
       -0.019221421 -0.028869256 0.010099472 0.037324846
0000b0 70 9d a2 3c e9 83 92 bc 21 2b a4 3b 8a 94 6c 3b
       0.019850463 -0.017885165 0.005010024 0.0036099278
0000c0 94 4f 6b 3b a3 b6 b5 bc f1 b7 a5 bc 52 c4 ab bc
       0.0035905587 -0.022181815 -0.020229312 -0.020967636
0000d0 d6 fb c4 bc 80 1d 4c 3b 45 cf 4b bb f7 75 a2 bc
       -0.024045866 0.0031145513 -0.0031098884 -0.01983164
0000e0 ea 27 22 b9 0e 5c da bb b0 aa 9f 3c 5b 19 85 bc
       -0.00015464393 -0.006663806 0.01949057 -0.016247442
0000f0 17 87 db bc 1f 89 af 3c de 5f 68 bc c3 d4 34 3c
       -0.026797814 0.02142769 -0.014183013 0.0110370545

conv3.weight f4 [128, 64, 3, 3]
000000 48 ea c2 3c 98 34 e4 3c 12 a0 84 3c 80 14 24 3d
       0.023793355 0.02785711 0.016189609 0.040058613
000010 16 86 84 3b 1b ee a0 3c e6 5d dc 38 8f c7 1c bd
       0.0040443046 0.019644788 0.000105079074 -0.03827625
000020 56 2b 1c bd 16 d2 8f 3c 42 08 ff bc 1c 86 7f 3c
       -0.038127266 0.017556231 -0.031131867 0.015595939
000030 13 bd c4 3c 80 11 04 3c 21 5b 0d bd 3f ec ef 3c
       0.024015939 0.008060813 -0.034510735 0.029287456
000040 c7 2d 24 3d 6f 6b 69 bc e6 f1 fa bc c7 95 05 3c
       0.04008272 -0.014246806 -0.030632924 0.0081533855
000050 b6 59 0e bc 8a e2 ef 3b c9 3c 41 3b 2e bb bd bc
       -0.008688381 0.0073207067 0.0029485694 -0.023160543
000060 30 02 dd 3c 61 c4 20 bd 06 c2 67 bc c3 35 60 3c
       0.026978582 -0.03924978 -0.01414538 0.013684693
000070 46 da 77 3c 56 8b 07 bd 74 34 0a bd 82 9c 25 3d
       0.015127724 -0.033091865 -0.03374143 0.04043246
000080 3b b2 8a 3c 7f 79 ab bc 96 ba 37 bb 0f e1 c2 bb
       0.01693069 -0.020931957 -0.0028034798 -0.005947239
000090 78 74 39 3c 82 a6 b9 bc cf a6 20 3d 4e 12 ed bc
       0.011319272 -0.022662405 0.03922158 -0.028939392
0000a0 62 97 be 3c 29 c5 a3 bb d1 9b 13 bd f7 90 0d 3d
       0.023265544 -0.0049978686 -0.03603727 0.034562077
0000b0 19 2f 74 3a b9 9d 11 bd 04 e3 03 3d 42 83 75 bc
       0.00093148794 -0.035550807 0.03219892 -0.014984908
0000c0 6e 7f 89 bc b8 90 0d 3c 83 c4 48 bb 2c 7e af 3c
       -0.016784396 0.008640461 -0.0030634708 0.021422468
0000d0 c5 66 a5 bc 8e fd 18 bd 45 65 9b bc 7c d5 3d bb
       -0.020190606 -0.037351184 -0.018969188 -0.0028966358
0000e0 34 79 19 bd b8 76 dd bc ed 26 32 3c 9a 19 29 bd
       -0.037469104 -0.027034149 0.010873538 -0.04128418
0000f0 dd 28 f3 3c b1 02 48 bc a0 68 83 3c 1f df 04 bd
       0.029682571 -0.012207673 0.0160411 -0.032439347
000100 2e db 19 3d 55 fa 03 3d 61 30 a9 3c 53 af a5 bc
       0.03756254 0.032221157 0.020652952 -0.020225203
000110 5e e1 52 3c e1 b1 37 3c c2 82 7e bc e6 cd 95 3b
       0.012871115 0.011211843 -0.015534105 0.004571664
000120 cf 94 d5 3a 5c c6 c7 bc 9f 73 2d 3c eb 62 1a bd
       0.0016294959 -0.024386577 0.010586648 -0.03769199
000130 44 5c 8d bc 89 88 44 bc b9 de 8d 3c 7f 68 cb 3c
       -0.01725591 -0.011995443 0.017318117 0.024830101
000140 5c 2d 22 bc 9d a6 03 bd bb 17 d9 bb e6 b4 11 bc
       -0.00989851 -0.032141317 -0.0066251433 -0.008893227
000150 7b ea 27 bd d0 9d 7b bc a7 42 11 bd 95 62 87 bb
       -0.040995102 -0.01535745 -0.035463955 -0.004131625
000160 f8 85 f3 3b 2f ef 3c 3c 9a 27 6d 3c 13 a2 bd 3c
       0.007431742 0.011531635 0.014474774 0.023148572
000170 c6 15 a6 bc 97 59 f7 bc f1 4d ec bc cf 3c c8 3c
       -0.020274054 -0.030194087 -0.02884576 0.024443058
000180 da 84 ea 3c 59 7b f3 bc bd 33 af bc 1f c9 98 3b
       0.028627802 -0.029721903 -0.021386975 0.0046626474
000190 18 4d b1 bb 52 b7 f0 3c 19 8c ae 3c 54 22 1d bd
       -0.0054108016 0.029384289 0.021307038 -0.038362816
0001a0 b6 eb dd 3a 96 ed 86 bb 90 b9 1e bd ec 48 f6 3b
       0.0016931209 -0.004117678 -0.038751185 0.007516017
0001b0 da 63 a0 bb 33 27 10 3c 0c 90 ed 3c aa 03 41 bc
       -0.0048947157 0.008798408 0.028999351 -0.011780659
0001c0 db 75 c1 3c 37 46 ad bc b2 6f c3 bc b1 cf 10 3d
       0.023615768 -0.021151645 -0.023856971 0.03535432
0001d0 af 65 d4 bc 2c 80 e6 3c 2f 27 11 bd 37 18 0d 3d
       -0.025927393 0.028137289 -0.03543776 0.03444692
0001e0 54 f0 04 3d 3a 57 f8 3c 98 59 b1 3c af 2e 7d 3c
       0.032455757 0.03031503 0.021649167 0.015453025
0001f0 92 83 fc 3c 88 f3 81 ba 2a 71 aa bc 71 bf 0b bd
       0.030824456 -0.0009914497 -0.020805914 -0.03411812
000200 bc 2f 89 ba 34 a0 f8 bb e6 08 c2 3c 82 95 ac bc
       -0.0010466496 -0.007587457 0.023685884 -0.021067385
000210 ac 31 22 3d 38 b8 10 bd bc 6a d2 3c ce dc cf 3b
       0.039598152 -0.035331935 0.02568566 0.0063434606
000220 7b f6 a5 3c e9 e6 a9 bc 9c 82 00 bd aa 86 17 bd
       0.020259133 -0.02073999 -0.03137456 -0.03699366
000230 74 d2 22 3d 76 96 26 bd 81 fe 10 3d 26 83 54 bc
       0.039751485 -0.040670834 0.035398964 -0.012970721
000240 88 87 d8 bc 26 e7 cb 3c 4d b7 9f 3c 31 01 e2 bc
       -0.026431814 0.024890494 0.019496584 -0.027588459
000250 62 62 f1 bc f4 88 0c bd aa 45 a0 ba 40 85 f1 3c
       -0.029465858 -0.034310296 -0.0012227793 0.029482484
000260 d0 81 6d 3c d2 fb 45 bc 2c 52 04 bd d6 19 2a bd
       0.014496282 -0.012083964 -0.032304928 -0.041528545
000270 29 b6 01 bd 13 d6 b7 bc 3e 83 5f bc 34 52 ef 3c
       -0.031667862 -0.022440946 -0.01364213 0.029214002
000280 9f 03 b6 3c 22 60 16 bd 0c 30 67 3b 1f 6d fc 3b
       0.022218524 -0.036712773 0.003527644 0.007703438
000290 7e 07 10 bb 73 80 5c 3b 1d ad e4 b9 f9 f5 20 3d
       -0.0021977122 0.0033645898 -0.00043616528 0.039297078
0002a0 18 96 b5 bc d8 77 d3 bc 82 97 08 3d f6 77 a1 3c
       -0.022166297 -0.025813982 0.033347614 0.019710522
0002b0 27 dc ef bc d9 ce b7 3b f3 ac ac bc 3c f9 0f 3d
       -0.029279782 0.005609375 -0.021078562 0.035149798
0002c0 72 aa 9d 3c 08 53 0d 3d 54 66 cb bc 51 99 85 3c
       0.019246314 0.034503013 -0.024829067 0.016308459
0002d0 a1 1e 15 3d 45 8e a4 bc 81 b4 c2 3c d6 cf a3 bc
       0.036406163 -0.02008737 0.023767712 -0.019996565
0002e0 d7 0e 42 3c 28 54 99 bc 7d 5e bd bc 33 24 11 3d
       0.011844358 -0.018716887 -0.023116345 0.035434913
0002f0 5d c1 17 bd 5a dc a6 bb 1c 7c 39 bc 98 33 0b 3d
       -0.03704964 -0.005092186 -0.011321094 0.03398475
000300 00 d7 f6 3c 8e 11 43 bc 2d f5 70 bc 99 22 e2 bc
       0.030131817 -0.011906041 -0.014706892 -0.027604388
000310 52 03 df 3c 61 21 ac ba 82 4e b1 3b 13 84 a3 bc
       0.027223263 -0.0013132506 0.00541097 -0.019960439
000320 a2 a3 01 bd 81 63 ca bc b4 9f c5 bc fd 5c fd bb
       -0.031650193 -0.02470565 -0.024124004 -0.0077320323
000330 78 05 49 3c f7 0d 02 3d 32 da f2 3c da 5c 5b 3c
       0.01226937 0.0317516 0.02964506 0.013388837
000340 4f 42 0d bd 13 88 bd 3c 58 dc f5 3c d0 55 24 bd
       -0.034487065 0.023136174 0.030012295 -0.0401209
000350 7e b5 0d 3d 3b ba cb bc de 95 e6 bc aa 7f aa bc
       0.034596913 -0.024869075 -0.028147634 -0.020812828
000360 e3 c6 94 3b 2d 43 13 3d fb 24 18 3d a2 83 18 bc
       0.0045403107 0.035952736 0.037144642 -0.009308727
000370 b8 08 13 bd 42 70 bd bc 4d 94 fd 3c 14 00 82 3c
       -0.035896987 -0.023124818 0.030954504 0.015869178
000380 af 7e 05 3d c6 99 5f bc 46 59 54 3c 05 b7 89 3c
       0.032591518 -0.013647502 0.012960738 0.016810903
000390 bb 14 26 bd 48 2d ba 3c 01 51 8c bb 12 97 1b 3c
       -0.040547114 0.02272667 -0.0042821174 0.009496467
0003a0 9f 9f cf bc 5e c3 0a bc 8a 6d 33 3b 52 56 3b 3c
       -0.025344668 -0.008469431 0.0027378523 0.011434155
0003b0 d1 21 b8 bc 16 f1 08 3d ac 2f 9f bc b1 96 20 bb
       -0.022477062 0.033433042 -0.019431911 -0.0024503882
0003c0 c1 5e 17 3d c7 49 ad 3b 7f 99 9f bc 28 1e 12 3d
       0.0369556 0.005288336 -0.019482372 0.03567329
0003d0 8d 9f d4 bc d7 1c 9e 3c 38 d6 72 bc cb 84 11 bd
       -0.025954986 0.019300861 -0.014821582 -0.035527032
0003e0 2f 95 05 bd 14 81 9b bc d2 77 cc 3c 51 ef c8 ba
       -0.032612976 -0.018982448 0.024959479 -0.0015330111
0003f0 6b b6 05 3c 1c 5b e0 bc 05 a5 bb 3c 06 94 26 bb
       0.008161168 -0.027387194 0.022905836 -0.0025417819

conv3.bias f4 [128]
000000 23 1f e8 3b 63 d1 85 bb c2 43 c6 bc db 12 ac bc
       0.00708379 -0.0040837987 -0.024202231 -0.021005085
000010 59 9c 6a bc 60 61 1e bd 2d a2 40 3d 62 00 c4 3c
       -0.014319503 -0.038667083 0.047029663 0.023925964
000020 5b 2b 89 bc 01 74 15 bd 52 ed 32 bc 9c b9 96 3c
       -0.016744306 -0.036487583 -0.010920839 0.018399052
000030 5f 91 11 bd c6 e7 eb 3b 17 42 30 bc c2 94 e0 bc
       -0.035539027 0.0071992604 -0.010757945 -0.027414683
000040 4f 2c 1f 3c 79 b1 43 bc d9 60 33 3d dd 50 a1 bc
       0.009715154 -0.011944168 0.043793533 -0.019691879
000050 83 9a e3 3c 70 c9 fa 3c 36 1f fe 3c 02 4d 9b 3c
       0.027783638 0.030613631 0.031020742 0.018957619
000060 56 c9 51 3d 94 f8 b8 bb 98 b5 ac ba a7 88 7c 3d
       0.0512174 -0.005644867 -0.0013176678 0.06165376
000070 da 8c f0 bc a8 34 2b bb 87 9c 87 3d cd 75 f9 3c
       -0.029364038 -0.0026123915 0.06621652 0.03045168
000080 6e 57 d6 bc 83 f0 e6 bb f2 55 00 bd 16 f2 ee bc
       -0.026164737 -0.007047714 -0.031331964 -0.02916817
000090 af 85 33 3d 20 0b 97 3b 30 76 17 3b 22 7d 7a 3c
       0.043828662 0.0046094805 0.0023111217 0.015288623
0000a0 7a ce c0 3c f0 ec eb bc 08 d8 3a 3d 9d 03 4a 3b
       0.023535956 -0.028799504 0.04561618 0.0030824908
0000b0 0a d4 83 bb bb 3d 04 3d f2 a2 1a 3d 39 eb 12 bd
       -0.0040230798 0.032285433 0.037753053 -0.035868857
0000c0 48 17 23 3d ae e9 28 bd df ea 0a 3d 34 13 25 bc
       0.039817125 -0.04123848 0.033915397 -0.010075379
0000d0 90 9f 25 bd 4a 35 bd 3c e1 8c f4 3c 15 4a c7 bc
       -0.040435374 0.0230967 0.029852333 -0.024327317
0000e0 5f c8 04 3c d5 8c 3b 3d be f1 0b bd 04 96 5e 3d
       0.008104413 0.045788605 -0.03416609 0.054342285
0000f0 02 37 0f bd 07 cf a0 3c 50 60 c2 3b e9 c0 05 3d
       -0.03496457 0.019629968 0.0059318915 0.032654677
000100 47 51 d6 bc 8b 4d 92 bc ab fc 8c 3c bb ef 19 bc
       -0.026161803 -0.017859241 0.017210325 -0.009395535
000110 8c fe 53 3d 01 25 37 3d 9a 83 06 3d 7b 2b 03 3d
       0.051756427 0.044713024 0.03284035 0.032023888
000120 1d 68 03 3d bb 7d b3 bc fa 96 46 3c 73 64 06 bc
       0.032081712 -0.021910539 0.012120957 -0.00820266
000130 44 e0 3b bc f5 9c 19 bd ec 81 8e bc af 0b 10 bd
       -0.011467043 -0.0375032 -0.017395936 -0.035167392
000140 a1 f3 26 bc c1 23 1b 3d c6 1f 52 bc ea 65 65 3d
       -0.010189922 0.037875894 -0.012824958 0.056005396
000150 de 3b cb bc 61 86 81 bc 5c 98 21 3d 31 2c 04 3c
       -0.02480882 -0.015811147 0.03945194 0.008067177
000160 74 cd 00 bd 0b 6e fc bb 42 60 1c 3d 5a 7d 9a 3c
       -0.031445935 -0.007703548 0.038177736 0.0188586
000170 a7 fc 7d 3d 5d cc 78 3d 67 d2 0e bc 07 0e 44 3c
       0.062008526 0.06074177 -0.008717156 0.011966235
000180 d8 88 b7 bc db de 3f bb fe d3 11 3d 25 96 f5 bc
       -0.02240412 -0.002927712 0.035602562 -0.029978821
000190 13 6b 7f 3c 02 85 83 3c b9 9a d9 3c 64 b5 eb ba
       0.015589493 0.016054634 0.026563035 -0.0017983136
0001a0 dc f3 cc bb 9d c3 a7 bc 5d e1 fb 3b 74 9b c9 3c
       -0.0062546562 -0.020479018 0.0076867775 0.024610259
0001b0 2e 93 38 3d 8c 1c 87 bc 7f 5a 30 3c a3 b7 10 3c
       0.045062236 -0.016493104 0.010763763 0.008832845
0001c0 10 9d e6 3c 49 11 8a bc 54 fe 82 3a e6 10 f7 bc
       0.028151065 -0.016853945 0.0009994009 -0.030159425
0001d0 de 7f 96 bc 63 b0 e1 bb 35 18 f5 3c 84 7a 0a bd
       -0.018371519 -0.006887482 0.02991877 -0.033808246
0001e0 fe 98 ac 3b 3d 7f 87 bb a1 35 16 bd 68 82 fa bc
       0.0052672615 -0.004135041 -0.03667224 -0.03057976
0001f0 84 be 93 3a d3 e6 17 3d 8a 45 19 bd 77 78 0d bd
       0.0011271988 0.037085366 -0.037419833 -0.034538712

fc.weight f4 [10, 3200]
000000 57 3e 82 bc 8a 8d bb 3b 86 45 00 bc 13 6f 78 3c
       -0.015898867 0.00572366 -0.007829076 0.015163201
000010 db 9a 2f 3c eb ff 83 bc 3e 5d d4 bb 02 3f c6 3b
       0.010718073 -0.016113242 -0.006480842 0.0060499916
000020 a3 9a a7 3c b1 09 5d 3c dd 0f 4b 3c 8e f9 89 3b
       0.020459479 0.01349108 0.012393919 0.0042106574
000030 9b 5f d7 bb 9e 58 8f 3c f1 3d 7f bb fb 5f ff bb
       -0.0065726764 0.01749831 -0.0038946832 -0.007793424
000040 eb 86 0e ba 8e 0a 15 ba bc f5 90 3c c2 d3 06 3c
       -0.00054369745 -0.00056854717 0.0176953 0.008229198
000050 9b a7 6b bc 7c 26 2c 3c d5 f4 03 3b f3 18 54 bc
       -0.014383222 0.010507222 0.0020134945 -0.0129454015
000060 75 67 a1 37 1f 71 38 bc e6 f1 d1 bb 07 6d 8a bc
       1.9240872e-05 -0.011257439 -0.0064070104 -0.016897691
000070 0c 75 76 3c 02 2e 2f bc 0e b5 f6 3a 6c 9f 89 bb
       0.015042555 -0.010692121 0.0018822269 -0.004199913
000080 a9 e9 e7 bb e4 12 13 b9 d8 5b 22 3c 00 7e 5b 3c
       -0.007077415 -0.0001402605 0.009909593 0.01339674
000090 e9 71 67 bc b3 33 38 bc 0e b9 3d bc 41 45 be bb
       -0.014126279 -0.011242795 -0.011579765 -0.0058065956
0000a0 42 7a 86 bc 5d 12 1c ba 90 7a ff bb a4 09 6f 3c
       -0.016415719 -0.0005953664 -0.007796593 0.014589701
0000b0 e4 1d b9 3b f1 a4 65 3c b5 5b f6 ba dd 7f e3 bb
       0.005649315 0.014016376 -0.0018795641 -0.0069427327
0000c0 aa 1b 3c 3c 96 7f 12 bb 1a c3 6d bc d4 10 1b bc
       0.011481205 -0.002235388 -0.014511848 -0.009464461
0000d0 11 53 51 3b b5 7c 02 bc 89 60 40 bc 13 33 c7 bb
       0.003194038 -0.007964303 -0.011741766 -0.0060790866
0000e0 03 af 1f 3c 90 43 7c bc ab 44 2b bc f4 71 87 3c
       0.009746316 -0.0153969675 -0.010453383 0.01653383
0000f0 d9 2c 4f 3c 57 a5 d8 3b c0 34 96 bb fc 53 2f bc
       0.01264497 0.006611507 -0.004583925 -0.010701176
000100 39 c3 8e 3c 74 57 14 ba cd d0 88 bc 23 7f a9 ba
       0.017427074 -0.00056587835 -0.016701126 -0.0012931566
000110 78 56 82 38 8e a2 2d 3c b9 ec 87 3b f4 a8 08 3c
       6.214989e-05 0.010597838 0.0041480926 0.008341063
000120 fe aa 07 3b f1 a1 88 bc 22 77 4d bc 96 aa 6d bc
       0.0020701285 -0.016678782 -0.0125406105 -0.014506003
000130 fe 15 11 3c 2b da fc ba 9a a1 2d 3b 86 2b 19 3c
       0.008855341 -0.0019291093 0.0026494027 0.009348756
000140 34 05 5a 3c 93 3c 90 3c a0 71 06 3b ae ca 07 3b
       0.013306905 0.017607009 0.0020514503 0.0020720172
000150 2a d6 35 bc 0f d0 e0 bb c3 37 47 ba 7b 39 3a 3c
       -0.011098424 -0.00686074 -0.00075995567 0.0113662435
000160 da 01 83 bc 63 fd 3d bc cf 04 1d 3b 46 ac 36 3b
       -0.015992094 -0.011596057 0.0023959165 0.002787368
000170 81 af c7 bb 6f 34 a5 ba 51 67 8c 3c 6a a0 ab ba
       -0.0060939197 -0.0012604127 0.017139109 -0.0013094072
000180 17 ff c9 bb 76 95 91 38 46 0f 8e bc 46 64 31 3c
       -0.0061644423 6.941978e-05 -0.017341267 0.01082713
000190 3b 75 48 bb f6 d9 7b bb 2c ed 43 bb ae d0 7d bc
       -0.0030587453 -0.0038429475 -0.0029896004 -0.015491648
0001a0 9d 27 16 3b 59 d2 92 3b c7 93 44 3c 17 ba bc 3c
       0.0022911795 0.004480642 0.0119981235 0.023037953
0001b0 1f 1b 24 3c e3 1b 5b 3c 3f e0 44 3c 50 22 00 3c
       0.010016232 0.013373348 0.012016355 0.007820681
0001c0 c6 72 14 bc 13 7e 60 3a 65 47 cf 3b 02 ff 4b bc
       -0.009060567 0.00085637084 0.0063256496 -0.012450935
0001d0 4d 97 49 bc 0d 53 54 bc f2 0a 4f 3c 6e a3 93 3b
       -0.012304139 -0.012959254 0.012636887 0.0045055663
0001e0 7c 7a c4 3b 7d a2 26 ba f1 02 ad bb aa 0d ba 3b
       0.0059960466 -0.000635661 -0.0052798917 0.0056778984
0001f0 73 47 07 bc 25 5f 30 bb 30 d0 32 3c 53 33 d2 bb
       -0.008256781 -0.002691218 0.010913894 -0.0064148097
000200 81 e8 9b b9 9e e2 a6 3b b4 70 14 bc eb 21 43 3c
       -0.00029737133 0.005092933 -0.009060074 0.011909942
000210 5f a9 8f 3c 36 38 75 bc 91 65 4c bc e9 d0 ba 3b
       0.017536817 -0.014967015 -0.012475387 0.0057011736
000220 70 d6 65 bc 81 36 60 3c 25 8a 74 39 20 e8 64 3c
       -0.014028177 0.01368487 0.00023321116 0.013971359
000230 65 ab 3a bb 52 4a b5 3b 2b e8 11 bc 83 63 42 bb
       -0.0028483507 0.0055325413 -0.008905451 -0.0029661364
000240 90 d3 82 39 d3 22 ad bb 79 a2 8a bc 08 b1 6b 3c
       0.0002495316 -0.0052836924 -0.016923176 0.014385469
000250 58 49 ee ba ad c9 16 bc c0 a4 94 3c c0 d9 6a bc
       -0.0018179817 -0.009203357 0.018144965 -0.014334142
000260 12 36 73 3b c3 41 72 39 ec 7c 97 3c 89 64 14 3a
       0.0037111086 0.00023103417 0.018492185 0.0005660733
000270 b7 3b 5e bc 61 e4 88 3c c8 b6 f3 3b da 6a 76 bb
       -0.013564042 0.016710462 0.0074375607 -0.003760031
000280 4c 7f 22 bc c7 10 10 ba 9b 33 86 3c 4e 29 14 3c
       -0.009918045 -0.0005495664 0.01638203 0.009043051
000290 36 5b 81 3c f8 e3 d2 37 cf 07 57 b8 ad 3d 1f 3c
       0.015790563 2.5140107e-05 -5.1267267e-05 0.0097192945
0002a0 05 7c 94 3b 96 30 01 3c fa fd 04 bc b5 ee 0d 3c
       0.004531386 0.007885119 -0.008117193 0.008662869
0002b0 51 7a ae 3c 8c 37 84 39 d8 a0 50 3c c4 4a 29 bc
       0.02129856 0.00025218388 0.012733661 -0.010332767
0002c0 69 f0 7d bb 0c e5 c8 ba 58 c4 99 3c e4 6c 1c 3b
       -0.0038748032 -0.001532705 0.018770382 0.0023868615
0002d0 19 b2 22 bc f6 b1 45 3a c3 9d 34 3b b4 68 2a bc
       -0.009930157 0.0007541472 0.0027559854 -0.01040094
0002e0 34 55 2c 3b c6 e4 83 bb cf 9d 8a bc 0d c9 70 3c
       0.0026295902 -0.0040250747 -0.016920952 0.014696372
0002f0 be 55 28 bc b8 25 72 3c c4 eb 6b ba 4d 35 84 bb
       -0.010274349 0.014779501 -0.00089996704 -0.0040346743
000300 94 5e b6 bb a0 38 be ba 9d fa 15 3c 36 22 2d bc
       -0.005565474 -0.0014512725 0.009153989 -0.010567239
000310 73 25 10 ba a1 36 40 3c 20 3b 84 bb 7b d7 a9 ba
       -0.00054987444 0.011731775 -0.0040353686 -0.0012957895
000320 a8 90 c6 bb 9e b4 5c 3c b2 99 07 3c 19 fe 4b 3c
       -0.006059725 0.013470797 0.00827639 0.012450718
000330 16 f1 05 bc ec f7 91 bc 34 20 8a bc d8 28 01 3a
       -0.008175155 -0.017818414 -0.016861059 0.00049270457
000340 5e 27 05 3c 0c 62 42 3a 47 d6 8f bc df 97 85 bc
       0.008127062 0.0007415123 -0.01755823 -0.01630777
000350 00 b4 6c 3c 68 ac 7a ba 37 9c 52 3c 6a 5b 9b bc
       0.014447212 -0.00095624337 0.012854627 -0.018964488
000360 91 69 1b bb bd 11 62 3c 99 8f 8c 3a 91 f5 54 3c
       -0.0023714046 0.013798174 0.0010723948 0.012998001
000370 45 3b e4 bb 04 d0 80 bc 69 7e 6c 3c d8 c1 1d 3b
       -0.0069650733 -0.01572419 0.014434435 0.0024071839
000380 29 49 3f 3c 96 b7 88 3c 43 0a 80 bc 55 31 88 3b
       0.011675158 0.016689103 -0.015629893 0.0041562715
000390 d1 d3 8e bc 31 f0 92 3b 1c fd 61 bc 32 6a 65 3c
       -0.017434986 0.0044841995 -0.013793256 0.01400237
0003a0 ff d0 ab bb 66 d0 25 3c 7b c2 23 bc 18 21 90 bc
       -0.00524342 0.010120487 -0.009995098 -0.017593905
0003b0 41 39 53 bc 89 5c 62 bc 77 21 35 3c 31 70 87 bc
       -0.012892068 -0.013816007 0.011055342 -0.01653299
0003c0 55 e6 6d bb d9 43 cb ba e3 5d a1 bb ca a2 3d 3c
       -0.0036300619 -0.0015507891 -0.0049245222 0.0115744565
0003d0 1b 40 5d 3c cf f4 7c bb af 9d 30 3a e7 97 81 bc
       0.0135040535 -0.0038598066 0.0006737364 -0.015819503
0003e0 05 1c 88 3c bf f8 7d bc 4b 2e 1b bc c5 45 79 bc
       0.016614923 -0.0155012 -0.009471486 -0.015214388
0003f0 30 f6 ae ba 4a d7 7e bc e7 f4 de 3b fd 36 72 bc
       -0.0013348516 -0.015554259 0.006804097 -0.014783618

fc.bias f4 [10]
000000 ce bb dc 3d 1b f7 16 3d 3e 99 19 3d 71 2f 7d ba
       0.107780084 0.036856752 0.03749966 -0.00096582534
000010 28 2c 7b bb 45 5e f9 bc 62 84 b4 bb 9f 46 2d bd
       -0.003832588 -0.030440459 -0.0055089453 -0.042303678
000020 a1 58 0f bd 7f be f3 bc
       -0.034996632 -0.029753922
