LAB 3/Results/my_net1.ckpt (torch, 378713 bytes, 60 tensors)

conv1.weight f4 [32, 3, 3, 3]
0	0x3e899106	0.26868457
1	0xbe04f5df	-0.12984417
2	0x3d466161	0.04843271
3	0x3ddf78ad	0.10911689
4	0xbf0d70ea	-0.5525042
5	0xbe96fa75	-0.2948796
6	0x3e91df00	0.28490448
7	0xbedf71e7	-0.43641588
8	0xbcf44bc2	-0.02982128
9	0x3eb032e9	0.3441384
10	0xbe5f0519	-0.21779288
11	0xbdb569fb	-0.08858105
12	0x3e441ff3	0.19152813
13	0xbf0f8910	-0.56068516
14	0xbefb13e9	-0.49038628
15	0x3e82c759	0.25542715
16	0xbe8555c2	-0.2604199
17	0xbdc82ad1	-0.097737916
18	0x3ee8a1e6	0.4543602
19	0x3dd0e79a	0.102004245
20	0x3d94cc44	0.07265523
21	0x3ea60aa6	0.3243
22	0xbee89fcf	-0.45434424
23	0xbe272ab6	-0.16324887
24	0x3eddc865	0.4331695
25	0xbc896891	-0.016773494
26	0x3e21dde8	0.15807307
27	0xbe086eb5	-0.13323481
28	0xbeba7e0b	-0.36424288
29	0xbee062ce	-0.43825382
30	0x3c1f0deb	0.009707908
31	0x3e1909d7	0.1494516
32	0x3e36e2c4	0.17859942
33	0x3da074e7	0.07834797
34	0x3e4f7c21	0.20262195
35	0x3ea3fc21	0.32028297
36	0xbdb8ce87	-0.09023767
37	0xbe46410d	-0.19360752
38	0xbec175da	-0.37785226
39	0xbde6f924	-0.112779886
40	0x3ec8f205	0.39247146
41	0x3eacbac9	0.33736256
42	0x3e58230e	0.21107122
43	0x3e6acb20	0.22929049
44	0x3f059950	0.5218706
45	0xbeabfc5f	-0.3359098
46	0xbe5d5a2e	-0.21616432
47	0xbeb5b6f8	-0.35491157
48	0xbd183361	-0.037158374
49	0xbb751f98	-0.0037402865
50	0x3d4dfeab	0.0502917
51	0xbe2fdeef	-0.17174886
52	0x3e7fd748	0.24984467
53	0x3c363117	0.011120102
54	0xbe29e9b7	-0.16593061
55	0x3e8ac353	0.27102146
56	0x3e05c8ef	0.13064931
57	0xbd8b235a	-0.06793852
58	0x3e925a6d	0.28584614
59	0x3e70bb52	0.23508957
60	0xbe5738f6	-0.21017823
61	0xbe58df2a	-0.2117888
62	0x3e67b91c	0.22629207
63	0xbdace321	-0.08441759
64	0x3daae7f0	0.0834502
65	0xbcc304ca	-0.023805995
66	0xbd49bb94	-0.049251154
67	0x3e05c913	0.13064985
68	0x3e48d56e	0.19612667
69	0xbec13909	-0.37738827
70	0xbe919df0	-0.2844081
71	0x3e0090be	0.12555215
72	0xbe3fa20a	-0.18714157
73	0xbe00bb0f	-0.12571357
74	0x3c91b40c	0.017786048
75	0xbc3da504	-0.011574987
76	0x3e0b26e1	0.1358905
77	0x3da6cf28	0.08144981
78	0xbe8d1179	-0.27552393
79	0x3d025ac1	0.03182483
80	0x3e31fed0	0.1738236
81	0xbd10f3f6	-0.03538891
82	0xbdd37ffd	-0.10327146
83	0x3d8b7aa8	0.06810504
84	0x3c5dd5d0	0.013539746
85	0x3e2476bb	0.16060917
86	0x3e23a826	0.15982112
87	0xbe10906b	-0.14117591
88	0x3ec6b45d	0.3880948
89	0x3e919b2c	0.284387
90	0x3de231d3	0.110446595
91	0xbdf01ec0	-0.11724615
92	0xbd8bbda9	-0.06823284
93	0xbd0ded03	-0.03464986
94	0x3ed558cc	0.4166931
95	0x3ea955de	0.33073324
96	0xbde61fc8	-0.112365305
97	0x3e4e523b	0.20148556
98	0x3e2cfc60	0.16893148
99	0xbe6e69ec	-0.23282593
100	0x3db096f6	0.086225435
101	0xbc9c6baa	-0.019094307
102	0x3d6abcaa	0.05730883
103	0x3db0d9fc	0.08635327
104	0x3d9530f6	0.07284729
105	0xbd8b9aba	-0.06816621
106	0x3d166d48	0.036725312
107	0x3dbb3571	0.091410525
108	0x3c99a9fe	0.018757816
109	0x3e051b7f	0.1299877
110	0x3d1f6404	0.03891374
111	0x3db03c03	0.08605196
112	0x3d03f90e	0.03221994
113	0xb9b2f868	-0.00034135883
114	0x3dd979ba	0.106189206
115	0x3d15f29c	0.036608323
116	0x3b979ce3	0.0046268567
117	0xbd6d5e4f	-0.057951268
118	0xbe07aa9e	-0.13248679
119	0xbd2689c9	-0.040658746
120	0x3d0eda4f	0.034876164
121	0xbe26d2d9	-0.1629137
122	0x3db9700c	0.09054574
123	0x3dfda98e	0.123858556
124	0xbdb0830c	-0.08618745
125	0x3dcf4691	0.10120881
126	0x3d0af6bf	0.03392672
127	0xbddb8f02	-0.10720636
128	0xbe301ae2	-0.17197755
129	0xbe5d1546	-0.21590146
130	0x3bba5c66	0.0056872843
131	0x3e2179e8	0.1576916
132	0x3d832679	0.064038225
133	0xbe3901d8	-0.1806711
134	0x3e21c91d	0.15799375
135	0xbcace8f5	-0.021107176
136	0xbda60e55	-0.08108202
137	0x3d9b5e5f	0.07586359
138	0xbeb58c5d	-0.3545865
139	0xbec30e16	-0.38096684
140	0xbe014a86	-0.12626085
141	0x3e82628d	0.25465813
142	0x3e072b12	0.13200024
143	0x3f2bff10	0.6718607
144	0xbdfb675c	-0.122755736
145	0xbe3bf224	-0.18354088
146	0x3df0a564	0.11750296
147	0xbf27e3d9	-0.6558204
148	0xbee76207	-0.45191976
149	0x3e0d65ca	0.1380836
150	0x3e05407e	0.13012883
151	0x3eeadab5	0.45869985
152	0x3f2c02bd	0.6719168
153	0x3e4221cd	0.18958206
154	0xbe683de4	-0.2267986
155	0x3e4c9cc7	0.19981681
156	0xbf010bb3	-0.50408477
157	0xbf1ac59b	-0.6045777
158	0xbe50a841	-0.20376684
159	0x3e4e5aa0	0.20151758
160	0x3c31c256	0.010849556
161	0x3ef0c7e7	0.47027513
162	0xbec8fc45	-0.39254966
163	0xbf99ca6f	-1.2014903
164	0xbea305ad	-0.31840268
165	0x3d68bda8	0.056821495
166	0xbeecc8c1	-0.46246913
167	0x3dcb5391	0.099280484
168	0x3f38558a	0.7200552
169	0x3f276ed1	0.6540347
170	0x3f82ff18	1.0234098
171	0xbf541f39	-0.8286014
172	0xbfabe482	-1.342911
173	0xbf442895	-0.76624423
174	0xbc1f474f	-0.009721591
175	0xbf215e66	-0.63034666
176	0x3e6196e8	0.22030222
177	0x3f710e39	0.9416233
178	0x3f022ea0	0.50852394
179	0x3f845312	1.0337851
180	0xbeea7098	-0.45789027
181	0xbf8a6369	-1.0811588
182	0xbeb0d516	-0.34537572
183	0x3d8cab2d	0.06868587
184	0xbecd3682	-0.4008065
185	0x3e2c8069	0.1684586
186	0x3f5df04a	0.86694777
187	0x3f54abe2	0.8307477
188	0x3f7f0a77	0.99625343
189	0x3e0d3b47	0.13792144
190	0xbe1cc04f	-0.15307735
191	0xbd3f763f	-0.046743628
192	0x3dbdf474	0.09275141
193	0x3e28af4e	0.16473123
194	0xbdefb574	-0.11704531
195	0xbd06ae82	-0.032881267
196	0xbdc834ce	-0.09775697
197	0x3e2341f5	0.1594313
198	0xbbbf9be2	-0.00584744
199	0x3df24e40	0.11831331
200	0x3d58a141	0.05288816
201	0x3dc9ad25	0.09847478
202	0x3cb90101	0.022583487
203	0x3da477ac	0.08030638
204	0xbd5186d9	-0.05115399
205	0xbc23a1ef	-0.009987338
206	0xba9cc388	-0.0011960128
207	0xbd5ab1df	-0.053392287
208	0xbdf3cd1b	-0.11904355
209	0xbd54ca68	-0.051950842
210	0x3db65945	0.089037456
211	0x3e03c010	0.12866235
212	0xbda66bbb	-0.08126017
213	0x3c1062da	0.008812631
214	0xbb59adec	-0.0033215238
215	0xbde84d79	-0.11342902
216	0x3ec53032	0.38513333
217	0x3d1011a8	0.03517309
218	0x3e89ccf5	0.26914182
219	0x3c9faf82	0.019492868
220	0xbf08ab29	-0.5338617
221	0x3cacb77c	0.021083586
222	0x3ed80e43	0.4219838
223	0xbeb207a4	-0.34771454
224	0x3dab5197	0.083651714
225	0x3ea1d217	0.31605598
226	0xbe809846	-0.25116175
227	0xbb8fd58f	-0.004389472
228	0x3dd0ae69	0.10189516
229	0xbf4b0aed	-0.79313546
230	0xbe5f24b4	-0.21791345
231	0x3e07d76f	0.13265775
232	0xbebefff7	-0.3730466
233	0xbcb1c8be	-0.021702167
234	0x3ebc57f1	0.36785844
235	0xbe5c35d6	-0.21504912
236	0x3e0282b4	0.12745172
237	0xbd154f96	-0.036452852
238	0xbe9dcb32	-0.30819088
239	0xbe4080d6	-0.18799147
240	0x3edb6258	0.42848468
241	0xbe8b1602	-0.27165228
242	0x3e3a893e	0.18216416
243	0xbe54f65e	-0.20797107
244	0xbcabe72d	-0.020984257
245	0x3ed12f29	0.40856293
246	0xbdd59b46	-0.10430007
247	0x3ebdad36	0.37046212
248	0x3f273f62	0.6533109
249	0xbe5afb0b	-0.21384828
250	0xbe092a42	-0.13395026
251	0x3ecd80af	0.4013724
252	0xbe4ed4c2	-0.20198348
253	0x3dbd17cb	0.09233054
254	0x3ec142e7	0.37746355
255	0xbdea72b0	-0.11447656

conv1.bias f4 [32]
0	0x3d7f37bd	0.062309016
1	0x3e85d4ef	0.26139018
2	0x3e41c032	0.18920973
3	0xbebf66ea	-0.37383205
4	0xbe6fc757	-0.23415886
5	0x3f1d1263	0.6135618
6	0x3f687bd9	0.90813977
7	0xbea65d4a	-0.3249305
8	0x3e81c720	0.25347233
9	0x3e0e5ce4	0.13902622
10	0x3efbaa99	0.49153593
11	0xbf3a8e1f	-0.7287311
12	0xbe685d96	-0.2269195
13	0xbe4a639b	-0.19764559
14	0x3ef802ca	0.48439628
15	0x3d3245c6	0.043523572
16	0xbe770dbc	-0.24126333
17	0x3c54efaa	0.0129965935
18	0xbc60d874	-0.013723481
19	0x3f16b99f	0.58876985
20	0x3ebee458	0.37283587
21	0xbe56df7a	-0.20983687
22	0x3ec302ad	0.3808798
23	0x3ecc4667	0.39897463
24	0xbe39100a	-0.18072525
25	0x3e849d4a	0.25901252
26	0x3ef6863e	0.48149294
27	0xbe9ecdc3	-0.3101636
28	0x3e0bd926	0.13657054
29	0x3ea736d0	0.32659006
30	0x3f1624af	0.58649725
31	0x3f161224	0.5862143

invResBlocks.0.expansion.weight f4 [96, 32, 1, 1]
0	0xbde0da54	-0.10979143
1	0x3e2f66aa	0.17129007
2	0x3e14f1e7	0.14545403
3	0x3df3d1b5	0.11905233
4	0x3e065b06	0.1312066
5	0x3e1c3951	0.1525624
6	0x3ea81a9b	0.32832798
7	0x3dd8118e	0.10550223
8	0xbcb140a6	-0.021637272
9	0xbe17380a	-0.14767471
10	0x3b909b2d	0.0044130296
11	0x3e29b468	0.16572726
12	0xbe2c5ab7	-0.1683148
13	0x3cc3cc80	0.023901224
14	0xbdc78a3d	-0.09743164
15	0x3c3b2778	0.011422984
16	0xbb55c1ea	-0.0032616802
17	0xbd8efe67	-0.06982117
18	0xbd79f396	-0.061023317
19	0xbd1ac62d	-0.03778665
20	0xbed9f880	-0.42572403
21	0x3de93b60	0.11388278
22	0x3de007e5	0.10939006
23	0xbe1a098c	-0.15042704
24	0xbe3e00d3	-0.18555002
25	0xbd8355ba	-0.064128354
26	0xbe5dc4a8	-0.2165705
27	0x3d99aa76	0.07503216
28	0xbe560bd4	-0.2090295
29	0xbe768f79	-0.24078168
30	0xbec6229a	-0.38698274
31	0x3dfcbfd9	0.123412795
32	0xbe6687e9	-0.22512783
33	0x3da2afb6	0.079436705
34	0x3e4862ba	0.19568911
35	0x3e811a6c	0.2521547
36	0x3e076071	0.13220383
37	0x3db6a6a2	0.089185014
38	0xbe9883b3	-0.2978798
39	0x3ddf19ca	0.10893591
40	0xbe79f807	-0.24411021
41	0x3e7f23a6	0.24915943
42	0x3eb907fb	0.361389
43	0xbd137ed7	-0.036009636
44	0x3e13314f	0.14374278
45	0xbce3c195	-0.027802268
46	0xbe4ac9aa	-0.19803491
47	0xbdd044e1	-0.101693876
48	0xbd8b1ae5	-0.06792239
49	0x3da3919c	0.07986757
50	0x3bc7f167	0.0061017754
51	0xbdac80bc	-0.08422992
52	0xbe2201a1	-0.15820934
53	0xbb7ad0b0	-0.003827136
54	0xbd8b4438	-0.06800121
55	0xbeb4f0ec	-0.3534006
56	0x3c50cbc7	0.012743897
57	0x3c17c7e2	0.009263964
58	0x3cb05078	0.021522745
59	0xbd443594	-0.04790266
60	0xbe9af2a7	-0.30263254
61	0xbd0a2ae7	-0.03373232
62	0xbe7a6123	-0.24451117
63	0x3d303f3e	0.043029062
64	0x3e43deca	0.19127956
65	0xbe0d3f3b	-0.13793652
66	0x3def9e1b	0.11700078
67	0x3e943239	0.28944567
68	0xbdca24db	-0.09870311
69	0xbd8ecd99	-0.069728084
70	0xbee30cb4	-0.4434563
71	0xbc915e34	-0.017745115
72	0x3e6ec7d0	0.2331841
73	0x3db39f80	0.087706566
74	0xbe335201	-0.17511751
75	0x3e4b5e33	0.19860153
76	0xbbf62db3	-0.007512772
77	0xbdf26d7b	-0.11837288
78	0x3dd435f7	0.103618555
79	0x3e17a1fc	0.14807886
80	0x3d5fd30e	0.054644637
81	0x3e0f8fca	0.14019695
82	0x3eb73564	0.3578292
83	0xbdafe5fc	-0.08588788
84	0xbd039b8c	-0.032130763
85	0xbbedfc50	-0.007262744
86	0xbb6de407	-0.0036299245
87	0xbca68ad3	-0.020329868
88	0x3d81212c	0.06305155
89	0xbc6a6450	-0.014306143
90	0x3cef1f0b	0.029189607
91	0xbd881407	-0.06644445
92	0x3ddbc6c8	0.10731274
93	0x3e831973	0.25605354
94	0x3e9ab8fb	0.30219254
95	0xbe8e6da0	-0.27818012
96	0xbd1f483d	-0.03888725
97	0xbd4529e7	-0.048135664
98	0xbdfc6484	-0.12323859
99	0x3e4976bf	0.19674204
100	0xbbce8869	-0.0063028825
101	0xbdaded44	-0.084925205
102	0xbee8ba4f	-0.45454642
103	0x3e2b16c5	0.16707905
104	0xbe14c843	-0.14529519
105	0xbe54b2ab	-0.20771281
106	0xbc02cdd6	-0.007983645
107	0xba915501	-0.0011087955
108	0xbe196106	-0.14978418
109	0xbcf55d53	-0.029951727
110	0xbe7c4b69	-0.24638142
111	0x3dca2a4a	0.09871347
112	0x3b82bfbd	0.003990142
113	0x3dfad952	0.12248482
114	0xbd5ea4f1	-0.05435652
115	0x3e05abdb	0.13053839
116	0xbdea3a35	-0.11436883
117	0x3e269582	0.1626797
118	0x3cdddf72	0.027084086
119	0xbe39795d	-0.18112703
120	0xbcc14c43	-0.023595935
121	0xbe5b94dd	-0.21443506
122	0xbe3ca1e6	-0.18421134
123	0x3e17d7ba	0.14828387
124	0xbd5832a6	-0.052782677
125	0xbe527f17	-0.20556293
126	0x3de73f2a	0.112913445
127	0x3e8b536d	0.27212086
128	0xbdfd2be5	-0.12361888
129	0xbe795a6b	-0.24350898
130	0xbd05800e	-0.032592826
131	0xbe629cd3	-0.22130136
132	0xbd8a5932	-0.06755294
133	0xbe3808d8	-0.17972124
134	0xbceed144	-0.02915252
135	0x3cb99978	0.022656187
136	0xbe0481c7	-0.12940131
137	0xbe9f2fd2	-0.31091172
138	0xbd9cb145	-0.07650999
139	0xbe49b3cb	-0.19697492
140	0x3d594d5b	0.053052288
141	0xbe2301b2	-0.15918615
142	0x3d475274	0.048662618
143	0xbe037c60	-0.12840414
144	0xbe25227b	-0.16126435
145	0xbdf4c2c2	-0.119512096
146	0xbe196d4e	-0.14983103
147	0x3e4bdd30	0.19908595
148	0xbc80d491	-0.01572636
149	0xbaccc8ae	-0.0015623772
150	0x3e120277	0.14258753
151	0x3db4547e	0.08805178
152	0xbd5530c1	-0.05204845
153	0xbe20b841	-0.15695287
154	0xbae9359a	-0.0017792464
155	0x3db867b3	0.09004154
156	0xbe691086	-0.2276021
157	0xbd42e16d	-0.047578264
158	0xbe3a5fd4	-0.18200618
159	0x3dc2e9e6	0.09517269
160	0x3e9c1d6a	0.3049119
161	0xbdce32d6	-0.1006829
162	0xbd92e350	-0.07172263
163	0x3d423df4	0.047422364
164	0xbd019a2f	-0.03164118
165	0x3e48ef98	0.19622648
166	0xbd5b2ee8	-0.05351153
167	0x3dc7aa35	0.09749261
168	0x3e86f47b	0.263584
169	0x3e34fc1d	0.17674299
170	0x3dd827cd	0.105544664
171	0x3e940eaf	0.28917453
172	0x3d12dc2c	0.035854504
173	0xbdc5a066	-0.09649734
174	0x3d139a80	0.036036015
175	0xbe4249af	-0.1897342
176	0xbe30e8bb	-0.1727628
177	0xbde1de56	-0.11028735
178	0x3ebd3bb3	0.3695961
179	0x3d9838f9	0.07432742
180	0xbd13605a	-0.03598056
181	0xbdc39a2b	-0.095508896
182	0x3dead45e	0.11466287
183	0x3d5be8a8	0.053688675
184	0x3e155f1a	0.1458706
185	0x3dab5b29	0.08366997
186	0xbc086901	-0.008325816
187	0xbdd0690e	-0.101762876
188	0xbddca811	-0.107742436
189	0xbd856f86	-0.06515412
190	0xbd8a2b2f	-0.06746518
191	0xbe534922	-0.20633367
192	0xbee8f52e	-0.45499557
193	0x3d9867ee	0.07441698
194	0x3bd85500	0.0066019297
195	0xbe10e684	-0.14150435
196	0xbe19c353	-0.15015917
197	0x3e25362c	0.16133946
198	0x3e0cbf77	0.13744913
199	0xbe5b893c	-0.2143907
200	0xbe80d86e	-0.25165123
201	0x3dcf92c2	0.10135414
202	0xbdb53d87	-0.08849626
203	0xbd9dca55	-0.077046074
204	0xbd3e7737	-0.04650041
205	0x3d9f083c	0.077652425
206	0xbe201eb6	-0.15636715
207	0x3cdfb64c	0.027308606
208	0xbdad03f0	-0.08448017
209	0x3d2dc11b	0.042420488
210	0x3d8efb28	0.06981498
211	0xbe72f3fe	-0.23725888
212	0xbe2e5fa9	-0.17028679
213	0xbd8eb811	-0.06968702
214	0xbe85663a	-0.26054555
215	0xbe5b3fe2	-0.21411088
216	0xbe365fed	-0.1781003
217	0xbdd03fa7	-0.10168391
218	0xbde0865b	-0.10963126
219	0x3dc930fa	0.09823795
220	0xbd960897	-0.07325857
221	0xbe721295	-0.23639901
222	0xbe8464f2	-0.25858265
223	0xbe804663	-0.250537
224	0x3ea64779	0.32476404
225	0xbdf2971c	-0.11845228
226	0xbe58c9a6	-0.21170673
227	0xbda9d026	-0.08291654
228	0xbd55da90	-0.05221039
229	0x3df4b50c	0.119485945
230	0x3ec46223	0.38356122
231	0xbd708034	-0.058716014
232	0x3e48c5c6	0.19606695
233	0xbe776823	-0.24160819
234	0xbdf439ee	-0.11925112
235	0xbda0494e	-0.07826482
236	0x3dc43e37	0.09582179
237	0xbc54c394	-0.012986083
238	0x3e33d2dc	0.17560905
239	0xbd98cd21	-0.07461
240	0xbd5b33c2	-0.053516157
241	0xbdc05a6e	-0.09392248
242	0xbe1fd94d	-0.15610237
243	0x3e82c98f	0.25544402
244	0x3e3464fc	0.17616647
245	0xbde4b873	-0.111679934
246	0x3dbf2423	0.093330644
247	0xbc9ed268	-0.019387439
248	0xbdcc1673	-0.09965219
249	0xbd53de53	-0.051725697
250	0x3e880c62	0.26571947
251	0xbcd6aa93	-0.026204383
252	0x3e4c3aa9	0.19944252
253	0xbdf8cd53	-0.121485375
254	0x3d4ba330	0.049716175
255	0xbdbfc5a5	-0.093638696

invResBlocks.0.expansion.bias f4 [96]
0	0x3d27d0b1	0.040970508
1	0xbdf7042e	-0.12061344
2	0xbda5c84a	-0.08094843
3	0xbc5cb500	-0.013470888
4	0x3c873684	0.016505487
5	0x3e1cb5b6	0.15303692
6	0xbe2a607f	-0.16638373
7	0x3e111adc	0.14170402
8	0xb9a38648	-0.0003118983
9	0x3e0b95e0	0.13631392
10	0x3e28abbf	0.16471766
11	0x3d44dbd8	0.04806122
12	0x3cc5c600	0.024142265
13	0x3c04d540	0.008107483
14	0x3d3ddb4b	0.046351712
15	0x3de509b1	0.11183489
16	0xbe2fb2e2	-0.17158082
17	0xbe1b8ac3	-0.15189652
18	0x3d1535f8	0.03642842
19	0xbe0e1f4d	-0.13879128
20	0xbe2caa05	-0.16861732
21	0x3ce0dc1a	0.027448703
22	0xbdfc3597	-0.12314909
23	0x3df46814	0.11933914
24	0xbb8955a9	-0.0041911197
25	0x3d0aad09	0.033856425
26	0xbdd9ef30	-0.106413245
27	0x3d9dfc26	0.07714109
28	0xbd46ad37	-0.048505034
29	0x3da6ad61	0.08138538
30	0xbdefa368	-0.11701089
31	0x3e281559	0.16414393
32	0x3d74e4ee	0.059788637
33	0xbbdfd8e0	-0.0068312734
34	0xbe2c3506	-0.16817102
35	0xbe0ab563	-0.13545756
36	0x3d95afa3	0.07308891
37	0xbdc0166d	-0.093792774
38	0xbd4ab3f7	-0.049488034
39	0x3d663615	0.05620392
40	0xbbe230e5	-0.0069028013
41	0x3d86c084	0.06579688
42	0xbd14408c	-0.03619437
43	0x3d8d7cf3	0.06908598
44	0xbdf085bb	-0.11744257
45	0x3e0d4bbf	0.13798426
46	0xbdf7cae2	-0.12099244
47	0xbd765f63	-0.06014956
48	0x3cd2ee81	0.025748493
49	0xbdd82264	-0.105534345
50	0xbe01b359	-0.12666072
51	0x3d5cac42	0.053875215
52	0xbe0f700f	-0.1400759
53	0x3e2a15db	0.166099
54	0x3d6fd4dc	0.058552608
55	0xbddc173b	-0.10746618
56	0x3e10f202	0.14154819
57	0x3de8e24e	0.11371289
58	0x3d8d5c45	0.06902365
59	0xbd8ea0f7	-0.06964295
60	0xbddf9ee2	-0.10918976
61	0xbd8658ac	-0.065598816
62	0x3e2f1b24	0.17100197
63	0x3e073cf1	0.13206841
64	0xbdaa6926	-0.08320837
65	0x3c514169	0.012771943
66	0x3daf67e0	0.085647345
67	0x39e3a653	0.00043420735
68	0xbca1066a	-0.019656379
69	0x3bfb4483	0.0076680793
70	0xbe11cb5f	-0.14237736
71	0xbdd5e4d4	-0.10444036
72	0xbe10bf02	-0.14135364
73	0x3d9e9429	0.07743103
74	0x3da32b00	0.07967186
75	0xbdbc9fae	-0.09210144
76	0x3cc05a02	0.02348042
77	0x3dec391d	0.11534331
78	0x3ba8b72e	0.00514879
79	0xbe005f88	-0.12536442
80	0x3d232fb9	0.039840434
81	0xbd30f52e	-0.04320257
82	0x3d57057b	0.05249546
83	0xbe2bf535	-0.16792758
84	0xbe29302d	-0.16522284
85	0xbd6f9a91	-0.058497015
86	0xbc9a5f69	-0.018844323
87	0xbe2d765b	-0.1693968
88	0x3cd96846	0.02653898
89	0xbd0501d6	-0.032472454
90	0xbdf156c2	-0.11784126
91	0xbd17efd7	-0.037093963
92	0xbd74948b	-0.059711974
93	0xbe029407	-0.1275178
94	0x3e2ba0fd	0.16760631
95	0x3d06676d	0.03281348

invResBlocks.0.depthwise.weight f4 [96, 1, 3, 3]
0	0x3e21f8fb	0.15817635
1	0x3ea54cde	0.32285208
2	0xbef2103f	-0.4727802
3	0x3e749727	0.23885785
4	0x3eb1e0c0	0.34741783
5	0x3eb5de3b	0.3552111
6	0x3dabc571	0.08387268
7	0xbeccc647	-0.39995024
8	0xbe534e33	-0.206353
9	0x3f0d2cc5	0.5514644
10	0x3f00a845	0.5025676
11	0xbea43ad3	-0.3207613
12	0xbe0d15d3	-0.13777857
13	0xbee29530	-0.44254446
14	0x3e2b3e81	0.16723062
15	0xbda997b9	-0.08280892
16	0xbe945873	-0.2897373
17	0x3ed057e5	0.40692058
18	0xbb9bfd43	-0.0047604158
19	0x3ef53a13	0.4789587
20	0x3eba84b4	0.3642937
21	0x3e2859f4	0.16440564
22	0x3e98d46d	0.29849568
23	0x3af32acc	0.0018552183
24	0xbeb41be9	-0.35177544
25	0xbf0f788a	-0.56043303
26	0xbea2791b	-0.3173302
27	0x3e2c7c0d	0.16844197
28	0x3ee779da	0.45210153
29	0xbede6a73	-0.4344059
30	0x3e848e7c	0.25889957
31	0xbe0d42e0	-0.13795042
32	0xbdcb37f5	-0.09922782
33	0x3e934414	0.28762877
34	0x3dccf09e	0.100068316
35	0xbed2f53b	-0.4120272
36	0xbc74f48b	-0.014950882
37	0xbe0d1717	-0.1377834
38	0xbee0ad25	-0.438821
39	0x3d87f16c	0.066378444
40	0xbe0a5505	-0.13508995
41	0xbd54bfce	-0.05194073
42	0x3eab5415	0.33462587
43	0x3de63139	0.11239857
44	0xbe863eba	-0.26219732
45	0xbe36df3c	-0.17858595
46	0x3e711334	0.23542482
47	0x3eb26006	0.34838885
48	0x3e96951b	0.29410633
49	0x3e0ff161	0.14056922
50	0x3df44da0	0.11928868
51	0xbf010712	-0.50401413
52	0xbef1d53d	-0.47233
53	0xbe35031a	-0.17676964
54	0xbe9978bb	-0.29974923
55	0xbee6717b	-0.45008454
56	0xbebda4c9	-0.37039784
57	0xbe37a967	-0.17935716
58	0x3e938f77	0.28820392
59	0x3ea79a7a	0.32735044
60	0x3df54fef	0.11978137
61	0x3ecf5f27	0.40502283
62	0xbe218d0d	-0.15776463
63	0x3e97ee1a	0.29673845
64	0x3dae0363	0.0849674
65	0xbe66dbb9	-0.22544755
66	0x3ecb7570	0.39738035
67	0xbed62017	-0.41821358
68	0xbe74996b	-0.2388665
69	0x3eacb645	0.3373281
70	0x3dd736fa	0.10508533
71	0xbd49e7dd	-0.049293388
72	0xbebd143b	-0.36929497
73	0x3eaf12b9	0.34193972
74	0x3e3bd70a	0.1834375
75	0xbc009e79	-0.007850283
76	0x3dfdeba3	0.1239846
77	0x3e09808a	0.1342794
78	0xbd86f5bc	-0.06589839
79	0xbf05da54	-0.5228627
80	0x3ce4c8e4	0.027927823
81	0xbc75719a	-0.014980698
82	0xbeb41c61	-0.351779
83	0xbd6eb3b1	-0.058276836
84	0x3e9c22ef	0.30495402
85	0x3e289e82	0.16466716
86	0xbe818005	-0.25292984
87	0xbec24e07	-0.37950155
88	0xbd8a83be	-0.06763409
89	0xbe89bf97	-0.26903984
90	0x3dc6f091	0.09713853
91	0x3d14ddf3	0.03634448
92	0xbeefee88	-0.46861672
93	0x3eadf362	0.3397475
94	0x3ed3d38d	0.41372338
95	0xbe935a31	-0.28779748
96	0x3e8b6391	0.272244
97	0x3de6bb61	0.112662084
98	0xbe271de0	-0.1631999
99	0x3f067285	0.5251849
100	0xbeebaa80	-0.4602852
101	0xbea8b9ca	-0.32954246
102	0x3c139a67	0.00900898
103	0x3f32e5ea	0.6988207
104	0x3d8e59da	0.069507316
105	0xbed72c55	-0.4202601
106	0x3e95254b	0.29130015
107	0xbe65f372	-0.22456148
108	0x3e3b7d97	0.18309627
109	0xbec2deca	-0.380606
110	0xbef956d1	-0.48699048
111	0xbe6cc566	-0.23122177
112	0xbed7f586	-0.42179507
113	0xbe99dde0	-0.3005209
114	0xbda3ab7e	-0.07991694
115	0x3f4aa481	0.79157263
116	0x3ebb763f	0.36613652
117	0x3edfa1d7	0.43678162
118	0x3f029073	0.5100166
119	0x3cc45348	0.023965493
120	0xbd3468ee	-0.04404538
121	0xbc9fed9c	-0.01952248
122	0x3eae6dc5	0.34068123
123	0xbe810ae1	-0.25203612
124	0xbf07b07c	-0.5300367
125	0xbe88a263	-0.2668639
126	0x3e851227	0.25990412
127	0x3e8264b6	0.2546746
128	0x3d1e090b	0.038582843
129	0x3e2b8fb4	0.16754037
130	0x3efd4e8d	0.49473992
131	0x3e4e37b1	0.20138432
132	0xbeb4661b	-0.3523415
133	0xbf58e34c	-0.8472183
134	0xbcbe2f07	-0.023215784
135	0xbe4eb236	-0.2018517
136	0xbf106a72	-0.5641242
137	0xbea89200	-0.3292389
138	0xbd98c049	-0.074585505
139	0x3d010d18	0.031506628
140	0xbe298acc	-0.16556853
141	0x3d91872e	0.071058616
142	0x3e75485a	0.23953381
143	0x3e806c4f	0.25082633
144	0xbee21997	-0.44160149
145	0x3f12cf5e	0.5734767
146	0xbe1befae	-0.1522815
147	0xbd154dd1	-0.036451165
148	0x3f26f54f	0.6521806
149	0xbe1776c7	-0.14791404
150	0xbcc36a6b	-0.023854455
151	0xbe05839d	-0.13038488
152	0xbe22b825	-0.15890558
153	0x3e858e8e	0.26085323
154	0xbf0583b6	-0.521541
155	0x3e9af75a	0.3026684
156	0x3e970b94	0.2950102
157	0xbf327a5f	-0.69717973
158	0x3e892ec1	0.26793483
159	0x3cd8ca7f	0.026463745
160	0xbe90a9d5	-0.28254572
161	0x3ebfae03	0.37437448
162	0x3d707f54	0.05871518
163	0x3df26623	0.11835887
164	0xbe506e91	-0.20354678
165	0xbe819dd4	-0.25315726
166	0xbe2f8b20	-0.17142916
167	0xbeb89dfc	-0.36058033
168	0xbd62ccda	-0.055371143
169	0xbd908463	-0.07056501
170	0xbe9ceae8	-0.3064797
171	0xbeaa3756	-0.33245343
172	0x3dc89aa1	0.09795118
173	0x3e88ba87	0.2670481
174	0xbe2e3fb3	-0.17016487
175	0xbed044bd	-0.40677443
176	0xbddffb86	-0.10936646
177	0xbe1ef1e1	-0.15521957
178	0xbdf5fb9a	-0.1201088
179	0xbea9cda5	-0.33164707
180	0x3e90173c	0.28142726
181	0x3e9cc6b7	0.30620357
182	0x3f042859	0.51624066
183	0xbed51af0	-0.41622114
184	0xbe668be6	-0.22514305
185	0xbe7f2a57	-0.24918495
186	0xbdefaadf	-0.11702513
187	0xbe928470	-0.28616667
188	0xbe2331e1	-0.15936996
189	0xbcd88794	-0.026431836
190	0xbe3f8d66	-0.18706283
191	0xbec1ea29	-0.37873963
192	0xbd293cc3	-0.041317713
193	0x3d61ebb0	0.05515641
194	0x3d836c81	0.0641718
195	0xbeaad7f2	-0.33367878
196	0xbdd9413c	-0.106081456
197	0xbe607c83	-0.21922497
198	0x3e8ce53c	0.27518642
199	0x3dae315d	0.08505509
200	0xbe2cd273	-0.16877155
201	0x3e863642	0.2621327
202	0x3e983ffa	0.2973631
203	0x3ea71d3c	0.32639492
204	0x3e65ed80	0.2245388
205	0x3e0cab3b	0.13737194
206	0xbca33bd9	-0.019925999
207	0xbe90721d	-0.28212062
208	0xbedff5be	-0.43742174
209	0xbf12fb86	-0.57415044
210	0x3cccc8cd	0.024998093
211	0x3e991ad5	0.29903284
212	0x3e3a5ec1	0.18200208
213	0x3d892ae5	0.066976346
214	0x3e9d6329	0.30739716
215	0x3e91d523	0.28482923
216	0x3c4c9e2d	0.012488884
217	0xbe88983c	-0.26678646
218	0xbea923a8	-0.33035016
219	0x3cbbd4a4	0.022928543
220	0xbea6c310	-0.32570696
221	0x3e09e430	0.13465953
222	0x3cccbd11	0.024992498
223	0xbe87c0b3	-0.26514205
224	0xbe446d3c	-0.19182295
225	0x3e485f6f	0.19567655
226	0xbe291541	-0.16512014
227	0xbe19611d	-0.14978452
228	0xbe88c923	-0.26715955
229	0xbe87dced	-0.2653574
230	0x3db969fb	0.09053417
231	0xbe7bf7dc	-0.2460627
232	0xbe38ce7b	-0.18047516
233	0x3f5589ff	0.8341369
234	0x3dd9c6fb	0.10633656
235	0x3f372ffa	0.7155758
236	0x3e92802e	0.28613418
237	0xbec71364	-0.3888198
238	0xbf158b51	-0.58415705
239	0xbd30f74c	-0.04320459
240	0x3ec14270	0.37746
241	0xbf19e447	-0.6011395
242	0xb9e92d70	-0.00044475077
243	0x3eabd64c	0.33561933
244	0x3ee5db30	0.4489379
245	0x3eaa4f32	0.33263546
246	0xbe036dae	-0.12834808
247	0xbed13827	-0.40863153
248	0xbe9efb2f	-0.31051013
249	0xbeab52c1	-0.33461574
250	0x3d01a2e3	0.03164948
251	0xbe07eeda	-0.13274708
252	0xbd899047	-0.06716972
253	0xbea441f6	-0.32081574
254	0xbe32ad38	-0.1744889
255	0xbe792811	-0.2433169

invResBlocks.0.depthwise.bias f4 [96]
0	0xbe02fb58	-0.12791193
1	0xbdfa4435	-0.12220041
2	0xbe7406d0	-0.23830724
3	0xbe45b657	-0.19307838
4	0xbcbc89a5	-0.023014853
5	0x3e6e16f9	0.23250951
6	0xbd43276f	-0.04764503
7	0x3e337ea8	0.17528784
8	0x3e076f42	0.13226035
9	0xbe29156c	-0.16512078
10	0xbdbf8346	-0.0935121
11	0xbd866169	-0.06561548
12	0xbe93197f	-0.2873039
13	0x3e417925	0.18893869
14	0xbd82a7f3	-0.0637969
15	0xbcdfd7a0	-0.027324498
16	0x3e108cc2	0.14116195
17	0x3e8359c4	0.25654423
18	0xbe888587	-0.26664373
19	0xbdc91f31	-0.098204024
20	0x3e2418d4	0.16025096
21	0x3df67ba2	0.120353
22	0x3e6eb1db	0.23310034
23	0x3e28fcc6	0.16502675
24	0xbe14d74b	-0.14535253
25	0x3de13619	0.109966464
26	0x3e310774	0.17288
27	0xbe954882	-0.29156882
28	0x3dd0ae3b	0.10189482
29	0xbd26dc53	-0.04073746
30	0xbe9def05	-0.3084642
31	0x3e6fc0ae	0.23413345
32	0xbcaf4569	-0.021395402
33	0x3e165b3a	0.14683238
34	0x3d5a1f9e	0.05325281
35	0xbca7cd25	-0.020483563
36	0xbd573c7e	-0.052547924
37	0x3e37d9ef	0.17954229
38	0xbe475eea	-0.194698
39	0xba2cfaaf	-0.0006598634
40	0x3e1ca784	0.15298277
41	0xbe5b91a8	-0.21442282
42	0x3e1cf61a	0.15328255
43	0xbc92d166	-0.017922115
44	0x3d019ee6	0.031645678
45	0x3e443a8f	0.19162963
46	0xbb02349a	-0.0019867779
47	0xbe655100	-0.2239418
48	0xbe4dc55c	-0.20094818
49	0x3e54ba23	0.2077413
50	0x3e111a53	0.14170198
51	0xbe42f503	-0.19038777
52	0x3e89634d	0.26833573
53	0x3e26d73e	0.16293046
54	0x3ca642d8	0.020295545
55	0x3e583332	0.2111328
56	0xbdae6f93	-0.08517375
57	0x3e80b22d	0.25135937
58	0x3e92dbdb	0.2868336
59	0x3e94a50f	0.2903218
60	0x3e27ef71	0.16399933
61	0x3e024eb1	0.12725331
62	0x3b54b21e	0.00324548
63	0x3d89cfa4	0.067290574
64	0xbdc06602	-0.093944564
65	0xbdbb646b	-0.091500126
66	0x3d0ecb13	0.034861635
67	0xbe896b6f	-0.26839778
68	0x3ea3b364	0.31972802
69	0x3da6bc0b	0.08141335
70	0x3def3eea	0.11681922
71	0x3e897917	0.26850197
72	0xbe286d12	-0.16447857
73	0x3e84e48c	0.25955617
74	0xbdb35cea	-0.08757956
75	0xbe7fbcf4	-0.24974424
76	0xbdbf6854	-0.09346071
77	0xbe865c59	-0.2624233
78	0x3d7a41aa	0.06109778
79	0xbe912f3a	-0.28356344
80	0xbca157bd	-0.019695157
81	0x3e2fab10	0.17155099
82	0xbda53328	-0.08066398
83	0xbc955d3e	-0.018232938
84	0x3e461453	0.1934369
85	0x3d8a1288	0.06741816
86	0x3d8eec39	0.0697865
87	0x3e7425d2	0.23842552
88	0x3e584dd8	0.21123445
89	0xbdcc0a0a	-0.09962852
90	0xbe7ad359	-0.24494685
91	0xbcb9bb80	-0.022672415
92	0xbe8ca35a	-0.27468377
93	0xbe3cfe8b	-0.18456475
94	0xbe9d09c6	-0.3067152
95	0xbd2ad2ef	-0.04170507

invResBlocks.0.pointwise.weight f4 [32, 96, 1, 1]
0	0x3dcd23bf	0.10016584
1	0x3e028e9e	0.12749717
2	0xbe2988fd	-0.16556163
3	0x3e1346a8	0.14382422
4	0x3c01266f	0.007882698
5	0xbe271dfd	-0.16320033
6	0x3c1d152d	0.009587568
7	0x3df0a8aa	0.1175092
8	0xbe0f4b3f	-0.13993548
9	0xbd6b2cfe	-0.057415955
10	0x3d898c8b	0.067162596
11	0xbe30459a	-0.17214051
12	0x3dbfe0c6	0.09369044
13	0xbe402319	-0.18763389
14	0xbceb7b5a	-0.028745342
15	0xbd834d17	-0.06411188
16	0x3d5bce27	0.0536634
17	0x3e9805b8	0.29691863
18	0xbd621878	-0.055199116
19	0xbe1f16fc	-0.15536112
20	0xbcfdac8d	-0.030966068
21	0xbe1dfc3b	-0.1542825
22	0x3da77082	0.08175756
23	0x3d9639a2	0.07335211
24	0x3da49706	0.08036618
25	0x3e80d0ab	0.251592
26	0xbd6a4bbf	-0.057201143
27	0x3ce10c5d	0.027471716
28	0x3e516457	0.20448433
29	0x3e9f31b4	0.31092608
30	0x3d0499a2	0.03237308
31	0xbddce73e	-0.107862934
32	0xbdc86d1f	-0.09786438
33	0x3dc07815	0.09397904
34	0xbb0e6f84	-0.002173395
35	0x3e988a1f	0.29792878
36	0x3daaf5c2	0.08347656
37	0x3d91c1ef	0.07117068
38	0xbda8603d	-0.08221481
39	0x3ca61db1	0.02027783
40	0x3dbb7bdc	0.09154484
41	0x3d94c5be	0.07264279
42	0x3d11de57	0.03561243
43	0xbcd9d55e	-0.026591
44	0x3dc1b6d7	0.09458702
45	0x3cb531d2	0.022118483
46	0xbdcd1bac	-0.100150436
47	0xbe446b8b	-0.1918165
48	0x3dbcf28d	0.092259504
49	0xbd821e15	-0.06353394
50	0x3ea32e2a	0.31871158
51	0xbe7b57dd	-0.24545236
52	0xbe1f8dfe	-0.1558151
53	0x3decd8c8	0.11564785
54	0x3e4c2545	0.19936092
55	0xbb62da62	-0.003461503
56	0x3ccf0a07	0.025273336
57	0xbc91a49d	-0.017778689
58	0xbe2deb93	-0.16984396
59	0x3d0dede6	0.034650706
60	0xbf00278f	-0.5006036
61	0xbdd7f629	-0.10544998
62	0x3e9979dc	0.29975784
63	0x3d79e446	0.061008714
64	0xbdddaed0	-0.108243585
65	0x3eb6684f	0.35626456
66	0x3e27c4e9	0.16383709
67	0xbdacad29	-0.08431465
68	0xbea2ec81	-0.31821063
69	0x3e456184	0.1927548
70	0x3e3d56d9	0.18490161
71	0x3db9ec6d	0.09078298
72	0x3e469ce4	0.19395787
73	0xbcee5327	-0.029092385
74	0x3c9b3f1c	0.018950991
75	0xbccd0b50	-0.025029808
76	0x3e84ac37	0.2591264
77	0x3d9e7a98	0.07738227
78	0x3c9ea963	0.01936788
79	0x3dedf111	0.116182454
80	0x3d8a91dd	0.067661025
81	0xbd370374	-0.044681028
82	0x3ca06f7c	0.01958441
83	0x3d87bcad	0.06627784
84	0xbd9205f3	-0.07130041
85	0x3e6a4fc5	0.22881992
86	0x3cd830c4	0.02639044
87	0xbabb1143	-0.0014272112
88	0xbda46b82	-0.08028318
89	0x3e6b1374	0.2295664
90	0x3e8ac702	0.27104956
91	0xbd3c5761	-0.04598177
92	0x3c9e3922	0.019314352
93	0xbc8f997a	-0.017529238
94	0x3928fbf2	0.00016115585
95	0xbe5d96da	-0.21639577
96	0xbe913f54	-0.28368628
97	0xbe877680	-0.26457596
98	0xbe5677c4	-0.20944124
99	0x3e63f61c	0.22261852
100	0xbd2ea615	-0.042638857
101	0x3e67173f	0.22567461
102	0x3c8e774c	0.01739087
103	0x3d6afc94	0.057369784
104	0x3d7357c9	0.05940989
105	0x3cdc5cb6	0.026899677
106	0x3e4586c6	0.19289693
107	0xbe57654d	-0.21034737
108	0x3ea7f405	0.3280336
109	0xbde406a2	-0.111340776
110	0xbea5492c	-0.32282388
111	0xbda52949	-0.08064515
112	0x3e1f7ced	0.15574999
113	0x3d87c0f2	0.06628598
114	0xbb8995e9	-0.004198779
115	0x3e050d6f	0.12993406
116	0x3d56d625	0.052450318
117	0xbc7bf3c3	-0.015377942
118	0xbe36954c	-0.1783039
119	0x3e63419d	0.22192998
120	0x3d968e41	0.073513515
121	0xbe68dd95	-0.22740777
122	0xbd208a56	-0.039194427
123	0xbccbba20	-0.024869025
124	0xbe8bc280	-0.2729683
125	0xbcad24a9	-0.021135645
126	0xbe4ba157	-0.19885765
127	0x3e7fa444	0.24965006
128	0x3e934cf0	0.28769636
129	0xbe0391bf	-0.12848566
130	0x3deca3f2	0.115547076
131	0x3da6db78	0.08147329
132	0x3e712b8e	0.23551771
133	0x3de5b0b7	0.11215346
134	0xb9775bb7	-0.00023589922
135	0x3d789c52	0.060695954
136	0xbe0112f1	-0.12604882
137	0xbcd3b68a	-0.025843877
138	0x3db5e0e0	0.08880782
139	0x3df40aed	0.119161464
140	0x3eab3c85	0.3344461
141	0x3e3756a3	0.17904143
142	0x3e9c50d8	0.3053043
143	0xbe31d30f	-0.17365669
144	0x3eafd223	0.3434001
145	0xbd372070	-0.04470867
146	0xbd0b33c1	-0.033984903
147	0xbda871d2	-0.082248345
148	0xbded493e	-0.115862355
149	0x3d2b3485	0.041798133
150	0xbcb52e21	-0.022116723
151	0xbe6d49f8	-0.23172748
152	0xbe27bde8	-0.16381037
153	0x3d172e47	0.036909368
154	0x3dd9ec8d	0.106408216
155	0x3d7f8228	0.062379986
156	0x3e2fb556	0.17159018
157	0x3e329257	0.17438637
158	0x3d0c1c26	0.034206532
159	0x3dd9ee13	0.10641112
160	0x3dd1b736	0.10240023
161	0x3e3d99d2	0.18515709
162	0x3dd4b348	0.10385758
163	0xbe0808a8	-0.13284552
164	0x3e67760b	0.22603624
165	0x3cbfa705	0.02339507
166	0x3eb4caa6	0.35310858
167	0xbdef55e4	-0.11686304
168	0x3dc5b38f	0.09653389
169	0xbe6d6cdc	-0.23186058
170	0x3ef84aee	0.48494667
171	0x3e83a5bf	0.25712392
172	0xbd36c5f9	-0.044622395
173	0x3d6a8ba4	0.057262078
174	0xbaa5ba93	-0.0012644104
175	0x3e815445	0.25259605
176	0x3c542147	0.012947387
177	0x3e802c54	0.2503382
178	0x3d1cf199	0.038316343
179	0xbc644752	-0.01393302
180	0x3e849937	0.25898144
181	0xbea1ad3b	-0.31577477
182	0x3d49adc8	0.049237996
183	0x3d914993	0.07094111
184	0xbe090a70	-0.13382888
185	0x3d68f66a	0.056875624
186	0x3c7d0d46	0.015445059
187	0xbe0caa3c	-0.13736814
188	0x3e7bbe5d	0.24584337
189	0xbd2a8dec	-0.041639253
190	0x3d57a441	0.05264688
191	0x3cdf60af	0.027267782
192	0x3d8a267c	0.067456216
193	0x3e2dbfdd	0.16967721
194	0xbe55d222	-0.2088094
195	0xbe47d15e	-0.19513461
196	0xbe203e78	-0.1564883
197	0xbd08a041	-0.033355955
198	0xbe0ce9f5	-0.13761123
199	0xbcfda526	-0.030962538
200	0x3dc18d42	0.09450771
201	0xbe928a3f	-0.28621098
202	0x3c1a1249	0.009403774
203	0xbbb58fb4	-0.0055408124
204	0x3e43211b	0.19055597
205	0xbdce3cc4	-0.10070184
206	0xbd2805e1	-0.04102123
207	0xbe5fb95b	-0.21848051
208	0xbdd3f609	-0.10349662
209	0xbdc15f63	-0.09442022
210	0xbe1ea79a	-0.15493622
211	0x3d71b597	0.05901107
212	0x3f05960a	0.52182066
213	0xbe940df6	-0.289169
214	0x3e2043c1	0.15650846
215	0x3dd6869a	0.10474892
216	0x3c7bb754	0.015363533
217	0x3e67c421	0.22633411
218	0x3d718a0e	0.05896955
219	0xbba7c65e	-0.0051200828
220	0xbd9abc7d	-0.075554825
221	0xbe8743b5	-0.26418844
222	0xbc57d5a4	-0.0131734945
223	0x3e4e9fe5	0.20178182
224	0xbe485222	-0.19562581
225	0xbd749e64	-0.059721366
226	0x3c568832	0.013093995
227	0x3e49457d	0.19655414
228	0x3b2bef53	0.0026235178
229	0xbdc5796d	-0.09642301
230	0xbcb82b47	-0.022481574
231	0xbd0076eb	-0.03136341
232	0x3d8daf9b	0.0691826
233	0x3d77aa89	0.06046537
234	0xbcdbb00c	-0.026817344
235	0xbdf377f5	-0.11888114
236	0xbda88d54	-0.08230081
237	0x3e8dddf1	0.2770839
238	0x3dc7029b	0.09717294
239	0xbd34f6e1	-0.044180755
240	0xbea44078	-0.32080436
241	0x3d57e4ff	0.052708622
242	0xbe4edb0d	-0.20200749
243	0xbe362dc4	-0.17790896
244	0xbe950f43	-0.29113206
245	0xbe9f4d49	-0.3111365
246	0x3df2ad49	0.11849458
247	0x3d3844a1	0.044987325
248	0xbe5c8fb1	-0.21539189
249	0xbbf36c28	-0.0074286647
250	0xbe517ff5	-0.20458968
251	0x3d9fafb4	0.077971846
252	0xbeab5da1	-0.3346987
253	0x3e26d1db	0.16290991
254	0x3d7d5e1b	0.061857324
255	0x3e00e5c6	0.12587652

invResBlocks.0.pointwise.bias f4 [32]
0	0xbd511ba3	-0.051051747
1	0xbd062ee2	-0.032759555
2	0xbd2c46c2	-0.042059667
3	0xbcf3ed9b	-0.029776385
4	0x3d3e7536	0.0464985
5	0x3db166e9	0.08662207
6	0x3ba4f7a0	0.005034402
7	0xbd47b519	-0.048756693
8	0xbd78faca	-0.060786046
9	0x3d8c1a23	0.06840923
10	0xbdaa9aef	-0.083303325
11	0xbd953752	-0.07285942
12	0xbda9885c	-0.082779616
13	0xbdb360b6	-0.087586805
14	0xbd91547e	-0.07096194
15	0x3d967c5c	0.073479384
16	0x3db7ee42	0.08980991
17	0x3d9b6761	0.07588077
18	0x3c1328f3	0.008981931
19	0xbd6c45e5	-0.057683844
20	0x3d523281	0.051317696
21	0xbcadbfe7	-0.02120967
22	0x3d2c68bb	0.042092066
23	0x3dbafd28	0.09130317
24	0x3d7c7c22	0.06164182
25	0x3d9a7654	0.075421005
26	0x3d9d68ee	0.076860294
27	0x3d91b63a	0.07114835
28	0xbd88f611	-0.066875584
29	0xbdbcd2bb	-0.09219881
30	0x3c3093c7	0.01077742
31	0x3c356686	0.011071807

invResBlocks.0.batchNorm1.weight f4 [96]
0	0x3f70647a	0.93903315
1	0x3f637a71	0.88858706
2	0x3f7f704e	0.9978074
3	0x3f6e8dec	0.93185306
4	0x3f5edb56	0.8705343
5	0x3f5f6951	0.87270075
6	0x3f6ffb63	0.9374296
7	0x3f878a46	1.0589073
8	0x3f6990ce	0.9123658
9	0x3f6782bc	0.9043386
10	0x3f7d27e3	0.9888899
11	0x3f81d0ea	1.014188
12	0x3f7fd189	0.999291
13	0x3f571a39	0.8402439
14	0x3f6312ba	0.8870045
15	0x3f86ce8f	1.0531787
16	0x3f76f527	0.9646782
17	0x3f8d7dc2	1.1054003
18	0x3f7b61b1	0.9819594
19	0x3f86f12c	1.054235
20	0x3f8f1b57	1.1180218
21	0x3f84b067	1.0366334
22	0x3f4671a5	0.7751716
23	0x3f84f095	1.038592
24	0x3f807a13	1.0037254
25	0x3f77c8dd	0.9679087
26	0x3f814d47	1.0101708
27	0x3f6b827d	0.91995984
28	0x3f875943	1.0574116
29	0x3f7705f4	0.9649346
30	0x3f75b98e	0.9598626
31	0x3f7fab66	0.9987091
32	0x3f773e59	0.9657951
33	0x3f64e686	0.8941425
34	0x3f70635a	0.939016
35	0x3f7a2c64	0.97723985
36	0x3f8b80cd	1.0898682
37	0x3f849b91	1.0359975
38	0x3f8375cf	1.0270327
39	0x3f713560	0.9422207
40	0x3f74d394	0.9563534
41	0x3f7d343d	0.98907834
42	0x3fa121b0	1.2588406
43	0x3f822e31	1.0170346
44	0x3f90aa69	1.1302005
45	0x3f80b419	1.0054961
46	0x3f746259	0.95462567
47	0x3f6305d1	0.8868075
48	0x3f74297b	0.95375794
49	0x3f570f59	0.84007794
50	0x3f788a00	0.9708557
51	0x3f8385bc	1.0275187
52	0x3f5e4e37	0.86838096
53	0x3f6ccbdb	0.9249856
54	0x3f91b52d	1.1383415
55	0x3f59e1ab	0.85109967
56	0x3f806b12	1.0032675
57	0x3f413a21	0.7547932
58	0x3f819fd8	1.0126905
59	0x3f5d4ba2	0.8644353
60	0x3f887e73	1.0663589
61	0x3f721c0a	0.94574034
62	0x3f799ad1	0.97501856
63	0x3f5c4680	0.86045074
64	0x3f8d6145	1.1045309
65	0x3f86d5fd	1.0534054
66	0x3f88e8dd	1.0696064
67	0x3f589ae7	0.8461136
68	0x3f860fe8	1.0473604
69	0x3f836bd8	1.0267286
70	0x3f729e65	0.9477294
71	0x3f5da661	0.86582
72	0x3f6b7384	0.9197314
73	0x3f2a5404	0.6653445
74	0x3f898bc6	1.074578
75	0x3f785005	0.969971
76	0x3f6e1401	0.92999274
77	0x3f7a12c1	0.97684866
78	0x3f5ed45b	0.8704278
79	0x3f6e22ec	0.93022037
80	0x3f52b362	0.82304966
81	0x3f80d4c3	1.006493
82	0x3f990283	1.1953892
83	0x3f5a177c	0.85192084
84	0x3f7b20c1	0.98096853
85	0x3f846651	1.0343724
86	0x3f811465	1.0084349
87	0x3f7d3b4e	0.98918617
88	0x3f55f2f6	0.83573854
89	0x3f87d6a2	1.0612376
90	0x3f532e4e	0.8249253
91	0x3f52aeae	0.8229779
92	0x3f83412f	1.0254267
93	0x3f816d63	1.0111507
94	0x3f4721ef	0.77786154
95	0x3f6ef8ed	0.9334858

invResBlocks.0.batchNorm1.bias f4 [96]
0	0x3e593673	0.21212177
1	0x3e2c63bb	0.16834919
2	0x3da1721a	0.07883091
3	0xbe410a15	-0.18851502
4	0x3eb642ec	0.35597932
5	0x3c4b98c3	0.012426558
6	0x3e965a8c	0.29365957
7	0x3e465c84	0.1937123
8	0x3dba11f0	0.090854526
9	0x3e5a71ac	0.21332425
10	0x3eb4cffe	0.35314935
11	0x3f0143ff	0.5049438
12	0x3ed67a3a	0.41890126
13	0xbc7e93d9	-0.015538179
14	0x3ef34b3f	0.47518346
15	0xbd1162d6	-0.035494648
16	0x3de74be6	0.11293773
17	0x3d341367	0.043963816
18	0xbced06d8	-0.028933927
19	0x3dd2ee94	0.102994114
20	0x3bbfd297	0.0058539617
21	0xbd8c8225	-0.068607606
22	0xbe35691c	-0.17715877
23	0xbd8a427f	-0.067509644
24	0x3c9d1c4d	0.019178534
25	0x3ee4ae94	0.44664443
26	0x3def764e	0.11692487
27	0x3df98350	0.12183249
28	0x3e04b0e0	0.12958097
29	0x3e797302	0.24360278
30	0x3e85cb63	0.26131734
31	0x3efeede1	0.49790862
32	0x3d9ec7cf	0.07752954
33	0x3e60bfa7	0.2194811
34	0x3e8d57d0	0.27606058
35	0xbe0ae18b	-0.135626
36	0xbc13be87	-0.009017593
37	0x3e3a37f0	0.18185401
38	0xbdf80e35	-0.12112085
39	0xbd640c64	-0.05567588
40	0xbddc832b	-0.10767206
41	0x3ebb13d3	0.36538562
42	0x3d138db8	0.036023825
43	0x3e3715af	0.17879365
44	0xbd4e98af	-0.05043858
45	0xbe9bf5fa	-0.30461103
46	0x3df14da1	0.11782385
47	0x3ec9c979	0.39411524
48	0x3f3c427a	0.73538935
49	0x3e3a1afb	0.18174355
50	0x3d73824d	0.059450436
51	0x3ee8f8f9	0.4550245
52	0x3f11ec9e	0.57001674
53	0x3e75032f	0.23926996
54	0x3ec64868	0.38727117
55	0x3d784016	0.060607992
56	0xbd4aa47d	-0.049473274
57	0x3daddd7f	0.08489513
58	0x3eefe6db	0.46855816
59	0x3e966591	0.29374364
60	0x3e101e3d	0.14074035
61	0x3e308f6b	0.1724221
62	0x3d28de86	0.04122784
63	0x3e1af4ab	0.15132396
64	0xbdfb4cdb	-0.122705184
65	0x3eeaae53	0.45836124
66	0x3e584813	0.21121244
67	0xbd016192	-0.03158719
68	0x3ecb887c	0.39752567
69	0x3f314355	0.69243366
70	0x3e67b2ea	0.22626844
71	0xbdbd3a3c	-0.09239623
72	0x3e75ad11	0.23991801
73	0xbc91fa6d	-0.017819608
74	0xbd2a4301	-0.041567806
75	0x3e9ce1f9	0.30641153
76	0x3ce87bfa	0.02837943
77	0x3d5d873c	0.054084048
78	0x3e88968f	0.26677367
79	0x3f0ebc79	0.55756336
80	0xbdf4ba86	-0.11949639
81	0xbb978851	-0.0046244045
82	0x3ca688bc	0.020328872
83	0xbe20e0cf	-0.15710758
84	0x3e086ea2	0.13323453
85	0x3dd473a6	0.10373621
86	0xbde77e53	-0.11303391
87	0xbe1e5531	-0.15462185
88	0x3b35c1ae	0.002773385
89	0x3f19a659	0.6001945
90	0x3e914d2e	0.28379196
91	0x3eac48aa	0.33649188
92	0x3e8ac487	0.27103063
93	0x3db0e2da	0.086370185
94	0x3dee11eb	0.11624511
95	0xbcc87bb2	-0.024473045

invResBlocks.0.batchNorm1.running_mean f4 [96]
0	0xbe02a704	-0.12759024
1	0xbee14a54	-0.4400202
2	0xbe12a799	-0.14321746
3	0xbf0bfaf9	-0.5467983
4	0xbec88045	-0.39160362
5	0x3ebbb4f0	0.36661482
6	0xbf3fb8ed	-0.7489155
7	0x3f247d99	0.64254147
8	0x3e1ed3ee	0.15510532
9	0xbec4b057	-0.38415787
10	0xbe4e6462	-0.2015548
11	0x3dfe3357	0.12412136
12	0xbdf2dd3c	-0.11858603
13	0xbc44cb16	-0.01201131
14	0x3e942859	0.28937033
15	0xbe964ea9	-0.29356888
16	0xbf255770	-0.64586544
17	0xbf408ffa	-0.7521969
18	0xbeb47a0f	-0.35249373
19	0xbf089148	-0.5334668
20	0xbeaf1d9f	-0.34202287
21	0xbea9a8dd	-0.33136645
22	0x3e6bce6d	0.23027964
23	0x3df2b2c4	0.11850503
24	0xbe4ad9c5	-0.19809635
25	0xbebf2323	-0.37331495
26	0xbf196a1b	-0.5992753
27	0x3dc2c0a2	0.09509398
28	0x3d594158	0.053040832
29	0xbb503465	-0.003176951
30	0x3d6e18ca	0.05812911
31	0x3f28da53	0.65958136
32	0xbecc10ab	-0.39856467
33	0xbec8da4f	-0.39229056
34	0xbe97d04a	-0.296511
35	0xbe7de8b5	-0.24795802
36	0x3e244e4a	0.1604549
37	0xbe012857	-0.12613045
38	0xbec56d4d	-0.38559952
39	0xbcae03b7	-0.021242006
40	0xbed4e4c1	-0.41580775
41	0xbf150d16	-0.5822309
42	0xbe87184d	-0.26385728
43	0xbe8fc912	-0.28083092
44	0xbf04abf5	-0.51824886
45	0xbdddace3	-0.10823991
46	0x3e5505db	0.20803015
47	0xbf12cb19	-0.5734115
48	0xbf5a8807	-0.8536381
49	0xbec50bb5	-0.38485494
50	0xbe61483a	-0.22000208
51	0xbf5082bf	-0.814495
52	0xbf0e1e04	-0.5551455
53	0xbe95e2bf	-0.29274556
54	0xbeaab0f6	-0.33338135
55	0xbd845da9	-0.06463177
56	0xbe07b0e3	-0.1325107
57	0xbe069405	-0.13142402
58	0xbe8762d9	-0.26442602
59	0xbea37b24	-0.31929886
60	0x3e666a46	0.22501478
61	0x3d83cf08	0.064359725
62	0x3e861f29	0.26195648
63	0x3e8ea300	0.27858734
64	0xbe90791f	-0.28217408
65	0xbf1ed6b6	-0.6204637
66	0xbefba3fc	-0.49148548
67	0xbf28b0dd	-0.6589487
68	0x3e99bc51	0.30026487
69	0xbf08d656	-0.5345205
70	0xbe956f6c	-0.2918657
71	0x3e81241b	0.2522286
72	0xbe5842a6	-0.21119174
73	0xbe25ab49	-0.16178621
74	0xbe26f1e1	-0.16303207
75	0xbf5bbe18	-0.85836935
76	0x3cce9e94	0.0252221
77	0xbeca79e1	-0.3954611
78	0xbe0ab6ff	-0.1354637
79	0x3d352cf9	0.044232342
80	0x3e7af9be	0.24509332
81	0xbd6e1970	-0.058129728
82	0x3e44c7e2	0.19216874
83	0x3ed8dd18	0.4235618
84	0xbeb60b2b	-0.35555395
85	0xbdf6c4f5	-0.12049285
86	0xbd80ee8e	-0.06295501
87	0xbee40cc3	-0.44540986
88	0x3e519aae	0.20469162
89	0xbeb4e83c	-0.3533343
90	0xbeb55a7b	-0.35420594
91	0xbeb309fa	-0.3496855
92	0xbee80ae5	-0.45320812
93	0xbf13b8f2	-0.5770408
94	0xbf2949b9	-0.66128117
95	0xbf235031	-0.6379424

invResBlocks.0.batchNorm1.running_var f4 [96]
0	0x3f122179	0.57082325
1	0x3e9af854	0.30267584
2	0x3f1bf9d6	0.60928094
3	0x3e816e3e	0.2527942
4	0x3e596c79	0.21232785
5	0x3e4cfc70	0.20018172
6	0x3ed7a517	0.4211814
7	0x3f11bbec	0.5692737
8	0x3e757a70	0.23972487
9	0x3e84c1c2	0.25929075
10	0x3edf77fa	0.43646222
11	0x3f281585	0.65657836
12	0x3f04dccb	0.51899403
13	0x3e6a6bb4	0.22892648
14	0x3eba4500	0.36380768
15	0x3ee5076e	0.4473223
16	0x3eb58668	0.35454106
17	0x3efeb60c	0.49748266
18	0x3e99c6f6	0.30034608
19	0x3f0613dd	0.5237406
20	0x3ec3df72	0.38256413
21	0x3e9ce377	0.30642292
22	0x3e94d6c0	0.2907009
23	0x3e9dcebc	0.30821788
24	0x3eab46dd	0.33452502
25	0x3f1fbc6f	0.623969
26	0x3ed6a4cb	0.41922602
27	0x3e6b0e6f	0.22954725
28	0x3eb41a85	0.35176483
29	0x3ef30765	0.4746658
30	0x3ec4ca76	0.38435715
31	0x3f1965a5	0.5992072
32	0x3ed4b09a	0.41540986
33	0x3ecd7276	0.4012639
34	0x3e92ae96	0.28648823
35	0x3ec9bcc6	0.39401835
36	0x3f204083	0.6259844
37	0x3e9b6082	0.30347067
38	0x3ef8b102	0.48572546
39	0x3e16995a	0.14706936
40	0x3e827b0c	0.25484502
41	0x3e673399	0.22578277
42	0x3f804084	1.0019689
43	0x3ec31570	0.38102293
44	0x3f149f5f	0.5805568
45	0x3dfe77a5	0.12425164
46	0x3eb54134	0.3540131
47	0x3f09f7e0	0.5389385
48	0x3f51c8f6	0.8194727
49	0x3ed93e4d	0.42430344
50	0x3e6cfac3	0.23142533
51	0x3f17d53e	0.59309757
52	0x3eef7246	0.4676687
53	0x3eb26c77	0.34848377
54	0x3f288569	0.6582857
55	0x3e971193	0.29505596
56	0x3ea4cad9	0.3218601
57	0x3e72b219	0.23700751
58	0x3f06b04b	0.5261275
59	0x3edb396c	0.42817247
60	0x3f1278e3	0.5721571
61	0x3e944859	0.28961447
62	0x3e837155	0.25672403
63	0x3eab0b4b	0.33407053
64	0x3f10d98a	0.5658194
65	0x3f1407f8	0.5782466
66	0x3e99429a	0.29933625
67	0x3dd55438	0.10416454
68	0x3f22ebf2	0.63641274
69	0x3f7cc039	0.9873081
70	0x3ef1fc0f	0.47262618
71	0x3e4d94fa	0.20076361
72	0x3e996a7c	0.29964054
73	0x3e65cc54	0.22441226
74	0x3ed547af	0.41656253
75	0x3ece81d1	0.40333417
76	0x3ec6ee7f	0.38853833
77	0x3f1531a9	0.582789
78	0x3ecd1654	0.40056098
79	0x3f28b96a	0.6590792
80	0x3e383ff6	0.17993149
81	0x3ef88ef2	0.4854656
82	0x3f1d385f	0.6141414
83	0x3e61c9af	0.22049592
84	0x3e269daf	0.16271089
85	0x3ed4d237	0.4156663
86	0x3e8aacfc	0.27085102
87	0x3eb64c2b	0.35604987
88	0x3e109dc5	0.14122684
89	0x3f41cd46	0.7570385
90	0x3eae0425	0.33987537
91	0x3ecc6d0a	0.3992694
92	0x3f063a40	0.5243263
93	0x3e89828b	0.2685741
94	0x3ed85751	0.42254117
95	0x3e3c2d0d	0.1837656

invResBlocks.0.batchNorm2.weight f4 [32]
0	0x3f82f42a	1.0230763
1	0x3fa7a5ee	1.3097513
2	0x3f8e9603	1.113953
3	0x3f8c6f09	1.0971385
4	0x3fa42b9d	1.282581
5	0x3f8ce18f	1.1006335
6	0x3f7d5697	0.9896025
7	0x3f88e950	1.0696201
8	0x3f6c6431	0.9234038
9	0x3f9b807b	1.2148584
10	0x3f8ca260	1.0987053
11	0x3f9d3660	1.2282219
12	0x3f7b011e	0.9804858
13	0x3f950272	1.1641371
14	0x3f9011c1	1.1255418
15	0x3f7bacf6	0.9831079
16	0x3f7e947d	0.99445325
17	0x3f931637	1.1491154
18	0x3f7925e6	0.97323453
19	0x3f73413d	0.9502142
20	0x3f80d6ee	1.0065591
21	0x3f81df58	1.0146284
22	0x3f91d336	1.1392581
23	0x3f999760	1.1999321
24	0x3f9ed611	1.2409078
25	0x3f807140	1.0034561
26	0x3f8a35bd	1.079765
27	0x3f9af894	1.210711
28	0x3f9365f0	1.1515484
29	0x3f7e704d	0.9939011
30	0x3f82bbee	1.0213602
31	0x3f6d6a9d	0.92740804

invResBlocks.0.batchNorm2.bias f4 [32]
0	0xb48b12cd	-2.5904447e-07
1	0xb3bf5ee2	-8.91139e-08
2	0xb3dab97a	-1.0185154e-07
3	0x32ffc021	2.9773277e-08
4	0xb28ca45e	-1.637289e-08
5	0x33749170	5.694295e-08
6	0xb3109aef	-3.3668524e-08
7	0xb29af6d8	-1.8040211e-08
8	0x3380461f	5.9732194e-08
9	0xb4b2102a	-3.3166845e-07
10	0xb2e535ae	-2.668352e-08
11	0x33ca5890	9.4224674e-08
12	0xb384ea12	-6.189306e-08
13	0xb45be7c5	-2.0480282e-07
14	0xb2d8cff5	-2.5240277e-08
15	0x33ff8a60	1.1899533e-07
16	0xb2ff555f	-2.972473e-08
17	0x303b6ddd	6.818633e-10
18	0xb3c16487	-9.005549e-08
19	0x345c77af	2.0532637e-07
20	0xb19e48b3	-4.60667e-09
21	0x34907cb3	2.691282e-07
22	0xb4091719	-1.2767522e-07
23	0xb428019e	-1.5646808e-07
24	0xb3ee8ccb	-1.1108349e-07
25	0xb351127e	-4.8678423e-08
26	0xb4877b78	-2.5235545e-07
27	0x33271ad7	3.8907128e-08
28	0xb3da58e7	-1.0167587e-07
29	0x33872c25	6.294457e-08
30	0x34695217	2.172968e-07
31	0xb355740b	-4.9698468e-08

invResBlocks.0.batchNorm2.running_mean f4 [32]
0	0x3f8f4cf2	1.1195357
1	0x3fd3c121	1.6543313
2	0xbf3b04fb	-0.73054475
3	0xbf470ff4	-0.7775872
4	0xbf818176	-1.0117633
5	0x3f29b588	0.6629262
6	0xbfed635a	-1.8545945
7	0xbd751923	-0.059838425
8	0xbf75996c	-0.9593723
9	0xbf2ee9f4	-0.68325734
10	0x3e8d5d23	0.2761012
11	0xbf81afed	-1.0131813
12	0x3f44d1bc	0.7688253
13	0xbf7e6857	-0.9937796
14	0x3dd110b2	0.102082625
15	0xbf12044f	-0.57037824
16	0x3d87f3ec	0.06638321
17	0x3fb6f5b8	1.4293737
18	0x3f7e15d0	0.99252033
19	0xbef25b05	-0.47335067
20	0x3fe1ed2e	1.7650506
21	0xbee24089	-0.4418986
22	0x40139176	2.3057532
23	0xbf400db8	-0.75020933
24	0xbf7ad739	-0.97984654
25	0x3e309e59	0.17247905
26	0x3f1bc2e7	0.6084427
27	0xc060564c	-3.5052671
28	0xbeae7a8d	-0.34077874
29	0xbfc741a3	-1.5566906
30	0x3f620e13	0.88302726
31	0xbf302f40	-0.688221

invResBlocks.0.batchNorm2.running_var f4 [32]
0	0x40141e39	2.3143446
1	0x40366dd4	2.8504534
2	0x3fd1b55d	1.6383473
3	0x40150200	2.328247
4	0x404f020f	3.2345006
5	0x401b7c25	2.4294522
6	0x40183974	2.3785067
7	0x3ff23eb2	1.8925383
8	0x3fbe2fac	1.4858298
9	0x405db0cd	3.463916
10	0x4001d2c8	2.02849
11	0x407711cd	3.8604615
12	0x4013edd1	2.3113902
13	0x4033753c	2.8040304
14	0x402e7d64	2.7264032
15	0x3fc1ec0c	1.5150161
16	0x3ffe05dc	1.9845538
17	0x402facda	2.744925
18	0x4006323e	2.0968165
19	0x3fe4b479	1.7867576
20	0x40280f3b	2.6259296
21	0x3ff79aaf	1.9344081
22	0x3fc452a0	1.5337715
23	0x4039be85	2.9022534
24	0x405e61ac	3.4747114
25	0x3f906cf8	1.1283255
26	0x400a166b	2.1576183
27	0x400ac447	2.1682298
28	0x402d10fe	2.7041621
29	0x3fec4b89	1.8460552
30	0x3fdf8129	1.7461292
31	0x401221c9	2.283312
