LAB 3/Results/my_net3.ckpt (torch, 545289 bytes, 46 tensors)

conv1.weight f4 [32, 3, 3, 3]
0	0xbed2e106	-0.41187304
1	0xbd91129b	-0.07083627
2	0xbd8f5c89	-0.070000716
3	0x3cf4d011	0.02988437
4	0x3deaf223	0.11471965
5	0x3e976452	0.29568726
6	0x3e28fb8c	0.16502208
7	0x3db4343c	0.087990254
8	0x3e7f6b46	0.24943265
9	0xbf009f25	-0.50242835
10	0xbe7be226	-0.24597988
11	0xbcda4655	-0.026644865
12	0xbe254858	-0.16140878
13	0x3e690bb7	0.22758375
14	0x3e7db54c	0.2477619
15	0x3eca3e94	0.39500868
16	0x3cdaffe0	0.026733339
17	0x3d8fb59b	0.0701706
18	0xbf189abf	-0.59611124
19	0xbf03f8be	-0.51551425
20	0xbe21ca46	-0.15799817
21	0xbd33dc5a	-0.043911316
22	0xbd70f6c9	-0.058829103
23	0x3e7c8e1a	0.24663582
24	0x3df0ddc8	0.117610514
25	0x3db41608	0.087932646
26	0x3de52ff7	0.11190789
27	0xbe8fb160	-0.28065014
28	0x3cb06518	0.02153258
29	0x3c6f17a1	0.014593036
30	0xbe9386f8	-0.2881391
31	0xbdb12643	-0.08649876
32	0x3e517184	0.20453459
33	0xbcfff75c	-0.03124588
34	0x3e8bdf15	0.27318636
35	0x3ec3ca06	0.3824007
36	0xbe899306	-0.26869982
37	0xbe8c887d	-0.27447882
38	0xbe6897e6	-0.22714195
39	0xbd12a0d6	-0.035797916
40	0xbe3bfbd6	-0.18357787
41	0xbd2b42be	-0.041811697
42	0x3e10ca36	0.14139637
43	0x3e33427d	0.17505832
44	0x3e767735	0.24068911
45	0xbec55b54	-0.3854624
46	0xbe1ad40e	-0.15119955
47	0x3e002e2d	0.12517615
48	0xbe510b4e	-0.20414469
49	0x3d18c290	0.037294924
50	0xbc000f4d	-0.007816148
51	0xbdcdd6e7	-0.10050755
52	0x3e9038b9	0.28168276
53	0x3ec0c973	0.37653694
54	0x3e8ccfd7	0.2750232
55	0x3dd6bfce	0.104858026
56	0x3e62cde0	0.22148848
57	0x3e66b578	0.22530162
58	0x3e5441f4	0.20728284
59	0x3c055b9b	0.008139516
60	0xbe840476	-0.25784653
61	0x3ddd275f	0.10798525
62	0x3e62fe6a	0.22167364
63	0xbcdce66f	-0.026965348
64	0x3e6093f9	0.21931447
65	0x3e715995	0.23569329
66	0xbd34a0bf	-0.044098612
67	0x3e29a54b	0.1656696
68	0xbdcdb933	-0.100450896
69	0xbe46b4d0	-0.19404912
70	0xbe06a20a	-0.1314775
71	0xbdc74736	-0.09730379
72	0xbdb79a6d	-0.08965001
73	0x3d6ba562	0.05753077
74	0xbe1dc00a	-0.15405288
75	0x3d051e1c	0.032499418
76	0xbda8198a	-0.08207996
77	0x3e36b19c	0.1784119
78	0xbe31d0fb	-0.17364876
79	0xbc875f31	-0.016524883
80	0xbded4c59	-0.11586828
81	0x3d9e8973	0.0774106
82	0xbc512366	-0.012764787
83	0x3df881fe	0.12134169
84	0xbcd2db18	-0.025739238
85	0x3d6097b2	0.054832168
86	0x3e09011a	0.13379326
87	0xbb9aabf1	-0.004720204
88	0xbe536959	-0.20645656
89	0xbaebbd3c	-0.0017985473
90	0xbdd0ae1c	-0.10189459
91	0xbe0c36ef	-0.1369283
92	0xbe26aca3	-0.16276793
93	0x3ce34817	0.027744336
94	0x3da31100	0.07962227
95	0x3e140306	0.14454278
96	0x3d8fe523	0.07026126
97	0xbc2b2aa4	-0.010447178
98	0xbddc6d39	-0.1076302
99	0x3e53450b	0.20631807
100	0xbc62e27f	-0.013847946
101	0xbd362ead	-0.044478107
102	0xbd234b98	-0.039867014
103	0x3caf27fa	0.021381367
104	0x3d8fcf17	0.07021921
105	0xbe29c8e7	-0.16580544
106	0x3a9a90ad	0.0011792384
107	0xbe05cfd7	-0.13067566
108	0x3cf5c245	0.029999861
109	0xbd89c999	-0.06727905
110	0xbd81cf68	-0.06338388
111	0xbbf7c65a	-0.007561487
112	0x3def3354	0.11679712
113	0x3d6202ab	0.055178326
114	0x3c2291b7	0.009922436
115	0xbd61ebdf	-0.055156585
116	0x3e796eaf	0.24358629
117	0xbe1e1b40	-0.15440083
118	0x3d7e8530	0.062138736
119	0xbe1b0c93	-0.15141515
120	0xbdfbeaf1	-0.12300671
121	0xbe45b5ff	-0.19307707
122	0x3d37a836	0.044838153
123	0xbd3f98ec	-0.046776697
124	0xbd29b173	-0.041428994
125	0x3e778570	0.24171996
126	0x3dc561f9	0.096378274
127	0xbe324456	-0.1740888
128	0x3d9b9edf	0.07598662
129	0xbdfd9528	-0.12381965
130	0xbc9fd053	-0.019508516
131	0xbd861437	-0.065468244
132	0x3e0c4c0a	0.13700882
133	0xbcd78a69	-0.026311116
134	0x3c782cdc	0.015147414
135	0xbe3afccd	-0.18260498
136	0xbe67f2bd	-0.22651191
137	0xbca85048	-0.020546094
138	0x3d33fe55	0.04394372
139	0x3d2f75e2	0.04283703
140	0xbe287d4a	-0.16454044
141	0xbdb89ee2	-0.090146795
142	0x3e5cd571	0.21565796
143	0x3d9f7ac7	0.0778709
144	0xbe31a55c	-0.17348236
145	0x3e00cbc7	0.12577735
146	0xbe1085b1	-0.14113499
147	0xbbbb9edc	-0.0057257246
148	0xbe0a04c4	-0.1347838
149	0xbddf522c	-0.10904345
150	0xbd7e1904	-0.062035576
151	0x3e0a8cf0	0.13530326
152	0x3dd8ede1	0.10592247
153	0x3dade103	0.08490183
154	0x3d3125bd	0.04324888
155	0xbdbe3872	-0.0928811
156	0x3e49fe17	0.19725834
157	0x3dd93287	0.106053405
158	0xbd377b8b	-0.044795554
159	0x3d4011ab	0.04689185
160	0x3aa485c2	0.001255207
161	0x3ddd9cc5	0.10820917
162	0x3d832e08	0.06405264
163	0x3e8f8c6e	0.28036827
164	0x3dec52e4	0.11539248
165	0xbe912bac	-0.28353631
166	0x3e824308	0.25441766
167	0x3cacc879	0.021091687
168	0xbd466fa1	-0.0484463
169	0x3e432bc1	0.1905966
170	0xbc8a1186	-0.016854059
171	0xbdadc5a3	-0.08484962
172	0x3eb50805	0.3535768
173	0xbd80f2fe	-0.06296347
174	0xbd373de3	-0.044736754
175	0x3e1e08c2	0.15433028
176	0x3c3294f6	0.010899773
177	0xbe96cb76	-0.29452103
178	0xbd6e4408	-0.05817035
179	0x3e539f01	0.20666124
180	0xbe703210	-0.23456597
181	0x3cf7a98d	0.030232215
182	0x3def16da	0.116742805
183	0xbe00a0ce	-0.12561342
184	0x3dfd93ed	0.1238173
185	0x3de77a5f	0.11302637
186	0xbea8711c	-0.32898796
187	0xba1f3a48	-0.0006074053
188	0x3c86234c	0.016374253
189	0xbe66c643	-0.22536568
190	0xbe06632b	-0.13123767
191	0xbf15461d	-0.5831011
192	0x3f109cef	0.5648946
193	0x3dd7416a	0.105105236
194	0xbe95d01a	-0.2926033
195	0x3f693aad	0.9110516
196	0x3d8c9f08	0.0686627
197	0xbee9f04e	-0.4569115
198	0x3e956966	0.29181975
199	0xbd88dd72	-0.06682862
200	0xbf46712d	-0.7751644
201	0x3f818c62	1.0120966
202	0x3daac85d	0.083389975
203	0xbe8b5161	-0.27210525
204	0x3f9c8207	1.2227181
205	0x3ec38bee	0.38192695
206	0xbec030c0	-0.37537193
207	0xbe847fb5	-0.25878683
208	0xbecfdba8	-0.40597272
209	0xbf163f8d	-0.5869072
210	0x3e5fbee9	0.2185017
211	0x3db0c365	0.086310185
212	0xbeda0059	-0.4257839
213	0x3f366487	0.7124714
214	0xbddd7b24	-0.10814503
215	0xbe9ac2a7	-0.30226633
216	0x3e8a489e	0.27008528
217	0xbee7f6bb	-0.45305428
218	0x3e41a2f4	0.18909818
219	0x3e3d3e9d	0.18480916
220	0xbf2a2622	-0.66464436
221	0x3d9b452c	0.07581553
222	0x3ebd5111	0.3697591
223	0xbf22d057	-0.6359915
224	0x3eb53532	0.35392147
225	0x3f2071bf	0.6267356
226	0xbf297552	-0.6619464
227	0x3e2ca62a	0.16860262
228	0x3e850652	0.25981385
229	0xbf568682	-0.8379899
230	0x3daa1c77	0.083062105
231	0x3e17cc80	0.14824104
232	0xbf0fd207	-0.5617985
233	0x3e07a26e	0.13245556
234	0x3f38219f	0.719263
235	0xbed837cc	-0.4223007
236	0x3e85cc95	0.26132646
237	0x3e9b5fa8	0.30346417
238	0xbf2f4762	-0.68468297
239	0x3e8263fb	0.25466904
240	0x3ee52e7a	0.4476202
241	0xbf0425ab	-0.51619977
242	0x3ef0d769	0.47039345
243	0x3f01805e	0.505865
244	0xbd693ca6	-0.056942604
245	0xbcc0e9a6	-0.023548912
246	0x3ea58da2	0.3233462
247	0x3d8ae7a2	0.06782462
248	0xbd9e9f5c	-0.07745239
249	0xbd65cd94	-0.056104258
250	0x3d707fbf	0.05871558
251	0x3dbd2a1b	0.092365466
252	0x3f084223	0.53225917
253	0x3dc09943	0.09404232
254	0xbd50c422	-0.050968297
255	0x3e579ca1	0.21055843

conv1.bias f4 [32]
0	0x3d1525e3	0.036413085
1	0xbe168c79	-0.14702024
2	0xbeb21bd8	-0.34786868
3	0xbea31131	-0.31849054
4	0xbed462e8	-0.4148171
5	0xbe96ab78	-0.29427695
6	0xbe08f4a7	-0.13374577
7	0x3f0b58c2	0.5443231
8	0x3e5ee3b2	0.21766546
9	0xbcafe3ca	-0.021470923
10	0xbd5a2bc4	-0.053264394
11	0x3f191d11	0.59809977
12	0x3e5774b5	0.21040614
13	0xbe67ba98	-0.22629774
14	0xbd3ba4ca	-0.045811452
15	0x3cd40427	0.025880886
16	0x3cf9f17e	0.03051066
17	0xbd2665fa	-0.040624596
18	0x3cfbd4b9	0.030741083
19	0x3f1629ef	0.58657736
20	0x3f1e1d2b	0.61763257
21	0x3d0c4a76	0.0342507
22	0x3f89b9d9	1.0759841
23	0xbcf6c004	-0.030120857
24	0x3f2f0c18	0.6837783
25	0x3d90cfb4	0.07070866
26	0xbeac28aa	-0.33624774
27	0x3bcad2bd	0.0061896727
28	0xbe875551	-0.2643228
29	0xbe54de2e	-0.2078788
30	0xbe89c306	-0.26906604
31	0x3e97bf37	0.29638073

invResBlocks.0.expansion.weight f4 [96, 32, 1, 1]
0	0xbd97f3cd	-0.07419548
1	0xbcb3c5b7	-0.021944864
2	0xbc971d27	-0.018446518
3	0xbc93e1b3	-0.018051958
4	0xbe3f3b18	-0.18674886
5	0xbe7d072f	-0.24709772
6	0x3dd1d0e4	0.10244921
7	0xbeeda0e8	-0.46411824
8	0xbea547f5	-0.3228146
9	0x3cece44c	0.028917454
10	0xbe671dc3	-0.22569947
11	0x3e8897d9	0.2667835
12	0xbc72f756	-0.014829477
13	0xb9be9d1d	-0.00036356683
14	0xbeabd496	-0.33560628
15	0xbe357d56	-0.17723593
16	0x3d4f39f0	0.050592363
17	0xbcbad89c	-0.022808366
18	0xbdecbfc8	-0.11560017
19	0x3dbd2a78	0.09236616
20	0xbebe9ae8	-0.3722756
21	0xbdd6307a	-0.10458465
22	0xbc0b5b5f	-0.008505671
23	0xbe3e78a2	-0.18600705
24	0xbe1ece5c	-0.15508407
25	0x3de22e38	0.11043972
26	0xbe4d5bc2	-0.20054534
27	0x3d7768b8	0.060402602
28	0xbe1ca3d8	-0.15296876
29	0x3e080fc1	0.1328726
30	0xbda35061	-0.079743154
31	0xbef250c8	-0.47327256
32	0xbda887b8	-0.08229011
33	0x3e1d771e	0.15377471
34	0x3dfb3c32	0.12267341
35	0x3e168709	0.1469995
36	0xbdb95822	-0.09050013
37	0x3df21871	0.11821068
38	0x3dd1b865	0.102402486
39	0x3e5f2300	0.21790695
40	0xbe1d0b14	-0.15336257
41	0x3dffe3a9	0.124945946
42	0x3d7a8eb1	0.061171237
43	0x3c00820d	0.0078435065
44	0xbe027b3b	-0.12742321
45	0x3d0186ce	0.0316227
46	0xbd54240b	-0.051792186
47	0x3e1511af	0.14557527
48	0x3e01c524	0.1267286
49	0x3d52edbd	0.051496256
50	0xbd496fd3	-0.04917891
51	0x3d480869	0.048836146
52	0x3d2e2ee4	0.042525187
53	0x3e5ea718	0.21743429
54	0x3e06fd03	0.13182454
55	0x3d810b0a	0.06300934
56	0xbde3350c	-0.11094102
57	0x3b68674a	0.0035461956
58	0xbe1c4014	-0.15258819
59	0xbcaea7d2	-0.021320257
60	0x3df7e57d	0.12104318
61	0x3e23e836	0.1600655
62	0xbdb586b2	-0.08863582
63	0x3dc1a621	0.09455515
64	0xbe738469	-0.23780979
65	0xbe531b3b	-0.20615856
66	0xbe20d246	-0.15705213
67	0xbdf2b2be	-0.118504986
68	0xbe1ff1a5	-0.15619524
69	0xbe123aad	-0.14280196
70	0xbdaf65d0	-0.08564341
71	0x3c8c3398	0.017114446
72	0x3d9838b0	0.07432687
73	0xbc849515	-0.01618437
74	0x3e3b25c5	0.18276127
75	0xbed6d46e	-0.41958946
76	0xbeadafa4	-0.33923066
77	0xbdfae72d	-0.122511245
78	0x3df649f5	0.12025825
79	0xbdc1162b	-0.09428056
80	0x3da58fca	0.08084066
81	0xbe2d9ecb	-0.16955106
82	0xbd8e0aa2	-0.06935622
83	0xbe6ae78c	-0.2293989
84	0xbe9c20c8	-0.3049376
85	0x3d6ecd2d	0.05830114
86	0x3d488ea0	0.048964143
87	0xbab5fa15	-0.0013883734
88	0x3d9400df	0.07226729
89	0x3deb1eac	0.114804596
90	0xbe1c5d53	-0.15269975
91	0xbe78606d	-0.24255534
92	0x3b60e084	0.003431351
93	0xbe2cb0f7	-0.16864382
94	0xbddfd9c9	-0.10930211
95	0x3d855542	0.06510402
96	0x3d610c98	0.05494365
97	0x3dc627c0	0.096755505
98	0x3d8a6cd5	0.06759039
99	0x3d84185c	0.06449959
100	0x3e3b8822	0.1831365
101	0xbda1886a	-0.07887347
102	0xbde2ef83	-0.110808395
103	0xbe313976	-0.17307076
104	0xbd840ef6	-0.06448166
105	0x3dc4f69e	0.09617351
106	0xbe3f5b45	-0.1868716
107	0x3e51d285	0.20490463
108	0x3d8dbdd3	0.06920972
109	0xbddca647	-0.107739024
110	0xbd937d40	-0.07201624
111	0x3cece22a	0.028916437
112	0xbbc8b748	-0.0061253645
113	0x3dff7b11	0.12474645
114	0xbde5e556	-0.11225383
115	0x3c451f52	0.012031393
116	0x3e2ac3a1	0.16676189
117	0x3b020e0b	0.0019844796
118	0xbea425e3	-0.32060155
119	0xbc4a1164	-0.012333248
120	0x3e8d6073	0.27612647
121	0x3ea2617f	0.3171501
122	0xbd860391	-0.06543649
123	0x3e9549c7	0.2915785
124	0xbdbe4c79	-0.0929193
125	0xbd90abee	-0.07064043
126	0xbdd322f7	-0.103094034
127	0x3db09825	0.08622769
128	0xbd4694fa	-0.04848192
129	0xbe2e226e	-0.17005321
130	0xbcebd977	-0.028790219
131	0xbd8d4824	-0.06898525
132	0xbc8b0d88	-0.016974226
133	0xbc68bd37	-0.014205269
134	0xbe1a0e4d	-0.15044518
135	0x3e748437	0.23878561
136	0xbde00503	-0.10938456
137	0x3d8d2308	0.06891447
138	0x3e80b3ec	0.2513727
139	0xbe4e4192	-0.201422
140	0xbd8951c3	-0.06705048
141	0x3e0f0014	0.13964874
142	0xbc1e7633	-0.009671736
143	0xbdd5c34a	-0.10437639
144	0xbe8ade38	-0.27122664
145	0xbc9214a3	-0.017832106
146	0x3c828fc9	0.015937703
147	0xbe3b904d	-0.18316765
148	0x3e4e1e46	0.20128736
149	0x3db95bb1	0.09050692
150	0xbf58ede1	-0.84737974
151	0xbd839b3e	-0.064260945
152	0x3e6e32e9	0.23261608
153	0x3e079484	0.13240248
154	0x3df511ea	0.119663075
155	0xbd6c17be	-0.05763983
156	0x3da59427	0.080848984
157	0xbe1f421e	-0.15552565
158	0x3db7b34c	0.08969745
159	0x3e992610	0.29911852
160	0xbe987068	-0.2977326
161	0xbe7dbcd4	-0.24779063
162	0xbe5ec3db	-0.217544
163	0x3c8b8834	0.01703272
164	0xbd48a2a6	-0.04898324
165	0x3dd1bad0	0.1024071
166	0xbe21657a	-0.15761366
167	0x3d8392e2	0.064245
168	0x3e59f07c	0.21283144
169	0xbdc20f6f	-0.094756
170	0x3e3271cf	0.17426227
171	0xbebf2689	-0.37334087
172	0xbdfb8bf5	-0.12282554
173	0xbcc3e887	-0.023914589
174	0x3d26c264	0.04071273
175	0xbe6ae589	-0.22939123
176	0xbddf4a04	-0.10902789
177	0xbafd41b7	-0.0019321953
178	0xbe0c05a0	-0.13674021
179	0x3e554464	0.2082687
180	0xbe391434	-0.18074113
181	0xbd9a0d91	-0.07522119
182	0x3d82c023	0.063843034
183	0xbe58774b	-0.21139257
184	0x3e428a80	0.18998146
185	0x3dfc0f71	0.12307633
186	0x3cea148a	0.028574247
187	0xbe5ab5bc	-0.21358389
188	0x3dd1b84f	0.10240232
189	0x3db1f353	0.086889885
190	0xbda11457	-0.07865208
191	0x3e07f5c0	0.1327734
192	0x3dbf0298	0.093266666
193	0xbd9e6a26	-0.0773509
194	0xbc0ec168	-0.008713104
195	0x3d16e882	0.03684283
196	0x3dff0a71	0.124531634
197	0xbd4435f3	-0.047903012
198	0x3d8da8a6	0.06916933
199	0xbdf6984b	-0.12040766
200	0x3cc65258	0.024209186
201	0xbd95dc0f	-0.073173635
202	0x3c43c53b	0.011948879
203	0xbdf57f55	-0.11987177
204	0x3e2ea493	0.17054968
205	0x3e296a89	0.16544546
206	0xbe7ce8fb	-0.2469825
207	0xbd72d8bc	-0.059288725
208	0xbe7b2c25	-0.24528559
209	0xbc90397c	-0.017605536
210	0xbe1a8c3c	-0.15092558
211	0xbda5c419	-0.08094043
212	0x3eccfa57	0.40034744
213	0xbe4609f4	-0.19339734
214	0xbe97a68c	-0.29619253
215	0xbe3a09f7	-0.18167864
216	0x3dc18855	0.094498314
217	0x3e3d3f6a	0.18481222
218	0xbb513762	-0.003192388
219	0x3e54e7c2	0.20791534
220	0xbd0ddb60	-0.03463304
221	0x3e081c60	0.13292074
222	0x3d4810a9	0.048844013
223	0x3dfb0206	0.12256245
224	0x3e05c0ee	0.13061878
225	0x3e630f3e	0.22173783
226	0x3d2f4700	0.04279232
227	0x3c1a5550	0.009419754
228	0xbde49b81	-0.111624725
229	0xbd9ad2db	-0.07559749
230	0xbe0ba52b	-0.13637225
231	0x3e775894	0.24154884
232	0xbd83f447	-0.064430766
233	0x3cbd23d9	0.023088383
234	0x3e0e4a0c	0.13895434
235	0x3e6b649e	0.22987601
236	0xbdb105da	-0.08643694
237	0xbd89c6a0	-0.06727338
238	0xbc31f674	-0.010861982
239	0xbbac29f1	-0.0052540232
240	0x3bd33279	0.006445226
241	0xbe1f0314	-0.15528518
242	0x3e2166de	0.15761897
243	0xbe698fd7	-0.22808777
244	0x3dbb52e1	0.09146667
245	0x3e42ed95	0.19035943
246	0xbe9808fc	-0.29694355
247	0x3e2bbba4	0.16770798
248	0x3eaad5c8	0.33366227
249	0xbe40d803	-0.18832402
250	0x3c5179d3	0.012785393
251	0x3daa460f	0.08314144
252	0xbda7cea1	-0.08193708
253	0x3dbe8501	0.09302712
254	0xbabdcb04	-0.0014480059
255	0x3cd399ff	0.025830267

invResBlocks.0.expansion.bias f4 [96]
0	0xbd74ce9a	-0.059767343
1	0xbc664a15	-0.0140557485
2	0x3dc5443a	0.09632154
3	0x3d8ed909	0.0697499
4	0xbd9d52f9	-0.076818414
5	0x3c9fbf08	0.01950027
6	0x3dab7316	0.0837156
7	0xbd95e2cd	-0.073186494
8	0xbe2a2525	-0.16615732
9	0x3e1b5f1b	0.15172999
10	0x3e1578e7	0.14596902
11	0xbe1e0191	-0.15430285
12	0x3aad39d6	0.0013216089
13	0x3dd97de8	0.10619718
14	0xbd3b8487	-0.045780685
15	0x3c1a9fa0	0.009437472
16	0x3e18ec2c	0.14933842
17	0xbdbb2544	-0.09137967
18	0xbd8955dd	-0.0670583
19	0x3d515902	0.051110275
20	0x3e16c9a2	0.14725354
21	0xbc4b74b4	-0.012417961
22	0xbdd5fa14	-0.10448089
23	0xbd1651d1	-0.03669912
24	0x3dcd1b5e	0.100149855
25	0x3ccbb082	0.024864439
26	0xbdb92186	-0.09039597
27	0xbe1d45a8	-0.15358603
28	0x3cd73eea	0.026275117
29	0xbe22080a	-0.15823379
30	0x3cbb4669	0.022860723
31	0x3cd42b1d	0.025899464
32	0x3ddda5bc	0.10822627
33	0xbcf8d1d4	-0.030373491
34	0xbda1fec9	-0.079099245
35	0xbd753798	-0.05986747
36	0xbd8c5e59	-0.06853933
37	0x3db79de8	0.08965665
38	0xbd93b7b3	-0.07212772
39	0xbd18d308	-0.03731063
40	0xbddd08cb	-0.10792693
41	0x3e1a5c80	0.15074348
42	0xbb258c09	-0.002526047
43	0x3e0020a2	0.12512448
44	0x3e07e17c	0.13269609
45	0xbe1bc8e3	-0.15213351
46	0xbe1dd139	-0.15411843
47	0xbc11e7be	-0.008905349
48	0x3dfe4968	0.12416345
49	0xbcb30053	-0.02185074
50	0xbe16cefe	-0.14727399
51	0x3e1fd0b8	0.15606964
52	0x3de49237	0.11160701
53	0x3d16922a	0.036760487
54	0xbd628d3d	-0.055310477
55	0x3e0f159f	0.13973092
56	0x3cc660ca	0.024216074
57	0x3d21a47d	0.03946351
58	0xbdbdd1fc	-0.09268567
59	0x3bca0df4	0.006166214
60	0x3de7fa2b	0.11327013
61	0x3ddebabc	0.108754605
62	0x3b8f0b0d	0.004365331
63	0xbe0196e0	-0.1265521
64	0xbd67804a	-0.05651883
65	0x3db18d46	0.08669524
66	0x3dfff526	0.1249793
67	0xbe09f90f	-0.13473915
68	0x3d975a25	0.073902406
69	0x3ddc5149	0.107576914
70	0xbd828613	-0.06373229
71	0xbd954e8c	-0.07290372
72	0xbd1b99ab	-0.037988346
73	0x3de539d9	0.11192674
74	0xbdfe6a04	-0.124225646
75	0x3d6513b2	0.055926986
76	0x3e2489c7	0.16068183
77	0xbd43a87d	-0.047768105
78	0x3df7bbd7	0.120963745
79	0xbe038f4f	-0.12847637
80	0x3dc81556	0.097696945
81	0xbdfe5a3a	-0.12419553
82	0x3dffa33e	0.12482308
83	0xbdfac48e	-0.12244521
84	0xbd9e19ec	-0.07719788
85	0x3ccd91ab	0.025093874
86	0xbdf9e039	-0.1220097
87	0xbdcb9282	-0.099400535
88	0x3e186efe	0.1488609
89	0x3d1b870a	0.03797058
90	0x3e278170	0.1635797
91	0xbb0f83f5	-0.002189872
92	0xbdf2ba69	-0.11851961
93	0x3dc645dd	0.09681294
94	0xbc46dc18	-0.012137435
95	0x3e227d3e	0.15868089

invResBlocks.0.depthwise.weight f4 [96, 1, 3, 3]
0	0x3edd7c29	0.4325879
1	0xbe57f75a	-0.21090451
2	0xbf3eac29	-0.74481446
3	0x3d90d670	0.07072151
4	0x3e5ed4d2	0.21760872
5	0xbd67e036	-0.05661031
6	0xbe14be66	-0.14525756
7	0x3ef48d77	0.4776418
8	0xbebaf2e2	-0.3651343
9	0xbe1c7231	-0.15277936
10	0xbe3a5103	-0.18194966
11	0xbde005dc	-0.109386176
12	0xbd099fc8	-0.033599645
13	0xbe8e8fe9	-0.2784417
14	0xbdbbc0b9	-0.09167618
15	0xbe11cbea	-0.14237943
16	0xbe5643b9	-0.20924272
17	0x3d545743	0.05184103
18	0xbe667615	-0.22505982
19	0x3dea7d39	0.114496656
20	0xbe2db569	-0.16963734
21	0x3e9a4248	0.30128694
22	0xbc12a41f	-0.008950262
23	0x3e0ea4bb	0.13930027
24	0x3f25b948	0.6473584
25	0xbe4f3100	-0.20233536
26	0xbe8d4205	-0.2758943
27	0xbeeb2dd7	-0.4593341
28	0xbe53bb2e	-0.20676872
29	0xbdf8a49f	-0.12140774
30	0x3da96f90	0.08273232
31	0xbdca4c34	-0.09877816
32	0xbe082faa	-0.13299432
33	0xbeab7c36	-0.33493203
34	0x3ce4890a	0.027897377
35	0x3f27b378	0.6550822
36	0xbeab8cad	-0.33505765
37	0xbec81111	-0.3907552
38	0xbdca24b6	-0.09870283
39	0x3da69a42	0.08134891
40	0x3e88b409	0.26699856
41	0xbe80f4c8	-0.25186753
42	0x3e9b492a	0.30329257
43	0x3f1583ab	0.58404034
44	0x3eb109d9	0.34577826
45	0x3c028b5b	0.007967795
46	0x3e9becf9	0.30454233
47	0x3d6430b2	0.055710502
48	0xbe2ee093	-0.17077856
49	0x3dc2a56c	0.09504208
50	0xbf07ecf2	-0.53095925
51	0x3de31b72	0.11089219
52	0xbdf4d72e	-0.11955105
53	0xbf2b2b45	-0.668629
54	0xbeb7ea1c	-0.359208
55	0x3e701f70	0.23449492
56	0x3e3fdcb8	0.18736541
57	0x3ec34485	0.38138214
58	0x3f00e618	0.50351095
59	0xbdd2a6b9	-0.10285706
60	0x3da1f631	0.079082854
61	0xbe91464a	-0.2837394
62	0xbede0be4	-0.43368447
63	0xbecb1654	-0.39665473
64	0xbcbad0f5	-0.022804717
65	0xbd8614a3	-0.06546905
66	0xbe7692e8	-0.24079478
67	0xbd88f7f5	-0.06687919
68	0xbcf28db1	-0.02960858
69	0xbec1834a	-0.37795478
70	0xbe4e35a2	-0.20137647
71	0x3e6589e9	0.2241589
72	0xbdfbbf61	-0.12292362
73	0xbed4eeb5	-0.4158837
74	0xbe74c7c2	-0.23904327
75	0x3f1296a9	0.5726114
76	0x3f211bbe	0.62932956
77	0x3eb01902	0.3439408
78	0x3dbde392	0.09271921
79	0x3e280abf	0.1641035
80	0xbe62f322	-0.2216306
81	0x3ecfcf5f	0.405879
82	0x3dc2c539	0.095102735
83	0xbf2003fc	-0.6250608
84	0x3dd59fd8	0.104308784
85	0x3ea0cee8	0.31407857
86	0xbe79bdbc	-0.24388784
87	0xbe93dcb3	-0.28879318
88	0x3f261d31	0.6488829
89	0xbeb651ea	-0.3560937
90	0x3dc30754	0.09522882
91	0xbf14c2be	-0.58109653
92	0x3ef1b284	0.4720651
93	0x3ea409fc	0.32038867
94	0xbf22eb76	-0.63640535
95	0x3e56a6bc	0.20962042
96	0x3e3b605d	0.18298478
97	0xbe08eb9f	-0.13371132
98	0x3daec4c2	0.08533622
99	0x3ebfabfc	0.374359
100	0x3e92093b	0.28522667
101	0xbe53583f	-0.20639132
102	0x3f0e843d	0.5567053
103	0x3e54f9f5	0.20798476
104	0xbe2dfa0a	-0.16989914
105	0xbd99029a	-0.07471199
106	0xbf0ad949	-0.542378
107	0xbe92d8e6	-0.28681105
108	0xbebec430	-0.37259054
109	0xbd4c48f1	-0.04987425
110	0xbedfdf6f	-0.43725154
111	0xbe87d2b8	-0.26527953
112	0x3e890dd7	0.2676837
113	0x3e8ca22e	0.27467483
114	0x3dd1bca2	0.10241057
115	0x3eb8d351	0.36098722
116	0x3f1d14c2	0.613598
117	0x3dd28382	0.102789894
118	0x3e8b6f74	0.2723347
119	0x3f286ca3	0.65790766
120	0xbe3a097a	-0.18167678
121	0xbe80828b	-0.25099596
122	0xbec2296f	-0.37922236
123	0xbd4716e3	-0.04860581
124	0xbe5fea0a	-0.21866623
125	0xbe9a931f	-0.3019037
126	0x3ee13d36	0.43992013
127	0xbe1b2ce5	-0.15153845
128	0xbdccf8f3	-0.10008421
129	0x3e68d70d	0.22738285
130	0x3ea43d52	0.32078034
131	0x3e7e432a	0.24830309
132	0xbf33c0bb	-0.7021596
133	0xbd66f5d4	-0.056386784
134	0x3f1730b3	0.59058684
135	0xbec84b6a	-0.39120036
136	0xbd211c8f	-0.039333876
137	0x3d927d23	0.07152774
138	0xbe9d473f	-0.3071842
139	0xbec9a212	-0.39381462
140	0xbdce7bf8	-0.10082239
141	0x3ef7fae3	0.484336
142	0x3f338f00	0.70140076
143	0xbe98b53b	-0.29825768
144	0xbe0c1c98	-0.13682783
145	0x3d9f748e	0.07785903
146	0xbeaaaa97	-0.33333275
147	0xbdc75448	-0.09732872
148	0x3c7abdbb	0.015304024
149	0xbeb8a0e4	-0.3606025
150	0x3ea3c406	0.31985492
151	0x3da63743	0.08116009
152	0xbe04e6ed	-0.12978716
153	0xbe631a7f	-0.22178076
154	0xbaf2c89c	-0.0018522921
155	0x3e02a4e6	0.12758216
156	0xbea022a2	-0.31276423
157	0xbe84098d	-0.25788537
158	0xbe62a3e4	-0.22132832
159	0x3f06760c	0.52523875
160	0x3e689fc5	0.22717197
161	0xbdc97806	-0.09837346
162	0xbe879a20	-0.26484776
163	0x3dd1d657	0.1024596
164	0xbeca3b87	-0.3949854
165	0xbe89c1f7	-0.26905796
166	0x3e682150	0.22668958
167	0xbe1e7539	-0.15474404
168	0xbe828eff	-0.25499722
169	0x3d4f8f4f	0.05067378
170	0xbe1e9261	-0.15485527
171	0x3ea70320	0.32619572
172	0x3d4127da	0.047157146
173	0xbe1fbc78	-0.15599239
174	0x3e809224	0.25111496
175	0xbeecc389	-0.4624293
176	0xbea4a446	-0.3215658
177	0xbd937539	-0.07200093
178	0xbe99dc63	-0.30050954
179	0x3e77c6f8	0.24196994
180	0x3e5b7e79	0.21434964
181	0xbdbc8d92	-0.0920669
182	0xbe8ecbb8	-0.278898
183	0xbe922b5d	-0.2854871
184	0xbe8d7416	-0.2762763
185	0x3cae5bfe	0.0212841
186	0xbed154d0	-0.4088502
187	0xbf0aaa94	-0.5416653
188	0x3e859c3d	0.26095763
189	0xbf270144	-0.65236306
190	0x3e95446c	0.29153764
191	0x3e373f08	0.17895138
192	0xbeab31d9	-0.33436468
193	0x3eb0060f	0.34379622
194	0x3d46956d	0.048482347
195	0xbf20f702	-0.62876904
196	0x3f2ded0a	0.6793982
197	0x3ea02ad7	0.31282684
198	0x3d807f73	0.06274309
199	0x3de21b7c	0.110403985
200	0xbdfc9838	-0.12333721
201	0x3d81bf10	0.063352704
202	0x3efa7a96	0.4892165
203	0xbe5c42d1	-0.21509863
204	0x3f40f962	0.7538053
205	0x3dfc0f93	0.12307658
206	0xbe694a91	-0.22782351
207	0xbee28c96	-0.44247884
208	0x3eda5212	0.4264074
209	0x3eb806b6	0.3594262
210	0xbd729881	-0.05922747
211	0x3f409bdc	0.7523782
212	0xbf1a1d53	-0.60200995
213	0x3e3510a5	0.1768213
214	0xbf084d50	-0.5324297
215	0x3d12ac5b	0.035808902
216	0xbe444dd1	-0.1917031
217	0x3e40b529	0.18819107
218	0xbe6a6fda	-0.2289423
219	0xbcb496d5	-0.022044579
220	0x3d89ed31	0.06734694
221	0xbe8dafb9	-0.27673128
222	0x3f039419	0.51397854
223	0x3e87cd15	0.26523653
224	0xbf3f88ce	-0.7481812
225	0xbe901292	-0.28139168
226	0xbdd41d2a	-0.10357125
227	0xbead1218	-0.33802867
228	0xbe8373a0	-0.25674152
229	0xbe16c9b2	-0.14725378
230	0xbe68433e	-0.22681901
231	0xbead3ca4	-0.33835328
232	0x3cbaf310	0.02282098
233	0xbe8e3dc6	-0.27781504
234	0x3ea55ff2	0.32299763
235	0x3edf3572	0.43595463
236	0x3ced235e	0.028947528
237	0x3dea1824	0.11430386
238	0x3e9e3631	0.3090072
239	0xbe78e2ce	-0.24305269
240	0xbc416aca	-0.011805246
241	0xbf3542e9	-0.7080522
242	0xbf1595c7	-0.5843167
243	0xbe4106ba	-0.18850222
244	0xbed83001	-0.42224124
245	0xbe80682d	-0.2507948
246	0x3e1c3323	0.15253882
247	0x3e536400	0.20643616
248	0xbe426026	-0.1898199
249	0x3f499b7d	0.7875288
250	0x3f074f00	0.5285492
251	0xbeaf5104	-0.34241498
252	0xbf1328a1	-0.5748387
253	0x3de88eb2	0.11355342
254	0x3f2efe65	0.68356925
255	0xbecad417	-0.39614937

invResBlocks.0.depthwise.bias f4 [96]
0	0xbe3ad868	-0.18246615
1	0x3d4e9eae	0.050444297
2	0xbd0ddbec	-0.034633562
3	0x3e51bf6f	0.20483182
4	0x3e47f701	0.19527818
5	0x3ea08c84	0.31357205
6	0x3e97273e	0.29522127
7	0x3dac89e4	0.08424738
8	0xbe92cbbc	-0.28671062
9	0x3d87f41f	0.06638359
10	0x3d0be9aa	0.034158386
11	0xbe021e58	-0.12706888
12	0xbe452cf1	-0.19255425
13	0x3cb780cc	0.022400282
14	0xbcbb8675	-0.022891263
15	0xbe0e0e21	-0.13872577
16	0x3db4bb44	0.088247806
17	0xbe9396be	-0.28825945
18	0x3de75646	0.11295752
19	0xbdcf2135	-0.101137556
20	0xbe6020ca	-0.21887508
21	0x3d3e7014	0.046493605
22	0x3e5dca2d	0.21659155
23	0x3e988cee	0.2979502
24	0xbe290923	-0.16507392
25	0x3e0df79e	0.1386399
26	0x3e053af8	0.13010776
27	0x3e9780bc	0.29590404
28	0xbd1fba98	-0.03899631
29	0xbe895daa	-0.26829273
30	0xbcda13b4	-0.026620723
31	0xbe2afaa0	-0.16697168
32	0xbe685643	-0.22689156
33	0x3e7e5959	0.24838771
34	0x3e9460ad	0.28980008
35	0xbdb8aca0	-0.090173006
36	0x3e060cb9	0.13090791
37	0x3ca9aa08	0.02071096
38	0x3ddfcbaa	0.10927518
39	0x3d8a5a68	0.06755525
40	0xbe43c748	-0.19118989
41	0xbe68c204	-0.22730261
42	0xbe9fd7fa	-0.31219465
43	0x3e4103fb	0.18849175
44	0x3ddabdfa	0.106807664
45	0x3ea3a40f	0.31961104
46	0x3e95dbc7	0.2926924
47	0xbde69344	-0.112585574
48	0xbe80783d	-0.25091735
49	0x3e75c0ee	0.23999378
50	0xbe90ab2a	-0.28255588
51	0xbe0501e7	-0.12989007
52	0xbe98a033	-0.29809722
53	0x3d14f8ac	0.036369964
54	0x3bbf3a83	0.0058358326
55	0x3cd9bb97	0.026578708
56	0xbdce4b34	-0.100729376
57	0x3c8a493d	0.016880626
58	0xbda99cfe	-0.08281897
59	0x3e50f290	0.2040503
60	0xbe925c6e	-0.28586143
61	0xbe690687	-0.22756396
62	0xbe18f8a1	-0.14938594
63	0x3ea2c5fd	0.31791678
64	0x3e8fd169	0.28089455
65	0x3dc7e579	0.09760565
66	0x3e8f1a47	0.27949736
67	0x3c271191	0.010197059
68	0xbcd6b1c2	-0.026207808
69	0x3dc38ae1	0.095479734
70	0xbe6c0e05	-0.23052223
71	0xbe463e14	-0.19359618
72	0xbda15330	-0.07877195
73	0x3d2f8d32	0.042859264
74	0xbde2fa27	-0.11082869
75	0x3d62780b	0.055290263
76	0xbe9be4bc	-0.30447948
77	0xbe98baa8	-0.29829907
78	0x3d7be1f4	0.061494783
79	0xbe045ead	-0.12926741
80	0xbe871113	-0.26380214
81	0x3e10314e	0.14081308
82	0xbe7dd5c9	-0.24788584
83	0xbd94334d	-0.07236347
84	0x3ea15877	0.31512806
85	0x3cde3e2e	0.027129259
86	0x3e78b1f6	0.24286637
87	0x3df84e16	0.12124269
88	0x3e9c97d2	0.3058458
89	0xbde25475	-0.11051265
90	0xbd56596a	-0.052331366
91	0xbea15e77	-0.31517383
92	0x3e9b08d5	0.30280176
93	0x3e125272	0.14289263
94	0xbe8b862e	-0.27250808
95	0x3e48b26c	0.19599313

invResBlocks.0.pointwise.weight f4 [32, 96, 1, 1]
0	0xbea0e436	-0.3142411
1	0xbd4b1752	-0.049582787
2	0x3bff24e8	0.007786382
3	0x3e7231c1	0.23651792
4	0x3f018fbc	0.50609946
5	0xbeafddb1	-0.34348825
6	0xbe4a837a	-0.19776717
7	0x3dc4cc47	0.09609275
8	0xbce36145	-0.027756343
9	0xbddfdfd1	-0.109313615
10	0xbe0a5e64	-0.1351257
11	0xbd84a37f	-0.06476497
12	0xbc042f2f	-0.00806789
13	0x3da79eb2	0.081845656
14	0xbd435a23	-0.047693383
15	0xbd726ff5	-0.0591888
16	0xbe2b91d5	-0.1675485
17	0xbd69d23f	-0.057085272
18	0xbde70021	-0.112793215
19	0xbdcf7b30	-0.10130918
20	0xbba0afae	-0.004903755
21	0xbe43638a	-0.1908094
22	0xba74ea93	-0.00093428156
23	0xbb956959	-0.0045596776
24	0xbde99968	-0.11406213
25	0x3d97d2e0	0.07413268
26	0x3dd00d7d	0.10158823
27	0x3e0b0c16	0.13578829
28	0xbea61c15	-0.324433
29	0x3ee7889d	0.45221415
30	0x3df3da1f	0.11906838
31	0x3da81122	0.08206393
32	0xbeaf2e54	-0.34215033
33	0x3e207278	0.15668666
34	0x3e629db4	0.22130471
35	0xbd383a07	-0.044977214
36	0xbea7e695	-0.32793108
37	0xbce7fd4b	-0.028319022
38	0x3d9c40d3	0.07629552
39	0xbdbbafaa	-0.09164365
40	0x3d3aac8c	0.04557471
41	0x3e7b7ffd	0.24560542
42	0xbdaf6df8	-0.08565897
43	0x3e8335b5	0.25626913
44	0x3d608ca0	0.05482161
45	0xbde96b74	-0.11397448
46	0x3c221b0f	0.009894147
47	0xbc927503	-0.017878061
48	0x3e23ebe9	0.16007961
49	0xbeacb7c2	-0.33733946
50	0xbe8afdd6	-0.27146786
51	0x3d1e4484	0.03863956
52	0xbc8a0a60	-0.01685065
53	0xbdf2a14c	-0.11847171
54	0x3c2208cc	0.009889793
55	0xbeac4ef8	-0.33653998
56	0x3e32b96a	0.17453542
57	0xbd487b30	-0.048945606
58	0xbe0505d0	-0.12990499
59	0x3d057137	0.032578673
60	0x3e951a0a	0.2912143
61	0xbef078a5	-0.46967044
62	0xbadcd580	-0.0016848296
63	0xbe0495b2	-0.12947729
64	0xbcb8f268	-0.022576526
65	0x3b15699d	0.0022798546
66	0xbd7590d6	-0.05995258
67	0xbea2548c	-0.3170513
68	0x3c460942	0.012087168
69	0x3d3c72da	0.04600797
70	0xbc95ebed	-0.018300975
71	0xbde14200	-0.109989166
72	0x3d5ec463	0.054386508
73	0xbe52ee5f	-0.20598744
74	0xbde5f0fa	-0.11227603
75	0x3d861d8b	0.065486036
76	0x3ce99132	0.028511617
77	0x3e093366	0.13398513
78	0xbdcd3eae	-0.10021721
79	0xbde05ba4	-0.10954979
80	0x3d2df5b9	0.042470668
81	0xbe273b1f	-0.16331147
82	0x3dec1b65	0.115286626
83	0x3db53cdb	0.08849498
84	0xbd931d3a	-0.07183309
85	0xbb9f61b2	-0.004863941
86	0x3e0fc367	0.14039384
87	0xbd0da3e3	-0.034580123
88	0xbda6fa56	-0.081532165
89	0xbe463b58	-0.19358575
90	0x3df8f020	0.12155175
91	0xbdd2cc92	-0.10292925
92	0xbd989fac	-0.0745233
93	0xbee30c11	-0.44345143
94	0xbe3ae7fb	-0.18252556
95	0x3e6b8649	0.23000444
96	0x3d97389f	0.073838465
97	0x3d1fb9b6	0.038995467
98	0x3df8a8b4	0.121415526
99	0xbd939c15	-0.07207505
100	0xbd677cc6	-0.056515478
101	0xbe3d59b4	-0.1849125
102	0xbc0413b0	-0.0080613345
103	0xbd0857ab	-0.03328673
104	0x3ed38667	0.41313478
105	0xbe0e63a4	-0.13905197
106	0x3ce92986	0.028462183
107	0xbeb26daf	-0.34849307
108	0xbe3ff359	-0.18745174
109	0x3ce6ff52	0.028197918
110	0x3e44c63e	0.19216248
111	0x3ee478e7	0.4462349
112	0x3e0d180e	0.13778707
113	0x3ebaf239	0.36512926
114	0xbc9e4f04	-0.019324787
115	0xbc46852e	-0.012116713
116	0x3e443167	0.1915947
117	0xbd98e4f2	-0.07465543
118	0xbe4fb5d9	-0.20284213
119	0xbc041d5f	-0.008063643
120	0xbdf3fd52	-0.119135514
121	0xbe5f4a86	-0.21805772
122	0xbe6eb70e	-0.23312017
123	0x3e21e962	0.15811685
124	0xbe5b0d51	-0.21391799
125	0x3e11dfaf	0.14245485
126	0xbe057b25	-0.13035257
127	0xbd5f840a	-0.05456928
128	0xbc4c0a83	-0.012453678
129	0x3da895aa	0.08231671
130	0xbea9d897	-0.33173057
131	0xbdc93be8	-0.09825879
132	0xbe12473c	-0.14284986
133	0xbc7fb6a6	-0.015607512
134	0xbd9e6296	-0.077336475
135	0xbe96baca	-0.29439384
136	0xbe3fe8cb	-0.18741147
137	0xbdd8bc90	-0.105828404
138	0xbe8bcc44	-0.2730428
139	0x3e207421	0.156693
140	0xbc8a629a	-0.01689272
141	0xbe977e57	-0.29588577
142	0xbd51e514	-0.051243857
143	0xbdb0869d	-0.086194254
144	0xbb716781	-0.0036835375
145	0xbe1e189c	-0.15439075
146	0xbd3a8c04	-0.045543686
147	0xbd061cc3	-0.032742273
148	0x3c0c2697	0.008554122
149	0xbe91ef3c	-0.28502834
150	0xbec9c67d	-0.39409247
151	0xbe0869bf	-0.13321589
152	0xbe9a415e	-0.30127996
153	0x3c9f1b95	0.019422332
154	0x3e24a601	0.1607895
155	0xbc18cd74	-0.009326328
156	0xbe0b8b18	-0.13627279
157	0x3ea1408a	0.31494552
158	0xbdcfb5c9	-0.10142095
159	0xbe17d54d	-0.14827462
160	0xbd817d03	-0.06322672
161	0xbe77eb71	-0.24210908
162	0xbd20c828	-0.039253384
163	0xbd2d490b	-0.042305987
164	0x3db4b8ec	0.088243335
165	0x3de79034	0.113068014
166	0x3bda852f	0.0066687088
167	0xbe10bfef	-0.14135717
168	0xbe60a0b7	-0.21936308
169	0xbce90fc8	-0.028449908
170	0x3e063b54	0.1310857
171	0xbdbb64fa	-0.09150119
172	0xbedfc4e6	-0.4370491
173	0xbd14247e	-0.036167614
174	0xbd8849a9	-0.066546746
175	0xbe71d7f2	-0.23617533
176	0x3992c763	0.00027995845
177	0x3f24d221	0.6438313
178	0x3d714c08	0.0589104
179	0xbd8ab4a7	-0.06772738
180	0xbed759da	-0.4206074
181	0x3d46b29b	0.048510175
182	0xbda82faf	-0.0821222
183	0x3d45b2eb	0.048266333
184	0x3ce2474b	0.027621886
185	0x3bc2833b	0.005936054
186	0x3e4efa61	0.202127
187	0x39259fbb	0.0001579513
188	0x3d6c4566	0.05768337
189	0x3e95efa9	0.2928441
190	0x3e9197e3	0.28436193
191	0xbe3af614	-0.18257934
192	0x3e4fce8e	0.20293638
193	0xbe18b113	-0.14911298
194	0x3e92d952	0.28681427
195	0x3dca3d40	0.09874964
196	0xbebabd42	-0.36472517
197	0x3e129762	0.1431556
198	0xbe991f7f	-0.29906842
199	0x3dfcb8ea	0.12339957
200	0xbdf5efad	-0.12008605
201	0xbe272567	-0.16322862
202	0x3df6aece	0.1204506
203	0x385338da	5.0359267e-05
204	0x3d5c516d	0.05378859
205	0xbe614d9c	-0.22002262
206	0xbe177d8a	-0.14793983
207	0x3c159e8a	0.009132037
208	0x3d61a969	0.055093203
209	0xbd838988	-0.064227164
210	0xbd864247	-0.0655561
211	0x3df7966b	0.12089237
212	0x3ec0182e	0.37518448
213	0x3ea07708	0.31340814
214	0x3e84173c	0.25798976
215	0xbcfe2aad	-0.031026209
216	0x3d909f21	0.070616014
217	0x3e92ae87	0.2864878
218	0xbd468911	-0.04847056
219	0xbee9a49c	-0.456334
220	0xbde97ea3	-0.11401107
221	0xbd698ae4	-0.057017222
222	0xbca10b27	-0.019658638
223	0xbeb46a3b	-0.35237297
224	0x3e9ae163	0.3025008
225	0xbd8cb1a9	-0.068698235
226	0xbcc0e1e9	-0.023545222
227	0x3cbee173	0.023300862
228	0x3e83bf59	0.25731924
229	0x3d56e0d0	0.05246049
230	0xbde5e66d	-0.11225591
231	0x3c8ae490	0.01695469
232	0xbcda214c	-0.026627205
233	0xbea97149	-0.33094242
234	0xbd2f5a3e	-0.04281067
235	0xbec5a99d	-0.38605967
236	0xbd452726	-0.048133038
237	0x3e29f193	0.1659606
238	0xbd643622	-0.055715688
239	0x3d456156	0.04818853
240	0x3cf260eb	0.02958723
241	0x3e26a204	0.16272742
242	0x3eac3368	0.3363297
243	0xbe1fe879	-0.15616025
244	0x3c6c1ee4	0.014411662
245	0x3cd69dec	0.02619835
246	0x3e9812df	0.29701898
247	0x3d95a3eb	0.073066555
248	0xbdd3b440	-0.10337114
249	0xbdfe7a83	-0.12425711
250	0x3d89c0be	0.06726216
251	0x3e3c15b2	0.18367651
252	0xbed9f891	-0.42572454
253	0x3f05aa2a	0.52212775
254	0xbe9a3797	-0.30120537
255	0xbce849c9	-0.028355496

invResBlocks.0.pointwise.bias f4 [32]
0	0xbdbeb47b	-0.09311768
1	0xbd990ac7	-0.07472759
2	0xbd36df5f	-0.044646617
3	0xbdbdc07d	-0.0926523
4	0x3cd0781a	0.025447894
5	0x3d0f8671	0.035040323
6	0x3d72cf51	0.059279744
7	0x3dbbff14	0.09179512
8	0xbdc61e49	-0.09673745
9	0xbd7aa37b	-0.061191063
10	0x3d802013	0.06256118
11	0xbdb69988	-0.089160025
12	0xbd724bcc	-0.059154317
13	0xba51240b	-0.0007978088
14	0xbd8d37f3	-0.06895437
15	0x3c63bfab	0.013900678
16	0xbc57ee01	-0.013179303
17	0xbc360abd	-0.011110959
18	0x3d58a593	0.05289228
19	0x3d666334	0.05624695
20	0x3db71408	0.089393675
21	0xbd4706f3	-0.04859061
22	0xbd39160e	-0.04518705
23	0x3d8ec3c7	0.06970935
24	0x3d8cfd3d	0.06884239
25	0xbdaae313	-0.08344092
26	0x3d7d1f5d	0.06179749
27	0x3ce5d1fe	0.028054234
28	0xbdb34d67	-0.08754998
29	0xbda10ac8	-0.078633845
30	0x3cd4f850	0.02599731
31	0x3d8a1f92	0.06744303

invResBlocks.0.batchNorm1.weight f4 [96]
0	0x3f8a4eb3	1.0805267
1	0x3f6ac853	0.9171192
2	0x3f4707f1	0.7774649
3	0x3f83f12f	1.0307978
4	0x3f84e28d	1.0381638
5	0x3f353576	0.707847
6	0x3f6eadec	0.93234134
7	0x3f6b9f96	0.92040384
8	0x3f868963	1.0510677
9	0x3f934c33	1.1507629
10	0x3f595776	0.8489908
11	0x3f57ec74	0.84345174
12	0x3f5be476	0.8589548
13	0x3f74d457	0.95636505
14	0x3f380a16	0.7189039
15	0x3f87a4fb	1.0597223
16	0x3f6ca85b	0.9244439
17	0x3f7e07a1	0.9923039
18	0x3f66a61b	0.90097207
19	0x3f63b4f7	0.88948005
20	0x3f94569a	1.1588929
21	0x3faae646	1.3351524
22	0x3f8b6aad	1.089193
23	0x3f8783f6	1.0587146
24	0x3f6f5242	0.9348489
25	0x3f9f9cc0	1.2469711
26	0x3f687ecb	0.9081847
27	0x3f81402c	1.0097709
28	0x3f700693	0.9376003
29	0x3f9ca9e5	1.2239348
30	0x3f4c3f76	0.79784334
31	0x3f65c28e	0.8974999
32	0x3f6c1cd3	0.9223148
33	0x3f8f2275	1.118239
34	0x3f8236a1	1.0172921
35	0x3f3f36ed	0.74693185
36	0x3f72021d	0.94534475
37	0x3f7fd4c3	0.99934024
38	0x3f5a5dc1	0.8529931
39	0x3f75c63d	0.9600561
40	0x3f59440b	0.8486945
41	0x3f6ea815	0.9322522
42	0x3f2ffe7b	0.6874768
43	0x3f8cdc16	1.1004665
44	0x3f484d4f	0.78242964
45	0x3f79d9e3	0.97598094
46	0x3f5c8dac	0.86153674
47	0x3f472e19	0.77804714
48	0x3f50fbb8	0.8163409
49	0x3f8bb483	1.0914463
50	0x3f79b95b	0.97548455
51	0x3f598471	0.84967715
52	0x3f0f24d8	0.55915594
53	0x3f2dc324	0.67875886
54	0x3f9b629f	1.2139472
55	0x3f4dbdcd	0.8036774
56	0x3f40ec2d	0.75360376
57	0x3f860aef	1.0472087
58	0x3f87551f	1.0572852
59	0x3f8cb94a	1.0994046
60	0x3f94240d	1.1573502
61	0x3f99461d	1.1974522
62	0x3f711bc9	0.9418302
63	0x3f4e5a00	0.8060608
64	0x3f60ec13	0.8786022
65	0x3f7274c8	0.94709444
66	0x3f829bdd	1.0203816
67	0x3f669a00	0.90078735
68	0x3f864e9e	1.0492742
69	0x3f79932b	0.97490185
70	0x3f8850f8	1.064971
71	0x3f6a671f	0.915636
72	0x3f7dd009	0.9914556
73	0x3f887824	1.0661664
74	0x3f914020	1.1347694
75	0x3f5b5f65	0.85692436
76	0x3f89c053	1.0761818
77	0x3f7b3ad6	0.9813665
78	0x3fd8e25a	1.6944077
79	0x3f6818ca	0.90662825
80	0x3f51fc28	0.82025385
81	0x3f919b5d	1.1375538
82	0x3f6dca6a	0.92886984
83	0x3f78d0cb	0.9719359
84	0x3fc1d14f	1.5142001
85	0x3f3a975a	0.72887194
86	0x3f8856c6	1.0651481
87	0x3f521e37	0.82077354
88	0x3f75862f	0.9590787
89	0x3f9fcb2a	1.2483876
90	0x3f74862f	0.9551725
91	0x3f949acc	1.160974
92	0x3f88f7cb	1.070062
93	0x3f8e2380	1.1104584
94	0x3f616259	0.8804069
95	0x3f624f54	0.88402295

invResBlocks.0.batchNorm1.bias f4 [96]
0	0x3f014f94	0.5051205
1	0xbe0bf6d1	-0.13668372
2	0x3e1c14ce	0.15242311
3	0x3e28c66e	0.16481945
4	0xbdd8fbbd	-0.1059489
5	0x3f0ba107	0.54542583
6	0x3d6e90fa	0.05824373
7	0x3dfc537a	0.123206094
8	0x3e7fba65	0.24973448
9	0x3d49a364	0.049228087
10	0x3d80635e	0.06268953
11	0x3cc45cda	0.023970056
12	0x3de73cf6	0.11290924
13	0xbe5a3422	-0.2130895
14	0x3ea3c47f	0.31985852
15	0x3b3be2dc	0.0028669154
16	0xbd4760b8	-0.048676223
17	0xbce93268	-0.028466418
18	0x3ea9481d	0.3306283
19	0x3cabe0aa	0.020981152
20	0x3e1c0963	0.15237956
21	0x3d1ccb98	0.0382801
22	0x3dd1fce5	0.10253314
23	0x3e6ed66e	0.23323986
24	0x3e3cacab	0.18425243
25	0xbca6db12	-0.020368133
26	0x3ea36251	0.31910947
27	0x3f0500f3	0.51954573
28	0x3ef63ae9	0.4809182
29	0xbda523ab	-0.08063444
30	0x3f0bfd38	0.54683256
31	0x3dcbd623	0.09952953
32	0x3ed61a23	0.41816816
33	0xbce63a0b	-0.028103849
34	0x3e8efa84	0.27925503
35	0x3f0e14ec	0.55500674
36	0x3ea3f79c	0.32024848
37	0x3eb45a4f	0.3522515
38	0xbd30ce7b	-0.043165665
39	0xbd3f7a1a	-0.046747304
40	0xbce38269	-0.027772145
41	0xbe3a2a0c	-0.18180102
42	0xbe567fc7	-0.2094718
43	0x3e24c14a	0.16089359
44	0x3e9e24fe	0.30887598
45	0x3e1eb5e7	0.15499078
46	0x3dd8dbd6	0.105888054
47	0x3e8764cf	0.26444098
48	0x3eb73936	0.35785836
49	0x3e181a4d	0.14853783
50	0x3dc7ede2	0.097621694
51	0x3ef5dc36	0.4801957
52	0xbec649a6	-0.38728064
53	0x3c30aa37	0.01078277
54	0x3c54abce	0.012980415
55	0x3dcda698	0.10041541
56	0x3f2744d7	0.65339416
57	0xbd353eba	-0.044249274
58	0x3eb7989f	0.35858628
59	0xbd8d8cc3	-0.06911614
60	0xbe2dfa75	-0.16990073
61	0x3f24a8ee	0.64320266
62	0x3eaeb464	0.34122002
63	0x3ddc85c3	0.107677005
64	0x3dd1f755	0.10252253
65	0xbe94c81a	-0.29058915
66	0x3d2a7130	0.04161185
67	0xbdf711aa	-0.12063916
68	0x3e1bf05f	0.15228413
69	0xbd0fd6d6	-0.035116993
70	0x3ddd9013	0.108184956
71	0x3f096d34	0.53682256
72	0xbdb76b6a	-0.089560345
73	0x3e3b164e	0.18270227
74	0x3e8c6b14	0.27425444
75	0x3dcb0936	0.09913866
76	0x3ec478bc	0.38373363
77	0x3da344d0	0.07972109
78	0xbfb0731f	-1.3785132
79	0x3e9517ee	0.2911982
80	0x3f0c5311	0.5481425
81	0x3e8a15aa	0.26969653
82	0xbdc8484a	-0.09779413
83	0x3e8c11d0	0.2735734
84	0x3d50921a	0.050920583
85	0xbddb85f3	-0.10718908
86	0x3e8bcc9e	0.27304548
87	0x3d72c7c8	0.059272557
88	0xbdb07914	-0.08616844
89	0xbcde07c5	-0.027103314
90	0xbd545fb7	-0.051849093
91	0xbc0d4278	-0.008621804
92	0xbe112098	-0.1417259
93	0x3e7194ce	0.2359192
94	0x3e0a6be8	0.13517725
95	0xbbf8432d	-0.0075763674

invResBlocks.0.batchNorm1.running_mean f4 [96]
0	0xbf288248	-0.65823793
1	0x3d09d5d7	0.0336512
2	0xbe3f4503	-0.1867867
3	0x3e5867f4	0.21133405
4	0xbe137d1b	-0.14403193
5	0xbd964204	-0.0733681
6	0x3e43e739	0.19131173
7	0xbe47a113	-0.19495039
8	0xbed0f7d9	-0.40814093
9	0xbec2529a	-0.37953645
10	0xbe3b359e	-0.18282172
11	0xbe6a8594	-0.22902519
12	0x3e8424ae	0.25809234
13	0xbf063da7	-0.52437824
14	0xbe846762	-0.25860125
15	0xbf4b6fd8	-0.79467535
16	0xbb0394af	-0.0020077636
17	0xbe66c3e9	-0.22535671
18	0xbf35367a	-0.7078625
19	0xbeee78dc	-0.46576583
20	0xbe3581ce	-0.17725298
21	0xbf45187e	-0.769905
22	0xbedac612	-0.4272924
23	0xbe893b3d	-0.26803008
24	0xbf07f6c9	-0.5311094
25	0xbebfd610	-0.37468004
26	0x3e8c5644	0.27409565
27	0xbf118b7c	-0.5685346
28	0x3d846326	0.064642236
29	0xbf294e6e	-0.661353
30	0xbebdfb46	-0.3710577
31	0xbea5b4c7	-0.32364485
32	0x3c2780c4	0.010223571
33	0x3e811e8c	0.25218618
34	0xbe68fbd3	-0.22752313
35	0x3e7ce50c	0.2469675
36	0xbd665d9e	-0.056241624
37	0xbeff2ea9	-0.49840286
38	0xbbab79d5	-0.0052330294
39	0x3edaab33	0.4270874
40	0xbed70804	-0.41998303
41	0xbe83e7c6	-0.25762767
42	0xbe78ecfb	-0.24309151
43	0xbe999eda	-0.30004007
44	0xbf792428	-0.97320795
45	0xbd6a7904	-0.057244316
46	0x3e2793bb	0.16364948
47	0xbeadbc12	-0.3393255
48	0xbee93644	-0.45549214
49	0xbeef6098	-0.46753383
50	0xbed14a12	-0.40876824
51	0xbefa5a71	-0.48897126
52	0xbe10dd47	-0.1414691
53	0x3e482bcc	0.19547957
54	0xbd802673	-0.062573336
55	0xbd734cf1	-0.05939955
56	0x3df33205	0.11874775
57	0xbf208207	-0.62698406
58	0xbf02c9d5	-0.5108922
59	0xbecb4e86	-0.39708346
60	0xbe9be2cf	-0.3044648
61	0xbf19240a	-0.59820616
62	0xbea50594	-0.32230818
63	0xbda5b1d4	-0.08090559
64	0x3ec2043c	0.37893856
65	0x3f2b257b	0.66854066
66	0xbe7a2184	-0.24426848
67	0xbe9cc7db	-0.30621228
68	0xbf10cd26	-0.5656303
69	0xbde03ccf	-0.10949098
70	0xbf14ccae	-0.58124816
71	0xbecdbfab	-0.40185294
72	0x3e3e4421	0.18580677
73	0xbea4c5c8	-0.32182145
74	0xbee247ca	-0.44195396
75	0x3c7b9066	0.0153542515
76	0xbf22cd3b	-0.63594407
77	0x3e3d8fa9	0.18511833
78	0xbf8fedaf	-1.124441
79	0xbed607e5	-0.41802898
80	0xbe4e72c0	-0.20160961
81	0xbf2bc4ad	-0.6709698
82	0x3a919569	0.001110715
83	0x3d1bff12	0.03808505
84	0x3df3e5c4	0.11909059
85	0x3ed87811	0.42279103
86	0x3b9e3145	0.0048276507
87	0x3dc397c8	0.09550434
88	0x3ce1b10c	0.027550243
89	0xbf0f7f6a	-0.56053793
90	0x3ea4634e	0.32107013
91	0xbf00cdd3	-0.5031406
92	0xbde975c8	-0.11399418
93	0xbe97dc75	-0.29660383
94	0xbe8fb9d5	-0.28071466
95	0x3e5cff68	0.21581805

invResBlocks.0.batchNorm1.running_var f4 [96]
0	0x3f6c447e	0.9229201
1	0x3e68dce5	0.22740515
2	0x3eb5d3b7	0.35513088
3	0x3eefd145	0.46839347
4	0x3f618d15	0.881059
5	0x3ee43ea7	0.4457905
6	0x3ea71a2a	0.3263715
7	0x3ef93128	0.48670316
8	0x3f82aa1e	1.0208166
9	0x3f5ce698	0.8628936
10	0x3e88770b	0.26653323
11	0x3efaf918	0.49018168
12	0x3ef05da2	0.46946436
13	0x3eacc9ba	0.33747655
14	0x3f17db1f	0.5931873
15	0x3f164063	0.58691996
16	0x3e11526c	0.14191598
17	0x3ed02c67	0.40658876
18	0x3ec9c620	0.3940897
19	0x3e9febba	0.31234533
20	0x3f782952	0.9693805
21	0x3fc14cfb	1.5101618
22	0x3f3fda1f	0.749422
23	0x3f3937a2	0.72350514
24	0x3efd97c4	0.4952985
25	0x3f85acea	1.0443394
26	0x3f2e0c23	0.6798727
27	0x3f66eef0	0.9020834
28	0x3f49d97a	0.7884747
29	0x3f7ca20d	0.9868477
30	0x3f131a94	0.5746243
31	0x3f892049	1.0712978
32	0x3f0c685f	0.5484676
33	0x3f09cd08	0.5382848
34	0x3f1b174c	0.60582423
35	0x3eb05ead	0.34447232
36	0x3f265fb0	0.6498976
37	0x3f05fb88	0.5233693
38	0x3e0b485f	0.13601826
39	0x3f0a9ff5	0.54150325
40	0x3ec2f33a	0.38076192
41	0x3ef5e1c3	0.48023805
42	0x3e25d6b8	0.1619519
43	0x3f3c5c8e	0.7357873
44	0x3e9be019	0.3044441
45	0x3ed9c3e2	0.4253226
46	0x3eaea813	0.34112605
47	0x3eeef37c	0.4667014
48	0x3eef95fe	0.46794122
49	0x3f069acd	0.5257996
50	0x3f20c9e6	0.6280807
51	0x3ec984e2	0.39359194
52	0x3e144da6	0.14482746
53	0x3e5e77b1	0.21725346
54	0x3fa05efa	1.2528985
55	0x3f1dde7c	0.6166761
56	0x3ed3bb4f	0.41353843
57	0x3e956616	0.29179448
58	0x3f453fd8	0.7705054
59	0x3f1e52f4	0.61845326
60	0x3f53a62d	0.8267544
61	0x4009accc	2.1511717
62	0x3f21afb7	0.63158745
63	0x3f113232	0.56717217
64	0x3ea221a7	0.316663
65	0x3ee36eed	0.44420567
66	0x3eff1eef	0.49828288
67	0x3e919f45	0.28441826
68	0x3f24533c	0.64189506
69	0x3ed0fbf4	0.40817225
70	0x3f7d8d25	0.99043494
71	0x3f2f0330	0.6836424
72	0x3ea32b94	0.31869185
73	0x3f2bb1a2	0.6706792
74	0x3fbe9193	1.4888176
75	0x3e94eb17	0.2908561
76	0x3f6c1a83	0.92227954
77	0x3e822e30	0.25425863
78	0x401287ad	2.289531
79	0x3eecc5ac	0.46244562
80	0x3efe6c8d	0.49692193
81	0x3f61d31b	0.88212746
82	0x3e2a4c53	0.16630678
83	0x3f483ce6	0.78217924
84	0x3fe0abac	1.755239
85	0x3f0b5447	0.5442547
86	0x3f17c182	0.59279644
87	0x3ebaa75d	0.36455813
88	0x3f780daf	0.9689588
89	0x3f9a1083	1.2036289
90	0x3e23c01a	0.1599125
91	0x3f38eeed	0.7223957
92	0x3ebfc181	0.3745232
93	0x3f6aa46d	0.91657144
94	0x3f90bb24	1.1307111
95	0x3ea93d86	0.3305475

invResBlocks.0.batchNorm2.weight f4 [32]
0	0x3f96971d	1.1764866
1	0x3f8caa8a	1.0989544
2	0x3f9e4a4f	1.2366427
3	0x3fab5b08	1.3387156
4	0x3f9a4886	1.2053382
5	0x3f7595cd	0.959317
6	0x3fa3636d	1.2764717
7	0x3f9f5901	1.2449037
8	0x3f8131c5	1.0093313
9	0x3faf116d	1.3677193
10	0x3f6c2968	0.9225068
11	0x3f964326	1.1739242
12	0x3f905d33	1.1278442
13	0x3f92e716	1.1476772
14	0x3f80d863	1.0066036
15	0x3f8a2848	1.0793543
16	0x3f8d7d7b	1.1053919
17	0x3f98c72f	1.1935786
18	0x3f8d1c5d	1.1024281
19	0x3f845904	1.0339665
20	0x3f87eaa4	1.0618482
21	0x3f9f991e	1.2468603
22	0x3fb492e3	1.4107326
23	0x3f8ad6fe	1.084686
24	0x3f8d53ff	1.1041259
25	0x3f8e8d9b	1.1136965
26	0x3f83cce4	1.0296903
27	0x3f9e1dab	1.2352804
28	0x3f836c35	1.0267397
29	0x3f8dbcf7	1.1073292
30	0x3f971bcb	1.1805357
31	0x3fa217bb	1.2663492

invResBlocks.0.batchNorm2.bias f4 [32]
0	0x3200fe3c	7.508387e-09
1	0x3497c559	2.826953e-07
2	0xb3bd5913	-8.817201e-08
3	0x32be8b5b	2.2182283e-08
4	0x33c55e86	9.190721e-08
5	0xb4232522	-1.5194067e-07
6	0xb3a5db5b	-7.723312e-08
7	0xb2af8390	-2.0432509e-08
8	0xb3ca61e3	-9.4241635e-08
9	0x345a1fa0	2.0314337e-07
10	0xb309ee93	-3.211478e-08
11	0xb43b5ed7	-1.7450235e-07
12	0x32c9f006	2.350863e-08
13	0x33a62ea7	7.7384634e-08
14	0x33e8fd2a	1.0849392e-07
15	0xb3b533d5	-8.4378975e-08
16	0xb407b695	-1.2639278e-07
17	0x34b28b06	3.3256237e-07
18	0xb3b22e1b	-8.2971574e-08
19	0x31fde03e	7.3887625e-09
20	0xb426fc04	-1.5551637e-07
21	0xb349df2b	-4.700193e-08
22	0xb3f29faf	-1.12980494e-07
23	0xb20ef0a2	-8.320201e-09
24	0x349548aa	2.7806283e-07
25	0xb4f8eee4	-4.6367416e-07
26	0x348f8495	2.6732292e-07
27	0x3484764a	2.4672983e-07
28	0xb3e4a464	-1.064698e-07
29	0x34b5fa5c	3.3896038e-07
30	0x3397044a	7.0322656e-08
31	0x34c4dc88	3.6668303e-07

invResBlocks.0.batchNorm2.running_mean f4 [32]
0	0xbff13c41	-1.8846513
1	0xbfb20ef3	-1.3910812
2	0x3f4b9a44	0.79532266
3	0xbffd7423	-1.9801067
4	0xbfcd2bc0	-1.6028976
5	0x3f470aa9	0.7775064
6	0x3fa42787	1.2824563
7	0x40026c30	2.0378532
8	0x3e200471	0.15626694
9	0xbfcb45f7	-1.5880727
10	0x3f4a2758	0.78966284
11	0x3f0d8184	0.5527575
12	0x3fa7931b	1.3091768
13	0x3f130de9	0.574431
14	0x3e06e769	0.13174213
15	0x3f957fa9	1.1679584
16	0xbdd14221	-0.10217691
17	0xc0188054	-2.3828325
18	0xbdd5aaa7	-0.1043294
19	0x402861a7	2.6309602
20	0x3fbaab3e	1.4583509
21	0xbf6a9cb1	-0.9164534
22	0xbe971ee1	-0.29515746
23	0xbcc8a3d6	-0.024492186
24	0xbc276d2e	-0.010218902
25	0x3f80c24c	1.0059295
26	0xbfce455b	-1.6114916
27	0x3e424cbf	0.18974589
28	0x3e729514	0.23689681
29	0xc0062cfc	-2.0964956
30	0x40345187	2.817476
31	0xbff254e4	-1.8932157

invResBlocks.0.batchNorm2.running_var f4 [32]
0	0x40330c8c	2.7976408
1	0x4002a62a	2.0413918
2	0x403b9b70	2.9313622
3	0x4067bf8c	3.621066
4	0x404a1ffa	3.1582017
5	0x3ffcd94b	1.9753813
6	0x4031b495	2.7766469
7	0x40167197	2.350683
8	0x3fe23d88	1.7675028
9	0x406c298f	3.6900365
10	0x3ff919b2	1.9460967
11	0x40278777	2.617643
12	0x4016447a	2.3479295
13	0x401ffd94	2.4998522
14	0x4022b9d8	2.542593
15	0x4040428e	3.0040622
16	0x3fd56e0c	1.6674209
17	0x4002090b	2.031802
18	0x40121017	2.282232
19	0x400bd244	2.1847086
20	0x4000125f	2.0011213
21	0x402d9ee6	2.7128234
22	0x4025ce5b	2.59072
23	0x402ce3ff	2.7014158
24	0x4000761d	2.007209
25	0x400c0ba0	2.1882095
26	0x3fd8f582	1.6949923
27	0x40413fcb	3.0195186
28	0x4026f654	2.6087847
29	0x40085961	2.1304553
30	0x405456a2	3.3177876
31	0x4068cc6b	3.6374767
