LAB 3/Results/my_net2.ckpt (torch, 240297 bytes, 74 tensors)

conv1.weight f4 [16, 3, 3, 3]
000000 aa 0b b8 3d 42 75 3a bc 68 73 c0 3d 05 7b b8 be
       0.089866 -0.0113804955 0.09397012 -0.36031356
000010 7c 06 e0 be 55 18 b1 bc 01 ad eb be 28 fe 98 bc
       -0.43754947 -0.021618048 -0.4603043 -0.018675879
000020 2a 02 f8 3d 60 e2 c1 be ff 63 2f 3d 7f 74 f0 3d
       0.12109788 -0.37868023 0.042819973 0.1174097
000030 ae 17 20 bf 77 39 07 bf e2 d4 4e bd 84 a6 48 bf
       -0.6253613 -0.5282206 -0.05049599 -0.7837908
000040 d5 b0 8b be 12 97 40 3e 7a 10 f3 3d 23 ae 2b 3d
       -0.2728335 0.18807629 0.11868377 0.041914117
000050 28 ce ee 3d d9 19 18 3e 6a 98 9c be 0a b2 1d 3e
       0.11660415 0.1485361 -0.30585033 0.15399948
000060 81 24 af 3e 90 8a 60 3c e4 d7 e2 3e 30 ac d7 bc
       0.34207538 0.013704911 0.44305336 -0.026327223
000070 a4 9a 43 bd b7 df 57 3e 8d 45 82 bd 6a 04 dc 3c
       -0.0477549 0.21081434 -0.06360922 0.026857574
000080 f2 12 0f 3e 4c ad a9 be 82 27 91 be 4d 7e 29 bd
       0.13972071 -0.33140028 -0.28350455 -0.041380215
000090 1f 43 0b be c7 f4 09 3e 28 d4 ca bd 7d 01 a1 be
       -0.13599823 0.13472281 -0.09903747 -0.31446448
0000a0 db ef 9a bb 36 b8 3f be b2 67 c5 be ad c7 00 bf
       -0.0047283 -0.18722615 -0.38555676 -0.5030468
0000b0 6f 32 49 be db 50 00 3e 9e 96 0d 3e 5b f8 8a 3e
       -0.19648145 0.12530844 0.13826987 0.27142605
0000c0 66 44 7b 3e 1e a8 c8 bd ba 01 51 bd 85 5d 38 be
       0.2453781 -0.09797691 -0.051027037 -0.18004425
0000d0 26 71 43 be 58 81 b4 3d b6 44 03 3d 00 47 62 3e
       -0.19086131 0.08813733 0.03204795 0.22097397
0000e0 5a 1f 6f be 23 90 bc 3e 2c 7b 96 3e 4b d5 43 be
       -0.23351803 0.36828718 0.29390848 -0.19124334
0000f0 c6 75 7f 3e 1d d4 22 3e 4d df a4 be 41 0e 42 3c
       0.24947271 0.15901227 -0.32201615 0.011844219
000100 69 f9 ab 3e e1 3a 82 3d 83 71 cc 3e 4b 2f 0c 3f
       0.33588722 0.063588865 0.39930353 0.54759663
000110 d2 bc 67 3d 3e a1 4f 3e f7 f3 c0 3e 88 5e 6a be
       0.056576557 0.20276353 0.3768613 -0.22887623
000120 dc 06 27 be c9 a4 30 3e c8 c0 52 be 18 d7 79 3e
       -0.1631121 0.1725036 -0.20581353 0.24398458
000130 51 f9 8a 3e fe 8a 43 be cd ea ea bc 17 06 be 3d
       0.27143338 -0.1909599 -0.028676415 0.09278505
000140 5c b2 a5 be 01 b5 79 be 00 32 28 bd 0a c3 1a be
       -0.3236264 -0.24385454 -0.04106331 -0.15113464
000150 e4 e2 41 3e 86 53 6d 3e 02 0b 79 bb 7c 1a 5e be
       0.18934208 0.23176393 -0.0038000946 -0.2168979
000160 5f b1 20 3d d4 68 e3 bc 0f ef a0 bd 8e 7e 23 3e
       0.039231654 -0.027759947 -0.07858097 0.15966246
000170 dc a7 2c 3c a3 f0 99 3d 48 c3 1a 3f de e0 e5 3d
       0.010538068 0.07516601 0.60454226 0.11224531
000180 bb bb 65 3e 43 b8 e5 3e 68 e5 79 3e 2f 7b 3e be
       0.22434895 0.44867143 0.24403918 -0.18601678
000190 4a da 96 3d 73 26 0d 3d 5b 94 24 3e 00 3a d6 3e
       0.07365854 0.034460496 0.16072218 0.41841125
0001a0 22 ed a6 bd cf 31 24 be 4f 92 90 3e e2 39 da 3c
       -0.08150698 -0.16034625 0.28236625 0.026638929
0001b0 f5 5e 5c 3e 95 9e 77 3d c3 eb 82 3d 97 c4 38 be
       0.21520598 0.06045397 0.06392624 -0.18043743
0001c0 d7 28 ce bd b3 e6 85 be b2 01 18 bd 5c 19 26 be
       -0.10066383 -0.26152572 -0.03711099 -0.16220611
0001d0 5e 5a b0 3d c4 73 24 3e 05 ff 1a 3e d6 cf 4c be
       0.08610986 0.16059786 0.15136345 -0.20001158
0001e0 c5 e2 7e be 93 83 ab be 7b b7 e4 be 6b a4 39 be
       -0.24891193 -0.3349882 -0.44671234 -0.18129127
0001f0 75 94 e3 bd 10 eb ab bd 24 c9 00 3d f1 1c 9c bd
       -0.111123 -0.08394444 0.031441823 -0.07622708
000200 ac 84 3c bc dc c4 bd 3d 2e dc 2e be d4 bb 44 be
       -0.011506241 0.092660636 -0.1707618 -0.19212276
000210 e5 01 dd bd 32 75 95 be 9c 44 46 be 27 4d 38 bd
       -0.10791377 -0.29190975 -0.1936211 -0.044995453
000220 87 2e 77 3e 52 a3 bb 3e 5b 09 44 bd f5 26 21 bd
       0.24138843 0.3664804 -0.047860485 -0.039343793
000230 1a 2a c7 3e 3c 38 77 be ae de 3f be e8 ba 3e 3d
       0.38899308 -0.24142545 -0.1873729 0.046564966
000240 87 1d 40 bb 3c 90 ce 3e 8d 54 fb 3e 06 f2 bd 3d
       -0.0029314475 0.40344417 0.49087945 0.09274678
000250 95 0a 4a 3d b9 be 8c 3e ad 09 3c be bb f1 42 3d
       0.049326498 0.2748926 -0.18363066 0.047593813
000260 89 0f 5d bd 02 2c fa bd 3c 53 c1 3d ba d5 6a 3e
       -0.053969894 -0.12215425 0.09439704 0.22933093
000270 c3 90 6a 3c 51 ab 91 3e cb 5f b8 3e 95 9d ee 3b
       0.01431674 0.28451017 0.36010584 0.007281969
000280 d6 e1 66 be f3 a4 91 3d cb 90 7b be b5 58 4a bd
       -0.22547087 0.0711154 -0.24566953 -0.049401004
000290 5a ca 04 be 5a ae 2c be 43 07 97 3a 20 2b f4 bc
       -0.12967816 -0.16863385 0.001152255 -0.02980572
0002a0 a1 e9 05 be 1f 26 6b bd e2 99 57 3d 5f dd 8b bd
       -0.13077404 -0.057409402 0.05263699 -0.068293326
0002b0 70 0a 20 3e a1 3b 03 be 73 98 0c 3e 2e 2a a6 3b
       0.15628982 -0.12815715 0.1373003 0.005070946
0002c0 43 07 fe bd a0 35 22 3e 11 06 44 ba da 93 ae bc
       -0.12403729 0.15840769 -0.00074777106 -0.021310735
0002d0 2d 7a fc 3d 2d 3e f6 bd 9c 04 59 3e d5 21 bc bd
       0.12327991 -0.12023578 0.21193165 -0.091861404
0002e0 e3 57 4e 3e 1a 89 2e 3e 33 57 6a 3e a8 38 42 3d
       0.20150714 0.17044488 0.22884826 0.047417313
0002f0 85 39 00 3d 04 c4 91 3c d2 d7 f3 3d fa 96 03 3e
       0.031304855 0.017793663 0.11906399 0.12850562
000300 13 8b f1 bb 55 27 f4 bd 4d 04 52 bc 12 28 c7 bd
       -0.0073713153 -0.119215645 -0.012818408 -0.0972444
000310 4a 3d ef 3d a5 34 27 3d 69 f6 8d 3d b6 6b 83 bd
       0.11681612 0.04082169 0.06931765 -0.064170286
000320 69 cf 05 be fc d1 30 3e 29 0d 0d 3d 78 60 08 be
       -0.13067402 0.17267603 0.03443638 -0.1331805
000330 3b 86 0d be 39 88 ab 3c 77 9d fc 3c 89 4a 02 bd
       -0.13820736 0.02093898 0.030836804 -0.031809364
000340 3f ad 8a 3c 30 99 bc bd 86 12 0d 3d e8 96 1e be
       0.016928313 -0.09208906 0.034441493 -0.15487254
000350 31 a7 ea 3d 4a a0 16 bd bd 3f b2 bd 71 9d ad 3c
       0.114576705 -0.036773957 -0.08703563 0.021193238
000360 2e bf b7 3e a8 14 b2 be 67 83 db bd 58 41 18 be
       0.35888046 -0.34781384 -0.107184224 -0.14868677
000370 4b c1 13 bf 54 bd cf be e6 29 d1 3e 5d 8b b4 bd
       -0.57716817 -0.40574133 0.40852278 -0.08815644
000380 fa a8 c2 3e 70 8c 86 3e c6 2e 1b bf ad 0d a7 bd
       0.38019544 0.2627902 -0.60618246 -0.08156905
000390 fa 5d 08 bd 3f af 34 bf 7c 2a ba be d4 87 7f 3e
       -0.033292748 -0.70579904 -0.36360538 0.24954158
0003a0 93 cc fa bc 63 b3 c8 3e 9f ad 3c 3f 61 79 65 be
       -0.030615127 0.3919936 0.73702425 -0.22409584
0003b0 f2 88 1a 3e e2 f2 26 3e c5 02 46 bf 55 f1 aa bd
       0.15091303 0.1630359 -0.77347976 -0.08346812
0003c0 8b 5b 14 3f 26 c6 bf 3e bf f0 0d 3f a2 e6 04 be
       0.57952183 0.37455863 0.55445474 -0.12978604
0003d0 9e 22 68 3c 17 28 0b bd 76 85 f1 3d 4a a3 e0 3d
       0.01416841 -0.03397378 0.11793034 0.10968645
0003e0 75 6d 25 3e 2e 73 ce 3d b5 56 14 3e aa e6 39 be
       0.16155036 0.100805625 0.14486201 -0.18154398
0003f0 cd b4 1e 3e ab 2e b5 3d 73 47 40 3d 0f 22 7b bd
       0.15498658 0.08846792 0.04694314 -0.061311778

conv1.bias f4 [16]
000000 31 cf a1 3e c8 02 3c bf 3a 04 86 be 73 54 13 3e
       0.31603387 -0.73441744 -0.261751 0.14387684
000010 c1 3c 9a bd 9a 0f bb be cf 68 92 be e5 c7 ad be
       -0.07531119 -0.3653534 -0.28595588 -0.3394157
000020 9d 55 35 3f b1 b8 a9 be 2e 20 59 3e 3c d7 ea 3e
       0.7083376 -0.3314872 0.21203682 0.45867336
000030 b8 c7 2a 3f f4 b8 89 be df c3 7d 3f b7 50 1c be
       0.66710997 -0.2689892 0.99127 -0.15265165

invResBlocks.0.expansion.weight f4 [48, 16, 1, 1]
000000 ee 39 05 3e f0 01 71 be fb 12 91 3d 66 ee de 3e
       0.1301038 -0.23535895 0.07083698 0.4354126
000010 8c a5 c5 3d 62 e1 88 3e 4e 13 39 be 1e 5e 04 be
       0.09650716 0.26734453 -0.1807377 -0.12926528
000020 d6 50 20 be cc 3e da 3d d9 18 32 be 5b 22 ad 3e
       -0.15655836 0.10656509 -0.17392291 0.33815274
000030 a1 c9 97 bd 7e 61 d3 3c 3f c2 88 be ea f4 7e 3e
       -0.074115045 0.025803324 -0.26710698 0.24898115
000040 1a 13 7e be 62 da 17 be 11 be bd bb 07 a1 6c 3e
       -0.24811974 -0.148294 -0.00579048 0.23108302
000050 d6 e5 10 ba 14 07 aa 3d d6 2a 33 bd a1 78 96 3c
       -0.0005527412 0.08302131 -0.043742023 0.018368067
000060 81 aa f2 be 38 d9 86 bc e8 04 a7 be f6 c7 49 be
       -0.4739571 -0.016461 -0.3262093 -0.19705185
000070 55 e7 be bc 97 be b3 bd a1 fe f4 be d9 7e 70 bd
       -0.023303667 -0.087765865 -0.47850516 -0.05871472
000080 be 00 9a bd 23 2d d0 3d 84 a1 60 3e c5 40 66 3e
       -0.07519673 0.10164859 0.21936613 0.22485645
000090 39 f3 9b 3e 20 a6 b4 3e 6e 7e 4e be 2e fc 4e 3e
       0.30459002 0.35282993 -0.20165417 0.20213386
0000a0 7c f0 4d 3e 58 88 5a 3e 7c d9 98 bd 7f 1f d4 3b
       0.20111269 0.21341074 -0.07463357 0.006473481
0000b0 69 55 aa 3d a7 c4 b7 3d 3b e0 a2 bc 15 9b 12 3e
       0.08317072 0.08973055 -0.019882312 0.14316972
0000c0 2d 99 9b be e5 45 b9 bd 76 c4 cd 3e be 85 80 3e
       -0.303903 -0.090465344 0.4018895 0.25102037
0000d0 0f 43 0c bd e4 ce 01 3f cc fc 5c 3d ce 10 77 3d
       -0.03424364 0.50706315 0.053952023 0.06031876
0000e0 05 26 5b be 13 30 e0 3d 83 fa 82 be 6d 34 99 3e
       -0.21401222 0.109466694 -0.2558175 0.2992281
0000f0 b3 be 85 bb 41 56 d4 bd 8d 46 d3 3c 02 b3 b2 3e
       -0.004081571 -0.10368014 0.025790477 0.34902197
000100 7a 82 d2 3d 6c 6e bb 3e 0f 91 ac be fa 62 71 be
       0.10278793 0.36607683 -0.3370442 -0.23572913
000110 37 2c dd 3e aa b1 dc be e6 70 d0 bd 8d 37 b9 bd
       0.43197796 -0.43104297 -0.10177784 -0.090437986
000120 4d 14 54 3e 4b 9f fc bd 94 af 49 3f 6f 8b 6b 3d
       0.20710869 -0.1233507 0.78783536 0.05750602
000130 ae 8c b9 bc 43 3d b6 3d f1 76 19 3e 7e 70 30 3a
       -0.02265009 0.088984035 0.14986779 0.000673063
000140 d2 8a 77 be 40 10 59 be 51 7d 49 3e 7f cf 42 3d
       -0.2417405 -0.21197605 0.1967671 0.047561165
000150 f9 e4 c1 bd c2 df ca bd af 82 71 3c 3d b5 27 3e
       -0.09467501 -0.0990596 0.01474063 0.1637773
000160 35 54 4c 3e 57 43 29 be c7 b8 89 bd 8d c9 4d 3e
       0.19953997 -0.16529594 -0.067246966 0.20096417
000170 9d f7 a3 be bb f9 8d 3d 96 cb ed 3e 67 18 2c be
       -0.3202485 0.06932398 0.46444386 -0.16806184
000180 43 bd a9 be a7 4c 4b bd 72 31 e3 3e bc f3 55 3e
       -0.33152208 -0.04963365 0.4437366 0.20893759
000190 05 87 da bd 63 4d 03 be 2a 76 2f 3d f9 96 15 be
       -0.10670284 -0.1282249 0.0428373 -0.14608373
0001a0 70 e4 4b bf 8c 4c b4 3d 15 fd 53 be 74 e7 26 3e
       -0.7964544 0.08803663 -0.20702012 0.1629923
0001b0 d9 7a 8b bd 47 fe d9 bb 48 31 f0 3e 6a a7 6f 3e
       -0.06810541 -0.0066526267 0.469126 0.23403707
0001c0 b2 92 7a be d6 4c 3a be 36 1f f4 3b 62 19 0b 3e
       -0.24470022 -0.18193373 0.0074500097 0.13583902
0001d0 27 4d c6 3d dc 97 a6 3d b9 15 93 bb d7 67 79 3e
       0.096826844 0.081344336 -0.0044886735 0.24356018
0001e0 73 95 42 3e 03 0f f9 bd e7 7f 9c be 99 d4 d4 3d
       0.19002323 -0.121610664 -0.30566332 0.10392112
0001f0 5b e7 ba be 4e 33 b5 3d dd 74 64 be c9 a2 4d bc
       -0.36504635 0.08847676 -0.22310205 -0.012551018
000200 d2 36 f9 be 98 e9 c9 be f6 62 3d 3e d2 1b ac bd
       -0.48674637 -0.3943603 0.18494782 -0.08403744
000210 d2 52 47 be 32 51 7a 3e 79 28 e0 bd 1b 0c 50 3e
       -0.19465187 0.24445036 -0.109452195 0.20317118
000220 c1 6e 94 be 3e ec 8c ba d2 91 d5 bd ba dd 8c bd
       -0.2899075 -0.0010751558 -0.10428204 -0.068782285
000230 b0 0b cb be 75 84 56 be ac 34 34 be 1c 9e 52 3e
       -0.39657354 -0.20948966 -0.17598218 0.20568126
000240 f2 36 27 3f a3 54 7e 3e 77 03 1e be 57 a5 48 bd
       0.65318215 0.24836974 -0.15431009 -0.048985805
000250 b7 ab c8 3d 92 57 06 be 41 f7 dc bd c8 b2 a5 3d
       0.09798377 -0.13119343 -0.107893474 0.080907404
000260 e1 cf 7c 3e 81 e0 ea bd 97 b5 d8 bd d2 ef ea 3d
       0.24688675 -0.11468602 -0.105815105 0.11471523
000270 15 f5 08 3d dc 43 38 be 63 9f 65 3e 8b 0c d5 3d
       0.033436853 -0.17994636 0.22424082 0.10402783
000280 26 9b cc 3d b7 c8 5b 3e 43 c2 13 3e 90 9a 05 be
       0.0999053 0.21463285 0.14429574 -0.13047242
000290 23 1f 8e 3d 1a 8a 34 3e f9 ab 14 3e 39 be d6 3d
       0.069395326 0.17630807 0.14518727 0.10485501
0002a0 b5 d0 34 bd 21 1e a1 bd a5 f5 95 bd 46 bd b0 bd
       -0.04414435 -0.07867075 -0.073222436 -0.08629851
0002b0 31 e5 1b 3f 71 09 c2 3d 1e 0e 04 bf 86 5a 03 3e
       0.60896593 0.09474457 -0.5158404 0.128275
0002c0 36 50 a4 3c df 6b 70 bc 8c b2 cf 3e 35 c7 c0 b8
       0.020057779 -0.014674156 0.40565908 -9.192379e-05
0002d0 52 cb 80 3a 89 5f 5e bd b5 7a 14 3e 9c 7c 3e bd
       0.0009826219 -0.05429033 0.14499934 -0.046505556
0002e0 9b 3f de bd 58 1e 8e bc 2e 92 86 be d5 cc 92 3e
       -0.108519755 -0.017348453 -0.262834 0.286719
0002f0 5c ee ba be 16 c1 e2 3c a1 63 9c be 58 2e 2b 3e
       -0.3650998 0.027679961 -0.3054476 0.16716897
000300 01 2e 9b bc d1 ee 34 3e e4 0a f3 3e 6b 1a a9 3e
       -0.018942835 0.17669226 0.47469246 0.33027968
000310 94 2d 02 3e a4 fc 18 be a3 ea 1e be 5e 24 0a bb
       0.12712699 -0.14940125 -0.15519194 -0.0021078805
000320 eb c7 87 be 08 e8 31 be 91 7a 16 be fa 29 e2 3e
       -0.26519713 -0.17373669 -0.14695193 0.4417265
000330 c4 be 72 be ae 47 17 3e 97 e7 ef 3d ed 82 52 3e
       -0.23705584 0.14773437 0.11714094 0.20557757
000340 bb 2d 0a 3f 45 9e 80 b7 0c d6 92 3c 66 ff a5 bd
       0.5397603 -1.5332489e-05 0.017924331 -0.08105354
000350 e5 c1 bf 3d 64 56 e5 bc 89 c5 81 bd b6 e6 4a be
       0.09363154 -0.027995296 -0.06336505 -0.19814572
000360 a1 30 12 3e 1c 10 44 be 63 5b 73 3e a4 74 73 bd
       0.14276363 -0.1914677 0.2376533 -0.05943741
000370 7e 95 45 be 9a 46 0e 3e 87 4e ee bc 9d e8 41 be
       -0.19295308 0.1389412 -0.02909018 -0.18936391
000380 61 ed 3a 3d 9e df fe bd 75 77 3e be e7 58 c9 be
       0.04563654 -0.12444995 -0.18600257 -0.3932564
000390 01 5e b0 be 57 46 4a be 2d 46 b5 bd 37 81 26 be
       -0.3444672 -0.19753395 -0.088512756 -0.16260229
0003a0 79 2c 25 be 98 7a 39 3e 23 12 3a be 64 ab 9a be
       -0.16130246 0.18113172 -0.18170981 -0.30208886
0003b0 f7 ea 11 3f 74 28 56 3e b4 10 d4 bd 74 d9 5a 3d
       0.5699915 0.20913869 -0.10354748 0.053430036
0003c0 7a 65 0a 3e 5f b2 ea bd f8 80 8e 3e 7f 87 a1 3e
       0.13515273 -0.11459803 0.2783277 0.31548688
0003d0 65 46 04 3e 64 0b 14 bc ed cc f3 bd 04 fa c4 bd
       0.12917478 -0.009035919 -0.11904321 -0.09617999
0003e0 43 67 fd bd 30 9c 14 3e 7d 67 5f be 0e 3f eb bd
       -0.12373211 0.14512706 -0.21816821 -0.11486636
0003f0 d8 42 01 3f d1 62 71 3e cc b9 46 3e 70 23 20 3e
       0.5049262 0.23572852 0.19406813 0.15638518

invResBlocks.0.expansion.bias f4 [48]
000000 07 d7 d8 bd 69 eb a6 bc a8 99 53 be a7 23 34 3d
       -0.10587888 -0.020375924 -0.20664084 0.043979313
000010 a4 17 19 3d ac f5 54 bd 39 a7 fb bd bf 32 c5 bd
       0.03737606 -0.051992103 -0.122877546 -0.0962882
000020 6c 79 23 3e 99 e0 3f be ba cb 9b 3d 0e 21 46 3e
       0.15964288 -0.18738021 0.07607217 0.19348547
000030 b7 0b d2 bb eb 86 0f 3e f4 11 7c 3c c6 54 96 3d
       -0.006410088 0.14016311 0.01538514 0.07340388
000040 a6 12 af 3d df 8d 0d 3e 1e 32 0a be 89 77 2d 3e
       0.08548479 0.13823651 -0.1349568 0.1694013
000050 85 5d 78 3d 6e fc ec bd 9a c9 20 bd a0 64 2b be
       0.060636062 -0.11571585 -0.039254762 -0.16737604
000060 58 1a 1a 3c bc c9 9d 3d b6 69 71 be 9f c9 64 3e
       0.009405695 0.077044934 -0.23575482 0.22342537
000070 57 35 2c be aa 66 17 3e ac 02 b2 bd f1 a8 fc 3d
       -0.16817223 0.14785257 -0.08691916 0.123369105
000080 0a 6b 6b be 6c 23 80 3d 36 5c 25 3e 7f 3b 76 be
       -0.22990051 0.06256756 0.16148457 -0.24046133
000090 b7 5d 30 3e 88 74 68 3e f1 e4 af bd 80 4a 3e 3e
       0.1722325 0.22700703 -0.08588589 0.18583107
0000a0 0e 73 5b 3e 8d 19 57 3e 05 b5 d1 bd 93 04 06 3d
       0.21430609 0.2100584 -0.10239605 0.032719206
0000b0 ce ce 33 3e 02 d2 cd 3c 15 6a 41 3e c7 88 0b 3e
       0.17559358 0.025124554 0.18888123 0.13626395

invResBlocks.0.depthwise.weight f4 [48, 1, 3, 3]
000000 aa b7 94 3e c2 5e a1 3e f3 50 e6 be 56 49 99 3e
       0.29046375 0.31517607 -0.44983634 0.29938763
000010 21 0e f3 3e ad 48 0c bf a7 ba 19 3d 7a 5d 7f be
       0.47471717 -0.54798394 0.03753152 -0.24938002
000020 be 40 b8 bd 25 26 8f bc ab 30 bc 3e d4 e0 78 be
       -0.089967236 -0.017474243 0.3675588 -0.24304515
000030 de c1 75 be 84 40 e9 3e 77 d0 00 bf d2 48 c8 bc
       -0.23999736 0.45557034 -0.5031809 -0.024448786
000040 60 94 b1 3e 35 4b c2 be a0 1f 87 be 14 1b 02 3e
       0.34683514 -0.37948003 -0.26391315 0.12705642
000050 fb 4c 15 be c4 e5 6d 3e da e4 ce bd d0 d1 55 3d
       -0.14580147 0.2323218 -0.10102244 0.052202046
000060 64 23 1d 3e 75 10 05 bd 45 35 14 bf b0 a6 99 be
       0.15345532 -0.032486398 -0.5789378 -0.30009985
000070 c1 0c 8c be 07 19 ca be 86 83 9e be 07 69 4c be
       -0.2735348 -0.3947222 -0.3095972 -0.1996194
000080 2d 4d c4 bd 21 be 88 3f ea 1e 92 3f 6f 21 69 be
       -0.095850326 1.0683023 1.1415684 -0.2276666
000090 5c 46 bc 3e d4 85 75 3f d2 18 1f 3f d9 77 58 3e
       0.3677243 0.9590733 0.6214725 0.21139468
0000a0 de 6e 26 be 58 d5 ec be 2c 48 30 3e 14 0b 58 bf
       -0.1625323 -0.46256518 0.17215031 -0.84391904
0000b0 af 99 98 3e 02 ce 74 bd 2f f5 bb be 51 79 15 3f
       0.2980475 -0.059766777 -0.36710498 0.5838824
0000c0 91 94 f7 3e 3e f3 75 3e e6 df 3d 3e 08 e6 d4 3c
       0.48355535 0.24018571 0.18542442 0.025988594
0000d0 14 87 28 bf 7e e2 f3 be 34 83 7c 3e 25 1d be 3e
       -0.6583111 -0.47633737 0.24659425 0.3713161
0000e0 a2 db e3 3e 1e b1 64 3e 84 ca 8f bf f0 d9 26 bf
       0.44503504 0.2233319 -1.1233678 -0.65176296
0000f0 0f 09 07 3f 57 66 32 bf 69 07 f1 3e 76 8f 7d be
       0.527482 -0.6968741 0.47075966 -0.24761757
000100 4c 66 49 3e 8e 59 5d be 87 10 68 be 49 62 9b be
       0.1966793 -0.21616194 -0.22662555 -0.30348423
000110 c8 86 ae 3b 94 d0 b2 bd d2 22 a8 3d 43 21 34 be
       0.005326126 -0.08731189 0.082097664 -0.17590813
000120 c1 b7 03 bf 43 d1 b6 be 05 06 22 bf 42 f9 a3 be
       -0.5145226 -0.3570653 -0.63290435 -0.32026106
000130 c0 23 6d 3e 34 6b 9f bd d0 13 b6 3e ca 57 37 3f
       0.23158169 -0.07784119 0.3556199 0.7161833
000140 e9 2d d9 bd a9 50 bf 3d 13 3f 7b 3c 89 e0 8d bd
       -0.1060446 0.093415566 0.015334862 -0.06927592
000150 b3 dc 09 3f 86 3a 53 3e b0 4b c3 be d4 0f ca 3e
       0.53852385 0.20627794 -0.38143682 0.394652
000160 05 df 04 be 10 0e cd be 07 de f5 be 5b e5 10 3f
       -0.129757 -0.4004979 -0.48020956 0.5659997
000170 d2 a1 8b 3e 2e 17 fc be 48 93 6e 3e 6a 06 e6 bd
       0.27271897 -0.49236435 0.23298371 -0.11231692
000180 7c 04 32 be b2 b3 fc 3a 21 fd 9d 3e 42 f5 ef 3e
       -0.17384523 0.0019279628 0.30857185 0.46866804
000190 0d 23 6d 3e 48 7b ea bd a6 99 d9 3e a2 b0 53 bd
       0.23157902 -0.11449295 0.42500037 -0.051682122
0001a0 d1 96 c5 be b1 f1 98 be eb c4 30 be 83 32 67 3e
       -0.38591626 -0.29871896 -0.17262618 0.22577862
0001b0 43 9d fe 3e f3 74 ac 3d 8c 16 6a be e6 d9 26 3f
       0.49729356 0.08420744 -0.22860163 0.65176237
0001c0 fc 0c e1 3d e9 38 e0 be db 41 8f 3e fd 40 bf be
       0.10988805 -0.4379342 0.2797993 -0.3735427
0001d0 76 a5 6c be 63 8d f7 bc f6 88 c8 be 14 d5 dd 3e
       -0.23109993 -0.030218786 -0.39166993 0.43326628
0001e0 6a ed d7 bd 0e 32 92 be 2a 7a a5 3e bf cf c8 3e
       -0.1054333 -0.28553814 0.32319766 0.39220998
0001f0 fb 86 78 be 11 ce 4d be 28 76 78 3d c1 33 9b 3e
       -0.24270241 -0.2009814 0.060659558 0.30312923
000200 de 1c b9 be 91 1c 4f 3d 62 68 cb 3d 92 04 24 be
       -0.36154836 0.050564352 0.09932019 -0.16017368
000210 68 42 82 3c 8b 00 11 bf ff 7d cc be aa 00 67 3e
       0.015900806 -0.56641454 -0.39939877 0.22558847
000220 0f 94 d2 3b 0a 7e 86 be 19 2b 16 be 2d 2d 1d be
       0.0064263414 -0.26268035 -0.14664878 -0.15349264
000230 09 97 8f bd 39 e5 83 be dd f4 80 be 95 6c 1c be
       -0.070112295 -0.2576082 -0.25186816 -0.15275796
000240 d8 4d c2 3d 9e 7f 1d 3e 25 7e d0 be 91 f0 49 3d
       0.09487504 0.15380713 -0.4072124 0.049301688
000250 0b cc 1d 3f b9 9d 86 be ec 5d 8f 3e ac 98 36 3e
       0.6163947 -0.26292208 0.28001344 0.17831677
000260 96 13 71 be a1 08 fd bc a8 c8 49 be 8b d9 60 3f
       -0.23542628 -0.030887904 -0.1970545 0.87831944
000270 b5 b2 fc be f8 5d 30 bf d2 ae fc 3e e6 9f b1 3c
       -0.49355093 -0.68893385 0.49352127 0.02168269
000280 66 3d 8c 39 18 e5 d5 3e 7d 42 e4 3e 6f 89 3e 3f
       0.00026748626 0.41776347 0.44581977 0.7442846
000290 5f 8a 41 3e e3 1a 9f 3e e4 cf f4 bd 9f f9 9f bc
       0.1890044 0.310752 -0.119537145 -0.019528208
0002a0 84 19 55 be cd f6 06 bf ec 8f 09 bd 61 69 1b be
       -0.20810515 -0.5272034 -0.03358452 -0.15176918
0002b0 f7 d5 2b 3f ee 52 1e bf ff c1 4e be 20 6e ad 3e
       0.6712336 -0.6184529 -0.20191191 0.3387308
0002c0 8d ba 2c bf 5d aa e5 3e f6 c2 e7 be c0 86 93 be
       -0.67472154 0.4485654 -0.4526593 -0.28813744
0002d0 45 86 11 3d ad 20 80 be 87 3d 40 3e e9 bf d9 be
       0.03552844 -0.2502493 0.18773471 -0.42529228
0002e0 1a 73 2c 3e b8 0a 03 3f 6e ab 89 bd e5 7d 22 3f
       0.16840783 0.5118823 -0.06722151 0.6347335
0002f0 60 2e 0b 3e ca 7b 7b 3c 30 9e 20 3e 58 50 c3 3e
       0.1359191 0.015349338 0.15685344 0.38147235
000300 b6 d6 f2 3d 74 78 9c bb 11 94 ae 3e 4c 93 a2 3b
       0.11857359 -0.0047751013 0.3409734 0.004961407
000310 f2 fd 9f 3e 84 ab 2e 3e 34 57 58 be 1d a6 f1 3d
       0.31248432 0.17057616 -0.21127015 0.11799262
000320 19 30 8c 3d 33 e4 bf 3a 0c a7 cf bd 86 6e be bb
       0.068451114 0.0014640152 -0.101392835 -0.0058115153
000330 e0 34 f6 be 2e 5b db bd 12 b9 13 be 7a a3 43 3d
       -0.48087215 -0.107107505 -0.14426067 0.047763325
000340 1c 1a ab 3c 7d f9 a4 be e3 cd a4 bd b8 91 a0 be
       0.020886473 -0.32221594 -0.08047082 -0.31361175
000350 96 10 c0 bd d2 fb 61 3e 6d f2 c7 3e ac 7a b9 bb
       -0.093781635 0.22068718 0.39052144 -0.0056603756
000360 25 20 b1 be 3c 54 54 bf 19 51 b9 be 21 c1 c4 be
       -0.34594837 -0.8294103 -0.36194685 -0.38428596
000370 29 dd 60 be 6c 5a cc 3e dc 3c 0a 3d 23 da b1 3f
       -0.21959366 0.39912736 0.033749446 1.3894695
000380 a4 92 4a 3f d2 b5 cf 3e 34 0e 79 3e b6 f8 ba be
       0.79130006 0.40568405 0.24321824 -0.36517876
000390 3f 0f f8 bc e4 27 5e be 3c 59 33 be 3f 30 78 be
       -0.030280707 -0.21694905 -0.17514509 -0.24237154
0003a0 57 6b 1a 3e e2 65 95 be d9 d6 39 bd fd dd e7 3d
       0.1508001 -0.29179293 -0.04537091 0.11321638
0003b0 d5 5c 88 be d6 2b 1b 3f 2e 9e b7 3e 83 28 0b bf
       -0.26633325 0.60613763 0.3586287 -0.5435869
0003c0 40 20 73 3d d5 d3 53 3f d5 09 10 bf 56 cf c0 be
       0.059356928 0.82745105 -0.56265 -0.37658185
0003d0 be 82 5f 3e c5 96 63 3d 1e 2d b4 be 30 75 1d 3e
       0.21827218 0.055563707 -0.35190672 0.15376735
0003e0 30 11 d5 3d 40 75 b1 be 5d 41 91 be 32 01 88 bc
       0.10403669 -0.34659767 -0.2837018 -0.016602132
0003f0 f9 42 9a be 6a 76 27 3e 4b 4d bf be f8 0a a0 3e
       -0.3012922 0.16353765 -0.37363657 0.31258368

invResBlocks.0.depthwise.bias f4 [48]
000000 01 11 9e bd a0 32 68 be 80 81 03 3e 26 74 30 3e
       -0.07718087 -0.22675562 0.12842369 0.17231807
000010 36 f2 5d 3e 88 7c bb 3c 12 0e 45 bd 77 98 77 be
       0.21674427 0.02288653 -0.04810912 -0.24179254
000020 0a e7 6f bd f2 dc e0 bd 0a d5 79 b9 1b 74 0e 3e
       -0.058569945 -0.10979642 -0.00023825854 0.13911478
000030 c4 54 d5 3d 2e dc a2 bd 5d 1e 14 3e ab be 15 3c
       0.104165584 -0.07952152 0.14464708 0.009139697
000040 33 6d 45 be 91 94 fc bd 72 c8 44 3e 5f 31 c0 3d
       -0.19279937 -0.12333024 0.19217089 0.09384417
000050 68 ef 12 be e8 06 61 3e 99 56 45 3e 13 38 75 be
       -0.14349139 0.21975291 0.19271316 -0.23947172
000060 a5 b5 77 3e 65 1e 2e 3e 16 fd e0 bd 9e ee 6b 3e
       0.24190386 0.17003782 -0.10985772 0.23040244
000070 17 73 99 be 91 3e 7a 3e 6d f8 93 3d 35 21 5b bd
       -0.2997062 0.2443793 0.07225118 -0.053498466
000080 9c 17 8d 3d e9 43 a4 3e 3f 81 7e be b7 0a 97 3e
       0.06889269 0.3208306 -0.24853991 0.29500362
000090 95 14 39 be 03 6c 61 3e b9 db 12 3d 10 18 94 be
       -0.18074258 0.2201386 0.035854075 -0.28924608
0000a0 f7 47 86 be d5 c9 40 3e f3 cc 95 bd 86 74 15 bd
       -0.2622678 0.18826993 -0.073144816 -0.03648808
0000b0 c5 51 1e 3e 49 4b 1a 3e fd ae 9d be 21 e1 ba 3d
       0.1546088 0.15067782 -0.30797568 0.09124971

invResBlocks.0.pointwise.weight f4 [16, 48, 1, 1]
000000 d0 05 91 3d 4b b7 c0 3e a0 d2 a9 bc 1d bd 8d 3e
       0.07081187 0.3763984 -0.020730317 0.27683344
000010 1b 0c 62 be 8d 90 fe 3d 05 8e b5 3e 7f d5 73 be
       -0.2207493 0.124299146 0.35459915 -0.23811911
000020 7e 3e 94 3d 3d 28 92 be 0b 7f a1 3d 67 52 fa bd
       0.07238482 -0.28546324 0.0788556 -0.12222748
000030 e7 d4 93 3c 6e 0a 7d bd b5 0d 6d 3e 79 5c 77 bd
       0.018045856 -0.061777525 0.2314976 -0.060390923
000040 50 52 8e bd 8c cd 14 be 8a 6b e1 bd 79 00 9a 3e
       -0.069492936 -0.14531535 -0.110068396 0.30078486
000050 28 64 24 3e 9b 0f de ba 4e e6 6d be 9b 3f 89 3d
       0.16053832 -0.0016941907 -0.23232386 0.06701585
000060 5b 96 12 bf ed 83 d2 bd 18 07 d6 3e 1f b0 99 3d
       -0.57260674 -0.10279069 0.41802287 0.075042956
000070 b4 0b 0b be a7 83 3f 3e 71 84 44 3d 40 24 3f be
       -0.13578683 0.18702565 0.04797787 -0.18666172
000080 be 32 6c be e6 b4 9f bd fd b8 ce bb c6 76 ae 3e
       -0.23066232 -0.077981755 -0.0063086734 0.34074992
000090 a7 2c 4a bd 21 dd 3e be 08 cf 87 be 42 ff 9c be
       -0.04935899 -0.18639041 -0.2652514 -0.30663496
0000a0 32 08 56 be b7 18 f9 be 61 6f b8 be 4d f4 fc bd
       -0.20901564 -0.48651668 -0.36022475 -0.12351284
0000b0 5c 38 51 be 08 ad 08 3d 6f 80 e6 3d 02 37 d0 3e
       -0.20431656 0.03336814 0.112549655 0.40666968
0000c0 09 f4 29 3d 5f 83 a7 bd 46 57 04 bd 79 2c 49 bd
       0.041492496 -0.08179354 -0.032309793 -0.049114678
0000d0 c8 dc 88 be 2c 90 07 be 5b 5c 32 3f 60 0c 8d bd
       -0.26730943 -0.13238591 0.69672173 -0.06887126
0000e0 69 b3 5a bf 37 99 ac bc 35 d1 05 3e 37 4a 89 3d
       -0.8543001 -0.021069152 0.13068087 0.067036085
0000f0 3e 3d b0 3e de 1a 70 3e 83 e9 93 be 90 f3 a0 bd
       0.34421724 0.23447749 -0.28889093 -0.07858956
000100 b7 cc dc bd 7e 1e 34 3d d9 e0 c8 3d 73 1c f8 be
       -0.10781234 0.043974392 0.09808511 -0.48459205
000110 4c 28 ed 3c 85 ff bd bd b7 1d b7 bc 07 59 28 3e
       0.02894988 -0.09277252 -0.022353036 0.16440211
000120 b3 91 8b 3e f3 63 d7 bd 4b 06 e1 3d 2f 48 b5 bd
       0.27259597 -0.10517111 0.109875284 -0.088516586
000130 29 44 a7 bd 8d 9d 03 be 96 ea 4a 3e d6 18 ca 3e
       -0.081672974 -0.1285307 0.1981605 0.39472073
000140 f6 40 74 3e aa c8 3f be 1c 5a 81 bd 97 7b ef bd
       0.23852906 -0.18728891 -0.06316015 -0.11693495
000150 15 4d 4f 3e d4 a3 09 3e 9f 18 83 3d d0 b2 f3 bd
       0.20244248 0.13441402 0.064011805 -0.1189934
000160 d4 73 1d be 42 4e 0a 3d 2a 0d 7c 3e c3 c8 80 3d
       -0.15376216 0.03376604 0.24614397 0.06288292
000170 f5 93 cd 3b 75 dd 99 bd 54 92 38 be 4e 9e 29 be
       0.0062737414 -0.07512943 -0.1802457 -0.16564295
000180 af 07 c0 3d 89 3e a8 3e d1 21 39 3e 7c 49 79 be
       0.093764655 0.3286021 0.18079306 -0.24344438
000190 ec 9b d4 be 97 28 58 38 6c ed 66 3d 0d 1d 93 3c
       -0.4152521 5.1536215e-05 0.056378767 0.017958188
0001a0 39 10 ee 3d 1d 53 dc be b6 d1 04 be 0b da 4b be
       0.11624188 -0.4303216 -0.12970623 -0.19907396
0001b0 61 b1 ae bd 0b de 12 3e 50 aa 19 be 0c 93 22 3e
       -0.08529926 0.14342515 -0.15006375 0.15876406
0001c0 b4 8f 89 3e 44 f2 ea 3e 88 d5 97 3d 0a 67 a0 be
       0.2686745 0.4588796 0.07413775 -0.31328613
0001d0 aa 75 c1 be 90 b0 55 be 5e 60 a0 3d 62 db 26 3d
       -0.37785083 -0.20868134 0.078308806 0.040736564
0001e0 98 a6 18 3e 54 71 08 3e 16 09 01 3f bd 8a a9 3d
       0.149073 0.13324481 0.5040449 0.08278415
0001f0 e3 47 8e 3d a1 97 a5 3d 9f a9 b5 bb b9 01 65 3e
       0.06947305 0.080855615 -0.005543902 0.22363938
000200 38 02 3d 3c ec b0 f5 bd 45 d3 bd 3e e9 8d e7 bc
       0.0115361735 -0.11996636 0.37075248 -0.02826591
000210 89 ca b4 3c d6 cb a5 3e 46 79 bc 3e 3b ff 16 3f
       0.022069233 0.32382077 0.36811274 0.589832
000220 d2 01 96 3d b3 02 a6 3e da cb 26 bf 8f 9e 1d be
       0.07324566 0.32423934 -0.651548 -0.15392517
000230 25 40 1d 3f 56 fd 0a 3e fb 4e cc bd d8 65 d5 be
       0.61426 0.13573202 -0.09976002 -0.41679263
000240 27 3e 43 be c0 a8 1d be 0f cf 1a 3e 7e e2 c2 be
       -0.19066678 -0.15396404 0.15118049 -0.38063425
000250 01 62 3d 3d 8f 23 4f 3e 06 dd 1a be dc b3 3d be
       0.046236042 0.20228408 -0.15123376 -0.18525642
000260 38 9b aa be ff ab 02 3e d1 64 dc 3e 3d 6b be bd
       -0.33321548 0.12760924 0.43045667 -0.09297798
000270 97 4e 0a be fa 40 8b 3e b0 3e e3 be 24 fa d1 3b
       -0.13506542 0.2719801 -0.44383764 0.006407993
000280 5a 52 1e be 65 77 2a 3e 35 e0 00 3e e9 17 45 be
       -0.15461102 0.16647108 0.12585528 -0.19247402
000290 7d f0 82 be 68 16 28 3e 45 c3 76 3d 15 bb 8f 3c
       -0.25574103 0.16414797 0.060244817 0.017545262
0002a0 20 83 cb 3e eb 9b ba be 8a 9c 00 bf 2c a4 bd 3e
       0.39748478 -0.3644708 -0.5023886 0.37039316
0002b0 fd db 8f 3d 7f 8a d8 3b c9 3b 0f 3e 16 8c 1c be
       0.07024381 0.006608307 0.1398765 -0.15287814
0002c0 1a 4f 08 3f 20 9a ce 3e e0 3c 1e 3e 56 ae 35 be
       0.532457 0.40351963 0.1545291 -0.17742285
0002d0 26 2f 3e be 7b 81 ce be 20 3b 4b 3d 44 b8 bd 3e
       -0.18572673 -0.4033316 0.049616933 0.37054646
0002e0 f7 ca 30 3e ca 5a 56 3e 8f 1c a7 be 90 04 07 bf
       0.17264925 0.20933071 -0.32638976 -0.52741337
0002f0 9b 97 59 3e 22 8f c7 bc de 96 2b 3d bc 09 7b bd
       0.21249239 -0.024360243 0.041891925 -0.06128858
000300 8b 71 de 3a 3c aa 85 3e 32 c7 e0 3d 8e 0a 21 3e
       0.0016971094 0.2610644 0.109754935 0.15726683
000310 12 91 21 bf 7b 4a 31 3d 64 9c 7a 3e 14 50 25 3d
       -0.63111985 0.04328392 0.24473721 0.04035957
000320 63 8a 3f 3e 71 5d 61 bd b4 98 44 be 93 d1 82 bd
       0.18705134 -0.055020753 -0.19198877 -0.06387629
000330 b8 92 17 be 70 08 29 be 19 22 1b 3d 4c 0c 67 3e
       -0.14802063 -0.16507125 0.037874315 0.22563285
000340 91 a3 a1 bd ee 21 c8 be ff 19 93 3e bd fc fc 3d
       -0.07892526 -0.39088386 0.2873077 0.123528935
000350 f4 fd d3 3d 0e f9 be 3a a4 ff 9f be 98 2b b7 3d
       0.10351172 0.0014570074 -0.31249726 0.08943862
000360 13 28 ca 3e 91 3d 85 be 60 b1 e8 3d ea 14 2b be
       0.394837 -0.26023534 0.113619566 -0.16707197
000370 97 9a 7a bd b0 71 79 3e 01 20 9f be b3 39 55 be
       -0.061182585 0.24359775 -0.31079105 -0.20822792
000380 7a 90 ce bd 6f 33 8a be 99 e6 7e 3e 32 15 69 3e
       -0.100861505 -0.26992366 0.24892654 0.22761992
000390 ff 07 78 3e 3a 40 14 3f 10 e1 bf bb 77 bd 8e 3e
       0.242218 0.579105 -0.005855687 0.27878925
0003a0 28 c6 a2 3e e5 a3 0e be 17 59 39 bc 02 29 a9 3e
       0.31791806 -0.13929708 -0.011312745 0.330391
0003b0 0f ab 99 be dd b0 de 3c 14 b0 69 3e ab e2 92 3e
       -0.3001332 0.027183944 0.22821075 0.2868856
0003c0 e2 1f a7 be e5 c6 3e be c9 a7 34 be d4 5f 8d be
       -0.32641512 -0.1863056 -0.1764213 -0.27612174
0003d0 92 31 38 3e ec d4 ab be 11 53 25 bd b7 25 c4 3d
       0.1798766 -0.33560884 -0.04036242 0.09577506
0003e0 de 4a 7c 3e bf d3 9f be 41 f7 a4 be 37 42 98 bd
       0.24637935 -0.31216237 -0.3221989 -0.074345045
0003f0 2d 9b 12 bf e3 a4 a3 bc ef 54 95 ba 89 0c 52 bc
       -0.5726803 -0.019976085 -0.001139311 -0.012820371

invResBlocks.0.pointwise.bias f4 [16]
000000 71 38 c2 bd a1 47 c4 3d 13 15 d1 bd c5 d7 fe bd
       -0.094834216 0.09583975 -0.10209098 -0.124434985
000010 f4 36 aa bd a8 b5 d5 bc a8 c9 fd bd 03 b5 8c bb
       -0.08311263 -0.026087597 -0.123919785 -0.004294039
000020 45 15 d5 3d 12 37 b3 bc 6f 19 ec bd b7 d3 b4 3d
       0.104044475 -0.021876846 -0.115282886 0.08829444
000030 df 05 ed bd fd 99 02 3e 75 0f 3c bd e9 c1 fd bd
       -0.115733854 0.12754054 -0.04591318 -0.12390501

invResBlocks.0.batchNorm1.weight f4 [48]
000000 6a 5a 50 3f 23 35 57 3f dc 3e 7b 3f 25 07 73 3f
       0.8138796 0.84065455 0.9814279 0.94932777
000010 8d 88 69 3f a0 68 8b 3f cb 16 7b 3f 12 b5 6f 3f
       0.91223985 1.0891304 0.98081654 0.93635666
000020 f6 38 51 3f 4e 4f 5b 3f 7a 95 86 3f 6a bc 35 3f
       0.8172754 0.85667884 1.0514367 0.7099062
000030 53 07 62 3f 79 fc 6d 3f b4 18 63 3f 4a af 73 3f
       0.88292426 0.9296337 0.8870957 0.95189345
000040 e7 55 4f 3f c3 1e 8d 3f ca 8e 53 3f c1 76 5d 3f
       0.8099045 1.1025013 0.82639754 0.8650933
000050 b4 05 42 3f 59 e1 20 3f 9e ff 76 3f fb 59 62 3f
       0.7578995 0.62843853 0.9648379 0.8841855
000060 2c 5e 7c 3f 98 c5 73 3f 98 31 90 3f 5a 21 82 3f
       0.98581195 0.9522338 1.1265135 1.0166428
000070 15 a9 43 3f 62 cc 61 3f ef 81 4f 3f d7 73 80 3f
       0.76429874 0.8820249 0.8105764 1.0035352
000080 de 01 7f 3f 8c bf 75 3f 28 6b 89 3f b7 86 6b 3f
       0.99612224 0.959954 1.0735826 0.92002434
000090 8e ea 70 3f 21 f1 73 3f 1a 3f 90 3f a2 aa 49 3f
       0.941079 0.9528981 1.1269257 0.7877599
0000a0 40 85 81 3f b3 fd 56 3f cc 08 61 3f e5 6a 80 3f
       1.011879 0.83980864 0.8790405 1.0032622
0000b0 94 af 6b 3f 45 21 71 3f 27 57 68 3f 92 a2 5c 3f
       0.92064786 0.9419139 0.90757984 0.8618556

invResBlocks.0.batchNorm1.bias f4 [48]
000000 12 30 75 bd 02 dd 1c 3f 3c f9 d3 3d 85 4c ff 3e
       -0.059860297 0.6127473 0.10350272 0.49863067
000010 60 91 2c 3f b9 23 b6 3e f1 23 51 3f 32 2d ca bd
       0.67409325 0.3557413 0.8169547 -0.098719016
000020 1a 9c 8e 3f cb 8a 75 3d 47 35 6b 3e 62 27 47 be
       1.1141388 0.059946816 0.22969542 -0.19448617
000030 7d 34 64 be df 5a 36 be 72 ce 95 3e 1e 4a 3c 3e
       -0.22285648 -0.17808102 0.29259068 0.18387648
000040 98 27 0b be cc 61 b6 3e 6b a2 93 bd 3f 41 5e 3f
       -0.13589323 0.35621488 -0.07208713 0.8681831
000050 b7 b1 93 be f4 e3 fd 3d cd 86 f3 3c ad f1 5a be
       -0.28846523 0.12396994 0.029727364 -0.21381254
000060 02 e3 74 3f 32 80 bf 3d 47 fb 50 3f 16 f8 6d 3e
       0.95658886 0.09350623 0.8163342 0.23239169
000070 e6 02 ad be 99 12 ee bd d6 92 91 be 98 00 03 3f
       -0.33791274 -0.11624641 -0.2843234 0.5117278
000080 3c 62 93 3f 12 80 66 3d 7f b8 a1 3e 33 58 fa 3b
       1.1514354 0.05627448 0.31586072 0.0076399087
000090 b5 59 90 3d bf 6c 88 3f bb 1f 3a 3f 2f 23 7b 3f
       0.0704836 1.0658187 0.72704667 0.9810056
0000a0 be 8b b1 3e ac a8 00 3f 01 2c aa 3e 3f 1b 17 3e
       0.34676927 0.5025737 0.33236697 0.14756487
0000b0 b6 da 96 bd e9 95 4d bd e4 43 24 be 27 20 f0 3e
       -0.073659346 -0.050191794 -0.16041523 0.4689953

invResBlocks.0.batchNorm1.running_mean f4 [48]
000000 1e 7a a2 bd 15 f8 45 bf be b4 d4 3d c9 7a 2b 3e
       -0.07933448 -0.7733167 0.10386036 0.16746058
000010 19 d4 6c 3f bc 9d ad 3d 61 a3 e8 be 9f 66 19 bf
       0.92511135 0.08477351 -0.45437148 -0.5992221
000020 80 99 6a bf 50 6c b7 3e 0a d1 c0 3d 79 a6 b6 bd
       -0.9164047 0.35824823 0.09414871 -0.08918471
000030 c4 c8 06 3e 2b a9 53 3e 50 08 96 be f6 48 10 3e
       0.13162524 0.20670001 -0.29303217 0.14090332
000040 64 10 5f be 0a 97 d2 3e 35 58 53 3e 0d 24 a3 be
       -0.21783596 0.4113086 0.20639117 -0.31863442
000050 28 9e 36 3e db 7f af bd 07 2b 04 bf 64 de 82 be
       0.1783377 -0.08569308 -0.51628155 -0.25560296
000060 d2 fb 05 3f 2f 46 fe be 4b 73 c8 bc 2e 7c 26 3f
       0.5233737 -0.4966292 -0.024469038 0.65033233
000070 d4 0e fc bd 1b 37 7d 3e 2f 52 0b 3d c9 57 46 3e
       -0.12307516 0.24728052 0.034013923 0.19369425
000080 2f 2b e6 3e bb 30 ec 3e 9b 76 a4 be 91 f6 22 be
       0.4495482 0.46130928 -0.3212174 -0.1591437
000090 13 6f 1f be e3 ee 89 be 49 a4 08 be ab a2 a4 be
       -0.15569715 -0.2694007 -0.1334392 -0.32155356
0000a0 1d 8f 9a 3e 34 da 00 be 0e dc b0 3e 24 8a b6 3e
       0.30187312 -0.12583238 0.34542888 0.35652268
0000b0 b6 3f a9 3d 1c 3c c8 bd 2f 4d d3 bc b0 70 c5 3e
       0.08264105 -0.0977709 -0.02579364 0.38562536

invResBlocks.0.batchNorm1.running_var f4 [48]
000000 a4 7a 7e 3e b7 dc 90 3e 9f 1e 28 3e 34 00 60 3f
       0.24851471 0.28293392 0.16417931 0.8750031
000010 01 3e 80 3f 42 53 0c 3f c5 11 87 3f d7 41 3d 3e
       1.0018922 0.5481454 1.0552298 0.18482147
000020 0d a2 35 3f 8a 97 a5 3e 65 33 38 3f e3 62 1d 3e
       0.70950395 0.32342178 0.7195342 0.15369754
000030 37 31 df 3e 0d 29 64 3e 22 e3 dd 3e 88 9d 9f 3e
       0.43592235 0.22281285 0.4333735 0.31174874
000040 71 27 97 3e ea 45 71 3f 5b 8c a9 3e ac d4 65 3f
       0.2952228 0.94247305 0.33114895 0.89777637
000050 1e aa 9d 3e 5e f5 41 3e 67 df 83 3e e4 ff 32 3e
       0.30793852 0.18941256 0.2575638 0.17480427
000060 4e 96 d5 3f d2 f8 62 3e ee 88 c3 3f 24 11 a6 3e
       1.6686494 0.2216523 1.5276163 0.32434952
000070 0f 58 48 3e 16 a5 b9 3d a2 bf 3c 3e 11 49 7f 3f
       0.19564842 0.09064691 0.18432477 0.99720865
000080 09 eb 96 3f 50 0f 00 3f 73 07 1b 3f 47 ef b8 3e
       1.1790477 0.50023365 0.6055824 0.36120054
000090 2f e7 d9 3e 26 41 6d 3f ca 98 a3 3f 3a a5 7d 3f
       0.42559192 0.92677534 1.2781003 0.9908024
0000a0 63 1f 52 3f 14 89 f9 3e 7e 69 8f 3e b0 cd af 3e
       0.8207914 0.48737395 0.28010172 0.34336615
0000b0 ca 0f e1 3e df e9 2d 3e f3 31 24 3e 35 df 02 3f
       0.4395736 0.16983746 0.16034679 0.51121837

invResBlocks.0.batchNorm2.weight f4 [16]
000000 b1 38 88 3f 25 06 7e 3f b7 6e a6 3f 06 a7 8d 3f
       1.0642301 0.99228126 1.3002537 1.1066597
000010 b2 8a 87 3f ba 5a 81 3f 9c 84 94 3f 13 d4 90 3f
       1.0589201 1.0105813 1.1602969 1.131472
000020 5d 74 73 3f 1f 21 9f 3f 10 e4 57 3f ea 0b a8 3f
       0.9509943 1.2431983 0.8433237 1.3128636
000030 ad 39 65 3f b2 0d a7 3f 60 5e 51 3f 6c f8 89 3f
       0.8954113 1.3051054 0.8178463 1.0778937

invResBlocks.0.batchNorm2.bias f4 [16]
000000 7c 17 c2 b4 fb 2b 37 34 42 0a a4 33 e9 4f 16 34
       -3.6152403e-07 1.7059203e-07 7.638711e-08 1.399891e-07
000010 6e 0b e7 b3 e0 e7 e8 b3 87 7e 0d b3 2c ea 1f b4
       -1.0758855e-07 -1.084552e-07 -3.2944197e-08 -1.489322e-07
000020 86 09 5c b4 be d4 0a b4 47 d3 23 b4 90 72 af 34
       -2.0492561e-07 -1.2929647e-07 -1.525742e-07 3.2679645e-07
000030 7d 98 a6 33 66 ff 2e 34 5f 05 05 34 2b 80 e6 b3
       7.757715e-08 1.6297926e-07 1.2388544e-07 -1.0733523e-07

invResBlocks.0.batchNorm2.running_mean f4 [16]
000000 d2 91 7a bf d7 eb 7b be 2e b2 ec 3f 08 56 e5 be
       -0.97878754 -0.24601685 1.8491876 -0.447922
000010 6e f4 d4 3f 35 e9 eb bf 67 a3 5d bf 26 93 4b 40
       1.6637094 -1.8430544 -0.8657746 3.1808562
000020 9b c0 14 c0 72 d3 e8 3e 8f 21 81 bf ac b1 93 3f
       -2.3242557 0.4547382 -1.0088366 1.1538596
000030 c1 0a 81 be 62 27 8b bf c1 78 b0 3e c2 03 61 bf
       -0.25203517 -1.0871394 0.34467128 -0.8789636

invResBlocks.0.batchNorm2.running_var f4 [16]
000000 72 b0 39 40 ab d0 16 40 47 96 a0 40 87 19 71 40
       2.9013944 2.356486 5.0183444 3.767183
000010 ef 13 0b 40 7a e9 b7 3f c1 19 73 40 34 d4 32 40
       2.1730917 1.4368126 3.798447 2.7942019
000020 e1 80 1f 40 a6 04 42 40 6a c0 3c 40 19 f6 8e 40
       2.4922411 3.0315337 2.949244 4.467541
000030 d8 01 b6 3f 3d 8c 96 40 0f 02 19 40 0a 5d 74 40
       1.4219313 4.704619 2.3907506 3.8181787

invResBlocks.1.expansion.weight f4 [48, 16, 1, 1]
000000 7b 95 79 be 00 d5 d4 3d e2 04 97 3e 2d 36 b1 3e
       -0.24373429 0.10392189 0.29495913 0.34611645
000010 da 5b c5 be d2 03 24 bd 49 d5 17 3e f8 44 7c bd
       -0.3854664 -0.040042706 0.14827456 -0.06158921
000020 5b da 4d 3e 42 a0 bf 3e e2 d0 5e bd 7a a9 8e be
       0.20102827 0.37426955 -0.054398425 -0.27863675
000030 d1 73 60 bd 0f 13 3e 3e 9a d8 ad 3e 2d d0 32 3d
       -0.05479795 0.18561958 0.33954316 0.043655563
000040 1c 05 08 3e 50 ca 1b 3d 42 e8 20 bf d2 df 5a bc
       0.13283199 0.038034737 -0.628544 -0.013359027
000050 0a 40 79 be ba 3b 07 be 68 f4 ab 3e 10 0c 0d bf
       -0.24340835 -0.13206378 0.33584905 -0.5509653
000060 5c cd c7 3e d1 fc a5 be 1e ae be 3c 7e 15 7d bc
       0.39023864 -0.32419446 0.023276385 -0.015447019
000070 92 99 fe bb c7 f4 e8 3e 3a d3 e9 3d 52 5e 38 bc
       -0.007769772 0.4549925 0.114172414 -0.011252956
000080 31 34 98 3e 88 25 fe be bc f3 2b bf 84 8b 63 bd
       0.2972732 -0.4963801 -0.67168784 -0.055552974
000090 bc 82 be be 81 e6 5d 3e 54 db 75 3e 50 54 1a 3e
       -0.37209117 0.21669962 0.24009448 0.15071225
0000a0 4a 46 84 3e 99 c9 6c be 89 93 e0 be 31 f4 0a bc
       0.25834876 -0.23123778 -0.4386256 -0.008481071
0000b0 d4 a8 19 3e c5 be bc 3e c9 04 bf bd 61 87 7a 3e
       0.15005809 0.36864296 -0.093270846 0.24465705
0000c0 71 9c a7 3d d8 62 8d bd 13 1e 2c bf f1 76 24 3d
       0.08184136 -0.069036186 -0.6723339 0.040152494
0000d0 d6 c9 46 be 56 7a 58 3e 81 71 99 3e 3c de 74 3d
       -0.19412932 0.21140417 0.2996941 0.05978225
0000e0 69 b1 a8 3e a8 2b bf be 0f 5e 83 bd b4 7d 0a bf
       0.32947853 -0.37337995 -0.06414425 -0.5409806
0000f0 a3 b0 40 3e 32 2e 1d 3f 4d 85 1e 3d 62 3d 11 3f
       0.18817382 0.61398613 0.038701344 0.5673429
000100 90 64 bf bd 31 74 22 be e1 7b 90 bd fc a4 a3 3e
       -0.09345353 -0.15864636 -0.07054878 0.3196181
000110 67 fa 1f 3e a3 d7 fe 3e 58 93 cf 3d 25 6d b8 bd
       0.15622865 0.49773893 0.101355255 -0.09005193
000120 73 30 a6 bc e2 81 d1 be b1 24 77 be b7 53 16 be
       -0.020286774 -0.40919405 -0.2413509 -0.14680372
000130 1d cc 18 3e 15 f7 46 be 83 d7 f9 be 3f a3 56 be
       0.14921613 -0.19430192 -0.48797235 -0.20960711
000140 c1 8b 93 3d f0 0b 8b 3d 89 24 2b bf b8 9f 5c bc
       0.0720439 0.06789386 -0.66852623 -0.013465814
000150 65 67 80 be e1 57 55 be 0c 55 a5 3e 99 2b b0 be
       -0.25078884 -0.20834304 0.32291448 -0.34408262
000160 3e 44 70 3e ec 9f 99 3d f8 2c e5 3d d9 ae b5 be
       0.23463532 0.07501206 0.11190218 -0.3548496
000170 28 b9 01 3f 7b 48 bc 3d 16 6c bc bc d1 05 a6 3e
       0.5067315 0.09193512 -0.023000758 0.32426313
000180 18 98 49 3e 68 00 92 3d 28 86 d3 be 10 05 fc be
       0.19686925 0.07128984 -0.4131329 -0.49222612
000190 6b e6 98 3d cb b5 d4 3e bb 9f bd bc d6 30 15 3d
       0.07465824 0.41544947 -0.023147454 0.036423527
0001a0 2e ae 8c 3e 25 8d ac be 35 2f e9 3e 9e 7a ce 3e
       0.2747664 -0.33701435 0.4554383 0.40327924
0001b0 94 2c e1 3d 6d 1e a9 3e c3 6e fd 3e 20 d7 7f 3c
       0.10994831 0.33031026 0.49498567 0.015615255
0001c0 02 71 88 3e 2f 8d 54 3d 9a 7c dc bd f0 ca ba 3e
       0.26648718 0.051892456 -0.10765953 0.36482954
0001d0 22 31 28 3e 64 4a 1e 3e 06 6a d3 3e 7f d7 82 be
       0.16424993 0.15458065 0.41291827 -0.25555035
0001e0 79 fd 60 bd 81 ea fd be bc 7f 4d bc 0e e0 de 3c
       -0.05492923 -0.49592975 -0.012542661 0.027206447
0001f0 d4 39 14 3e 96 76 d5 be 0e 42 f9 be 0b b8 51 3d
       0.14475185 -0.41692036 -0.48683208 0.051200908
000200 0f d3 55 be bf 9f f4 bc 12 f9 5e 3e 1f 00 b0 3e
       -0.20881294 -0.02986133 0.217747 0.34375092
000210 fa 0b b3 3e 04 62 01 3f 2b 34 96 3c 44 c9 b7 bc
       0.34970075 0.50540185 0.018335423 -0.022434838
000220 2f dd c1 be 62 be 11 be 9f dc 1c be 1a 6f 2a bf
       -0.37864062 -0.14232782 -0.15318535 -0.6657578
000230 59 29 f3 3d 15 53 5c be b5 d2 7b be e6 2c c5 3e
       0.11873121 -0.21516068 -0.24592097 0.38510817
000240 8c 90 79 3d dd c6 b2 be 26 69 b1 be 15 07 56 3e
       0.060928866 -0.34917346 -0.34650534 0.20901139
000250 6a 8a c5 be 36 de f7 3d 34 fe cb bd f7 22 22 3e
       -0.38582164 0.1210293 -0.09960595 0.1583365
000260 5f bc 85 3e 9b f7 7c be e6 93 51 be 07 25 c5 3e
       0.26120278 -0.24703829 -0.20466575 0.38504812
000270 8e 2c da bd 7e 75 f4 3e 4c d9 9d 3e 23 44 13 bd
       -0.106530294 0.4774589 0.30829847 -0.035953652
000280 90 18 bd 3e b8 4a 22 3d a5 cb 97 bd b9 65 45 be
       0.36932802 0.03962204 -0.07411889 -0.19277085
000290 90 47 22 3e ba c0 28 be 0a 9e b0 bd e8 a2 e9 be
       0.15847611 -0.1647977 -0.086238936 -0.456321
0002a0 be e8 9b 3e a4 00 65 be bd 0a 00 3f c6 e8 5b 3e
       0.30451006 -0.22363526 0.50016385 0.21475515
0002b0 af b2 6a be 17 ea 12 bf 9d 02 88 be 0a aa 0f bd
       -0.22919725 -0.5738844 -0.26564494 -0.03507427
0002c0 03 b3 0c be ee 5d 59 3e b9 74 c1 3e 03 d4 22 be
       -0.13740163 0.21227238 0.37784365 -0.15901189
0002d0 ca fb d5 3d d9 a4 c4 3d 4a 0e e5 be a6 2f 99 3e
       0.104484156 0.09601755 -0.44737464 0.29919165
0002e0 b4 ee 7e be a5 ea bb 3e d2 7b ca 3b b9 02 a0 bd
       -0.24895746 0.36702457 0.0061793113 -0.07813019
0002f0 4b c5 be 3d 94 47 22 be 3f 07 85 3d 06 33 92 be
       0.093149744 -0.15847617 0.06495523 -0.28554553
000300 54 2f b1 3d d0 80 9e ba 47 8a b0 3c e7 d2 1c 3e
       0.08651605 -0.0012092832 0.02155031 0.15314828
000310 e4 82 08 3d f0 e1 9b 3e 0b d0 90 3e 90 67 d4 bd
       0.033327952 0.30445814 0.28283724 -0.103713155
000320 00 29 92 bd 7c 3e 33 bf bc b9 81 be c7 51 7d be
       -0.071367264 -0.7001722 -0.25337017 -0.24738227
000330 d4 4a cb 3e 08 04 d8 3e 19 dc cc bd 83 07 2c bd
       0.39705527 0.42190576 -0.10002918 -0.04199935
000340 2c c9 81 bd b8 9c 81 3e 2f 09 c6 3e b3 fc 14 be
       -0.063371986 0.2531488 0.38678882 -0.14549522
000350 96 dc 13 3f 04 13 f7 bd cb 86 b9 be ce 0c 2c be
       0.5775846 -0.12064174 -0.3623565 -0.1680176
000360 a4 16 33 be 74 3f 5b 3e d5 81 ce 3e b9 2a 90 be
       -0.17489105 0.21410924 0.4033343 -0.28157595
000370 06 a0 a9 3e aa b6 4c be 42 87 62 be 98 43 a4 be
       0.331299 -0.19991556 -0.2212191 -0.3208282
000380 1a 69 b6 3d 9d 64 06 be 69 4d e1 3e 10 6b 0e be
       0.08906765 -0.13124318 0.44004372 -0.13908029
000390 3c b6 90 3e 15 1d 53 3d 2c 4b 23 be 60 2a 03 be
       0.28264034 0.051541407 -0.15946645 -0.12809134
0003a0 3d 42 7c be 48 0e 68 3e 09 a5 e0 3e 8b b7 5c 3d
       -0.24634643 0.22661698 0.43875912 0.053885978
0003b0 33 06 2a bc 6f 42 ad be df 98 49 3e 27 33 88 be
       -0.010377455 -0.33839747 0.19687222 -0.26601526
0003c0 14 04 a7 3d 73 41 de be 80 bd b2 be 57 4c 26 be
       0.08155075 -0.4340931 -0.34910202 -0.16240059
0003d0 37 57 23 be 0c 0c 8c 3e c3 22 16 3c ef 23 7d be
       -0.15951239 0.2735294 0.009163561 -0.24720739
0003e0 d8 22 fc 3d 64 cb 35 bd 37 9b 5c 3d 52 c4 e7 3e
       0.123113334 -0.04438342 0.053858962 0.45266968
0003f0 a6 89 90 be 5b c0 0b 3f 9f b4 f4 3e 42 8e 14 3d
       -0.28230017 0.54590386 0.47794053 0.03626848

invResBlocks.1.expansion.bias f4 [48]
000000 2f e4 74 be 35 5a c9 bd 12 77 55 3e 45 7b 06 3d
       -0.2391517 -0.09831659 0.20846203 0.032832403
000010 da 9d 0d 3e ef 90 4c 3e ef dd 25 bd ff a5 50 be
       0.13829747 0.19977163 -0.040494855 -0.20375822
000020 3c c9 70 3e fa bc e1 bd c2 6d 9b 3d 5d 96 82 3d
       0.23514265 -0.110223725 0.07589294 0.06376336
000030 d8 79 74 3e 68 e2 3b be 05 e8 be 3d 23 11 c2 3c
       0.23874605 -0.18348086 0.09321598 0.023689812
000040 79 ca 53 3e fb 76 70 be ed 16 1b bd 4e 7e 6d be
       0.20682706 -0.23482887 -0.03786366 -0.23192713
000050 63 ae 03 bd da 45 35 be 74 ce 1b be b9 a0 75 bd
       -0.03214873 -0.17702428 -0.15215474 -0.05996773
000060 53 e2 64 3d 79 e0 70 be 4b d2 fb bd 57 dd 8b bd
       0.055879902 -0.2352313 -0.122959696 -0.068293266
000070 d8 a0 6c 3e ed a1 5e be 3b 94 3f bd 79 c7 ac bd
       0.23108232 -0.21741457 -0.046772223 -0.08436484
000080 70 cd fb bc 33 a5 d1 3c 49 fd 16 be 69 2f 24 be
       -0.030737609 0.025591468 -0.14745058 -0.1603371
000090 e2 b9 7e 3d 8a 39 eb 3d 2c 9b 9c 3d 27 08 cb 3c
       0.06218899 0.11485584 0.07646784 0.02478416
0000a0 07 2c 1a 3e 8d a7 3d be b4 46 c4 3d 56 0f da bd
       0.15055858 -0.18520947 0.09583798 -0.10647456
0000b0 a6 ca 2d bd 33 bd 02 be 98 44 dd bd 09 be 03 3d
       -0.04242959 -0.12767486 -0.10804099 0.032163654
