LAB 3/Results/my_resnet.ckpt (torch, 429599 bytes, 10 tensors)

conv11.weight f4 [32, 3, 3, 3]
000000 f5 88 8a 3d 80 fb 94 bd d1 10 0c 3e 3d d8 89 3e
       0.06764404 -0.07274532 0.1367829 0.2692279
000010 28 51 0b 3e 22 fa 47 3d b3 83 89 3e b7 a5 51 3e
       0.13605177 0.04882253 0.2685829 0.20473371
000020 d1 a3 5d 3e 46 44 42 3d f3 d6 cc bb 98 c7 6f 3e
       0.21644522 0.047428392 -0.00625121 0.23415983
000030 45 92 8f 3e 0d 11 f8 3d 56 b9 fe 3d 90 a1 78 bd
       0.28041282 0.12112627 0.12437694 -0.060700953
000040 07 bf f6 bc e1 08 1d bd 9c 4d c0 bd 21 77 30 3e
       -0.030120386 -0.038338546 -0.09389803 0.17232944
000050 86 ff d4 3d f7 43 8f 3d a6 b8 55 3e f2 35 53 bd
       0.104003 0.06995385 0.20871219 -0.051565118
000060 9a f7 28 39 20 a4 df 3a fa 9b 67 bd c8 42 47 be
       0.00016113967 0.0017062463 -0.056545235 -0.19459069
000070 4b c2 ce 3d 63 66 ac 3d 39 79 0d 3d bd 62 8a be
       0.10095652 0.08417966 0.034539435 -0.27028456
000080 01 85 dd ba b6 22 61 3d 32 12 2c 3d 51 6a 78 bd
       -0.00169006 0.054964744 0.04200954 -0.060648266
000090 65 51 3f bd 1d ca 26 be 75 06 1a 3d 6d 3c 0d be
       -0.046708483 -0.16288038 0.037603814 -0.13792582
0000a0 44 ca 96 be 77 62 7d be 33 90 19 be b5 f7 a8 be
       -0.2945119 -0.24744593 -0.14996414 -0.33001485
0000b0 26 f8 77 bd 50 d9 81 be fd 18 9b be 4d ce 39 bd
       -0.060539387 -0.2536111 -0.30292502 -0.04536276
0000c0 20 cb a8 be 31 aa 36 be 7f 94 e8 bd 89 cd 49 be
       -0.32967472 -0.1783836 -0.113564484 -0.19707312
0000d0 1f c0 23 be 4f dc 9b bd 7c 0f 38 3e f9 7d 0e bc
       -0.15991257 -0.0761038 0.17974657 -0.008697026
0000e0 9e 99 9a 3d 1a cf fb 3d 1c 65 65 3d d3 86 e6 3d
       0.075488314 0.12295361 0.05600463 0.112561844
0000f0 46 ed 61 be 53 fe 7c be f1 ba 7d be d4 e1 a9 3d
       -0.22063169 -0.24706392 -0.24778344 0.082950264
000100 f7 f6 53 bd 56 f8 b4 3d 13 0e 7c bd d2 51 57 be
       -0.051749196 0.08836429 -0.06153686 -0.21027306
000110 c5 7f 86 bd 8f 8e 62 3c dd f9 91 3d 0c c5 b6 3d
       -0.06567339 0.013827934 0.07127736 0.089243025
000120 87 5d 30 3e 07 83 57 3e 04 f5 e8 3d 66 d0 af 3d
       0.17223178 0.21046077 0.11374858 0.08584671
000130 2b 3f a4 bd 01 e0 15 3e da 46 18 3e e5 16 a7 bd
       -0.08019861 0.14636232 0.14870778 -0.08158664
000140 84 13 43 be 0b 1a 1b 3e ff 78 0c 3d 19 57 61 3e
       -0.19050413 0.15146653 0.03429508 0.22005881
000150 e3 2d 57 3e 44 69 c2 3d 6a 19 88 3e 2a 86 e6 3d
       0.21013598 0.09492734 0.2658189 0.112560585
000160 5d a2 96 3e d7 25 15 3e ea e9 2b bd 76 0a 89 3e
       0.29420748 0.14565216 -0.041971125 0.26765794
000170 0c fe 76 3e 4b 8a f0 3c 4e e6 9d 3e 20 5d 09 3e
       0.24120349 0.029362818 0.3083977 0.1341443
000180 75 35 c0 3d 2a 3d 00 3d 50 e0 47 3e 79 99 fb bd
       0.09385196 0.03130833 0.19519162 -0.12285132
000190 85 68 2d 3e cf 7c 15 3e 41 1b eb 3d b3 b7 81 bc
       0.16934402 0.14598392 0.11479808 -0.015834665
0001a0 c0 ca 1d 3e 5b 56 af 3c c1 58 17 3e 0a 50 f5 3d
       0.15409374 0.021403482 0.1477995 0.11978157
0001b0 1c 52 0c be e5 e0 38 bc 03 5e 86 3d 8d 8b 27 3c
       -0.13703197 -0.011284088 0.065609 0.010226143
0001c0 68 f2 2d 3d bc b9 82 bd 76 3a 1f be c7 90 24 3e
       0.042467505 -0.06383082 -0.15549645 0.16070853
0001d0 ad 70 17 be 74 4d 93 bd 6a ee 1f 3e 7a 81 85 3c
       -0.14789076 -0.071925074 0.15618291 0.01629709
0001e0 56 36 f9 bd 24 48 9c bc fb ae 46 bd 3c 0d 0e be
       -0.12168567 -0.019077368 -0.048506718 -0.13872236
0001f0 ca 0b 35 be 0d 4b c7 3d 85 4c 0c be b3 1e 08 3e
       -0.17680278 0.09731112 -0.13701065 0.13292961
000200 b5 7f af 3d 11 db ea 3d db 59 27 3d 5b a4 10 3d
       0.0856928 0.11467565 0.040857177 0.03531299
000210 0a 61 b6 3c c7 ce c8 bd 4f 36 e4 3c c7 b1 30 3e
       0.022263069 -0.09805065 0.027857928 0.17255317
000220 f9 88 42 3e fd ab fb bc e1 a9 8e bd b1 6d 0e 3d
       0.18997563 -0.030721659 -0.069659956 0.03477258
000230 50 ed 80 3c 03 69 01 3e d3 11 ee 3d 4b 8f 19 3e
       0.01573816 0.12637715 0.116244934 0.14996068
000240 05 17 5c 3d f3 fa 92 3e db 19 8a 3e 77 b4 9e 3d
       0.05373289 0.28707084 0.2697285 0.07749265
000250 38 2c 43 3e b6 cf e5 3d 1d 2d 6a bb 9b 01 bd bd
       0.19059837 0.11221258 -0.0035732456 -0.09228822
000260 67 5e 9c 3d 11 43 22 be 18 56 96 3d 56 78 c6 3c
       0.07635193 -0.15845896 0.0734064 0.024227303
000270 bf b5 2b be 3b 86 8e bd a3 a6 d2 3c 8e a8 ff bd
       -0.1676855 -0.06959196 0.025714224 -0.12483321
000280 d1 d8 17 3e 68 19 22 be c3 55 65 bd 68 3d 3d 3e
       0.14828803 -0.15830004 -0.055989992 0.18480456
000290 7e 3a 22 be 92 0e e6 bc 66 4f 01 be 09 40 b7 bd
       -0.15842625 -0.02808312 -0.12627944 -0.089477606
0002a0 85 c2 1b bc e8 eb 6e 3c 0d fa ea 3d f2 8b 06 3c
       -0.009506826 0.014582612 0.11473475 0.0082120765
0002b0 6e d4 04 3e bc d8 06 bd 72 13 3a 3e c7 32 ca bd
       0.1297166 -0.032921538 0.1817148 -0.09872966
0002c0 64 d3 17 bd 0f 18 90 3d 5e fc da bd 4d 61 24 3e
       -0.037066832 0.07035839 -0.106926665 0.16052742
0002d0 d7 4e 2a be 90 25 1c be fb 71 93 3d b7 12 a4 3c
       -0.16631638 -0.15248704 0.071994744 0.020028455
0002e0 20 7b 8f 3d 1e bf 2f 3b 1a 60 10 be 2d 54 b0 3d
       0.07005906 0.0026816796 -0.1409916 0.08609805
0002f0 74 b3 69 3d 20 8d c1 bd e0 64 db bc 7e d3 e3 3c
       0.057055905 -0.094507456 -0.0267815 0.027810808
000300 1b 47 2b 3e bf f8 22 3e 97 73 47 be bc 4c 2a 3d
       0.16726343 0.15915202 -0.19477688 0.041577086
000310 ee e3 da bc 25 ea 30 bd de 8b cd bb c4 7b 19 3d
       -0.026720013 -0.043192048 -0.006272777 0.037471548
000320 9f d8 1f be 02 c6 90 3d 65 5f 03 3d eb 9e 23 3e
       -0.15609978 0.07069017 0.032073397 0.15978591
000330 6e 22 14 3e 2c b7 2c 3e 7b e0 d1 3d ae 59 00 3e
       0.14466259 0.1686675 0.102478944 0.1253421
000340 e8 14 0f bd f6 33 e6 3c 18 08 69 bd 30 3b 39 be
       -0.034932047 0.028100949 -0.056892484 -0.18088984
000350 dd 9c 5f bb 48 15 f7 3b bb c1 30 bc 72 b5 39 be
       -0.0034120597 0.0075403787 -0.010788376 -0.18135622
000360 ed 2f cf 39 02 3d 1f be 0e a6 b8 bd 74 ad c2 bd
       0.00039517824 -0.15550616 -0.090160474 -0.0950574
000370 a8 c5 08 be bc 7a 65 be 0c ef a0 bd 57 c1 22 3d
       -0.1335665 -0.224101 -0.078580946 0.039735164
000380 03 47 db 3d ea 4c 80 3b 81 9a 05 3d ed 2f 91 be
       0.10706904 0.003915419 0.03261805 -0.28356877
000390 33 88 84 bd 1e 56 33 be e7 47 83 bd 6b 74 e9 3d
       -0.064712904 -0.1751332 -0.06410199 0.11399158
0003a0 91 d0 4c 3e 3f c6 94 3d 4d 46 5c be d4 aa a5 3d
       0.20001437 0.07264375 -0.21511193 0.080892235
0003b0 92 a6 80 bd e7 cf 14 be 65 10 21 bd fa 4f 30 be
       -0.06281771 -0.14532433 -0.039322276 -0.17218009
0003c0 9a 24 65 3e 1d 8e ca 3d 54 e4 15 3e 32 4a ce 3d
       0.22377244 0.09890387 0.14637882 0.100727454
0003d0 aa d0 8a 3e 53 bb ab 3e a8 90 fb bd a5 92 df 3d
       0.27112323 0.33541355 -0.1228345 0.10916642
0003e0 41 58 78 3e be 1f 55 be 2c 3d 6e be 71 ed 86 be
       0.24252416 -0.2081289 -0.23265523 -0.26353028
0003f0 a2 ee 46 3e 38 95 ef 3e ad a3 03 3f d9 53 f6 bd
       0.19426969 0.46793532 0.51421624 -0.120277114

conv11.bias f4 [32]
000000 6b 6e e4 be dd e3 aa bb 9c 81 92 bc 82 0e 8b bf
       -0.44615492 -0.0052151517 -0.017884068 -1.0863802
000010 75 8d 1d be d9 3c 81 bf da 34 0c be 63 7b 0c 3f
       -0.15385993 -1.0096694 -0.13692036 0.54875773
000020 58 d0 73 bf b2 38 57 3e 74 64 db bf ca 18 8f bd
       -0.9523978 0.21017721 -1.7140031 -0.0698715
000030 1c 24 33 c0 03 f6 10 bd 1a 6b 3b be ba 1b 8f bd
       -2.799079 -0.035390865 -0.18302575 -0.0698771
000040 83 d0 9a bf 3b 26 e9 bf 26 72 80 bf f4 c7 63 c0
       -1.2094883 -1.8214792 -1.0034835 -3.5590792
000050 5b ac aa bf c0 8f 02 be 78 23 83 bf 5c aa ed bf
       -1.3333849 -0.12750149 -1.0245199 -1.8567615
000060 15 c0 d0 bc 81 ca 8e bf 14 cb 37 3e f9 59 31 3e
       -0.025482217 -1.1155549 0.17948562 0.17319478
000070 c6 cf 08 be 4e 28 20 be 38 ad aa 3e 05 3a 12 be
       -0.1336051 -0.15640375 0.3333528 -0.14279945

conv12.weight f4 [32, 32, 3, 3]
000000 6f 63 c6 3c df 1c 84 3d 04 97 42 3d 81 15 1c 3d
       0.024217336 0.06450819 0.0475073 0.038106445
000010 c3 a1 25 bc b8 2d 67 3c b6 9e 46 3d 3d 2a 17 3d
       -0.010109368 0.014110021 0.048491202 0.036905516
000020 a5 43 3a 3d c9 11 a7 bc 61 b8 94 bd d5 6f 6c 3c
       0.045474667 -0.020394223 -0.0726173 0.01443096
000030 58 38 99 bd 8c b9 bb bd d6 c0 8b bd 07 81 7e bd
       -0.0748145 -0.0916625 -0.0682389 -0.06213477
000040 8f 18 81 bd 60 b8 07 bd 1f 47 7f bd 0f fe 31 3c
       -0.06303512 -0.033134818 -0.062323686 0.010863795
000050 3d d9 b4 bb d2 25 d0 3a 23 46 8e 3c b2 58 65 ba
       -0.005519061 0.0015880412 0.017367428 -0.00087488734
000060 3c 65 b6 bc 2a f8 8d bd 37 00 bb bc d0 a2 ee 3d
       -0.02226507 -0.06932099 -0.02282725 0.11652148
000070 24 27 82 3d 32 0e 8b 3d 78 d4 2c 3d f4 f8 95 3c
       0.06355122 0.06789817 0.042194813 0.018307187
000080 90 b2 3f 3d 0f ae 91 3d 4d 5b d0 3d 90 e0 66 3d
       0.04680115 0.07113277 0.10173664 0.056366503
000090 7d 79 82 38 81 fe f7 bb d9 03 1e bd 73 78 fb 3c
       6.221512e-05 -0.007568181 -0.03857789 0.030697083
0000a0 b7 21 aa bc dc 92 0e bc ac db f4 bc 33 01 62 3d
       -0.02076803 -0.008702006 -0.029889904 0.055176925
0000b0 38 0e 02 3d 4f 5e ac bc 27 2d 31 3d 42 c9 93 b9
       0.03175184 -0.021041064 0.04325595 -0.00028187974
0000c0 53 f9 fd bc 63 22 d7 3c c3 1b d8 3c 59 77 95 bd
       -0.031002676 0.026261514 0.026380425 -0.072981544
0000d0 08 58 f7 3c 08 4b 58 3d 84 bd 22 3d 79 8e b6 3c
       0.030193344 0.05280593 0.039731517 0.022284733
0000e0 e2 56 02 bd 02 57 80 3b 86 7b 35 bd d0 77 b5 bc
       -0.03182114 0.003916622 -0.044307254 -0.022151858
0000f0 af 3f 14 bd 2c b1 a8 bc 04 88 24 3d 13 60 be bd
       -0.036193546 -0.020592295 0.040168777 -0.092956685
000100 08 ed a0 bd a2 70 36 bc 87 cf 8d bb 4a 9d 36 3c
       -0.0785771 -0.011135252 -0.0043277177 0.011145899
000110 48 ed 53 bd ca a7 64 bd 18 81 bd bd c5 97 92 bd
       -0.05173996 -0.05582408 -0.09253138 -0.07157854
000120 0e 99 34 3e cd a1 1a 3e 2f 75 4c 3e 67 cc 58 3e
       0.1763651 0.15100785 0.19966577 0.21171723
000130 96 bd 63 3e ef 45 36 3e 52 53 3c 3e 45 94 1f 3e
       0.2224029 0.17800115 0.18391159 0.15583904
000140 bd 1b 04 3e 88 11 9b bd b2 f4 c7 bd 39 c7 3b bd
       0.12901206 -0.07571703 -0.09763469 -0.04584429
000150 34 f1 40 be 94 8b 21 be 42 a2 c5 bd 8f 88 23 be
       -0.18842012 -0.15775901 -0.09650089 -0.15970062
000160 65 90 b3 bd 1a 60 b7 bd e1 24 88 be 4f e0 94 be
       -0.087677754 -0.08953877 -0.26590636 -0.29077384
000170 59 c6 a7 be cb da 81 be 14 5a bd be a6 12 ba be
       -0.32768515 -0.25362238 -0.36982787 -0.36342353
000180 15 7d 6f be b2 ab a3 be a2 ca a9 be 67 db 96 3b
       -0.23387559 -0.3196693 -0.3316241 0.0046037915
000190 e1 64 07 bd 3b 3e 46 bd 4c 2e bd bc cc f2 cf bd
       -0.03305519 -0.04839919 -0.023093365 -0.10153732
0001a0 00 41 a9 bd a3 17 74 39 d0 70 ac bc 3b a0 4b ba
       -0.08264351 0.00023278459 -0.021049887 -0.00077677116
0001b0 38 27 e1 3e 9c a6 f7 3e c8 46 c1 3e 84 55 d1 3e
       0.43975234 0.483693 0.37749314 0.40885556
0001c0 08 25 e3 3e 0a 75 b5 3e 64 fb c7 3e 0b 4d d8 3e
       0.4436419 0.35440856 0.39058983 0.4224628
0001d0 bb 40 d0 3e b3 60 ee bc 49 cb 1b 3d 97 aa 36 3d
       0.40674385 -0.029098844 0.038035665 0.04459628
0001e0 6b 2f 4c 3c bd 49 37 bc 8e e3 da bb c6 aa 32 3d
       0.012462477 -0.011187014 -0.0066799587 0.043619893
0001f0 78 de 1e bd 49 96 0f bb 68 88 bc bc c9 72 b4 bb
       -0.03878638 -0.0021909645 -0.023014262 -0.0055068475
000200 b7 f9 2f 3d e0 ed 8f bc 36 30 21 bc a7 16 30 bd
       0.042962756 -0.017569482 -0.009838155 -0.042990353
000210 14 54 40 bb b9 7b e7 bc 2d 02 c7 3c 19 28 dd 3c
       -0.002934699 -0.028257238 0.02429303 0.02699666
000220 75 14 94 bd 72 2b 57 3c fd 61 85 bd 19 1f 13 3d
       -0.07230464 0.013132917 -0.065128304 0.03591833
000230 aa a0 a4 3b df 0a 21 3c 5b e7 f3 bc 25 ba 9e 3b
       0.0050240355 0.009829252 -0.029773405 0.0048439675
000240 46 3a 5d 3e cd e3 58 3e 71 b6 41 3e 31 99 3a 3e
       0.21604261 0.21180649 0.18917252 0.182225
000250 af 34 09 3e 33 c7 d3 3d a6 07 51 3e 80 46 5b 3e
       0.13399003 0.103407286 0.20413074 0.21413612
000260 4d c8 40 3e f4 18 8b be 89 0c 9f be f7 0e ac be
       0.18826409 -0.27167475 -0.3106425 -0.33605167
000270 61 ad 85 be 69 fc ae be 54 63 a8 be bf e1 42 be
       -0.2610884 -0.3417695 -0.3288828 -0.19031428
000280 64 01 87 be 65 ad 7d be 8d a4 63 be 7a db 21 be
       -0.26368248 -0.24773176 -0.2223074 -0.1580638
000290 f3 f7 0b be 99 29 10 be 20 2e 4c be f3 91 1b be
       -0.13668804 -0.14078368 -0.1993947 -0.15192394
0002a0 1d ea 08 be 48 54 32 be 7d ef 56 be 17 d9 b3 bd
       -0.13370557 -0.17414963 -0.20989795 -0.08781641
0002b0 72 c2 f8 bd f3 cf f5 bd e5 4f 78 bd c6 02 f0 bd
       -0.121464625 -0.12002554 -0.06062307 -0.11719279
0002c0 1b d8 de bd 85 c3 96 bc 32 f1 14 ba f1 0c b1 bd
       -0.108810626 -0.018403778 -0.0005681693 -0.086450465
0002d0 14 3c 2e be c1 d7 04 be 09 f5 42 be 07 68 0f be
       -0.17015105 -0.12972929 -0.19038786 -0.14004527
0002e0 ef 56 26 be d0 c9 1a be 23 7b 56 bd 35 3f a1 bd
       -0.162441 -0.15116048 -0.052363526 -0.07873384
0002f0 9c d9 00 be bd 05 8e bd 66 a9 23 3d 5d c5 fd bc
       -0.12583011 -0.06934688 0.039956473 -0.0309779
000300 9e b3 4b bd 9f 99 89 bc d1 80 b2 bc b0 db 95 bb
       -0.049731843 -0.016796885 -0.02178994 -0.004573308
000310 ae 75 81 bd 38 3a 82 bd ad ca 16 3b f8 7c ff ba
       -0.06321274 -0.063587606 0.0023008988 -0.00194922
000320 62 16 21 3c 18 c4 87 3d a8 1d aa bc 59 0e 29 bd
       0.009831997 0.06629199 -0.020766094 -0.04127345
000330 b9 a4 13 3d ec 31 48 3d d3 ba 75 bd 43 bf c2 bd
       0.036045764 0.048875734 -0.059992623 -0.095091365
000340 7f 0d ee bc 27 2e 6e bc 43 bd 94 bd 52 df 88 bb
       -0.02905917 -0.014537371 -0.07262661 -0.0041770125
000350 d5 11 25 bd 59 15 99 bd df c8 04 3c 85 d7 6a bd
       -0.04030021 -0.07474775 0.008104532 -0.05733444
000360 22 3e bb bc 8f 7d 02 bc 97 3a 9d bd 0f d3 fd bc
       -0.022856776 -0.007964506 -0.07677191 -0.03098443
000370 0b fd 1e bd af f1 fd bc 6d 34 8e bc 47 f0 b4 bd
       -0.03881554 -0.030999033 -0.017358983 -0.08834892
000380 6e 78 40 bc 86 81 04 bd 07 ef b6 3c 58 c8 8b bd
       -0.011747463 -0.032350086 0.022330774 -0.06825322
000390 96 9f 5d bd c7 df 8a bd 1d 28 d5 bb 94 ec 3f 3d
       -0.05410727 -0.067809634 -0.006505026 0.046856478
0003a0 f8 b5 eb bc b5 61 67 bc 7e 8b 52 bc 6d a2 16 bd
       -0.028773293 -0.014122416 -0.01285064 -0.036775995
0003b0 e6 1b 04 bd 7d 17 aa 3c 40 c8 13 3d e7 64 05 3d
       -0.03225317 0.020763153 0.036079645 0.03256693
0003c0 3a 14 aa bb 3c 0d 9e bc 66 46 1c bc e2 70 3a bd
       -0.0051903995 -0.01929342 -0.009538269 -0.04551781
0003d0 51 4d 8c bd b1 d0 50 bd 04 9e 80 bd f3 83 56 bd
       -0.068506844 -0.050980274 -0.06280139 -0.05237193
0003e0 ca 58 d7 bd e9 c0 51 bd 1b 1b c6 bd f4 86 46 bc
       -0.10514982 -0.051209364 -0.09673139 -0.012117136
0003f0 f6 10 1d bc 1f 9d ad 3c b2 8f 78 3d bb 33 a2 bc
       -0.009586563 0.021193085 0.060683914 -0.019800058

conv12.bias f4 [32]
000000 a4 a2 b0 3e 8e 12 1b bf f5 29 ad 3d f6 53 66 bf
       0.34499085 -0.6057519 0.08455268 -0.89971864
000010 7e db fa bc 1f ce fb bc e7 d8 15 3f 8b 19 03 3c
       -0.03062224 -0.030737935 0.5853409 0.008001695
000020 40 8f ad 3e 59 40 77 be 52 7b 81 3f e8 dd 5d 3d
       0.33898354 -0.2414564 1.0115759 0.054166704
000030 ae ab 3e bf 43 bc e7 bc 4d d5 7b bd f2 04 fa 3d
       -0.7448071 -0.028288012 -0.061482716 0.122079745
000040 f5 e3 d4 be 7f e5 d4 3e 91 a2 d3 3d bc 70 0f c0
       -0.41580167 0.41581342 0.103337415 -2.2412558
000050 37 2c 51 bf bd 72 8a bd 7a 56 6e bc 82 57 3e 3e
       -0.8170809 -0.06760166 -0.014546985 0.18588069
000060 a4 5f 48 3d 7a 82 3d bf 3e c8 21 3d 4d 4e 58 3d
       0.048919335 -0.74027216 0.039497606 0.05280905
000070 65 85 46 be 64 4a c1 be ea a5 a4 bd 92 8d b5 be
       -0.19386823 -0.37752068 -0.08039458 -0.35459572

conv21.weight f4 [64, 32, 3, 3]
000000 4b 26 7a bd 2d 4b 6d bd e7 9a fa bc e8 8a a9 bd
       -0.061071675 -0.05793302 -0.030591441 -0.082784474
000010 1a b6 48 bd ef 15 50 bd 92 2b f3 bc 99 00 97 bd
       -0.04900179 -0.050802168 -0.029683862 -0.07373161
000020 8d 44 d1 bd 85 33 6b bc 9a 7b 2e 3d 3e 41 7f bc
       -0.10218153 -0.014355545 0.042598344 -0.01557952
000030 a6 a0 09 3c 1b 68 1c bd 5b f6 91 3d 32 86 bc 3b
       0.008400118 -0.03818522 0.07127067 0.005753302
000040 c7 2c 83 bd 65 90 09 3d c6 32 42 bc 5b 94 e7 bc
       -0.06405025 0.03358497 -0.011852926 -0.028268984
000050 86 c5 2b bd 4b 69 40 bd 70 58 8e bc 86 64 29 bd
       -0.04193642 -0.046975415 -0.017376155 -0.041355632
000060 95 9b af bc 75 2b 48 bd 18 b2 b4 3c 06 3a d9 3b
       -0.021436492 -0.04886957 0.022057578 0.0066292314
000070 cf 62 ad 3a 0e 99 13 bd d4 d6 e6 3b 1c e7 32 bd
       0.00132283 -0.036034636 0.0070446525 -0.043677434
000080 81 c2 31 bd 2e 30 b1 bd f2 c6 60 3c f1 60 29 3d
       -0.043398384 -0.08651768 0.013719307 0.041352216
000090 7c b5 ac bc 74 8a f4 bc 61 32 db bb 56 4b d8 bb
       -0.021082632 -0.029851176 -0.0066893552 -0.0066007776
0000a0 14 f5 63 bc 05 f6 9e bc e5 f7 01 3b 57 16 3f bc
       -0.013913412 -0.01940442 0.0019831595 -0.011663041
0000b0 65 74 d4 3c 90 93 b3 bb fa 1b 71 bc 10 62 66 bd
       0.025934407 -0.0054802373 -0.014716143 -0.056245863
0000c0 72 c8 ca 3c 6a 0b cc bb fd 13 a5 3a 50 a8 12 bd
       0.024753783 -0.0062269466 0.0012594458 -0.035805047
0000d0 c4 ad c5 3c 88 0d 8e bd 20 92 cf 3c 9f 07 9e bc
       0.02413071 -0.06936175 0.025338233 -0.019290743
0000e0 2b c5 01 bc b9 83 30 bd 1c 01 ee bc cb 72 14 3c
       -0.007920544 -0.04309437 -0.029053263 0.009060572
0000f0 04 8c 2a bd 85 59 e8 bc 8b 4d 6e bd 53 42 88 bc
       -0.041637436 -0.028362999 -0.05817942 -0.016633188
000100 6a 37 88 bd 81 3f c5 bc c7 34 01 3d dc fb 89 bc
       -0.066511944 -0.024078133 0.031544473 -0.016843729
000110 ec c6 a4 bd 5b 3a 97 bb 0b 87 19 3d 05 6e a1 bd
       -0.08045754 -0.004615111 0.037482303 -0.07882313
000120 6d b3 8c bc b3 5a 6d 3d 6d 1c 59 3d 08 6e 27 3b
       -0.0171754 0.057947826 0.053005625 0.0025547761
000130 bc 8b 40 bb ab 32 b6 3c e7 95 1d 3d e5 a3 cc 3c
       -0.0029380163 0.022240957 0.038473036 0.024980495
000140 4c 61 93 bd e6 07 7f bd a3 e7 b3 bc 68 b5 4e bd
       -0.07196292 -0.062263392 -0.021961039 -0.05046597
000150 81 47 06 bd 21 4a e7 bb a7 24 5e bd a6 8a 18 3c
       -0.032783035 -0.0070583974 -0.054234173 0.0093104
000160 e0 e4 91 bd aa 0f be bd c5 c4 ae bd 35 10 e1 bd
       -0.071237326 -0.092803314 -0.085336246 -0.10989419
000170 83 db 5d bd 68 40 21 be ce 58 0b be c5 9a 89 bd
       -0.05416442 -0.15747225 -0.13608095 -0.06718973
000180 89 a3 e6 bd 3e 83 68 bd 15 6a c5 bc 4b 8a a0 3c
       -0.112616606 -0.056765787 -0.024098435 0.019597193
000190 69 1b f4 bc 90 53 97 bb 14 ca a2 bb c2 5f 5d bd
       -0.029798226 -0.0046181157 -0.0049679372 -0.0540464
0001a0 c1 27 0e 3d 6a 8f 0e bc 0c 7d a6 3c 7f ba 7d bd
       0.03470588 -0.008701185 0.020323299 -0.061945435
0001b0 77 07 0f be 10 fb f8 bd 14 73 e7 bd f9 19 e0 bd
       -0.13967691 -0.12157261 -0.11301246 -0.10942454
0001c0 e9 3f 1d be 35 b9 c8 bd cb 44 1a be d6 ab 1d be
       -0.15356411 -0.098009504 -0.15065305 -0.15397581
0001d0 f6 35 cc bd 85 33 52 bd 9d 2a a8 bc 6f cd 5b 3d
       -0.0997123 -0.051318664 -0.020528132 0.053662714
0001e0 c8 5f 00 bd 44 fe 9c 3c 97 ef 3b bd 39 61 bd 3c
       -0.031341344 0.019164212 -0.045882788 0.023117648
0001f0 c9 90 0e bd 13 35 4a bd fc 00 9f bc 78 ba 28 3a
       -0.034806047 -0.04936702 -0.01940965 0.00064364774
000200 10 c9 c7 bc 5e 68 30 bd 7a 6e 1b 3d 14 c6 09 3d
       -0.024387866 -0.043068282 0.037947156 0.033636168
000210 7f 50 fc 3c df 7d 5e bd 0b 3f d3 bc 94 8e 92 bd
       0.030800102 -0.05431926 -0.025786897 -0.07156101
000220 f6 0c b6 3b 0d 37 41 bd 4c 9e ff 3c 66 72 35 bd
       0.0055557443 -0.04717164 0.031203412 -0.044298552
000230 92 06 dc bd 73 bb 89 bd 09 17 c7 3c 81 08 2b bd
       -0.10743441 -0.06725206 0.024302976 -0.041756157
000240 85 af 02 be 43 47 7a bd 81 a6 92 3c da dd 91 bd
       -0.12762268 -0.061103117 0.01790166 -0.07122393
000250 b2 6f e0 bc 9e 35 0e bd 19 7c c9 bd 0d 44 8d bd
       -0.02739701 -0.034719102 -0.09838123 -0.06897745
000260 c7 b0 3b bd ce b7 97 3c 7f 42 8b bd 33 f5 df bd
       -0.045822885 0.018520262 -0.067997925 -0.1093544
000270 03 30 8c bd 4d 88 fc bc 72 9a cc bc e9 af 96 bd
       -0.06845095 -0.030826712 -0.024975989 -0.07357771
000280 75 48 a7 bc ec bd e6 bc dd f4 2b 3d b7 91 b9 39
       -0.020420292 -0.028166734 0.041981567 0.00035394516
000290 45 e4 e0 bb 59 af fb 3c 48 88 dd bc 91 b9 98 bc
       -0.0068631493 0.03072326 -0.027042523 -0.018643172
0002a0 c0 6e 53 3c 2d 2a 38 bd 53 24 cc bd 78 65 01 3b
       0.012904823 -0.044962097 -0.09967866 0.0019744318
0002b0 37 6f 16 3d 6a 40 c8 39 e9 ca 39 bd 22 da 32 3b
       0.036727156 0.00038194965 -0.045359526 0.0027290662
0002c0 a3 5c 64 bc ef 6b 52 ba 33 ff b7 ba c1 fa 39 bd
       -0.013938102 -0.00080269476 -0.0014037847 -0.045405153
0002d0 55 6e 95 bc 4d af 36 bd f1 cd bd bd 44 ab 1e bd
       -0.018241087 -0.044600774 -0.09267796 -0.03873755
0002e0 71 ea e4 bc d8 c7 9e bc 19 15 c4 bc 5b b7 51 bc
       -0.027943822 -0.019382402 -0.023935841 -0.012800063
0002f0 8d 86 26 bb ab 0e 52 3c 42 e4 7f bc c3 03 90 3c
       -0.0025409788 0.01282088 -0.015618386 0.017579919
000300 45 38 ac 3c aa 04 1c bc e8 93 2c 3d 56 9e 34 3b
       0.021022925 -0.009522596 0.042133242 0.0027560196
000310 02 5d 1b bd 17 13 09 bd 93 76 ce bc ca f9 10 bd
       -0.037930496 -0.03346547 -0.025203025 -0.035394467
000320 f7 1f 3d 3d f3 9f 1a bd 89 4d af 3c ea f2 e7 3c
       0.046173062 -0.037750196 0.021399276 0.028314073
000330 56 f3 8c bd 63 e1 fb bb a2 5c 01 3d 54 1a 68 bc
       -0.0688235 -0.0076867803 0.031582482 -0.014166433
000340 03 9d 70 3d b7 30 81 3d 3c 2a 29 3d f7 cc 7a bc
       0.058743488 0.0630812 0.041300043 -0.0153076565
000350 5d 04 69 3d 8b 47 ed bc 27 7f 75 bd e7 b9 2a bc
       0.056888927 -0.028964778 -0.059935715 -0.010420299
000360 70 b2 d3 bc 95 a5 b7 3c 39 02 f1 bd 66 9b d0 ba
       -0.025841922 0.022417823 -0.11768002 -0.0015915453
000370 cf 1b 8e bd de 53 1b bc 1c 9f b7 3c b2 62 b3 bc
       -0.06938898 -0.009480445 0.022414736 -0.021897648
000380 ab 7b 8a bc ec ff 3c bd b4 85 d2 bc de 5c 08 3c
       -0.016904673 -0.046142504 -0.02569852 0.0083229225
000390 5b be ca 3c 9e 30 8f bc ca b7 95 bb c9 91 0c bd
       0.024748972 -0.017479237 -0.0045690285 -0.03431872
0003a0 9d fa 17 bd 90 07 15 bd 62 cb 22 bd 25 4b a9 bc
       -0.037104238 -0.036384165 -0.039744742 -0.020665715
0003b0 b1 89 51 bd f7 9d 47 bd 3b 33 e0 bc d3 a4 96 bd
       -0.051156703 -0.04873463 -0.027368179 -0.073556565
0003c0 0d 6e fa 3c 16 5a 98 3a 41 c3 c8 bc 2d ab 16 bb
       0.030570054 0.0011623527 -0.024507167 -0.0022990212
0003d0 19 98 cd bc ae c2 6a bd f5 e1 de bc 46 e4 f9 bc
       -0.02509694 -0.057314567 -0.027207354 -0.030504357
0003e0 f3 a8 90 bc 85 3a a1 bc 96 13 02 bd cb ea 0a bc
       -0.017658686 -0.019681225 -0.03175696 -0.008478831
0003f0 41 c3 7d bc e6 40 68 bd 35 e9 d7 bc 90 0a 0e 3d
       -0.015488447 -0.056702517 -0.026356319 0.034678042

conv21.bias f4 [64]
000000 a5 3f df bd 09 16 b7 bd 38 4b 9c ba 76 2b d5 bd
       -0.10900811 -0.0893975 -0.0011924272 -0.1040868
000010 53 ee cb bd 97 73 d3 be 1f 01 87 be 72 4a d4 bd
       -0.09957566 -0.41299126 -0.26368043 -0.10365762
000020 48 b7 28 bf 92 ac 60 bd df 65 ae be ce 08 bb bd
       -0.65904665 -0.054852076 -0.34062096 -0.09132539
000030 92 6f 0e bc c0 07 43 bd 0e be 15 bd 0b 1f 84 bd
       -0.008693593 -0.047614813 -0.036558203 -0.064512335
000040 47 9c 90 bd 72 c7 99 bd 4b bc 61 bf d6 23 9f bf
       -0.070610575 -0.07508744 -0.8817794 -1.2432811
000050 2f 6f e7 be 7f a0 81 be cd 52 32 bf 77 5b 82 be
       -0.45202014 -0.2531776 -0.69657594 -0.25460407
000060 76 38 76 bd 1a fe ac be 6f e4 a1 bd b7 97 1f bd
       -0.06011244 -0.33787614 -0.079048984 -0.038963046
000070 58 5f 74 bf 0f 92 e4 bd 18 50 04 bf 07 c2 2c bd
       -0.95457983 -0.11160671 -0.51684713 -0.042177226
000080 25 e3 2b be fb cf 83 bd 06 46 e4 bd 0b 17 4b bd
       -0.16785868 -0.064361535 -0.111461684 -0.049582522
000090 cc 36 a4 bd f0 a3 4d bf f4 8f e9 bd 6d 85 2f bd
       -0.08018264 -0.80328274 -0.1140441 -0.042851854
0000a0 6f 16 57 bf 81 9c 7d be b3 29 65 bd c1 e3 04 bd
       -0.84018606 -0.24766733 -0.05594797 -0.032443766
0000b0 d4 7b 49 bd 4a 58 b7 bd 55 f7 3e bd 49 f9 93 be
       -0.049190357 -0.08952387 -0.046622593 -0.28901127
0000c0 c8 7a af bd 68 52 9a bd 94 0b aa bc 9c 94 87 bd
       -0.085683405 -0.07535249 -0.020757474 -0.06620142
0000d0 e4 d0 6e bc b3 f8 5f bc 6e 5b 03 bf ba d3 61 be
       -0.014576171 -0.013670134 -0.51311386 -0.22053424
0000e0 99 6e 64 be df 87 a9 bd a6 4c 01 bf 5f fe 4c c0
       -0.22307815 -0.082778685 -0.5050758 -3.2030256
0000f0 1c 94 3e 3d 33 69 d8 bd 79 10 e8 bd a2 06 dd bd
       0.046527967 -0.1056694 -0.11331267 -0.10792281

conv22.weight f4 [64, 64, 3, 3]
000000 30 96 75 3c 86 97 32 3c e2 21 47 bb 2c 86 02 3d
       0.014989421 0.010900384 -0.0030385186 0.031866238
000010 fd 2f cd 3c 4f 87 05 bc 08 07 c3 bb bd 2f bc bc
       0.025047297 -0.008149936 -0.005951766 -0.022971982
000020 de ee 01 3d 15 7f 9b bb e1 6e 72 bc cd 82 38 bb
       0.031721942 -0.004745374 -0.014796943 -0.0028154135
000030 fa c2 1d bd f8 ed 4f 3c c7 f7 f7 3c d9 37 fd 3c
       -0.038516022 0.0126910135 0.030269517 0.03091042
000040 11 f3 d3 3c 6e 7e b0 bb ca b5 e9 bc 83 ee b0 3c
       0.025872739 -0.0053861653 -0.028529067 0.021598106
000050 d4 2c 9a 3c 6a 30 17 bd fd 14 47 3c 04 cd f8 bc
       0.018820204 -0.036911406 0.012151 -0.030371197
000060 32 8f 2a bc 14 15 b6 bc ba 6b ca 3c b9 3e 62 bc
       -0.010410117 -0.022226848 0.024709571 -0.0138089
000070 50 ac 82 bb db 4c 24 3d 09 0d 96 3c f3 a2 cd bc
       -0.0039878264 0.040112358 0.018316763 -0.025102114
000080 ec fb 99 bc 81 1e 87 bc ae 7e fe bb e5 59 95 3c
       -0.018796884 -0.016494038 -0.0077665662 0.018231342
000090 90 6c 48 bc 5e 13 8b bc 0c d6 8f bc d8 a0 d9 bc
       -0.012232915 -0.016977008 -0.01755812 -0.026565954
0000a0 64 cb 9f 3c ed 4a 1b 3d 4a b7 da bc f6 6b a8 bb
       0.019506164 0.03791325 -0.026698727 -0.005139823
0000b0 b4 8f 2f bc 48 67 5a bd 70 f1 3d bd 9c 30 4a bd
       -0.010715414 -0.053321153 -0.04637283 -0.049362764
0000c0 a7 88 07 bd ef 51 a6 3b a2 54 1f bd 7e a9 e9 ba
       -0.033089306 0.005075685 -0.03889907 -0.0017827002
0000d0 4f 11 7d bd f9 e9 11 bd 33 96 16 b9 af e7 0f bc
       -0.061784085 -0.035623524 -0.00014361068 -0.008783265
0000e0 76 07 4e bb 4b c5 96 bc 4a f6 06 bc 74 4e 10 bc
       -0.0031437553 -0.018404623 -0.008237431 -0.008807767
0000f0 1c 68 f2 bc 1f a0 87 bb 44 10 59 bd f5 38 f4 bc
       -0.029590659 -0.004138961 -0.052994028 -0.029812315
000100 9a 2a 99 3c b4 20 11 bd f9 67 35 bd 9a c3 f7 3c
       0.018697072 -0.03543158 -0.04428861 0.030244637
000110 90 7a 67 bc 68 63 20 bc cc 89 01 3d 07 c4 86 bc
       -0.014128342 -0.009789325 0.031625554 -0.016450895
000120 84 9a 08 be bb 6a 3a be 59 c7 25 be b2 3d 51 be
       -0.13340193 -0.18204777 -0.16189326 -0.20433691
000130 6d 48 10 be c4 d4 27 be 5a 9e 07 be 93 54 2f be
       -0.14090128 -0.16389757 -0.13244 -0.17122106
000140 fc 7e 15 be 0d 01 e5 3c 0c 4d 11 bd c6 1a 86 3b
       -0.14599222 0.027954603 -0.03547387 0.004092547
000150 a8 41 98 3c 7d fe 24 bb b5 b5 36 bd 98 e1 87 3c
       0.018585995 -0.00251761 -0.044606883 0.016587064
000160 55 62 0f bd ec 7a 76 3c 82 c5 eb bc f7 50 6c 3d
       -0.035005886 0.015043955 -0.028780703 0.0576944
000170 42 de 4f 3c f7 75 1c 3d 42 11 5f 3d 02 86 8a 3d
       0.012687268 0.038198438 0.054459818 0.06763841
000180 ed 91 ee 3c 71 26 c0 bb b1 85 18 bc d4 3f 04 3c
       0.029122317 -0.0058639576 -0.009309218 0.008071858
000190 1a 99 99 bc d5 bb b6 3b d3 14 23 bd 00 91 fc bc
       -0.018749762 0.0055765905 -0.03981478 -0.03083086
0001a0 af a8 70 3c 27 8b 40 ba df 45 20 bd c8 2d 12 3d
       0.014688655 -0.0007344954 -0.039129134 0.03568819
0001b0 46 33 ce bb e4 68 c9 bb d8 de 64 bc c4 c1 47 bd
       -0.0062927334 -0.006146537 -0.013969146 -0.048768774
0001c0 c4 f8 61 3c 03 37 07 bc 0a c9 7f 3c 23 a3 85 3c
       0.0137922205 -0.008252862 0.015611896 0.016313141
0001d0 11 d3 1f bd 52 88 f6 bb 1a b1 9e ba 7e 0d 7d bd
       -0.039019648 -0.007523575 -0.0012107224 -0.061780445
0001e0 5a a6 71 bb 4d 76 ac bc 65 e3 f1 3c dd dc 2d bc
       -0.0036872835 -0.021052504 0.029527375 -0.01061174
0001f0 28 fb 4c bc cb 3c c5 3c dc fe 15 bd 8e 2e 1c 3c
       -0.012511052 0.02407684 -0.036620006 0.009532584
000200 8a 6f 5f 3b 4b 6f bd bc 55 52 d0 3c ba 81 a5 3b
       0.0034093582 -0.023124358 0.025429884 0.005050865
000210 6d f2 d4 3c 80 c7 8e 3c 75 c0 cc 3c aa 2a 27 3c
       0.025994504 0.017429113 0.024994114 0.010203043
000220 dd c3 87 bb c0 02 a7 3c f6 c3 a5 bb e1 dd 12 3b
       -0.004143222 0.020387053 -0.0050587608 0.0022410082
000230 91 8a 33 3c 95 21 70 bc 01 d3 64 bc da c3 10 bd
       0.01095833 -0.014656444 -0.013966323 -0.03534303
000240 2c 21 7e 3b 56 c4 ee 3b 09 24 f8 3b 93 a4 23 bd
       0.0038777096 0.0072865887 0.007572655 -0.039951872
000250 eb 78 17 3d fc e0 14 3d a0 07 01 3d 58 96 d0 3c
       0.03698055 0.036347374 0.031501412 0.025462314
000260 ae a1 4b 3c ef db 24 b9 73 ec 77 bb 2f 84 db ba
       0.012428684 -0.0001572219 -0.0037830144 -0.0016747768
000270 93 48 af 3b ee 22 f4 3c 7c 61 31 bb 2b 0f 11 3d
       0.0053492277 0.029801812 -0.0027066162 0.035414856
000280 ee 6f b5 3b ec 67 e2 bc f1 a5 9e bb 89 e0 a3 3c
       0.0055370247 -0.027637444 -0.004841559 0.020004528
000290 0b c4 19 3d 97 60 ef bb 93 be 92 3d 44 ff 8a 3c
       0.037540477 -0.0073052156 0.071652554 0.016967423
0002a0 0d 65 0b 3d 05 54 1d 3d 0b 85 b6 3b 17 16 01 3d
       0.034031916 0.038410205 0.005570059 0.031515207
0002b0 f7 9e 13 bd d2 8a c9 bc 3c d3 af bc b7 4b c3 bc
       -0.036040273 -0.024602327 -0.02146303 -0.023839815
0002c0 7e e1 39 bc a5 08 4d bc b7 e2 bc 3c 01 71 f7 3b
       -0.011345265 -0.012514268 0.023057325 0.007551313
0002d0 a8 b7 2d bd 04 49 26 3d f5 11 bf 3c f1 97 56 3b
       -0.042411476 0.040596977 0.023323992 0.0032744373
0002e0 c1 00 36 3d fc 2b ef bb dd ea 4d bc 04 e2 a9 3c
       0.044434313 -0.0072989445 -0.012568203 0.020737655
0002f0 59 c9 35 3d 09 9f a3 3c 33 ea ea 3c 8a 2e 12 bd
       0.044381473 0.019973295 0.028676128 -0.035688914
000300 4e 9c 94 3c 99 bf a7 bc ff 21 43 bb d5 b0 95 3c
       0.018140938 -0.020477103 -0.0029774902 0.018272797
000310 94 87 c1 3c 99 af 43 3c f7 fb 0f bc a6 36 bb bc
       0.023624219 0.011943721 -0.0087881 -0.022853207
000320 0b e0 a2 bb 7c f1 a1 3b 90 43 a1 bb 8d c4 df bc
       -0.0049705557 0.0049421173 -0.004921384 -0.027315402
000330 ca 58 7c bc 55 fc 09 bd 37 f6 12 3c 6b 2a ef 3b
       -0.015402028 -0.03368791 0.008969835 0.007298758
000340 ef 2a 2f bd d1 21 14 bd 3e 62 8c 3b 44 fc d2 bc
       -0.042765554 -0.036165062 0.0042841723 -0.025755055
000350 1a ac 02 bd 04 a6 b5 bc 25 fd bf 3c b0 dd c6 bb
       -0.03190241 -0.022173889 0.023436138 -0.0060689077
000360 ce 71 1d bc 3b 62 37 3c d4 3c 08 3d d4 8e ce bc
       -0.009609653 0.011192854 0.033261135 -0.02521459
000370 4f 4b 82 3c f7 1e 73 3c 8e f8 b5 3c 5c a9 da bc
       0.01590505 0.014838926 0.022213247 -0.026692085
000380 31 fc 3c bc 37 85 e5 3a ed 6e 28 bd 7f 94 ec bb
       -0.0115347365 0.0017511015 -0.041121412 -0.0072198506
000390 02 a4 a8 3b 73 77 00 3c 02 73 42 bd 2c 27 ae bc
       0.0051465044 0.007840979 -0.04747296 -0.021258913
0003a0 7e 1e 28 3c 57 30 3b bd c6 7c 01 bd 70 1b ef 3b
       0.010261176 -0.045700397 -0.031613134 0.007296972
0003b0 88 a9 0a bd 66 66 71 3c c8 4e b2 3c 60 33 83 3b
       -0.033853084 0.014733886 0.021766081 0.004003927
0003c0 d5 1c 06 3d 44 ce 82 3b f8 8c e1 bc 53 39 e0 3c
       0.03274234 0.003991874 -0.02753304 0.027371084
0003d0 b6 f6 18 bd 49 bc 5e 3c be 61 c6 3b 4a c5 47 bc
       -0.037344657 0.013594695 0.0060541322 -0.0121930335
0003e0 12 1e 94 3c 1b e7 1a 3c 5e 42 e1 bc 34 29 d2 3c
       0.018080745 0.009454514 -0.027497467 0.025654413
0003f0 f6 d7 80 bd 88 aa f2 bc 84 35 a0 bc 96 33 72 bd
       -0.06291191 -0.029622331 -0.019556768 -0.059131227

conv22.bias f4 [64]
000000 4d 8a 8a bf 7e fe a9 bc a1 54 e6 be b6 ff b0 be
       -1.0823456 -0.020751234 -0.44986442 -0.34570092
000010 c5 0d bd bd 45 d8 62 be e6 9a 3a be df 0a f2 be
       -0.09231142 -0.22152813 -0.18223152 -0.4727392
000020 53 b5 11 bf a4 2a 10 be 59 81 87 bf d4 f2 4b bf
       -0.56917304 -0.14078766 -1.0586349 -0.796674
000030 47 93 10 be 20 7d 3b bd 61 be 1e be db 85 db be
       -0.14118682 -0.045773625 -0.15502311 -0.4287556
000040 b7 c1 76 be 33 a9 79 be 60 4c 4d bf 52 ed ab bf
       -0.24097334 -0.2438095 -0.80194664 -1.34318
000050 a3 a7 f5 be f9 42 89 be d7 6c d0 bf 9a 58 b3 be
       -0.4797946 -0.2680891 -1.6283215 -0.35028535
000060 c8 7f 47 bd 62 9f c0 be 17 54 10 be 92 19 d6 be
       -0.048705846 -0.376216 -0.14094578 -0.41816384
000070 15 45 7a be 54 96 57 be d8 e6 8f be 87 7e 77 be
       -0.24440415 -0.2105344 -0.28105807 -0.2416936
000080 f7 fb 57 bf 6b 65 fe bd a9 02 e9 be 37 ba b5 be
       -0.8436884 -0.12421688 -0.45509842 -0.35493633
000090 4e 78 01 be 4f 47 29 be d8 63 3e be 7e 08 cb be
       -0.12643549 -0.16531108 -0.18592775 -0.39654917
0000a0 7f 3d a2 be 97 71 56 bf 17 dd 8b be 5d d7 a9 be
       -0.31687543 -0.83767074 -0.27317116 -0.33172122
0000b0 43 bd 81 be 1d 0c b8 be d0 0c 03 be f2 f5 60 bf
       -0.25339708 -0.35946742 -0.12797856 -0.8787528
0000c0 9e d3 82 be a9 8c 32 be 80 8b b7 bd 97 6f 12 bd
       -0.25552076 -0.1743647 -0.089621544 -0.03575095
0000d0 cf cd 9d be b9 53 20 bf 6e 2a e6 bf 7c 1f 52 be
       -0.30821082 -0.6262775 -1.7981699 -0.20519823
0000e0 f9 9d de be 18 a0 49 bd 7d bc 83 bf 3e ee 12 c0
       -0.434799 -0.049224943 -1.0291897 -2.2957911
0000f0 38 fa fd be 00 5d d3 be 45 5f 95 be a1 17 5e be
       -0.49604964 -0.4128189 -0.29174247 -0.21688701

fc.weight f4 [10, 4096]
000000 92 b8 f7 bd 94 5b 0d be 7f b0 26 be 00 52 11 be
       -0.12095751 -0.13804466 -0.16278265 -0.14191437
000010 d6 64 eb bd 0f f4 f7 bd c6 00 26 be dd 8b e2 bd
       -0.11493842 -0.12107097 -0.16211233 -0.11061833
000020 3f 1a 24 be 12 78 5a be 33 68 72 be 85 84 1c be
       -0.16025637 -0.21334866 -0.23672561 -0.15284927
000030 32 c5 26 be 9f bc 1f be 50 2b 2a be 19 fb fc bd
       -0.16286162 -0.15599297 -0.16618085 -0.123525806
000040 d3 7e 3a be 9d a2 5b be ed c8 81 be f8 b8 4b be
       -0.18212442 -0.21448751 -0.25348607 -0.19894779
000050 85 39 39 be 62 2e 32 be 1e 68 30 be 3b 7d 06 be
       -0.18088348 -0.17400506 -0.17227218 -0.13133709
000060 91 44 4a be a4 1f 5e be f5 67 80 be 81 17 4c be
       -0.19752719 -0.21691757 -0.25079313 -0.19930841
000070 95 a2 54 be 2b e3 4a be c9 0c 3a be e5 3c 01 be
       -0.20765145 -0.1981322 -0.1816894 -0.12620886
000080 1a cd 35 be de 64 5e be 2d cd 7c be a2 1f 30 be
       -0.17754021 -0.21718165 -0.24687643 -0.17199567
000090 f2 aa 4b be e7 98 5f be 19 46 3c be c2 98 e7 bd
       -0.19889429 -0.21835671 -0.18386115 -0.11308433
0000a0 69 3e 37 be 3d 6f 71 be 85 8e 79 be e5 71 11 be
       -0.17894901 -0.2357759 -0.24370773 -0.14203604
0000b0 b0 b0 49 be 31 cb 73 be b7 69 48 be 01 38 f9 bd
       -0.19696307 -0.2380798 -0.19571577 -0.12168885
0000c0 4b fe 23 be a0 7e 57 be 71 0b 5a be 99 b9 13 be
       -0.16014974 -0.21044397 -0.21293427 -0.14426269
0000d0 54 41 5e be 6f d0 89 be 88 44 3b be 1a 1c e5 bd
       -0.21704608 -0.26916835 -0.18287861 -0.111870006
0000e0 6d 25 1f be c7 97 3c be c8 80 2f be 5a d6 25 be
       -0.1554162 -0.18417273 -0.1713897 -0.1619505
0000f0 cd 8d 5d be 57 ce 4d be f1 d3 20 be bd 7a e3 bd
       -0.21636124 -0.20098244 -0.15705849 -0.11107395
000100 d8 14 83 3a 46 b7 d7 bc bc 2a 13 bd 43 ae 03 bd
       0.0010000719 -0.026332509 -0.035929427 -0.03214861
000110 09 88 da bc b5 27 c6 bc 23 6f bc bc 34 43 fb bc
       -0.026676195 -0.024188856 -0.023002213 -0.030671693
000120 1c cc 23 3b a5 ed c8 3c 97 61 02 3d cc 9e b3 3c
       0.0024993485 0.02452738 0.03183135 0.021926306
000130 79 01 4a 3d a3 76 6e 3c c7 fb f9 3c 51 4a aa 3c
       0.04931781 0.014554652 0.030515565 0.02078739
000140 77 ee de 3a 94 9a 9a 3c 8a ff 08 3d da 0e 38 3d
       0.0017008324 0.018872537 0.033446826 0.04493604
000150 5d cd 08 3d 4e 33 02 3d cf ea 2c 3d ac 76 9d 3c
       0.033398975 0.03178721 0.04221612 0.019221626
000160 22 4a ba 3b 50 d8 21 3c 14 89 fe 3b 9e 63 59 3d
       0.005685107 0.009878233 0.007767806 0.053073518
000170 d5 d8 af 3c 8d 61 30 3d 7c ea 48 3d ef 4e 19 3d
       0.021465698 0.04306178 0.049051747 0.037428793
000180 cd 78 ab bb 15 c0 ca 3b 96 a1 ae 3b 9c 69 47 3d
       -0.0052329064 0.0061874487 0.005329321 0.0486847
000190 4f 9f 01 3d 21 13 10 3d 9d d2 0c 3d 4d 00 3a 3d
       0.03164607 0.035174493 0.034380544 0.045410443
0001a0 87 76 48 bc ef 5a 46 3c 77 1d 98 3b e9 8a 21 3d
       -0.01223529 0.012106641 0.0046421844 0.039439116
0001b0 69 a1 c0 3c 28 5a aa 3c d3 f2 13 3d e1 c3 d7 3c
       0.023514466 0.020794943 0.036120247 0.02633852
0001c0 3d 66 94 bb c6 9e 12 3d 79 ad a8 3c 63 c1 34 3d
       -0.0045287893 0.03579595 0.02059053 0.04412974
0001d0 e0 1d d3 3c fe 04 12 3d 86 fb 87 3c 61 cf 27 3d
       0.025771081 0.035649292 0.016599428 0.040969256
0001e0 9f 0e 93 bb a1 fb 92 3c 85 3a 0a 3d f5 39 7f 3d
       -0.004487827 0.017942252 0.033747215 0.06231113
0001f0 b9 1f 5e 3d 34 ed 01 3d 86 91 5e 3d a7 cc 62 3d
       0.05422947 0.031720355 0.054338 0.055370953
000200 08 19 c7 3b 50 29 b5 3c 34 6b 38 3c 64 a7 b0 3c
       0.006075982 0.022114426 0.011256028 0.021564193
000210 73 b4 90 3c d0 b1 84 3c 2a 82 b9 3c 72 8a ea bb
       0.01766417 0.016198069 0.022645075 -0.0071576172
000220 79 fb 91 bc 53 bd 92 bc c9 60 80 bc c2 73 28 bc
       -0.017820107 -0.017912542 -0.01567115 -0.010281505
000230 e0 ba 57 bb 4f e4 c9 bc e6 6e d2 bb 3d a5 c3 3a
       -0.0032917783 -0.024644999 -0.0064219115 0.0014926564
000240 ea e4 b7 bc 51 6f a8 bc 9d 85 2d bc 74 82 9c bc
       -0.022448022 -0.020560892 -0.010590938 -0.019105174
000250 c8 1e d7 bc 92 34 06 bd d8 c2 0f bd 86 49 57 bc
       -0.026259795 -0.03276498 -0.035097927 -0.013140088
000260 bb 62 40 bc 2f 84 60 bc 6c 2f 70 bc 3f b7 9c 3b
       -0.011742289 -0.01370339 -0.014659744 0.004782587
000270 f3 11 e6 bc d0 d9 dd bc 04 44 1f bd 39 d2 a9 3c
       -0.02808473 -0.0270814 -0.038883224 0.020730125
000280 03 a3 73 bc f9 9e 80 bc 82 a5 fb bb f8 4d 3b bc
       -0.014870408 -0.015700804 -0.007679642 -0.011432163
000290 95 96 3c bb 80 6e b9 bc 1b 96 e0 bc 91 e4 9b 3c
       -0.0028776277 -0.022635698 -0.027415326 0.019029887
0002a0 26 4e 08 3a 0f 97 25 bd bd 9c ae bc 8a 52 22 bb
       0.00051996333 -0.040427264 -0.021314973 -0.0024768435
0002b0 c5 fb 27 bb 1d aa 22 bd 07 31 d4 bc 22 7b 4c 3c
       -0.0025632244 -0.039713014 -0.025902284 0.012480529
0002c0 64 6d cd bc de 86 83 bc c4 ba ce bc 0d 8b fe bb
       -0.025076576 -0.01605552 -0.025235541 -0.007768041
0002d0 3e a1 a5 bb b0 24 58 bb a5 55 eb bb 20 b1 8c 3c
       -0.005054622 -0.0032980852 -0.0071818405 0.017174304
0002e0 7d 0e 86 bb 59 54 49 bc 11 e8 7a bc 80 64 83 bc
       -0.0040910826 -0.012288176 -0.015314118 -0.016039133
0002f0 09 e8 05 3c 0b 1e 4d ba f0 7e 46 bc 65 b4 05 3d
       0.008172997 -0.0007824606 -0.012115225 0.03264274
000300 45 8e bc 3d 36 51 b9 3d 22 ea e9 3d 92 ca c3 3d
       0.09206823 0.09048693 0.114216104 0.095601216
000310 91 95 d3 3d 48 6a ea 3d da 2c bb 3d 2a 78 e6 3d
       0.10331262 0.11446053 0.09139414 0.11253388
000320 6f ed af 3d 23 ba ed 3d 56 9b 02 3e ab 38 da 3d
       0.08590209 0.116077684 0.12754568 0.1065534
000330 61 81 0b 3e ab dd 12 3e 87 73 0d 3e 8b 3c 0b 3e
       0.13623573 0.14342372 0.13813601 0.13597314
000340 e5 85 be 3d f6 24 0b 3e 10 ab 00 3e 42 34 e3 3d
       0.09302882 0.13588318 0.12565255 0.11093952
000350 14 6e 10 3e 51 23 1d 3e 4a ad 0a 3e ee 54 02 3e
       0.14104491 0.15345503 0.13542667 0.1272771
000360 9f 8c e5 3d eb 22 fa 3d 5b 0e 15 3e b6 02 06 3e
       0.11208462 0.12213691 0.14556257 0.13086972
000370 d7 da 0f 3e 0d d2 0e 3e 4e 7b 10 3e 34 04 03 3e
       0.14048325 0.13947316 0.14109537 0.12794572
000380 0a 72 c4 3d 6f 7f f2 3d 55 96 0e 3e 71 92 ee 3d
       0.09592064 0.11840712 0.13924535 0.11649025
000390 cc 14 0b 3e 33 ee 0d 3e 6a 34 16 3e 45 fc 11 3e
       0.13582152 0.13860397 0.14668432 0.1425639
0003a0 35 1b d0 3d f3 46 00 3e 11 6f 16 3e 3a 64 02 3e
       0.10161439 0.12527065 0.14690806 0.12733546
0003b0 c9 62 df 3d 71 dc fc 3d 9e 85 00 3e 64 8c 11 3e
       0.10907514 0.12346733 0.12550971 0.14213711
0003c0 fd 6d c2 3d ab 47 f8 3d ad 18 ea 3d f8 73 12 3e
       0.09493635 0.121230446 0.11430488 0.14302051
0003d0 0d 45 a5 3d ab 98 01 3e c9 1b f9 3d 22 a3 1a 3e
       0.08069811 0.12655894 0.12163503 0.15101293
0003e0 2f 5f 80 3d b3 01 89 3d 56 4c d7 3d 2c 67 b7 3d
       0.06268155 0.06689777 0.10512607 0.08955225
0003f0 8e 09 65 3d e1 4c a5 3d d0 50 a9 3d ad 6c a0 3d
       0.055917315 0.08071304 0.08267367 0.07833228

fc.bias f4 [10]
000000 3c f9 43 3f a2 a3 e2 3e 14 5f 65 3e 08 c0 fe 3c
       0.76552176 0.44265467 0.2239955 0.031097427
000010 70 7a 81 3c 31 8d 8c be 00 9c 48 be 25 9d 99 be
       0.015805453 -0.2745147 -0.1959076 -0.30002704
000020 00 17 cb be fb 73 a3 be
       -0.39665985 -0.31924424
