LAB 3/Results/resnet_svhn.ckpt (torch, 616967 bytes, 10 tensors)

conv11.weight f4 [64, 3, 3, 3]
000000 c2 73 a3 3b 2b 65 0a bc f4 fe ab bb 62 02 93 bb
       0.0049881646 -0.008446972 -0.0052488986 -0.004486368
000010 74 96 c8 b9 72 df 82 bb f7 3a 1a 3b 5b 7d 3c 3b
       -0.0003825907 -0.003993922 0.002353368 0.002876124
000020 73 a3 4a 3c 52 ef 03 3c 5e 0a 67 3b fe 38 14 bc
       0.012368071 0.008052664 0.0035253982 -0.009046791
000030 c6 7c 44 bc ae 6a c9 3b 88 ac 16 3c 55 8b dd bb
       -0.011992639 0.0061467504 0.009196408 -0.0067609944
000040 a5 8a 9c 39 d4 f1 ca 3b 5a 5c 4b bc 97 4f 83 bc
       0.00029857937 0.006193379 -0.012412155 -0.016029162
000050 07 b6 75 bb 52 d4 29 bb c7 e1 a6 3b b5 a5 ad 3b
       -0.003749253 -0.0025913906 0.0050928327 0.005299295
000060 85 04 88 3b c5 5b 80 3b 58 6e 51 bc d5 d9 0f 3d
       0.0041509294 0.00391719 -0.012782656 0.03511985
000070 18 25 8d bd 2f 83 0e be 31 0a 1e 3e 95 7f 84 3d
       -0.06891841 -0.1391723 0.15433575 0.06469647
000080 93 a8 3c bd f2 ea 8a 3e 31 60 35 3e 27 49 21 3d
       -0.046059202 0.27132374 0.17712475 0.039376404
000090 0b 09 34 bd 7d dd 08 be 99 44 63 be 5f 01 8e 3d
       -0.043953937 -0.13365741 -0.22194137 0.06933855
0000a0 c8 9d c9 ba 84 3d eb bd b7 70 6a 3e db 22 0c 3e
       -0.0015382105 -0.114863425 0.2289456 0.13685171
0000b0 a7 0e 5c 3c d3 30 ea bd eb 92 08 be 9b 71 43 be
       0.013431228 -0.11435094 -0.13337295 -0.19086306
0000c0 27 09 ae bc 68 52 c6 bc 7e 3c d9 bd 4d 9c e9 3d
       -0.021244599 -0.024209216 -0.10607241 0.11406765
0000d0 5a 0b b5 3d 36 73 22 bc e0 d0 30 bc 7b 51 7e bb
       0.08840056 -0.009915164 -0.010791987 -0.003880589
0000e0 35 63 3b ba b7 69 53 3b 15 83 18 3c c2 2e fc 3b
       -0.0007148267 0.0032259056 0.009308596 0.0076960037
0000f0 19 0f 31 3c 4b 1a a1 3a 20 4a 92 bb ce fc 3b bc
       0.010806822 0.0012291161 -0.004464403 -0.011473848
000100 0d 0e d0 ba 2f a5 05 bc 65 e5 cf 3b 6b 98 0d bc
       -0.0015873328 -0.008157059 0.0063444846 -0.008642296
000110 6b f0 02 bc 73 02 43 3c 30 d9 66 3c 8f 71 58 3c
       -0.00799189 0.011902439 0.0140898675 0.013210668
000120 c7 1d dd bb df 65 44 bb 64 ab bd 3b 84 f9 00 bc
       -0.0067479345 -0.0029967946 0.0057882536 -0.007871989
000130 a9 e8 14 ba c2 10 6c ba 7e a0 f4 3a 2d 6e 2d 3b
       -0.0005680421 -0.00090051827 0.0018663553 0.0026463375
000140 c3 2d 5e 38 7b de ae 3e 85 8e 10 3f d7 e6 ba 3e
       5.2971543e-05 0.34154114 0.5646747 0.36504242
000150 d7 40 8f 3d f4 3b 13 3e 8e 0d 5a bc 65 97 dc be
       0.06994789 0.14378339 -0.013308896 -0.43084255
000160 25 5a dc be 73 7e dd be bf 61 ec 3e 09 f9 3f 3f
       -0.43037525 -0.43260536 0.46168324 0.7498937
000170 8b eb 01 3f 57 ee 10 3d d2 cb 17 3e 7b 62 de bc
       0.50750035 0.03538355 0.14823845 -0.027146569
000180 c1 9c 29 bf dc 4b 21 bf f5 75 24 bf a0 aa 8e 3e
       -0.6625481 -0.6300638 -0.6424249 0.27864552
000190 8f 2b f1 3e f7 1f 41 3e 5b c6 c5 3d 2f 33 f4 3d
       0.47103545 0.1885985 0.09656974 0.11923825
0001a0 e6 86 db bd a9 25 a6 be 0b ae c2 be d4 72 e4 be
       -0.10719089 -0.32450607 -0.3802341 -0.44618857
0001b0 1b 80 58 ba 75 50 19 3c d9 9c 07 bc 9e 41 d5 39
       -0.00082588353 0.009357561 -0.0082771415 0.00040675414
0001c0 c4 1a 15 3c 1b 63 6d 3b 52 0a d6 ba 40 b2 bf 3b
       0.00910062 0.0036222402 -0.001632998 0.0058501065
0001d0 ba d8 a8 bb 30 ef 10 3b 07 06 41 3c 82 a3 a1 bb
       -0.005152789 0.0022115223 0.011781222 -0.0049328217
0001e0 df 89 2e 3c 62 54 33 3c f2 d3 26 bc 2a e0 31 bb
       0.010652988 0.010945411 -0.010182368 -0.0027141669
0001f0 3f 6f ed bb 2b f0 5a 3b a4 2e 4b 3c bd 19 1c 3b
       -0.0072459276 0.0033407311 0.012401257 0.0023819052
000200 c5 88 46 3b d8 e2 14 bb 2d 34 2c ba c8 82 94 bc
       0.0030293923 -0.0022718217 -0.0006569054 -0.018128768
000210 a9 12 a2 3a ab 33 4d bc ed 0d 66 bc 73 4e cf bb
       0.001236518 -0.012524526 -0.014041406 -0.0063264905
000220 c1 52 c2 3b 82 61 19 bb 69 a1 2f bc 5c d2 39 ba
       0.005930275 -0.0023404066 -0.0107196355 -0.0007088536
000230 d8 d9 32 bc 9f 4f 67 3b a5 31 c2 3a 56 10 14 3b
       -0.010916196 0.003529526 0.0014815821 0.0022592745
000240 c3 68 db 3b e1 aa 9d 3b ea f2 d1 bb 88 4f 78 3b
       0.006695838 0.00481163 -0.0064071314 0.0037889201
000250 29 4f f6 bb 32 07 f6 3b 4c b5 ad 3b 9e 56 23 bc
       -0.007516761 0.007508182 0.0053011533 -0.009969382
000260 c7 26 18 3c ca 72 b9 3b 3d d8 16 3c 98 27 0f bc
       0.009286589 0.005659436 0.009206829 -0.008737467
000270 1f 9b 86 3b c7 2a f3 bb 50 60 c0 3b ea ee 81 3a
       0.0041078473 -0.007420871 0.0058708563 0.0009913121
000280 eb c9 62 3b f5 42 9f 3b fb af 09 3c 65 1f 55 bb
       0.0034605216 0.004860277 0.008403773 -0.0032519933
000290 74 a0 02 bc fd 4d 3a bb 5b 39 90 ba c4 bb 97 bb
       -0.007972825 -0.0028427832 -0.0011003421 -0.0046305377
0002a0 13 b6 cf bb 7f 09 9e bb 92 d7 a6 3b ea e8 eb bb
       -0.0063388436 -0.0048229094 0.005091616 -0.0071993964
0002b0 2a 76 0d b9 cb ab 1b bc 8d 8f 1c 3b 8d 4a 91 3b
       -0.00013490827 -0.009501408 0.0023889274 0.004433936
0002c0 a3 43 75 3b 20 00 21 3c c7 13 0f 3c 11 e2 58 3c
       0.0037424348 0.00982669 0.008732743 0.013237492
0002d0 e8 8d 7e 3a 7c dd db bb ed ff cb 3a a8 aa a3 ba
       0.0009710477 -0.0067097526 0.0015563943 -0.0012486773
0002e0 00 91 b2 bb 0c 1c 0b bc 04 38 80 bb ff 65 35 3c
       -0.0054494143 -0.008490574 -0.0039129276 0.011071681
0002f0 6c b3 27 3c 5c d3 85 3c f2 19 84 3d a3 f5 a1 3d
       0.010235649 0.016336136 0.06450261 0.079081796
000300 ab 25 09 bd e4 55 9d 3c df a0 11 3d a1 90 94 bd
       -0.03348319 0.019205995 0.03555381 -0.07254148
000310 67 ca eb bc 5a 40 a4 b5 07 5d 39 3d 85 33 a4 3d
       -0.028783036 -1.2237681e-06 0.045254733 0.08017639
000320 5f a3 de 3d c0 d9 4e bc ad f8 e5 3c 59 84 4f 3d
       0.10871004 -0.012625158 0.02807268 0.050663326
000330 28 86 5c bd be 80 71 bb 92 2a 9c 3c 10 97 b3 3d
       -0.05383888 -0.0036850418 0.019063268 0.08769047
000340 e4 b2 fd 3d a5 bc f4 3d c1 5f 75 3d 9d a1 ae 3d
       0.12387636 0.119500436 0.05990577 0.08526919
000350 cb 61 97 3d e8 69 97 3c b4 57 28 3d 63 b9 7c 3d
       0.073916994 0.018483117 0.041099265 0.061700236
000360 9d 8d d1 3e 02 97 04 3e 5f da ef 3c fe 96 89 3e
       0.40928355 0.1294823 0.029278932 0.2687301
000370 91 46 a0 bd 5b d9 20 be 1b e1 ba 3d 7a 57 9c be
       -0.078259595 -0.15707915 0.09124967 -0.3053549
000380 16 53 ae be f6 ee d6 3e 34 32 bc 3d 4a e8 8d bd
       -0.34047765 0.41979188 0.09189263 -0.06929071
000390 ac ef 99 3e 56 ab 0c be 53 a2 89 be 35 bc c1 3d
       0.30065668 -0.13737234 -0.26881656 0.09459726
0003a0 87 3f c7 be 7b f7 04 bf b1 2c 9d 3e 51 05 56 3d
       -0.38915655 -0.51940125 0.3069816 0.052251164
0003b0 cb 82 cc 3b b7 44 84 3e 13 56 4c bd ef b0 f4 bd
       0.0062411777 0.25833675 -0.049886774 -0.1194781
0003c0 93 90 26 3e 31 96 55 be 44 47 84 be 72 3d f2 3b
       0.16266088 -0.20858075 -0.2583562 0.0073925788
0003d0 70 d9 ea ba d8 2a 94 3b 95 73 fb b8 d1 d2 ff bb
       -0.0017917585 0.004521709 -0.000119901415 -0.0078071137
0003e0 27 94 29 3c a8 17 02 3c c6 37 90 ba 5e 12 33 3b
       0.010350264 0.00794021 -0.001100295 0.002732418
0003f0 f8 4f fb 3b a1 d7 16 bc 3a 7a b3 3b fd 2b 48 3c
       0.007669445 -0.009206683 0.005477217 0.012217519

conv11.bias f4 [64]
000000 90 3b 3a bd 55 8e 43 be 6b 94 e6 bc ad ed 31 3e
       -0.04546696 -0.19097264 -0.028146943 0.17375822
000010 36 98 1a bc b3 c7 dd bc bc 5a e8 bc 51 8d 2a be
       -0.009435704 -0.027072763 -0.028363578 -0.1665547
000020 e4 fe 4e 3c cc 4f 02 bd ff 8d b2 bd d3 3f 41 bd
       0.012634013 -0.03181438 -0.0871849 -0.04718001
000030 bf 43 9b be 34 3c cf bc a2 fe 1c be 8d 2b b0 bd
       -0.30325124 -0.025297262 -0.1533151 -0.08602057
000040 37 ad be bd 2c ce 73 bd 97 84 b5 bd 79 2f 31 be
       -0.09310382 -0.059522793 -0.0886318 -0.17303266
000050 30 35 9c be 7c e0 aa be 68 a5 43 bd 89 96 65 bd
       -0.3050933 -0.33374393 -0.047765166 -0.056051765
000060 77 ff be bc bf 83 32 bd 89 25 5e bd 05 92 79 be
       -0.023315175 -0.043582674 -0.054235015 -0.24372108
000070 95 6c 4b be b4 7e 1a be d5 24 9f bd 0c 21 7d be
       -0.1986564 -0.15087396 -0.07770697 -0.24719638
000080 b6 09 01 bf 3a 7b f3 bd 86 9d 4c be 60 a3 17 be
       -0.5040544 -0.11888738 -0.19981965 -0.14808416
000090 69 e6 e9 bc 0b 52 04 bd ff ea 2c be 79 52 b4 bc
       -0.028552251 -0.032304805 -0.16886519 -0.022011982
0000a0 0e ed 8c 3e 1b c0 18 3d 02 46 d3 bd 74 de 79 be
       0.27524608 0.03729258 -0.10316087 -0.24401265
0000b0 e9 35 cc bc 0b ac 61 be 3a 11 23 be e7 6f ca be
       -0.02492805 -0.22038285 -0.1592454 -0.395385
0000c0 3b 50 02 bd 13 45 c6 bc 39 a2 94 bc c0 82 cb bd
       -0.031814795 -0.024202859 -0.01814376 -0.09937048
0000d0 ec bc f6 bc 7f e7 a7 bd cd 91 7c bc c1 b1 b8 bc
       -0.030119382 -0.08198451 -0.015415621 -0.022545697
0000e0 78 52 51 be 01 64 d3 bc ca 0d c2 be f8 46 9c bc
       -0.20441616 -0.025804522 -0.37901145 -0.01907681
0000f0 8b 6d c6 bc 5c 96 15 be 2c fe 17 bd 4e 42 05 be
       -0.024222156 -0.14608139 -0.03710763 -0.13013574

conv12.weight f4 [64, 64, 3, 3]
000000 e9 1c a2 ba cb 71 07 bb 26 72 82 ba f6 f9 82 ba
       -0.0012368235 -0.002066719 -0.0009952232 -0.0009992707
000010 78 1c bf 39 2b ef 79 3a 92 3c eb 39 41 07 5e ba
       0.0003645157 0.0009534235 0.0004486782 -0.0008469709
000020 6b c6 4c ba 34 0c 2d bc 96 0c e9 bb 1e c4 f1 bb
       -0.0007811549 -0.0105619915 -0.007112096 -0.0073781153
000030 b9 40 af bb 4e 26 8f bb 7b 9c af bb 80 d8 0b 3b
       -0.0053482917 -0.00436858 -0.00535923 0.002133876
000040 29 42 1d bb 93 e3 b3 bb 30 9d 42 ba d3 54 82 ba
       -0.0023995733 -0.0054897754 -0.00074239355 -0.0009943492
000050 2d 20 f0 3a 8d bf 55 3a cf 23 bb ba 58 ef 3d 3a
       0.0018320136 0.00081538485 -0.001427764 0.0007245443
000060 a7 19 ee 3a 9a 33 01 ba 38 06 b8 ba 55 d1 62 bd
       0.0018165604 -0.00049286487 -0.0014039939 -0.055375416
000070 08 6c 3e bb 6b fa 2a 3d 56 71 95 bd 5d 4d 6e bc
       -0.002905609 0.041742723 -0.07297008 -0.014544812
000080 64 3e 4a 3d e4 f7 9b bc 64 9c d9 3c cc df a9 3d
       0.049375907 -0.019039102 0.02656383 0.08294639
000090 e5 dd 46 b9 5f d8 66 39 7b 98 86 ba 38 f3 1f bb
       -0.00018965414 0.00022015114 -0.0010268831 -0.0024406444
0000a0 b6 27 8e 3a 25 b0 4d 3a f7 35 1b bb 5d 67 9f 3a
       0.0010845575 0.0007846377 -0.0023683289 0.0012161542
0000b0 00 4f 2a bb 45 7f 08 bb 14 b1 09 3a 02 57 bc 3a
       -0.002598703 -0.0020827812 0.0005252522 0.0014369192
0000c0 de 24 91 ba ce f8 81 b9 65 3d dd ba 22 f6 af 3a
       -0.0011073609 -0.0002479017 -0.0016879259 0.0013424794
0000d0 2f cf 0e bb db 7b 18 3a dd 77 70 3a 67 06 d2 b8
       -0.0021790972 0.0005816796 0.00091731345 -0.00010014773
0000e0 e2 58 75 3a 04 50 54 3a e5 f0 1b 3a f4 e9 8d 39
       0.0009359253 0.00080990815 0.0005948677 0.00027067924
0000f0 a0 81 72 b9 40 53 8d 3a 63 1f 73 ba b7 81 5c bb
       -0.00023127208 0.0010782257 -0.00092743913 -0.0033646652
000100 a4 49 96 bb 83 fb 24 ba 34 98 d0 39 6e e8 38 bb
       -0.0045864154 -0.00062935817 0.00039786252 -0.002821471
000110 0f 7e 88 bb 36 54 51 3b c4 3b f1 3a 86 04 50 bb
       -0.004165418 0.0031941063 0.0018404652 -0.0031740977
000120 ea d0 05 bd 41 f0 b4 bc 68 b7 84 bc de 50 95 bc
       -0.03266994 -0.022087218 -0.016200736 -0.018227037
000130 4b 13 b5 bc 57 56 b9 bc 01 91 94 3c a5 6c fd 3a
       -0.022103926 -0.022624178 0.01813555 0.0019334747
000140 df d7 0d bc 1d 81 11 3b 93 e4 e6 3a a8 21 c8 ba
       -0.008657425 0.0022202202 0.0017615728 -0.0015268819
000150 8d 3b 3a 3b 19 41 07 3b 5f bc 6e b9 ad 11 68 ba
       0.0028416843 0.0020638166 -0.00022767622 -0.00088527316
000160 7e 75 1b 3b 60 ad bd 3a e6 f4 bf ba 0a 5a 8c 3a
       0.0023721154 0.0014471225 -0.0014645129 0.0010707986
000170 1f 35 96 ba 16 e2 90 b9 a4 92 01 3b 82 79 db b8
       -0.0011459923 -0.00027634267 0.0019771243 -0.00010465366
000180 f2 e4 34 3a 2d da 6f 38 62 2a 9b ba a1 6a 85 ba
       0.00069005706 5.7185232e-05 -0.0011838193 -0.0010178873
000190 91 52 b5 3a 5b f7 c9 ba fd 4a 96 b9 e8 10 09 3a
       0.0013833811 -0.0015408801 -0.000286661 0.00052286545
0001a0 15 1d 88 3a 90 83 67 b7 28 bc 14 3a d6 95 d9 39
       0.0010384644 -1.3799305e-05 0.00056737894 0.00041501102
0001b0 0f 0e 48 bb e4 30 17 3c f8 b1 89 3c b4 b3 e6 ba
       -0.0030525958 0.009227965 0.016808495 -0.0017601163
0001c0 02 34 b1 3a e6 4d 74 3c 92 40 ad 3b 87 3b 1d 3c
       0.0013519528 0.014911151 0.0052872384 0.009596712
0001d0 37 48 a6 3c d3 60 df 3a 43 22 e7 3a d4 55 8a 3a
       0.020298107 0.0017042406 0.0017634112 0.0010554143
0001e0 48 f5 b9 39 f7 67 ec 3a e1 fc 04 bb 52 d8 5e 39
       0.00035468698 0.0018036355 -0.002029233 0.00021252155
0001f0 c4 52 e2 3a fa 72 aa ba f9 27 89 3b d7 73 37 3b
       0.0017267098 -0.0013004236 0.0041856733 0.002799263
000200 da aa 78 3b 13 07 ff 3b 9a af f3 3b 68 fb 90 3b
       0.0037943632 0.0077828257 0.007436705 0.004424501
000210 6d e5 f6 3b 84 96 c2 3b b6 94 32 3b e9 8b db ba
       0.007534674 0.005938353 0.0027249283 -0.001675007
000220 e2 ae b3 ba b8 1b f1 ba 5e 05 c0 ba 44 b6 98 ba
       -0.0013708735 -0.0018395102 -0.0014650037 -0.0011650999
000230 53 68 7c ba 83 2a ad 3a 77 59 11 b6 8d 67 10 3b
       -0.00096285826 0.0013211522 -2.165876e-06 0.0022034377
000240 ac 0a 28 bb 2e 09 28 ba 99 f8 45 3a 35 59 a2 bb
       -0.0025641127 -0.0006410059 0.00075519976 -0.004954482
000250 d6 0f 42 bb 9a 01 9c 3a f7 44 f0 3a 1e 82 89 b9
       -0.002961149 0.0011902333 0.00183311 -0.0002622762
000260 30 4c 20 3b 56 d4 55 39 82 d5 3d bb ba 5a 9c ba
       0.0024459474 0.00020392364 -0.0028966372 -0.0011928894
000270 0f 36 cb ba a9 98 87 3a 04 5c 87 3a fb 50 01 bb
       -0.0015503782 0.0010345179 0.0010327105 -0.0019732106
000280 96 ce 02 bb 91 15 34 bb 80 6e 14 3a 1f ac ed 39
       -0.001995956 -0.0027478675 0.0005662218 0.00045332403
000290 44 9e 17 3a 60 4f 10 bb 0e 51 49 ba 72 20 33 39
       0.0005783776 -0.0022019967 -0.00076796196 0.00017082857
0002a0 df 37 2b b9 29 34 77 b9 47 68 f6 ba 2c 3d 55 bb
       -0.00016328644 -0.00023575187 -0.0018799388 -0.0032537682
0002b0 ea b2 60 bb e7 cc 59 bb c3 ab dc ba b3 7c 08 b7
       -0.0034286329 -0.0033233704 -0.0016835857 -8.1352655e-06
0002c0 81 9f 82 ba 9f 6e 2e bb b1 45 be 3a 68 8b c0 ba
       -0.0009965749 -0.0026616228 0.0014516619 -0.0014689984
0002d0 c2 da b5 bb 5f 1d 36 ba 0b ec 65 3b 99 af 3b bc
       -0.0055497596 -0.00069471257 0.003508332 -0.01145544
0002e0 3c 4e 21 bc 73 7d 95 bb c7 09 9d 3a 2e 70 6b 3b
       -0.009845313 -0.004562074 0.0011981063 0.0035925019
0002f0 c3 54 0e 3c ce 34 61 3c b0 04 2b 3c 2c 58 6c 3b
       0.008687201 0.0137455 0.010438129 0.0036063297
000300 7a 5e 90 3c fb 96 da 3b c0 79 ba 3b 99 d1 91 3c
       0.017623175 0.0066708303 0.0056907833 0.01780014
000310 38 43 01 3c ea 1f 1f 3c b4 32 92 ba 4d 44 f1 b9
       0.007889561 0.009712199 -0.0011154027 -0.0004601799
000320 f8 b2 0e bb 26 ef 77 bb 27 ff 8b 3a 87 3e 09 bb
       -0.0021774154 -0.0037831753 0.00106809 -0.002094181
000330 01 77 7b 3a a2 cf d0 ba c6 9a 29 bb 28 44 8c bc
       0.0009592623 -0.001593102 -0.0025879606 -0.017122343
000340 b8 cb cb 3c 35 74 a2 3d db 4a 1c bd eb a2 14 ba
       0.024877414 0.07932321 -0.038157325 -0.00056700286
000350 9b 74 a3 3d 2e 4f 91 bc a8 fa 98 bb b4 0b a0 3d
       0.07981225 -0.017737951 -0.0046685524 0.07814732
000360 16 fb 91 b9 4d 3a 16 bb 46 ec 1e bb c4 57 c1 3a
       -0.0002784363 -0.0022922934 -0.0024249717 0.0014750888
000370 b9 82 e2 ba ec 25 11 bb 8a b4 0c ba b5 f3 b7 3a
       -0.001728139 -0.0022147847 -0.00053674786 0.0014034422
000380 ad cf 62 39 f2 fa f1 b8 dd a3 0f 3b da 20 d3 ba
       0.00021630405 -0.00011538518 0.0021917738 -0.0016107813
000390 1e af 9c ba 4a 6f 50 ba 4e 17 da 3a 95 2a 0d 3b
       -0.0011954044 -0.00079511537 0.0016639025 0.0021540273
0003a0 40 21 3d 3a b0 da fd ba 09 05 a6 ba 05 68 88 ba
       0.00072147325 -0.0019367542 -0.0012666296 -0.0010406977
0003b0 2a 7c 86 3a c6 59 97 ba 54 e5 11 3a 1f 6e 58 39
       0.0010260392 -0.001154714 0.00055654836 0.00020640389
0003c0 12 2f 11 3a 55 7f 20 39 e5 c2 23 3a 80 f3 1b bb
       0.0005538325 0.00015306224 0.0006246998 -0.002379626
0003d0 9b 84 4d bb be 12 5a bb 0f fd 56 3a d6 93 11 bb
       -0.0031359557 -0.0033275331 0.0008201161 -0.0022213361
0003e0 74 d0 25 ba bc d7 4a 3b 30 95 fa ba a0 15 3a bb
       -0.00063253124 0.0030951342 -0.0019117948 -0.0028394237
0003f0 4c 7c 0f 3b 19 87 f2 b9 95 4b 19 bb 56 c3 d5 3a
       0.0021894155 -0.00046258493 -0.0023390998 0.0016308825

conv12.bias f4 [64]
000000 85 da 84 bd 00 b4 ac bb 28 ef 21 bb db 3d 93 bc
       -0.06486992 -0.005270481 -0.0024709199 -0.01797383
000010 eb ec d3 bb 7c 9f 07 be 37 ea 8e 3b 91 7d b6 bb
       -0.006467452 -0.13244432 0.0043614167 -0.005569168
000020 a0 f5 07 bc c3 a9 1f bc ee 6c fd bd 32 49 66 3e
       -0.008298308 -0.009745064 -0.12374292 0.2248886
000030 dc 54 1d be c9 3d 03 bb 43 61 87 bb da 88 cd 3d
       -0.15364403 -0.002002584 -0.0041314675 0.10035868
000040 d8 81 b9 bb c7 76 80 bd b3 34 f3 3e 52 08 af 3e
       -0.0056612305 -0.06272655 0.47501144 0.34186035
000050 55 45 7e bc 8a cd 80 be 1b 75 90 3e 0f e8 41 3e
       -0.01551946 -0.25156814 0.28214344 0.1893618
000060 cd b4 77 bb 8f b5 a0 bc c4 65 c7 be 64 77 9a 3e
       -0.0037796975 -0.019617824 -0.3894483 0.30169213
000070 7d 0d ec bb 6e c0 63 bb 57 79 69 bb cb b8 1f be
       -0.0072037564 -0.0034752148 -0.0035625303 -0.15597837
000080 d9 55 b5 bb bf 5a c1 ba ca 31 c8 bb bb f1 21 be
       -0.0055339155 -0.0014751776 -0.006109451 -0.15814869
000090 87 a0 79 bc c7 c9 aa 3e f4 d6 41 be 8e 90 28 bc
       -0.015236027 0.3335707 -0.18929654 -0.010288371
0000a0 34 17 7b bc 32 bf 6e bc a3 41 28 bc 9a ed ba be
       -0.015325356 -0.014571952 -0.010269555 -0.365094
0000b0 d8 df b0 bb 0e 91 11 3f 50 1d 9e bd d3 f3 d9 bb
       -0.005397778 0.5686196 -0.07720435 -0.0066513806
0000c0 db 26 5c bb 32 83 9c bb 4b c8 96 3e e3 60 69 bd
       -0.0033592496 -0.004776382 0.29449686 -0.056977164
0000d0 71 ac a1 bb 18 ea 75 bb c6 8a 4b 3e ae d2 9d bb
       -0.0049338867 -0.0037523564 0.19877157 -0.0048163747
0000e0 13 47 a4 be dd 5f d3 3e d2 e1 8f bb ae 25 76 bc
       -0.32085475 0.41284075 -0.0043909336 -0.015023632
0000f0 f3 e3 72 bd d9 25 f6 3c a2 49 2c bc e3 fd 08 bc
       -0.05929942 0.030047344 -0.010515602 -0.008361313

conv21.weight f4 [64, 64, 3, 3]
000000 ef 32 b4 b9 dd 04 1d ba 4b 38 1f bb cd 14 98 39
       -0.00034370224 -0.00059897994 -0.0024295028 0.00029007197
000010 d3 83 f4 3a a3 fc c5 3a 69 ab fe ba 97 ad 43 3a
       0.0018655009 0.0015105199 -0.0019429746 0.00074645266
000020 b9 36 49 3a 48 3d 59 3a 7a bb ac ba 76 ac 26 bb
       0.0007675696 0.00082870247 -0.0013178431 -0.0025432385
000030 8d 73 cd b9 b3 55 43 ba 15 be 02 3a ae 79 ed ba
       -0.0003918674 -0.000745143 0.0004987431 -0.0018117928
000040 52 8d c0 3a 80 42 06 bb 6b 00 82 ba 1f c3 0c bb
       0.0014690554 -0.0020486414 -0.0009918337 -0.0021478606
000050 a1 d7 85 ba 43 ff b2 ba 82 e6 ea b9 c2 60 a9 ba
       -0.0010211357 -0.0013656396 -0.000448037 -0.0012922513
000060 4c 30 8f b9 c1 47 8e ba 95 a5 06 3b fc 7d 9b 39
       -0.0002731107 -0.0010855125 0.0020545472 0.0002965777
000070 0d 04 09 bb f0 3d 5a ba f6 6d a6 ba 93 2b 40 3a
       -0.0020906955 -0.00083252694 -0.0012697566 0.0007330712
000080 89 3e 7b ba cd a4 d2 3a 2d 84 66 bb 1a 51 f8 b8
       -0.00095842086 0.0016070843 -0.0035173998 -0.00011840668
000090 bd 91 2e bb ba 9c 09 3a 03 f9 12 3a be 5d b5 b9
       -0.002663716 0.00052494893 0.00056065636 -0.00034592854
0000a0 96 12 0a bb 61 8f b8 3a 3b e5 d9 3a 23 61 ba 3a
       -0.0021068207 0.0014080816 0.0016624102 0.0014219623
0000b0 46 66 f1 3a 5b a7 93 39 34 03 13 3a 1d 6c 1b bb
       0.0018417321 0.00028162714 0.0005608082 -0.0023715564
0000c0 45 04 c9 3a f3 2b bf b9 2c 43 a9 ba ae 3e 7c 3a
       0.0015336355 -0.00036463104 -0.0012913696 0.0009622377
0000d0 80 59 97 ba 34 a5 08 3b 38 b7 45 b9 c2 a3 4b ba
       -0.0011547059 0.0020850422 -0.00018855638 -0.0007768237
0000e0 88 eb b6 3a 01 d7 a0 39 5d 8f a9 3a 55 bc b5 b8
       0.0013955692 0.00030677769 0.0012936402 -8.665832e-05
0000f0 05 20 09 bb b7 36 c0 38 2f d0 8a ba 70 c3 b3 3a
       -0.0020923626 9.165465e-05 -0.0010590608 0.0013714861
000100 e8 6a 8e ba f2 8f 45 b9 2c 2a c0 3a 9f 2f cb ba
       -0.0010865601 -0.00018841008 0.0014661006 -0.0015501863
000110 47 e5 9a 3a dc 6a fc 3a 5e e1 1c ba f8 b6 a6 39
       0.0011817598 0.0019257921 -0.000598451 0.0003179831
000120 ef 4d 99 b9 ea b2 7d ba 5e e9 12 bb ef e5 32 ba
       -0.000292405 -0.00096778444 -0.002241693 -0.0006824424
000130 0b 02 67 bb 86 58 3b bb d5 bb 88 bb 3e dd 55 bb
       -0.003524902 -0.00285867 -0.004172782 -0.0032633091
000140 6a 13 f2 3a 15 2c 1b bb 45 ff 73 b9 b4 4f 19 bb
       0.0018468921 -0.0023677398 -0.00023269381 -0.0023393454
000150 e0 c8 cb 3a fa ee e6 3a 5d 68 0f bb 23 2e 88 3a
       0.0015547536 0.0017618828 -0.0021882274 0.0010389726
000160 d1 ff f8 ba aa 1b e8 b9 4b 7d e8 ba 3d 3a 1f bb
       -0.0018997138 -0.000442711 -0.0017737536 -0.0024296187
000170 79 4c 10 ba 7a bf e5 ba 93 a3 ec 3a 9c 37 fb 39
       -0.00055045594 -0.0017528378 0.001805412 0.00047915883
000180 d2 0c ec b9 74 4b 54 3a ff b4 d5 ba a7 8c 38 bb
       -0.0004502298 0.00080984016 -0.0016304551 -0.0028160007
000190 e4 d2 ff ba 43 62 3a bb c0 cd 32 ba d7 3f 84 ba
       -0.0019517806 -0.0028439916 -0.000682082 -0.0010089827
0001a0 3f ac 58 bb 3d 18 02 3b 53 52 06 3b 22 c2 b3 ba
       -0.003306165 0.0019850873 0.0020495846 -0.0013714472
0001b0 39 de a5 39 3c c8 dd ba 0e ba a7 39 a9 16 e0 ba
       0.0003163682 -0.0016920636 0.00031991344 -0.0017096597
0001c0 7c df 45 3a f8 ab d0 ba 7e 65 16 3b 50 91 10 bb
       0.00075482554 -0.0015920391 0.0022948678 -0.002205927
0001d0 c5 49 88 ba 69 4a 14 bb 84 86 e1 3a 34 28 3a 3a
       -0.0010397962 -0.002262736 0.0017206226 0.00071013276
0001e0 69 d0 86 3a 7a 59 8f 3a cd ff f6 3a 77 80 4b 3a
       0.00102855 0.00109367 0.0018844545 0.0007762978
0001f0 a4 9d 5a 3a 8e 6a b5 ba f1 17 a0 3a 8e 65 9c 39
       0.00083395303 -0.001384096 0.0012214166 0.00029830303
000200 31 aa 0a b8 3e 6c 18 bb 66 ef 11 bb 57 03 ac ba
       -3.3060267e-05 -0.0023257877 -0.0022267937 -0.0013123554
000210 aa bb 71 ba c7 81 b4 39 0b 55 53 39 13 89 cf 39
       -0.00092213845 0.00034428967 0.00020154209 0.00039584245
000220 cd 68 05 39 cf 07 b7 ba 5f 1b d8 3a 78 09 20 bb
       0.0001272291 -0.0013964119 0.0016487649 -0.0024419706
000230 32 bd 28 3a a6 70 ed ba 6f 6a 7a b9 0f cb d5 ba
       0.00064368837 -0.0018115237 -0.00023881508 -0.0016311127
000240 a1 1f e5 ba 60 7f c6 3a 45 e5 d0 b9 0e 36 d9 3a
       -0.001748074 0.0015144162 -0.0003984367 0.0016571896
000250 ef b9 c3 3a 97 48 5d b9 76 77 bf 3a 03 e3 ae ba
       0.0014932732 -0.00021103244 0.0014607746 -0.0013342801
000260 cc 1d 92 38 37 e1 03 bb ac 2e 55 3a 88 f4 c8 b8
       6.9673726e-05 -0.0020123252 0.000813226 -9.582291e-05
000270 0b a3 21 3a eb e9 b5 ba cb b7 eb ba 16 ba dd ba
       0.0006165958 -0.0013878917 -0.0017983852 -0.001691642
000280 89 9c ad b9 1c dc 65 ba 15 db 9f 39 72 fd 77 3a
       -0.0003311376 -0.00087684556 0.00030490072 0.00094600685
000290 13 70 b8 3a de 0f 03 ba e7 4f 67 3a 4b bd 5e bb
       0.0014071487 -0.0004999618 0.0008823857 -0.003398734
0002a0 56 e0 dc b9 9f 69 84 ba 4c b8 12 bb de 74 84 bb
       -0.00042128813 -0.0010102278 -0.0022387682 -0.004042252
0002b0 07 5b 27 bb 07 95 19 ba cc a4 63 bb 76 4a e2 ba
       -0.0025536434 -0.00058586936 -0.0034735678 -0.0017264623
0002c0 f0 c9 1d bb dc d9 b7 3a ca c4 b3 b9 40 86 37 ba
       -0.0024076663 0.0014026719 -0.0003428816 -0.0007000901
0002d0 d5 89 43 ba 90 3a 65 39 4f c9 ce 3a 79 25 e4 b8
       -0.0007459198 0.00021860958 0.0015776547 -0.00010878867
0002e0 b3 a1 a4 3a 4b 3c 26 bb 09 09 d8 b9 2d 21 19 b9
       0.0012560397 -0.0025365527 -0.00041205462 -0.00014603576
0002f0 42 b3 cd 39 33 24 9e ba d6 4d 69 3a 76 ef fa ba
       0.00039234204 -0.0012065232 0.0008899843 -0.0019144851
000300 d3 e3 e8 b9 91 4f 24 3a 5b f2 8b 3a f2 f0 94 ba
       -0.0004442023 0.000626796 0.0010677086 -0.0011363311
000310 81 8c bc ba 96 89 70 ba b7 d3 88 3a 8a ef 1c bb
       -0.0014385135 -0.00091757753 0.0010439073 -0.0023946487
000320 c6 04 62 3a f5 f3 a3 3a 25 a0 15 bb f7 c3 3f 39
       0.0008621927 0.0012508618 -0.002283105 0.00018288182
000330 da 15 87 b9 c5 4a b1 ba d2 49 15 bb a4 56 83 ba
       -0.00025765487 -0.0013526311 -0.0022779596 -0.0010020328
000340 9a cf 01 ba 79 75 16 bb cd 24 98 ba 2a ab 78 ba
       -0.00049518945 -0.0022958203 -0.0011607647 -0.00094859547
000350 7d 27 46 3a 1d 8e 01 b9 32 7a 13 bb 91 27 b0 39
       0.0007558985 -0.0001235534 -0.0022503254 0.00033598815
000360 a4 ea 9f 3a 79 77 17 bb dc 5a de 3a 07 d5 d7 ba
       0.0012200666 -0.0023111983 0.0016964334 -0.0016466685
000370 55 0c f4 39 c4 d0 fe 39 cc be 03 bb 9a 6f da ba
       0.00046548495 0.00048602198 -0.0020102737 -0.001666534
000380 ab 6e de 39 ad 24 ef ba 3b 04 d1 3a 52 a8 e1 ba
       0.00042425594 -0.0018245183 0.0015946695 -0.0017216301
000390 a6 f7 37 3a 65 e3 3b 37 18 59 59 ba 99 e7 1b 3b
       0.00070177985 1.1199013e-05 -0.0008291169 0.0023789166
0003a0 8d c5 19 bb a0 30 a6 3a 3d 62 06 ba ff 61 c6 ba
       -0.0023463697 0.0012679286 -0.0005126333 -0.0015135406
0003b0 ac 89 93 3a 10 2a a8 3a 82 13 55 ba cc ee 35 bb
       0.0011256239 0.0012829918 -0.0008128212 -0.0027760742
0003c0 b8 aa 25 3b 61 92 23 bb 79 45 6c ba 8f 80 b3 3a
       0.0025278758 -0.0024959075 -0.0009013038 0.001369493
0003d0 a9 16 c2 ba 74 4d 39 bb dc 43 14 3b f3 cd 39 ba
       -0.0014807779 -0.0028274925 0.0022623455 -0.0007087879
0003e0 04 b2 0d bb c7 6e 9a ba 63 46 f7 ba 78 7f ef 3a
       -0.0021620998 -0.0011782282 -0.0018865581 0.0018272242
0003f0 e9 b1 bd ba b5 13 9f b7 bd 77 6d 39 c1 b9 a4 3a
       -0.0014472577 -1.8963454e-05 0.00022646687 0.0012567566

conv21.bias f4 [64]
000000 6a a7 c1 bb cc ac 5e bd df 68 63 bc 43 bf 80 bb
       -0.00590985 -0.05436401 -0.013879984 -0.00392905
000010 09 e3 9f 3d 3e ae fc ba 97 cf 3c bb 72 9a 69 3e
       0.078069754 -0.0019278002 -0.0028810257 0.22812822
000020 fd ca 3a bb 50 05 ca bb b8 9f 88 bb 1c 4f 90 bb
       -0.0028502338 -0.006165184 -0.0041694306 -0.004403962
000030 6e e1 b9 bc de 76 56 3e 6f fd e4 bb 17 dd cd 3e
       -0.022690501 0.20943782 -0.0069882195 0.4020774
000040 fb 5f 17 bb 1d 4a 66 bd 50 87 0e bb bc 97 ac ba
       -0.002309798 -0.056223024 -0.0021748133 -0.0013167779
000050 f1 7b 7c bb 25 8c 91 bb 51 b8 21 bc b4 57 8d bb
       -0.0038526023 -0.0044417554 -0.009870605 -0.0043134335
000060 d6 d4 93 3e 07 5d f2 ba c6 5d 27 3e 77 3b a2 ba
       0.28873318 -0.0018490859 0.16344365 -0.0012377341
000070 e9 26 0b bc 6b 22 4b bb 0a 54 02 bb cd ac f9 bb
       -0.008493164 -0.0030995857 -0.0019886517 -0.0076194764
000080 57 48 94 ba 7b 75 3c ba 71 8e 56 3e 72 bb 0c b9
       -0.0011313063 -0.0007189137 0.20952775 -0.00013421269
000090 4a bb 91 bb b4 4b be bb 67 d7 66 bb e9 23 57 bb
       -0.0044473754 -0.0058073644 -0.0035223605 -0.00328278
0000a0 6c 53 7e bd 90 05 20 bd 83 04 84 ba f5 aa 78 bb
       -0.062091276 -0.039067805 -0.0010072145 -0.0037943695
0000b0 0c 32 33 bd 25 9a 4c bb 6f 20 59 bb 29 d8 c7 bb
       -0.0437489 -0.0031219807 -0.0033130904 -0.0060987663
0000c0 22 7a db 3d 49 b7 35 3d 9f fe fb bb d1 4b 69 bb
       0.10716654 0.044364247 -0.0076902653 -0.0035598169
0000d0 2c 19 5f bb 6f 65 fb bb 9a 88 a3 bb 31 53 0a bc
       -0.0034042103 -0.007672004 -0.0049906494 -0.008442686
0000e0 20 f5 50 ba ea 07 e8 bb 57 0c a1 ba 81 e1 11 bb
       -0.0007971097 -0.0070810216 -0.0012287003 -0.0022259655
0000f0 3e 5f 94 bd c6 2d 9b bb 74 ae 09 ba f1 c6 8a bb
       -0.072447285 -0.004735681 -0.0005252131 -0.0042351414

conv22.weight f4 [64, 64, 3, 3]
000000 72 05 f3 3a a6 3d fb 3a d6 0f a5 3a 43 ce fb 39
       0.0018541052 0.0019168153 0.001259322 0.00048028128
000010 f2 7f e4 3a 9f b5 b3 b8 96 53 08 3a 46 bf 05 3b
       0.001743315 -8.569215e-05 0.00052004436 0.0020408197
000020 f6 05 69 ba 71 2d ca 3b be 33 28 bb 39 bb b0 bc
       -0.0008889133 0.006169968 -0.0025665606 -0.02157365
000030 37 ad 6b 3b 2c 32 b8 bb c3 d0 da bc 3d ff 86 3c
       0.0035961398 -0.0056212153 -0.026710873 0.016479129
000040 48 87 dc bb 6f e2 cb bc 38 cf 23 3a bd a4 ff b9
       -0.006729994 -0.024888245 0.00062488345 -0.0004876013
000050 bb f0 7c ba fe 0f cd 3a f6 35 2e ba 46 09 fd ba
       -0.0009648909 0.0015645025 -0.0006645614 -0.0019305132
000060 41 9c 98 3a be d8 e4 39 94 25 c3 39 c1 7a e3 ba
       0.0011643247 0.00043649034 0.00037221296 -0.0017355309
000070 a5 eb 6e 3a 99 ec 55 3a 6c 80 01 3b c2 8a 8f 3a
       0.0009114093 0.0008160561 0.0019760383 0.0010951387
000080 ac 8a 93 3a 57 5e d8 39 2e 34 07 3b d3 75 5a ba
       0.0011256537 0.0004126902 0.0020630467 -0.0008333597
000090 40 70 53 3e 69 95 a5 bd 1d 6a e7 bd ca b4 64 bd
       0.20648289 -0.08085138 -0.112995364 -0.055836476
0000a0 89 72 22 be f6 bd cb bd be 68 25 be 75 50 0a be
       -0.15864004 -0.099483415 -0.16153237 -0.13507254
0000b0 3e 3d 16 3e 21 1f a4 ba b3 0a 06 3b b9 00 78 ba
       0.146718 -0.0012521484 0.0020453155 -0.0009460557
0000c0 eb 08 c8 3a 25 99 3b 3a ad a5 40 ba fc c3 6c 3a
       0.0015261447 0.0007156304 -0.00073489064 0.00090318895
0000d0 3e a4 b8 ba 9a 6d 4c ba d7 46 09 bb aa 29 16 3b
       -0.0014087034 -0.00077983143 -0.0020946765 0.0022913017
0000e0 ae d4 62 b9 9c 8e 59 3a 0d 75 fe ba 67 a7 0f 3a
       -0.00021632269 0.00082991435 -0.0019413546 0.0005479962
0000f0 a8 e9 74 b9 54 40 8b 3a 4e 84 d4 ba ec 32 f3 bd
       -0.00023356697 0.001062403 -0.0016213746 -0.11874947
000100 fd 80 73 bd fa bc 68 3e e5 61 5e bd 47 44 84 bb
       -0.059449185 0.22728339 -0.05429258 -0.0040364596
000110 66 9d 03 3e 17 93 6c 3d 35 5f 67 bc 83 bf 5b be
       0.12853011 0.057757463 -0.01412182 -0.21459775
000120 90 a4 c6 3a 17 c1 14 39 e2 5f fb b9 1b 1f a8 ba
       0.0015155245 0.00014186311 -0.0004794589 -0.0012826653
000130 e8 07 84 ba 7e 16 ba b8 34 a4 9a 3a 63 2a c9 39
       -0.0010073157 -8.873361e-05 0.0011798204 0.00038369288
000140 38 a8 07 3b 8a ae ec 3a 40 8e 32 3a 99 55 fd 3a
       0.0020699631 0.0018057388 0.0006811358 0.0019327878
000150 c7 51 ef 3a 90 f7 88 39 13 83 cf 3a e1 fc cd b9
       0.0018258624 0.0002612439 0.001583191 -0.00039289056
000160 47 59 ba ba 25 f5 a3 ba 79 7c 9f 39 48 ef 03 3b
       -0.001421728 -0.0012508972 0.00030419583 0.0020131636
000170 21 a5 05 3b e5 54 12 ba be 87 c3 ba 74 ff 2e 3a
       0.0020392614 -0.0005582108 -0.0014917774 0.0006675639
000180 52 ba 0d ba 1f fd e0 b9 0f 86 4b b9 5f 48 dd b9
       -0.0005406487 -0.000429132 -0.0001940953 -0.00042206325
000190 ca 57 43 b9 7a e6 b6 ba 40 e1 83 b9 01 7c ea 3a
       -0.00018629353 -0.0013954185 -0.0002515409 0.0017889739
0001a0 db 25 98 3a dc 74 de ba ca cc 10 38 3e bb 0a bb
       0.0011607961 -0.0016972083 3.4523e-05 -0.0021168734
0001b0 c2 cd 6e 3a a0 db 21 ba e8 8f 9f b9 90 37 53 3a
       0.000910964 -0.0006174389 -0.00030434062 0.00080572907
0001c0 ef 37 1c 39 3a f7 ce 3a 5a 4f f5 ba 3d 48 1f bb
       0.00014898156 0.0015790232 -0.0018715665 -0.0024304532
0001d0 0d 08 c6 ba f4 96 a0 be db 5f f9 be 16 82 e4 be
       -0.00151086 -0.31365168 -0.48705944 -0.44630498
0001e0 62 65 9b 3d bd ea 42 be d7 e8 96 be 7c 44 ae 3e
       0.075876966 -0.19034858 -0.29474518 0.34036624
0001f0 51 fc fb 3e c1 0d db 3d 5f ed f3 ba 72 9b b2 3a
       0.4921594 0.10695983 -0.0018610171 0.0013626649
000200 dd ff 01 39 e0 68 1b bb 2f 70 f6 ba 1a c5 ca ba
       0.00012397715 -0.0023713633 -0.0018801744 -0.0015470118
000210 c4 53 ab b9 4d cb 05 3b 5c e7 51 ba 7d d4 11 3d
       -0.00032678072 0.0020415366 -0.00080071925 0.035603035
000220 d4 a0 1e be 8a f1 72 be b8 c0 f2 bd 1c 80 48 bd
       -0.15491039 -0.23724952 -0.118531644 -0.0489503
000230 8d b0 64 3d 19 bf 36 bd 29 ad 60 3e c1 c7 9a 3e
       0.055832434 -0.04461584 0.21941055 0.30230525
000240 ee 4c 21 ba 2d 72 12 3a a8 89 82 39 55 53 46 ba
       -0.0006153126 0.00055864715 0.00024898094 -0.0007565518
000250 33 44 59 3a 29 9d da 3a 32 83 03 bb ae 9e 9e ba
       0.00082880555 0.0016678917 -0.0020067212 -0.0012101734
000260 89 a4 af 39 e2 c7 f9 ba 7d aa 5d 3a 4a 5b 78 3a
       0.0003350119 -0.0019056762 0.00084558857 0.00094740523
000270 43 87 0b bb 06 9e da ba fc 87 fc ba 62 65 05 bb
       -0.002129034 -0.0016679175 -0.0019266601 -0.0020354618
000280 fb 40 b9 ba 7b 42 d1 ba 64 dc b8 3a 51 7a 04 3b
       -0.0014133746 -0.0015965247 0.0014103767 0.0020214508
000290 67 f9 13 3b 4d 84 4a b9 79 83 12 3b 74 0a 50 39
       0.0022579075 -0.00019313507 0.0022356196 0.0001984032
0002a0 d2 55 f6 b6 0d d8 84 3a e4 fd e4 3a ca 10 06 bb
       -7.341362e-06 0.0010135189 0.0017470685 -0.0020456784
0002b0 86 19 57 ba bb 3a 08 bb 83 1a d2 ba f1 64 ea 3a
       -0.00082054024 -0.002078696 -0.001602963 0.0017882866
0002c0 97 c0 07 3b 3b 6b 08 bb 4b 3d f0 ba 2c 69 01 bb
       0.0020714158 -0.0020815867 -0.0018328814 -0.0019746525
0002d0 ad 57 ee ba 1f 1b 8d ba 53 4b 5f 3a 4b 8f b2 3a
       -0.0018184088 -0.0010765529 0.0008517999 0.0013623027
0002e0 f4 74 04 bb 01 90 8a 3a 47 53 fb 3a f5 cf 27 3a
       -0.002021131 0.0010571481 0.0019174599 0.00064015324
0002f0 91 58 04 bb 4c 8e 26 3a 70 be 8c 3a 0b f0 12 bb
       -0.0020194391 0.00063536013 0.0010737907 -0.0022420909
000300 4e 13 22 ba e1 76 d7 3a 7b 59 53 39 99 26 12 bb
       -0.0006182686 0.0016438627 0.00020155862 -0.0022300838
000310 1d 43 a3 39 91 9d c5 3a 13 3e d8 ba 46 7e ba 3a
       0.00031139786 0.0015076866 -0.0016497992 0.0014228306
000320 a8 2e cc 3a c7 19 91 ba 8a e9 ca 3a 83 cd e5 3a
       0.001557787 -0.0011070304 0.0015480977 0.0017532561
000330 4e de 13 bb bb c9 2a ba 37 8b d7 ba 55 1e 4e 3a
       -0.0022562924 -0.00065150455 -0.0016444687 0.0007862796
000340 87 ca db 3a a1 92 fe b9 3f 87 04 bb 43 bc 0d ba
       0.0016768732 -0.00048555902 -0.0020222215 -0.00054067763
000350 64 a2 a7 3a 14 7d cd 3a a3 90 bf 3a be 34 b9 b9
       0.0012789485 0.0015677535 0.0014615249 -0.00035325246
000360 dc 10 ae bd aa 54 8e bd 56 6c 06 bd da 96 aa bd
       -0.084993094 -0.06949742 -0.03281816 -0.08329554
000370 5b 06 9c bd 22 8d 01 bd a9 60 c4 bd 24 cb 9a 3c
       -0.076184 -0.031628735 -0.09588749 0.018895693
000380 27 84 85 3c d4 2d d4 3a fe 3e 92 39 a6 8e 12 ba
       0.016298367 0.0016187974 0.00027894223 -0.0005590714
000390 df 58 35 3a 1d 4a 02 bb 13 54 9b 3a e6 a7 c2 ba
       0.0006917845 -0.00198806 0.0011850618 -0.0014851063
0003a0 7f bb eb 3a 55 38 51 3a 9f fc 6e bd cb be 55 3d
       0.0017984955 0.00079811114 -0.058346387 0.052183907
0003b0 21 c6 18 3d da ae 36 bd f5 03 2c be d5 29 16 be
       0.037298325 -0.044600345 -0.16798384 -0.14664395
0003c0 aa f1 c6 3d dc 36 c8 bd 90 04 df bc 2c aa 01 ba
       0.097140625 -0.097760886 -0.027223855 -0.0004946317
0003d0 42 63 1a 3a ce 26 22 39 96 8c 1d 3a e6 90 ea ba
       0.00058894244 0.0001546398 0.00060100236 -0.0017895966
0003e0 c5 16 14 3b db e9 e4 3a 25 17 3f b9 e9 fc c1 ba
       0.002259658 0.0017464714 -0.00018223801 -0.0014800105
0003f0 75 9a 8a 3a 33 22 cc b9 92 41 12 37 8f 2a e1 ba
       0.0010574596 -0.00038935393 8.717545e-06 -0.0017178821

conv22.bias f4 [64]
000000 9a 45 9b bd f3 95 9b bd 65 77 2d be 8e 33 96 bd
       -0.07581635 -0.0759696 -0.16940077 -0.07334052
000010 67 58 18 be 2c 60 0c be 54 1a 35 bd 9e a0 cb bd
       -0.14877473 -0.13708562 -0.04421456 -0.09942745
000020 56 9d ca bd 5d 76 88 bc 46 6b 40 be c3 f3 50 be
       -0.09893291 -0.016658003 -0.18790922 -0.20405488
000030 a4 48 66 bb e7 83 15 be a9 75 a8 bd bd 01 60 bd
       -0.0035138512 -0.14601098 -0.08225567 -0.054689158
000040 f5 1a b2 bc 23 1c ce bc 32 a3 e0 3d 62 3f 24 be
       -0.02174137 -0.025159901 0.10968627 -0.16039804
000050 af e3 d2 3d ea c5 5f bc d1 b4 9f bc a7 d5 f5 bc
       0.102973334 -0.013658026 -0.0194954 -0.030009104
000060 19 aa a3 3d 64 62 8b be 19 a9 29 bc e6 db 0e bd
       0.07991428 -0.27223504 -0.010355257 -0.03487768
000070 20 d8 04 be 8c 7c e9 bd e4 a8 95 be 16 35 0e be
       -0.1297307 -0.114007086 -0.29230416 -0.13887438
000080 d4 fa 39 bc 1d c5 c2 bb 8c 0a e6 bc 10 a4 29 3a
       -0.011351306 -0.005943908 -0.028081201 0.00064712856
000090 d3 ef 16 bc b0 e8 6e 3e 9e 1a a7 bd 45 b6 0c bc
       -0.009212452 0.2333095 -0.08159374 -0.008588378
0000a0 4c c4 0e ba 05 0b 94 bc 68 d8 90 bc db f5 56 be
       -0.00054461206 -0.01807166 -0.017681316 -0.20992224
0000b0 8a 13 05 bd d0 19 03 bc f2 b0 17 bd 6f 61 b2 bd
       -0.032489337 -0.00800176 -0.037033983 -0.0870999
0000c0 71 58 4b bd 32 72 ff bd 89 2f a6 bd 44 f5 4a bd
       -0.04964489 -0.12472953 -0.08114535 -0.04955031
0000d0 09 02 86 bc ba fc cd bd 24 55 20 be 61 bf a3 bb
       -0.016358392 -0.100579694 -0.15657479 -0.0049971794
0000e0 58 da ae bd d4 91 9c bc f6 20 af bc e8 eb a5 bc
       -0.085377395 -0.019112505 -0.021378022 -0.02025409
0000f0 b8 9a f3 bb 4a 27 a0 bd 22 63 d6 bd 00 84 e5 bd
       -0.0074342154 -0.07819994 -0.10468127 -0.112068176

fc.weight f4 [10, 4096]
000000 7e 2d 05 3c 54 48 88 bd 1b 73 6e 3c 60 ea d9 3c
       0.008128522 -0.066544205 0.0145538105 0.026601017
000010 f4 27 43 3d cd b5 f2 3d 33 6c fb 3c 5d b0 13 bc
       0.047645524 0.11851082 0.030691242 -0.009014216
000020 aa f6 06 3c 06 97 8d 3b b9 2b 24 3d fe 23 33 3d
       0.00823752 0.004320982 0.04008076 0.043735497
000030 cf f6 2a bd 14 5a 57 3d 06 c8 b9 bb 36 07 a0 bb
       -0.04173928 0.05257614 -0.0056695966 -0.004883672
000040 7e fb 8f 3b 95 94 a2 bd 09 01 b0 3d c9 bb c8 3b
       0.004393994 -0.07938496 0.085939474 0.0061259014
000050 7d e2 eb bd 00 46 96 bd a8 18 34 3c 26 f1 fa 3b
       -0.115178086 -0.0733757 0.010992207 0.0076581417
000060 f1 94 5c 3d 65 26 d9 bc 58 f0 1e 3d f0 a7 d8 bc
       0.05385298 -0.026507566 0.03880343 -0.026447266
000070 9a ad 22 be c9 45 37 bd d0 f4 6b 3d ff a8 f2 3c
       -0.15886536 -0.044744287 0.05760652 0.0296216
000080 99 4e 7a 3b 02 e3 21 3c c9 15 e2 bd a1 29 6a be
       0.003819382 0.009880783 -0.110393114 -0.22867443
000090 83 13 85 be 20 52 b0 bd 5c 71 ce ba 9e f3 99 3d
       -0.2599145 -0.08609414 -0.0015750336 0.075171694
0000a0 36 83 09 3d 01 b7 54 bc f2 65 00 bd 70 2f 51 be
       0.033572398 -0.012983085 -0.031347223 -0.20428252
0000b0 2e ff 60 be cb 96 eb bc f7 cd fb bb cc 5b 8c 3d
       -0.21972343 -0.028758427 -0.007684465 0.06853446
0000c0 5d 5b 9b bc 1e 7f 3d bc a7 76 c1 bd c1 82 f7 bd
       -0.018964464 -0.011565952 -0.09446459 -0.12085486
0000d0 46 23 0c be 6a a5 4c bd ad a3 8c bc 50 34 39 bd
       -0.13685331 -0.04996244 -0.01716789 -0.045215905
0000e0 9e a2 0b 3d 61 19 04 3c 42 0d b8 bb ab eb c4 3d
       0.03409063 0.008062691 -0.005616815 0.096152626
0000f0 8c c3 bd 3d 3b 6c 27 bc c2 13 ef 3c 43 c3 98 3c
       0.09265813 -0.010218675 0.029184226 0.018647796
000100 64 7b 40 3b c2 f2 0b bc d3 df 1d bd 08 c1 60 bc
       0.0029370422 -0.008541765 -0.038543534 -0.013717897
000110 0a ba 4a bc 73 33 81 bc 9a 79 2c 3a 17 2b 2f 3b
       -0.012373457 -0.015771603 0.00065793993 0.0026728564
000120 08 2b 92 bc 86 5b 8a 3b ac 91 a0 bb a1 24 98 3c
       -0.017842785 0.004222336 -0.004900178 0.018572154
000130 7e 18 eb 3b a0 f8 d9 3b ee 4f 81 3a c0 68 80 bb
       0.0071745506 0.006651953 0.000986574 -0.003918737
000140 85 61 76 3c f4 0a 9f 3b 96 04 34 3c c5 08 40 3d
       0.015037899 0.0048536006 0.0109874215 0.046883363
000150 cc 36 1a 3b dc 31 5d bb 51 98 be 3c 9c 2e 33 3d
       0.0023531197 -0.0033751642 0.02326599 0.043745622
000160 98 05 95 3c 1a f1 49 3c 7c 5a 88 3c 62 54 02 3d
       0.018191144 0.0123255495 0.016644709 0.031818755
000170 66 e1 c0 3c cc d5 b9 3c c7 9b e1 3c ed e4 79 3c
       0.023544978 0.022684954 0.0275401 0.015252334
000180 7b 5a c1 bb 83 a1 ee bc 80 1c af 3c 1c 51 85 3c
       -0.0059006787 -0.02912975 0.021375895 0.016274028
000190 d6 64 49 3d ff 79 5f 3d 53 87 e3 3c d2 db 28 3c
       0.04916843 0.054559704 0.027774489 0.0103063155
0001a0 b6 6f e4 bc 30 9a 0d bd 04 29 01 bc 03 31 73 3c
       -0.0278853 -0.034570873 -0.007883314 0.014843228
0001b0 14 6f 93 3a 2b 30 e2 3c 27 b4 95 bc cc d9 0b bc
       0.0011248314 0.027610859 -0.01827438 -0.008535814
0001c0 c6 05 74 3b 8d c1 67 bc 5e 39 08 3c 2a c2 c3 3c
       0.0037234887 -0.014145267 0.008314459 0.023896296
0001d0 7d c0 14 bc b0 59 d4 3c 3c 01 14 bc 7c d3 cf bb
       -0.009079096 0.025921673 -0.009033497 -0.0063423496
0001e0 dd 51 8a 3b 69 d8 16 bd 8d d8 7e bc 0a 9c 8a 3c
       0.0042211846 -0.03682748 -0.015554559 0.016920108
0001f0 cd 27 12 bd 1f 43 87 bc ab 10 47 bc 76 0e b9 3b
       -0.03568249 -0.016511498 -0.01214997 0.005647476
000200 11 d4 df 3c 9f 64 97 bc db 7b d1 bd 7a 9c 31 3e
       0.0273228 -0.018480597 -0.10228702 0.17344847
000210 84 c6 dd 3d 33 df 22 bc 1e 6b 83 bc 40 d2 59 bc
       0.108288795 -0.00994091 -0.016042288 -0.013294756
000220 d3 12 3e bb 88 25 41 bd 79 cf 81 be 62 fa cd 3d
       -0.002900292 -0.047154933 -0.25353602 0.10057522
000230 0f 4e e0 3d 78 82 9b bc 7e ce f7 bc 80 96 18 bc
       0.109523885 -0.01898311 -0.03024983 -0.009313226
000240 03 af 36 3d a2 ff 86 bd 35 19 74 bd 2a ef 5d 3d
       0.044600498 -0.06591727 -0.05959435 0.054183163
000250 c7 ee dd 3d 4a 86 d3 3d 25 21 73 3d 8e d2 04 3e
       0.10836559 0.10328348 0.05935778 0.12970945
000260 49 a4 7f bd 40 7c 2b bd 62 a0 b5 bd 4d 36 7e ba
       -0.062412534 -0.04186654 -0.08868481 -0.00096974225
000270 1d 29 a2 3d 50 bc 57 3d a2 73 9a bb 12 2b 8c 3d
       0.07917998 0.052669823 -0.0047134915 0.068441525
000280 19 5e 4d bd 41 50 00 bd 4d fd d0 bc f6 b7 8e bd
       -0.050138567 -0.031326536 -0.025511408 -0.069686815
000290 0a fa 8e bc 41 9d e4 bc f3 16 21 3d 21 88 e2 3d
       -0.017453212 -0.027907016 0.039328527 0.11061121
0002a0 94 cb 52 3c 76 8b 08 3d 2a 08 82 bc 81 52 ea bb
       0.01286592 0.033336125 -0.015873034 -0.0071509485
0002b0 4d 55 23 bc b0 da 89 bc 6e 82 2a 3c cf b1 a0 3d
       -0.009969068 -0.016827911 0.010407073 0.07846414
0002c0 63 cd 57 3c 8f 49 be bc 4a 49 c7 3c 4b 01 76 bd
       0.013171527 -0.023228435 0.02432694 -0.060059827
0002d0 1f 5e 91 bd ca 19 0e be db e4 1a 3c 6b ff 52 3d
       -0.0709803 -0.13877025 0.009453977 0.051513117
0002e0 2a dd ee 3b 69 d7 44 3d b4 1b 52 3c ef 03 b2 3b
       0.0072895484 0.048056994 0.012823988 0.005432598
0002f0 a0 76 52 bc 39 eb 10 3d 39 e5 27 3d 19 d8 b6 bb
       -0.012845665 0.035380576 0.040990088 -0.00557996
000300 39 da 98 bc 63 03 89 3c 4f 17 f9 3b 8a 31 48 3c
       -0.018658744 0.016725248 0.0076016556 0.012218842
000310 de 3a 87 3b 52 92 93 3c 36 3d ce 3c 33 97 97 3c
       0.0041268906 0.018014107 0.025175672 0.018504715
000320 44 0f be 3c 38 fc 14 3d 4d de 05 bd eb 75 10 3e
       0.023200639 0.036373347 -0.032682706 0.14107482
000330 58 ae b2 3d b5 a5 08 3d 5b 05 0a bd c5 e0 b4 bc
       0.0872466 0.033361156 -0.033696514 -0.022079835
000340 87 e3 6d 3d 61 c5 27 ba 05 cc 08 3e c3 7b 65 3e
       0.058078315 -0.0006399956 0.13359077 0.22410493
000350 58 b9 41 bc 0e f3 9f bc 82 04 e2 bb e0 bc c3 3c
       -0.011823975 -0.019525077 -0.00689751 0.023893774
000360 e3 a3 0d 3c 0d 33 61 3d 1f 35 c7 3c d0 f2 06 3e
       0.008645031 0.054980326 0.024317322 0.13178563
000370 50 0e c9 3b 9d 0a a5 bd 46 be 19 3d 00 c3 9f bc
       0.0061357394 -0.08058665 0.037534975 -0.019502163
000380 27 5a f1 3a 4a f1 b2 bd ad fe 2f 3e 0b 83 3f 3e
       0.0018413708 -0.087374285 0.17186995 0.18702333
000390 a4 2c c2 3d b0 3c cc bd f2 b2 07 3d 93 73 1a bb
       0.09481171 -0.09972513 0.03312964 -0.0023567423
0003a0 d9 c3 20 bd 46 48 83 bc 8d ab 07 3d cc 72 e4 bc
       -0.039249275 -0.016025674 0.033122588 -0.02788677
0003b0 80 08 1c bd fd ff 16 bd af f6 2b 3c d8 86 de 3c
       -0.038094044 -0.036865223 0.010495826 0.027163908
0003c0 06 b3 15 bd 14 e7 cb bd 44 6a ff 3c 8c 44 36 bd
       -0.036547683 -0.09956184 0.031178601 -0.044498965
0003d0 69 bb cf bc ad fe 65 bd a4 d3 46 3c fa 81 e8 3c
       -0.025357919 -0.05615108 0.01213542 0.02838229
0003e0 d7 43 0a 3d 6c aa 0a bc c1 1f 9c 3c 52 f5 76 3b
       0.033756103 -0.008463483 0.01905811 0.0037682843
0003f0 07 ad 57 bc fd f7 6e bd 08 31 69 bc 7a 39 fc 3c
       -0.0131638115 -0.05834197 -0.014232881 0.030789126

fc.bias f4 [10]
000000 b0 31 05 3f 85 22 0f 3e 8d ab 1c bd 25 9c 1d bd
       0.5202894 0.13978012 -0.03824954 -0.03847899
000010 2a 25 32 3d c3 32 bb bd 4c e4 45 bc 79 9f 34 be
       0.043492474 -0.091405414 -0.012078356 -0.17638959
000020 32 62 35 be bd a3 2a be
       -0.1771324 -0.16664024
