LAB 3/Results/tl_mynet_svhn.ckpt (torch, 378557 bytes, 60 tensors)

conv1.weight f4 [32, 3, 3, 3]
-0.064514205 -0.050753497 -0.0685616 0.22733855 0.12820409 -0.11190989 0.13844118 0.029884689
0.17430614 0.0539364 0.21417736 -0.09025967 0.19390513 0.22227982 -0.1481173 0.015110229
0.009193927 -0.10015184 0.15224421 -0.009739483 0.14160486 0.11677521 0.0053015216 -0.04248485
0.11315852 0.16003858 0.16196072 0.2093959 -0.101443775 0.10817633 -0.12081689 -0.1954662
0.071128495 0.09791519 -0.18875414 -0.08160372 -0.08208325 0.09888562 0.061640393 -0.024594245
-0.22344278 0.006203457 -0.028088862 -0.099205784 -0.17363112 -0.02585857 -0.0052974555 0.10694581
-0.07703061 -0.08485541 0.054078754 0.0036374927 -0.15855259 -0.06796677 -0.07796093 0.07621661
0.13768077 -0.1332221 -0.0791161 0.16118823 -0.040870287 0.042962547 0.059030425 -0.34102428
-0.1161814 0.16729085 -0.013296994 -0.08315216 0.1664885 -0.07048762 0.08094343 0.06354958
-0.19430378 -0.24334197 0.17078997 -0.1561599 0.13521026 0.024321605 0.15961953 -0.19481581
0.22295454 -0.13814719 -0.13700938 -0.034733728 0.05811965 0.027575132 0.12449858 -0.11682215
0.20491685 0.1984122 -0.061814304 0.09785342 -0.13404667 0.17500956 -0.07872699 -0.08423521
0.061620396 0.13872473 0.048284348 -0.15492421 0.044522434 -0.21437909 -0.0897551 0.08228796
0.057505365 -0.121123485 0.14180203 0.17534934 -0.011864941 -0.050291248 0.35872144 -0.20007779
-0.20944494 0.12678489 -0.14038152 -0.10276603 0.08155471 0.046049226 0.09076821 0.3197988
-0.119777024 0.014410347 0.25247335 -0.3774555 0.04984428 0.118992336 -0.21783535 0.17954196
0.24006559 -0.09372701 -0.18616918 0.19410326 -0.3102024 -0.044967383 0.0064667286 -0.019616842
-0.12720883 -0.2573375 0.23645806 0.042889375 -0.21592991 0.1597373 0.123644695 -0.043618385
0.17290106 -0.10046999 -0.136308 -0.0048489184 0.05386998 0.0028759462 0.2561246 -0.07684561
-0.22522944 0.15879445 -0.17010078 -0.10254844 0.106662534 -0.076219864 0.04481786 0.25033012
-0.09935738 -0.08966998 -0.012139428 0.17220925 0.23665261 -0.080297165 -0.18476194 0.13843101
-0.00022199213 0.10059489 -0.07001953 0.14838248 0.0014201863 0.17363949 0.06596828 -0.13590069
0.050361037 -0.1659795 -0.071710944 -0.10888267 -0.10192493 0.11031928 0.15951678 0.086072855
-0.000832025 0.14690632 0.13113247 -0.20979139 -0.013134915 -0.1274915 -0.10567292 0.091475114
-0.13680698 -0.08117433 -0.14438431 0.00017094097 -0.1333587 -0.043105297 -0.187148 0.07767039
0.054588906 0.03902442 0.09982994 0.087881126 0.099300146 -0.10090871 -0.21306519 0.047764987
0.078810275 -0.06814115 0.09607546 -0.106189094 -0.08989619 -0.10462049 -0.062093753 -0.03727338
-0.17989193 -0.08188625 -0.17738621 -0.011670476 0.17810632 0.12637645 -0.10982889 -0.011409219
-0.0014913244 -0.21837167 -0.007005418 -0.21862756 0.10006081 -0.1442121 0.13933544 0.17821242
0.23845097 0.25789386 -0.16835095 -0.01324481 -0.19222465 -0.07849146 0.05232497 0.16531731
-0.03848101 -0.0029668298 0.047550533 0.011598531 0.058011398 0.009146929 0.033226725 0.026380813
0.030224947 0.041511834 0.13885999 -0.17088127 -0.21897069 -0.18232802 -0.038239714 -0.16640136
00000000: 0620 84bd e6e2 4fbd 066a 8cbd 70cb 683e
00000010: ef47 033e 0331 e5bd 86c3 0d3e bcd0 f43c
00000020: 4f7d 323e 6aec 5c3d 4f51 5b3e 10da b8bd
00000030: 118f 463e 529d 633e 10ac 17be e590 773c
00000040: 20a2 163c 681c cdbd e8e5 1b3e 5a92 1fbc
00000050: dd00 113e d727 ef3d 63b8 ad3b 9804 2ebd
00000060: a7bf e73d 27e1 233e 08d9 253e e16b 563e
00000070: c1c1 cfbd 8d8b dd3d d86e f7bd 4b28 48be
00000080: d1ab 913d c287 c83d c448 41be da1f a7bd
00000090: 431b a8bd 8b84 ca3d a37a 7c3d df79 c9bc
000000a0: 2fce 64be 5e46 cb3b 9d1a e6bc 672c cbbd
000000b0: 5bcc 31be 5ad5 d3bc 4796 adbb 6806 db3d
000000c0: 39c2 9dbd acc8 adbd af81 5d3d 0063 6e3b
000000d0: 9c5b 22be 2932 8bbd fba9 9fbd 7417 9c3d
000000e0: 30fc 0c3e 606b 08be 9f07 a2bd 870e 253e
000000f0: 9a67 27bd 7ff9 2f3d e3c9 713d bc9a aebe
00000100: 84f0 edbd 4b4e 2b3e a3db 59bc ae4b aabd
00000110: f67b 2a3e d05b 90bd abc5 a53d 4826 823d
00000120: 92f7 46be a32e 79be 91e3 2e3e 61e8 1fbe
00000130: 8f74 0a3e 1a3e c73c 4d73 233e cc7d 47be
00000140: 324e 643e 7576 0dbe 304c 0cbe f444 0ebd
00000150: df0e 6e3d 3ee5 e13c 1df9 fe3d 7440 efbd
00000160: b9d5 513e 912c 4b3e ff30 7dbd 6067 c83d
00000170: 8843 09be b535 333e 9e3b a1bd 8383 acbd
00000180: ab65 7c3d db0d 0e3e cfc5 453d 74a4 1ebe
00000190: 285d 363d 3186 5bbe 86d1 b7bd 9786 a83d
000001a0: bf8a 6b3d 970f f8bd 8d34 113e c78e 333e
000001b0: 2b65 42bc 32fe 4dbd 56aa b73e 31e1 4cbe
000001c0: bc78 56be e6d3 013e 2cc0 0fbe ff76 d2bd
000001d0: 2806 a73d 1d9e 3c3d afe4 b93d abbc a33e
000001e0: a84d f5bd 6019 6c3c 3044 813e d941 c1be
000001f0: 8429 4c3d 41b2 f33d 3b10 5fbe d9d9 373e
00000200: c1d3 753e f2f3 bfbd 22a3 3ebe 01c3 463e
00000210: d9d2 9ebe b82f 38bd dae6 d33b 80b3 a0bc
00000220: 0843 02be bec1 83be 1022 723e c5ac 2f3d
00000230: bb1c 5dbe 2d92 233e 6e39 fd3d 31a9 32bd
00000240: fa0c 313e 36c3 cdbd 5394 0bbe ade3 9ebb
00000250: c5a6 5c3d 5f7a 3c3b c322 833e 3b61 9dbd
00000260: 8ca2 66be 039b 223e e62e 2ebe eb04 d2bd
00000270: e371 da3d 2919 9cbd ef92 373d 452b 803e
00000280: e27b cbbd e5a4 b7bd 74e4 46bc 9f57 303e
00000290: 1055 723e d772 a4bd 3c32 3dbe dcc0 0d3e
000002a0: 8fc6 68b9 b204 ce3d 6666 8fbd 94f1 173e
000002b0: 8b25 ba3a 8dce 313e 611a 873d 8d29 0bbe
000002c0: 6047 4e3d 88f6 29be 30dd 92bd e1fd debd
000002d0: 05be d0bd 13ef e13d 5e58 233e f746 b03d
000002e0: 411c 5aba 9c6e 163e 9747 063e 8ed3 56be
000002f0: d433 57bc 228d 02be 0b6b d8bd 4e57 bb3d
00000300: 2117 0cbe ba3e a6bd 7bd9 13be 9e3e 3339
00000310: 2f8f 08be 2e8f 30bd baa3 3fbe a711 9f3d
00000320: 9e98 5f3d 12d8 1f3d a473 cc3d 05fb b33d
00000330: e05d cb3d 3aa9 cebd c32d 5abe 38a5 433d
00000340: 4867 a13d 968d 8bbd 36c3 c43d ab79 d9bd
00000350: 7e1b b8bd 4443 d6bd 0556 7ebd f9ab 18bd
00000360: 9735 38be fab3 a7bd bba4 35be 8635 3fbc
00000370: 8161 363e d468 013e f8ed e0bd bced 3abc
00000380: 8b78 c3ba d39c 5fbe b58d e5bb e7df 5fbe
00000390: afec cc3d 56ac 13be f3ad 0e3e 517d 363e
000003a0: 7e2c 743e aa0a 843e 3164 2cbe c200 59bc
000003b0: 8ad6 44be 21c0 a0bd b552 563d f148 293e
000003c0: 439e 1dbd 256f 42bb 59c4 423d c407 3e3c
000003d0: 5c9d 6d3d 00dd 153c bf18 083d 931c d83c
000003e0: 4f9a f73c 5008 2a3d 5031 0e3e 80fb 2ebe
000003f0: da39 60be 32b4 3abe 3fa1 1cbd 1e65 2abe

conv1.bias f4 [32]
-0.22210069 0.12883218 0.1404792 0.006439187 0.20622264 0.12312658 -0.069879524 0.17567974
0.3639119 -0.041266598 0.26824158 0.11527637 -0.10921094 0.1596374 0.22256462 0.11295644
0.17859077 -0.03507028 0.145417 -0.20470482 0.17511415 0.11540044 0.02238818 -0.116374105
-0.11489805 -0.21289667 0.17446451 -0.102401644 -0.14138618 -0.20662726 -0.18622892 -0.08994109
00000000: 5d6e 63be 95ec 033e c8d9 0f3e d1ff d23b
00000010: 072c 533e ca29 fc3d ff1c 8fbd 64e5 333e
00000020: a952 ba3e 2a07 29bd f656 893e 0416 ec3d
00000030: fca9 dfbd fd77 233e fbe7 633e b555 e73d
00000040: 80e0 363e dba5 0fbd 32e8 143e 249e 51be
00000050: 2051 333e 1157 ec3d 6b67 b73c 8c55 eebd
00000060: ab4f ebbd 9601 5abe d3a6 323e f4b7 d1bd
00000070: 8ac7 10be 1996 53be cbb2 3ebe 0933 b8bd

invResBlocks.0.expansion.weight f4 [96, 32, 1, 1]
0.15443827 -0.11763894 0.16360718 -0.085692905 -0.14846747 -0.08903831 -0.14538921 -0.07981568
0.14736672 0.13979912 -0.028036157 0.14069982 0.17040338 0.12485435 -0.16017963 -0.026317393
-0.07273877 -0.08906925 -0.12837145 0.07324483 -0.09402883 -0.18196875 0.12108919 -0.09014363
-0.11477113 0.05826089 0.20338313 0.13414584 -0.16429059 -0.15263909 0.17046995 0.09609837
-0.09124268 0.116569415 -0.123718 0.066957936 -0.13072819 -0.18209751 0.035429697 -0.078997046
-0.046480127 -0.1662672 0.12731153 0.010815851 0.06183086 0.035737813 0.10445292 0.2009256
-0.046932638 0.032968797 -0.023987591 -0.0341482 0.14298698 0.06156478 -0.13707086 0.08138263
0.16620581 0.057904266 0.09868544 -0.18007912 -0.10543886 -0.12878893 0.15512915 0.14693232
0.016629634 -0.082459286 0.09391156 0.1233617 -0.10100226 -0.07789247 0.17149962 0.023910973
-0.020180374 -0.10407704 0.09379869 0.02307486 -0.079659045 0.10708664 -0.122096345 -0.19100311
0.122141294 -0.082018875 0.07778599 -0.09664361 0.019471109 -0.08081382 0.0824211 0.16454276
0.06382536 0.092279896 0.059252333 0.06921775 0.14566912 0.09774747 0.010869968 -0.042199288
-0.021341052 -0.19167723 -0.049208693 0.03840216 0.12785499 -0.0748626 -0.02062178 -0.050897602
0.11905161 0.11993623 -0.10959933 0.080950014 -0.09039683 -0.004155145 -0.04256945 0.070201986
-0.052502435 -0.065409824 -0.067174576 -0.21893714 0.01757314 0.12173035 0.025532506 -0.05857565
-0.10695389 0.0889821 0.18620655 -0.14180551 -0.03209034 -0.1376036 0.13785125 -0.09960907
-0.16912541 0.14525795 0.0885937 -0.02281461 -0.17723198 -0.1436865 -0.07123869 -0.04576722
0.06497776 -0.07655855 0.1103878 0.12933242 0.08312937 0.05224758 0.088821426 0.14735526
-0.020764014 -0.16946362 0.13853338 0.07555369 -0.08215076 0.07538639 0.05790035 -0.056335453
0.15953225 -0.11470444 -0.12909469 0.13329393 -0.09790163 0.14201547 -0.093720056 -0.14886455
-0.0025704787 -0.045735437 0.115830526 -0.06825468 0.031771965 0.11673074 -0.07318746 -0.015139199
0.02409994 -0.069363326 -0.0036241203 0.123069674 0.09268777 -0.13048069 -0.06262164 -0.018093256
-0.044816494 -0.0919182 0.05656787 0.04649689 -0.13537134 0.17126845 0.15623151 -0.12797128
0.09599119 0.046402004 -0.041469827 0.007657809 0.14497943 -0.03285548 0.04886674 -0.11346904
-0.22451487 0.13040194 -0.0012306522 -0.08616607 -0.008020572 0.12356748 0.08871504 0.1819178
0.11648232 -0.14162731 0.032946207 0.081520915 -0.14521433 0.0038589619 -0.08758478 0.04522815
0.16573858 -0.0771137 -0.059528485 -0.0338684 0.14305504 0.042113118 -0.06051413 0.017944636
-0.010920599 -0.014531642 -0.054874513 0.092877604 -0.014418363 0.09223926 -0.06466904 -0.052491732
-0.006058094 0.21256721 -0.122202344 0.043444995 0.10296297 -0.05360307 0.0017771315 -0.073189996
-0.21495025 -0.0020573991 -0.043702867 0.14764804 0.14284432 -0.037336696 0.12958524 -0.1607312
0.041648563 -0.08797045 0.17286383 0.13501254 -0.076882295 0.06597175 -0.065893486 -0.029729418
-0.22308019 0.038720172 -0.10705289 0.07927836 -0.03868921 -0.15160179 0.14936979 0.1502965
00000000: 1125 1e3e afec f0bd a488 273e c37f afbd
00000010: db07 18be b859 b6bd e9e0 14be 6776 a3bd
00000020: 4de7 163e 8027 0f3e 15ac e5bc 9d13 103e
00000030: 397e 2e3e a3b3 ff3d 2106 24be 9397 d7bc
00000040: 10f8 94bd f069 b6bd ce73 03be 6301 963d
00000050: 3092 c0bd 0456 3abe 9cfd f73d 399d b8bd
00000060: 200d ebbd f9a2 6e3d ab43 503e 875d 093e
00000070: cb3b 28be 6c4d 1cbe ad8f 2e3e 39cf c43d
00000080: 71dd babd f2bb ee3d dd5f fdbd 3e21 893d
00000090: 9cdd 05be c577 3abe bb1e 113d 34c9 a1bd
000000a0: f261 3ebd f341 2abe f45d 023e f834 313c
000000b0: 5b42 7d3d d061 123d 6aeb d53d 71bf 4d3e
000000c0: 703c 40bd 4a0a 073d a081 c4bc fcde 0bbd
000000d0: 2e6b 123e 5a2b 7c3d 4e5c 0cbe f0ab a63d
000000e0: db31 2a3e 062d 6d3d 981b ca3d a966 38be
000000f0: 54f0 d7bd 3fe1 03be 2dda 1e3e 6d75 163e
00000100: df3a 883c 6ae0 a8bd b454 c03d 0fa5 fc3d
00000110: 46da cebd 1686 9fbd 999d 2f3e f2e0 c33c
00000120: 5051 a5bc 5826 d5bd 8719 c03d 7d07 bd3c
00000130: 4824 a3bd 3e50 db3d a60d fabd 5296 43be
00000140: 3725 fa3d 83f9 a7bd 434e 9f3d 16ed c5bd
00000150: e081 9f3c b781 a5bd 65cc a83d e67d 283e
00000160: dfb6 823d 3efd bc3d 93b2 723d 09c2 8d3d
00000170: 492a 153e d32f c83d f317 323c 29d9 2cbd
00000180: 6ed3 aebc 0947 44be 0e8f 49bd 954b 1d3d
00000190: 6bec 023e 9051 99bd 02ef a8bc 017a 50bd
000001a0: 55d1 f33d 20a1 f53d 9d75 e0bd 1fc9 a53d
000001b0: f921 b9bd e227 88bb 4e5d 2ebd 0fc6 8f3d
000001c0: cb0c 57bd 96f5 85bd d392 89bd 0f31 60be
000001d0: 8cf5 8f3c c34d f93d 8c29 d13c 05ed 6fbd
000001e0: a40a dbbd 3f3c b63d eeac 3e3e 7735 11be
000001f0: 2971 03bd f5e7 0cbe e128 0d3e d7ff cbbd
00000200: 362f 2dbe 80be 143e 9d70 b53d b4e5 babc
00000210: 4d7c 35be 8e22 13be 97e5 91bd 6976 3bbd
00000220: 0f13 853d bbca 9cbd 0013 e23d b86f 043e
00000230: bb3f aa3d 8f01 563d 02e8 b53d 4ce4 163e
00000240: 4b19 aabc df87 2dbe b2db 0d3e e5bb 9a3d
00000250: a83e a8bd 2e64 9a3d eb28 6d3d 01c0 66bd
00000260: 6c5c 233e 29ea eabd 6631 04be 347e 083e
00000270: a680 c8bd 816c 113e 4df0 bfbd f36f 18be
00000280: 7a75 28bb 1555 3bbd 8e38 ed3d 1cc9 8bbd
00000290: 5223 023d 8710 ef3d 4fe3 95bd 670a 78bc
000002a0: 3d6d c53c 5c0e 8ebd a682 6dbb f40b fc3d
000002b0: 16d3 bd3d bb9c 05be c63f 80bd 4f38 94bc
000002c0: 8091 37bd 9c3f bcbd b6b3 673d 8673 3e3d
000002d0: c99e 0abe ff60 2f3e 27fb 1f3e e70a 03be
000002e0: 0797 c43d 0710 3e3d 44dc 29bd 5cee fa3b
000002f0: 7d75 143e 7893 06bd 7e28 483d 7562 e8bd
00000300: 3ae7 65be 1688 053e d64d a1ba d677 b0bd
00000310: b868 03bc f210 fd3d 3bb0 b53d a948 3a3e
00000320: 488e ee3d c006 11be 9af2 063d 70f4 a63d
00000330: 11b3 14be a3e6 7c3b a65f b3bd 2741 393d
00000340: 60b7 293e caed 9dbd 24d4 73bd 97b9 0abd
00000350: 057d 123e ce7e 2c3d aadd 77bd a100 933c
00000360: 50ec 32bc 2016 6ebc 19c4 60bd 9d36 be3d
00000370: ff3a 6cbc f0e7 bc3d 3471 84bd 9201 57bd
00000380: fa82 c6bb 38ab 593e 3945 fabd 61f3 313d
00000390: 40de d23d e58e 5bbd a3ee e83a a3e4 95bd
000003a0: eb1b 5cbe 6ed5 06bb c701 33bd 0c31 173e
000003b0: c845 123e 5dee 18bd feb1 043e b896 24be
000003c0: af97 2a3d da29 b4bd 3703 313e ba40 0a3e
000003d0: 7774 9dbd 321c 873d 2af3 86bd 1c8b f3bc
000003e0: 226f 64be 0b99 1e3d 8c3e dbbd b15c a23d
000003f0: 9478 1ebd 803d 1bbe 65f4 183e 53e7 193e

invResBlocks.0.expansion.bias f4 [96]
0.15623768 0.08860668 0.057323348 0.041992627 0.026279142 -0.005597405 0.1714942 -0.1701666
-0.08096341 -0.027423248 -0.09131727 -0.13712882 0.027981322 0.12221383 -0.11860628 -0.10194287
-0.081055254 0.17255723 -0.053360954 -0.0004809128 -0.026527185 -0.016629957 -0.0612107 0.17279422
-0.15180168 0.07028943 0.13396181 0.15714577 0.12097098 0.15463832 -0.03639907 -0.078852825
-0.118719235 0.10647996 0.011480386 0.11291925 0.1737751 -0.13132827 -0.057087857 0.08495783
-0.12775941 -0.0025802588 0.0632223 -0.12317057 0.12997346 0.17173141 0.036735002 0.058631573
-0.04560654 -0.09486497 -0.008042553 -0.0151852695 0.05804181 0.13061224 -0.091265425 -0.035486132
0.02264828 0.00015159458 0.07538425 0.108127475 0.0822304 0.0458949 -0.0067111845 -0.09113089
-0.070798464 0.13393681 0.018038478 -0.08603255 -0.08893844 0.15430604 0.0014960759 -0.08374679
-0.020105148 0.0077215787 -0.07735015 0.02809212 0.06548221 0.1489981 0.03421708 0.13448322
-0.05338716 -0.14517744 -0.00642286 -0.047323156 0.083867066 0.1415058 -0.109751016 0.1696263
-0.16764158 0.117720425 -0.12570237 -0.026573678 0.12413562 0.07395253 -0.053737637 0.07523787
00000000: c5fc 1f3e 6b77 b53d e3cb 6a3d 7600 2c3d
00000010: 5b47 d73c 706a b7bb 2d9c 2f3e 2740 2ebe
00000020: 25d0 a5bd b8a6 e0bc 8d04 bbbd 7f6b 0cbe
00000030: 1639 e53c 3f4b fa3d d9e7 f2bd 6cc7 d0bd
00000040: 4c00 a6bd d8b2 303e 0491 5abd 0623 fcb9
00000050: 8a4f d9bc 8c3b 88bc 12b8 7abd f8f0 303e
00000060: e671 1bbe e8f3 8f3d 492d 093e d2ea 203e
00000070: a2bf f73d 8259 1e3e 3117 15bd 977d a1bd
00000080: 1223 f3bd 2a12 da3d 3b18 3c3c 3542 e73d
00000090: 1af2 313e eb7a 06be f5d4 69bd 5ffe ad3d
000000a0: 5dd3 02be 8f19 29bb b17a 813d da40 fcbd
000000b0: c317 053e 5cda 2f3e 7177 163d a927 703d
000000c0: eccd 3abd 9148 c2bd eac4 03bc a3cb 78bc
000000d0: 40bd 6d3d 37bf 053e 5ee9 babd e859 11bd
000000e0: e388 b93c 5cf5 1e39 0f63 9a3d f071 dd3d
000000f0: 6968 a83d 4afc 3b3d 7fe9 dbbb d5a2 babd
00000100: c9fe 90bd bb26 093e 6ec5 933c d531 b0bd
00000110: 5b25 b6bd 6702 1e3e fa17 c43a 7083 abbd
00000120: 8db3 a4bc 4c05 fd3b c169 9ebd 7221 e63c
00000130: 891b 863d f592 183e 3527 0c3d f8b5 093e
00000140: 7fac 5abd 65a9 14be db76 d2bb edd5 41bd
00000150: 7fc2 ab3d e5e6 103e 24c5 e0bd 84b2 2d3e
00000160: 3caa 2bbe 6817 f13d 1fb8 00be 0bb1 d9bc
00000170: d13a fe3d 6d74 973d ff1b 5cbd 5016 9a3d

invResBlocks.0.depthwise.weight f4 [96, 1, 3, 3]
-0.25805402 -0.0877235 0.2587969 0.06351309 0.093991205 0.33990848 -0.25520438 -0.20236371
-0.2851476 0.0065887095 0.35245174 -0.30865702 -0.0057595107 -0.14186868 -0.07072761 -0.16915171
-0.23880365 -0.09775907 -0.023792792 -0.24911955 -0.12755668 -0.25280637 -0.11553012 0.21471602
-0.25179923 0.12005029 -0.26832882 0.051337376 -0.27909702 -0.09613417 0.1749209 0.18106273
0.2162659 -0.18699275 0.24093893 -0.13089548 -0.13429509 -0.37547576 -0.16078912 0.20418012
-0.18105476 0.1895202 0.2218626 0.32503313 0.13443388 0.25599596 0.12973808 -0.0049782484
-0.37406403 -0.23115233 -0.22008224 0.14613852 -0.24431781 -0.008577865 -0.030401343 0.3032449
0.22823174 -0.09195513 -0.17964657 -0.037272 0.002561882 -0.022368787 0.042366643 0.3508188
0.12042049 0.100079626 0.21208225 0.29911476 -0.01373072 0.13494858 0.2118353 0.09872459
0.28101915 -0.2725729 -0.3497662 0.0788286 0.19082935 0.021087311 0.19959553 0.14049861
-0.27464762 -0.21745774 -0.08086646 0.099780835 -0.049305953 -0.30714658 0.005771997 -0.0148586305
-0.19757201 0.31393516 -0.22863711 -0.29095885 -0.24710983 0.062608235 0.050172634 0.34604248
-0.3042458 -0.23648271 -0.32199857 -0.23270547 -0.21530712 0.12894659 0.27253532 0.099672474
-0.105411954 0.17733733 -0.20948766 -0.20230463 -0.24966027 0.3559508 0.32072872 0.12652029
-0.16977425 -0.007534214 0.08701357 -0.2527277 -0.25117213 0.21082905 -0.062240046 -0.019069634
-0.2847512 0.005195141 -0.17806678 -0.27339152 -0.27657613 -0.16007566 0.16160128 -0.24186134
0.3245489 -0.27785972 -0.2724992 -0.21634284 -0.29057527 -0.09661007 0.25946525 0.315633
-0.11663427 -0.06245696 -0.2883148 -0.23016128 0.29041108 -0.32442307 -0.15996197 0.030829579
-0.003999527 0.14709756 0.047831543 -0.048154835 -0.0062670917 0.06953511 0.33379835 0.21315339
-0.0497853 -0.004173658 0.20316948 -0.019045664 0.19685313 0.29926005 -0.24705003 0.14274836
-0.2562762 -0.16213366 0.16635472 -0.034870975 -0.320741 0.28814393 -0.30328962 0.23706187
-0.014715181 -0.3339057 0.2810552 -0.04310525 0.06161058 0.13264841 -0.108716294 -0.21470195
0.30472946 -0.028531129 -0.076920986 0.29898003 -0.07822373 0.10056653 0.24664168 0.18640517
-0.23705818 0.36915755 0.18179077 -0.2104225 0.13935079 -0.08513883 -0.42123172 0.1566465
0.2465974 -0.06316082 0.09133037 0.23971535 -0.23316903 -0.062496282 -0.073865466 0.2276269
-0.032383405 -0.099701226 -0.07588648 0.24878952 -0.3116006 -0.063459285 0.1929704 0.024457002
0.40551308 0.040974896 0.106352024 0.023881748 -0.069084816 0.0048048208 -0.19275238 -0.33354586
-0.18580434 -0.2889964 -0.26075223 -0.2057311 -0.12580097 0.30334526 -0.051378246 0.35037935
0.27857795 0.39865068 0.1922646 -0.29642925 -0.23548973 -0.11687477 0.38179466 -0.045171253
-0.13227975 0.10469578 0.07707172 0.041002464 0.32897085 -0.020798769 0.04428929 0.28801644
0.19509122 -0.06495268 0.17513916 0.2475378 -0.2226335 0.09486171 0.07722258 -0.1578979
0.21028502 0.2503646 0.09178375 0.04127083 0.26484114 0.12013824 0.29469648 0.34738
00000000: a81f 84be 61a8 b3bd 0781 843e 2713 823d
00000010: 767e c03d 7c08 ae3e 26aa 82be 6f38 4fbe
00000020: defe 91be 1ae6 d73b 8e74 b43e 4b08 9ebe
00000030: 47ba bcbb 0646 11be a3d9 90bd 1b36 2dbe
00000040: f288 74be e835 c8bd 1ae9 c2bc 3219 7fbe
00000050: 389e 02be d66f 81be 0e9b ecbd 84de 5b3e
00000060: d4eb 80be eddc f53d 6562 89be 2447 523d
00000070: cee5 8ebe fee1 c4bd 771e 333e 8268 393e
00000080: cf74 5d3e 077b 3fbe b2b8 763e 7709 06be
00000090: a784 09be 5c3e c0be e7a5 24be 9814 513e
000000a0: 6b66 39be 9511 423e f32f 633e be6a a63e
000000b0: 09a9 093e e711 833e 0fda 043e 9320 a3bb
000000c0: 5285 bfbe 32b3 6cbe 3d5d 61be 56a5 153e
000000d0: 732e 7abe 2c8a 0cbc 3d0c f9bc ea42 9b3e
000000e0: 95b5 693e f952 bcbd 45f5 37be 86aa 18bd
000000f0: 3fe5 273b bf3e b7bc a588 2d3d 869e b33e
00000100: 059f f63d 8cf6 cc3d 172c 593e 9225 993e
00000110: d0f6 60bc f62f 0a3e 5aeb 583e 1e30 ca3d
00000120: bee1 8f3e ad8e 8bbe 8e14 b3be e470 a13d
00000130: c568 433e 4cbf ac3c c562 4c3e dede 0f3e
00000140: 9d9e 8cbe 3ead 5ebe 519d a5bd e559 cc3d
00000150: 0af5 49bd 5142 9dbe 0523 bd3b 9d71 73bc
00000160: 5150 4abe 1cbc a03e d91f 6abe 8ff8 94be
00000170: 5c0a 7dbe bf38 803d d281 4d3d 7b2c b13e
00000180: 1bc6 9bbe 8628 72be ffdc a4be 584a 6ebe
00000190: 7879 5cbe 930a 043e c089 8b3e 1521 cc3d
000001a0: 39e2 d7bd eb97 353e ef83 56be f228 4fbe
000001b0: f1a6 7fbe 2f3f b63e 8e36 a43e 898e 013e
000001c0: 4dd9 2dbe 91e1 f6bb 2c34 b23d 8665 81be
000001d0: a299 80be 92e3 573e 6bef 7ebd ec37 9cbc
000001e0: e9ca 91be 003c aa3b 2357 36be f9f9 8bbe
000001f0: 639b 8dbe e0ea 23be ce7a 253e 80aa 77be
00000200: 462b a63e a143 8ebe 0485 8bbe fa88 5dbe
00000210: 48c6 94be 80db c5bd a1d8 843e a69a a13e
00000220: f3dd eebd dfd2 7fbd ff9d 93be 66af 6bbe
00000230: c3b0 943e c81a a6be 12cd 23be 508e fc3c
00000240: 770e 83bb bea0 163e 02eb 433d 013e 45bd
00000250: 2d5c cdbb 6c68 8e3d 9ee7 aa3e e244 5a3e
00000260: aceb 4bbd 2ec3 88bb a90b 503e a705 9cbc
00000270: de93 493e 9d38 993e affa 7cbe a02c 123e
00000280: a236 83be 5e06 26be e458 2a3e ded4 0ebd
00000290: 2a38 a4be 9a87 933e c748 9bbe 59c0 723e
000002a0: f117 71bc b0f5 aabe 78e6 8f3e 218f 30bd
000002b0: 605b 7c3d fcd4 073e a6a6 debd d4da 5bbe
000002c0: 8005 9c3e 1dba e9bc c088 9dbd e913 993e
000002d0: c333 a0bd d3f5 cd3d a38f 7c3e ffe0 3e3e
000002e0: 61bf 72be 3802 bd3e 5c27 3a3e ff78 57be
000002f0: f9b1 0e3e 445d aebd afab d7be f167 203e
00000300: 0784 7c3e 765a 81bd 6b0b bb3d f177 753e
00000310: ddc3 6ebe 1afc 7fbd c746 97bd 0717 693e
00000320: 76a4 04bd 2830 ccbd 5f6a 9bbd aec2 7e3e
00000330: 1d8a 9fbe f1f6 81bd 089a 453e 0d5a c83c
00000340: 699f cf3e 4bd5 273d 17cf d93d a8a3 c33c
00000350: 577c 8dbd c271 9d3b e160 45be 86c6 aabe
00000360: 7e43 3ebe 56f7 93be 5181 85be 2cab 52be
00000370: f8d1 00be 1250 9b3e ff71 52bd ec64 b33e
00000380: c5a1 8e3e f11b cc3e 03e1 443e 93c5 97be
00000390: 3824 71be 0a5c efbd 977a c33e 7e05 39bd
000003a0: 5874 07be be6a d63d c7d7 9d3d 33f2 273d
000003b0: de6e a83e 2e62 aabc b068 353d e476 933e
000003c0: fec5 473e e905 85bd ae57 333e 8d7a 7d3e
000003d0: 09fa 63be db46 c23d df26 9e3d fdaf 21be
000003e0: f554 573e ca2f 803e 1ef9 bb3d 9a0b 293d
000003f0: 4299 873e 0a0b f63d 75e2 963e cbdb b13e

invResBlocks.0.depthwise.bias f4 [96]
-0.0007597372 0.12631892 -0.17328753 0.3045316 -0.2702269 0.26391244 0.26279464 -0.14150926
0.12666191 0.13134281 -0.23291749 -0.21454465 0.2068777 -0.17141442 -0.04837089 0.13235316
-0.07360397 -0.101510145 0.32833797 -0.19023643 -0.16100155 -0.30674893 0.09825103 -0.124045506
-0.13386828 -0.052500263 0.15336613 0.12918752 -0.18683425 -0.16463289 0.29356328 0.27845222
-0.057961505 -0.09207392 -0.31856447 0.24732205 -0.2554652 -0.21085821 -0.004961231 -0.3094486
-0.07871185 -0.32238117 -0.21743771 -0.23638907 -0.3233457 0.021576032 -0.0045715976 -0.30731657
0.27871707 0.053907532 -0.3126186 0.18053712 -0.18378466 -0.29228052 -0.24435312 0.1668134
-0.228666 0.23778577 0.14106247 0.08511869 -0.22251077 -0.29855445 0.040106896 -0.3028534
0.09931347 0.3213899 0.27452767 -0.26924068 0.04939217 0.313873 0.15564078 0.2124643
0.0732474 -0.21649478 -0.055339776 0.15818396 -0.05607654 0.032172456 -0.282457 -0.18622674
0.085058026 0.1153529 -0.060094222 -0.27489433 0.16314794 0.11075796 -0.31759614 -0.11644954
0.21547385 0.31042898 -0.07491072 0.03292379 0.061770007 0.23036753 0.28974798 -0.005011775
00000000: 1a29 47ba bf59 013e 4972 31be 91eb 9b3e
00000010: 2e5b 8abe 881f 873e 058d 863e cee7 10be
00000020: a9b3 013e bb7e 063e ec81 6ebe 98b1 5bbe
00000030: bfd7 533e 4387 2fbe 8e20 46bd 9687 073e
00000040: aebd 96bd 8de4 cfbd ea1b a83e 57cd 42be
00000050: 97dd 24be 320e 9dbe d637 c93d 920b febd
00000060: c414 09be 840a 57bd 030c 1d3e bc49 043e
00000070: 7a51 3fbe 8695 28be ed4d 963e 4a91 8e3e
00000080: 0b69 6dbd 4091 bcbd e21a a3be fe41 7d3e
00000090: 56cc 82be 37eb 57be d291 a2bb 0c70 9ebe
000000a0: ae33 a1bd 250f a5be fea7 5ebe fa0f 72be
000000b0: 918d a5be 38c0 b03c 57cd 95bb 9958 9dbe
000000c0: 01b4 8e3e 25ce 5c3d 8c0f a0be b9de 383e
000000d0: 0c32 3cbe cba5 95be b437 7abe 22d1 2a3e
000000e0: 6b27 6abe 1d7e 733e ae72 103e b552 ae3d
000000f0: ddd9 63be 21dc 98be 2147 243d 9a0f 9bbe
00000100: dc64 cb3d 388d a43e e48e 8c3e ead9 89be
00000110: 724f 4a3d f6b3 a03e 4c60 1f3e 3e90 593e
00000120: bc02 963d cfb0 5dbe f6ab 62bd fafa 213e
00000130: 84b0 65bd 44c7 033d 349e 90be 39b2 3ebe
00000140: e732 ae3d 243e ec3d 5c25 76bd f3be 8cbe
00000150: 4110 273e 12d5 e23d f69b a2be 197d eebd
00000160: 2da5 5c3e 8cf0 9e3e cb6a 99bd 19db 063d
00000170: 8c02 7d3d 77e5 6b3e d959 943e d139 a4bb

invResBlocks.0.pointwise.weight f4 [32, 96, 1, 1]
0.11721795 -0.0029200048 0.001165456 0.106312595 -0.12182877 0.069835156 0.06349846 -0.06451365
0.009399754 0.054061826 0.010364712 0.10964334 0.012705538 -0.028029826 -0.081355356 -0.051680304
-0.123351775 0.069155745 -0.031559568 -0.13778912 -0.020996552 -0.07098262 0.03262476 -0.046346813
0.017434428 0.016413532 0.049658332 -0.048227474 -0.14752142 -0.03166674 -0.055731658 -0.01818612
0.07893823 -0.092423186 0.0321803 -0.05171604 0.010059648 0.0032719346 -0.037816897 -0.0051328293
-0.11484799 0.036539886 -0.11570957 -0.087166205 0.022235774 -0.0825276 -0.03544539 -0.05976923
0.069264844 0.058253482 0.041660193 -0.044338252 -0.04483505 -0.030838689 -0.024503957 -0.07782007
0.04943039 0.07577484 0.090797625 0.02259574 0.08221162 -0.045923065 -0.043833278 0.02552297
-0.025473164 0.15525138 -0.011799388 -0.14145046 0.04199806 0.08225644 -0.0254054 0.06118043
-0.059213504 0.016027914 -0.016145255 -0.07764291 -0.05461713 -0.06344002 0.10644951 -0.06666352
0.06424676 0.015859414 -0.078218676 -0.050867625 -0.06234277 0.10201243 -0.16993375 -0.054825883
0.095394045 -0.04161734 -0.08607501 -0.013859831 -0.07119366 0.04036439 -0.14928477 0.06794419
0.17741382 -0.10642809 -0.06309724 0.00095913844 -0.042031996 -0.085554056 -0.0018814552 -0.026191916
-0.07261912 -0.041149564 0.09837731 -0.05827956 -0.015969701 0.062151965 -0.026992118 -0.008505858
-0.10179835 -0.09821363 -0.20836529 -0.025806665 0.026862757 0.10467924 -0.059117988 -0.2028171
-0.05117844 0.035380613 -0.059187178 -0.07574398 0.027966138 -0.045597926 -0.0020181288 -0.09791997
-0.044738315 -0.21520925 0.112510026 0.025147982 0.038144425 0.030533902 0.1077379 0.087786995
0.09664892 0.020910786 0.060227375 0.009009196 0.026109805 0.012904643 0.14879672 -0.11859017
0.05205797 0.068701655 0.011326719 -0.015188243 0.014151435 0.034827955 -0.06476061 0.14361258
0.14288718 -0.038653985 0.016004119 0.08394725 -0.037165202 0.04920384 0.05045481 -0.066842414
0.057649862 0.09901537 -0.034089237 0.08136321 0.034418486 0.056975067 -0.029430306 0.056768145
-0.053443585 -0.1242265 0.112248525 -0.10270131 0.10468655 0.013523119 -0.13565344 -0.123313285
0.00042132277 -0.11183976 -0.05943668 0.09913404 0.015857495 0.052882854 0.1674089 -0.033934604
-0.0852625 -0.07194719 -0.06630295 -0.16967069 0.062195696 -0.10150146 0.08397965 -0.16602929
0.066936456 -0.07434965 -0.035212044 0.016434243 0.16889526 0.03573346 -0.045275003 -0.041469738
0.11118807 -0.047537412 0.011847024 0.07878117 0.007984653 -0.018086605 0.020442706 0.016431281
0.031432807 0.0930014 -0.022308344 0.022450985 -0.14604096 0.025044536 -0.112371966 0.0920744
-0.059356328 -0.057790343 -0.04370931 0.03086992 0.09249242 -0.011405383 0.05107075 0.045127213
-0.04296635 0.11852508 0.07541655 0.10385523 0.013568285 -0.04614923 0.0010227027 0.007753416
0.023732986 0.07668223 -0.06277032 0.13544041 0.002360063 0.090153396 0.033766013 0.088676006
0.14356618 -0.011831478 0.010337072 0.046175513 -0.07095809 0.09179869 -0.029881947 -0.084651865
0.10264031 -0.06886413 0.054241747 0.01533052 -0.17113072 -0.037288696 -0.122698285 -0.03921161
00000000: f70f f03d 8d5d 3fbb 37c2 983a 6bba d93d
00000010: 5d81 f9bd bc05 8f3d 7b0b 823d bc1f 84bd
00000020: 6d01 1a3c ef6f 5d3d c1d0 293c b08c e03d
00000030: e42a 503c ce9e e5bc a39d a6bd baae 53bd
00000040: db9f fcbd 87a1 8d3d 9b44 01bd 9718 0dbe
00000050: f600 acbc 565f 91bd 8aa1 053d 28d6 3dbd
00000060: a5d2 8e3c ac75 863c 8966 4b3d 2c8a 45bd
00000070: db0f 17be fcb4 01bd e146 64bd 0ffb 94bc
00000080: 5eaa a13d 5e48 bdbd 7ecf 033d 33d4 53bd
00000090: 39d1 243c f46d 563b e4e5 1abd 4b31 a8bb
000000a0: 6c35 ebbd d9aa 153d 24f9 ecbd 3284 b2bd
000000b0: cc27 b63c 3b04 a9bd 2f2f 11bd 95d0 74bd
000000c0: bada 8d3d 349b 6e3d e1a3 2a3d 079c 35bd
000000d0: f5a4 37bd 6ba1 fcbc 86bc c8bc 2160 9fbd
000000e0: 8577 4a3d d72f 9b3d 1bf4 b93d b41a b93c
000000f0: 915e a83d d319 3cbd 868a 33bd 8c15 d13c
00000100: 19ad d0bc 38fa 1e3e 3852 41bc 64d8 10be
00000110: 2806 2c3d 1076 a83d fc1e d0bc 5598 7a3d
00000120: dc89 72bd f94c 833c 0e43 84bc 3f03 9fbd
00000130: 36b6 5fbd d7ec 81bd 3302 da3d e286 88bd
00000140: ce93 833d 9aeb 813c 1d31 a0bd 925a 50bd
00000150: 225b 7fbd e5eb d03d 1d03 2ebe 1b91 60bd
00000160: f45d c33d f276 2abd 1848 b0bd 5814 63bc
00000170: fbcd 91bd 2155 253d 1bde 18be 5326 8b3d
00000180: f8ab 353e f8f6 d9bd 2039 81bd b16e 7b3a
00000190: be29 2cbd f736 afbd 299b f6ba 6e90 d6bc
000001a0: 55b9 94bd 728c 28bd 0b7a c93d 8cb6 6ebd
000001b0: e4d2 82bc 0f93 7e3d 931e ddbc 275c 0bbc
000001c0: a77b d0bd 3a24 c9bd b65d 55be 8068 d3bc
000001d0: 490f dc3c 1262 d63d b425 72bd 49af 4fbe
000001e0: 7ca0 51bd 43eb 103d 416e 72bd a91f 9bbd
000001f0: 3e19 e53c e4c4 3abd 9542 04bb 448a c8bd
00000200: 863f 37bd d05f 5cbe a86b e63d 2403 ce3c
00000210: 543d 1c3d 3c22 fa3c b0a5 dc3d abc9 b33d
00000220: deef c53d 194d ab3c fbb0 763d 4f9b 133c
00000230: 3be4 d53c ff6d 533c 2b5e 183e 67df f2bd
00000240: bd3a 553d 74b3 8c3d b493 393c 1cd8 78bc
00000250: 6cdb 673c c2a7 0e3d 36a1 84bd 2d0f 133e
00000260: 0451 123e a453 1ebd 121b 833c 89ec ab3d
00000270: 8a3a 18bd f789 493d b4a9 4e3d ade4 88bd
00000280: 4322 6c3d 92c8 ca3d 28a1 0bbd c1a1 a63d
00000290: 66fa 0c3d b05e 693d d317 f1bc b785 683d
000002a0: a9e7 5abd 776a febd 8ee2 e53d 1055 d2bd
000002b0: e765 d63d 1290 5d3c bce8 0abe ad8b fcbd
000002c0: fce4 dc39 3e0c e5bd e073 73bd ca06 cb3d
000002d0: 94e7 813c b19b 583d 3d6d 2b3e 03ff 0abd
000002e0: 1b9e aebd 0c59 93bd d7c9 87bd 27be 2dbe
000002f0: eac0 7e3d ffdf cfbd 86fd ab3d 9503 2abe
00000300: fb15 893d a144 98bd 813a 10bd 1ba1 863c
00000310: e1f2 2c3e 405d 123d 4872 39bd 2cdc 29bd
00000320: 92b6 e33d 97b6 42bd 051a 423c 0658 a13d
00000330: 10d2 023c 5c2a 94bc 7677 a73c e59a 863c
00000340: b0bf 003d 8577 be3d fdbf b6bc 21eb b73c
00000350: c38b 15be 332a cd3c 4623 e6bd 8191 bc3d
00000360: 9f1f 73bd 91b5 6cbd 8908 33bd eae2 fc3c
00000370: aa6c bd3d a5dd 3abc 902f 513d 50d7 383d
00000380: 7cfd 2fbd 47bd f23d fe73 9a3d 0db2 d43d
00000390: 834d 5e3c fa06 3dbd 350c 863a 5e10 fe3b
000003a0: ae6b c23c 930b 9d3d ba8d 80bd e4b0 0a3e
000003b0: 49ab 1a3b 58a2 b83d 3b4e 0a3d c49b b53d
000003c0: 0303 133e d1d8 41bc d35c 293c 8922 3d3d
000003d0: 7a52 91bd f400 bc3d fcca f4bc f55d adbd
000003e0: 1535 d23d a308 8dbd 982c 5e3d dd2c 7b3c
000003f0: e43c 2fbe 08bc 18bd 3d49 fbbd 5a9c 20bd

invResBlocks.0.pointwise.bias f4 [32]
-0.09335724 -0.033048775 -0.0025760664 -0.0140943555 1.1421682e-05 -0.074982285 0.058032155 0.07700634
0.04496224 -0.06376386 0.023918463 0.053665563 0.047008015 -0.028506605 0.033564605 -0.06461191
0.08890394 -0.086096995 0.0522144 0.05164257 0.051166892 -0.0876655 -0.08997268 0.08131078
0.0023955603 -0.0018484116 -0.060661335 -0.048629314 0.0091087315 0.0732287 -0.068611935 -0.060304005
00000000: 1532 bfbd 275e 07bd 39d3 28bb 03ec 66bc
00000010: c09f 3f37 5090 99bd 20b3 6d3d 80b5 9d3d
00000020: 532a 383d a096 82bd a7f0 c33c 6cd0 5b3d
00000030: 7a8b 403d af86 e9bc 0a7b 093d 4053 84bd
00000040: 4513 b63d 9f53 b0bd c4de 553d 2987 533d
00000050: 6094 513d f889 b3bd 9943 b8bd 4486 a63d
00000060: d5fe 1c3b 6746 f2ba 0578 78bd 882f 47bd
00000070: ca3c 153c eef8 953d 6a84 8cbd 5501 77bd

invResBlocks.0.batchNorm1.weight f4 [96]
1.0078442 0.9969014 0.978657 0.9685024 1.077792 0.994005 1.0216382 1.0312959
0.9922035 0.9798591 0.98924136 0.9854912 1.0208037 0.9920181 0.99402684 0.962208
0.95304674 1.0553839 1.0348191 0.9384121 0.9991397 1.0560727 1.0114752 1.03089
1.0688431 0.96900403 0.9119541 0.92401254 0.9710067 1.0176606 0.9860653 0.9691493
0.98228127 0.98820937 0.9835622 0.9765491 0.9675944 0.9906941 0.9900593 1.008775
1.0074412 1.0073625 0.94569147 1.0134273 0.98875 0.9596697 1.0998609 0.97226477
0.97993726 0.9785567 0.9077484 1.022178 0.9191639 0.9963583 0.9961298 1.0297241
1.0017579 0.97118384 0.9881656 1.0446025 1.0550911 1.0012109 0.97088087 1.0090567
0.99805236 1.0008682 0.9790215 0.9797263 1.0112478 0.97589874 0.9847568 1.0111235
1.0233399 1.072614 0.95959234 0.941369 1.0350277 0.9753198 0.97040707 0.9975033
0.9816897 0.9979172 1.0059022 1.0230929 0.9414327 0.98383325 1.0221753 0.97994053
0.99862814 0.98417866 0.9739018 0.9837503 0.9472422 0.98001647 1.0541123 1.0415242
00000000: 0a01 813f ee34 7f3f 4489 7a3f c6ef 773f
00000010: 17f5 893f 1d77 7e3f 0ac5 823f 8101 843f
00000020: 0c01 7e3f 0cd8 7a3f ec3e 7d3f 2749 7c3f
00000030: b2a9 823f e6f4 7d3f 8b78 7e3f 4353 763f
00000040: dffa 733f d216 873f f474 843f c63b 703f
00000050: 9fc7 7f3f 642d 873f 0578 813f 34f4 833f
00000060: dacf 883f a610 783f d375 693f 168c 6c3f
00000070: e593 783f b442 823f c76e 7c3f 2b1a 783f
00000080: c976 7b3f 4afb 7c3f bbca 7b3f 1fff 793f
00000090: 44b4 773f 219e 7d3f 8774 7d3f 8a1f 813f
000000a0: d5f3 803f 41f1 803f d618 723f fcb7 813f
000000b0: b81e 7d3f eaac 753f 3ec8 8c3f 58e6 783f
000000c0: 2bdd 7a3f b182 7a3f 3362 683f bbd6 823f
000000d0: 534e 6b3f 5611 7f3f 5d02 7f3f 00ce 833f
000000e0: 9a39 803f 819f 783f 6cf8 7c3f 89b5 853f
000000f0: 3a0d 873f ae27 803f a68b 783f c528 813f
00000100: 5c80 7f3f 731c 803f 27a1 7a3f 58cf 7a3f
00000110: 9170 813f 80d4 793f 0619 7c3f 7f6c 813f
00000120: cdfc 823f 6a4b 893f d8a7 753f 8ffd 703f
00000130: ca7b 843f 8fae 793f 996c 783f 605c 7f3f
00000140: 0450 7b3f 8077 7f3f 67c1 803f b5f4 823f
00000150: bc01 713f 7fdc 7b3f a4d6 823f 62dd 7a3f
00000160: 18a6 7f3f 22f3 7b3f a151 793f 0fd7 7b3f
00000170: 777e 723f 5ce2 7a3f 27ed 863f aa50 853f

invResBlocks.0.batchNorm1.bias f4 [96]
0.017001947 0.0056513287 -0.02768516 0.05500559 0.18326178 0.003853617 0.07123461 -0.10057197
0.09413374 0.009469212 0.011870686 0.047740452 0.1899168 0.0017820852 0.018849263 -0.016943706
0.030252805 0.08835038 0.11405125 0.10588699 0.05370916 -0.013145904 0.12572424 0.01644447
0.18532692 0.03815195 -0.040495194 0.053357888 0.03188419 0.13335077 -0.019848222 0.057945825
-0.016105179 -0.01472251 0.06911328 -0.027085086 -0.0373495 0.026961992 0.05176208 0.0038732148
0.12402794 0.11633016 -0.059345387 0.09870047 0.01980957 0.037444003 0.28138745 0.08767109
-0.018270506 0.087950975 -0.020809835 0.17588189 -0.01068198 0.0044430853 0.09257395 0.11736608
0.047474787 -0.005728214 0.08235399 0.2047479 0.055952687 0.110907175 0.06992179 0.043040887
0.022611868 0.07848387 0.0384375 0.11665406 0.04427314 0.0042802896 -0.011536657 0.0062577454
0.08888675 -0.0074679754 0.07805778 -0.008191837 0.013212673 0.013651916 0.05669337 0.058627006
0.04790782 0.07339577 0.110476054 0.08091056 -0.0087162135 -0.022878876 0.06762713 0.09826825
-0.024690036 0.079424724 -0.052944392 -0.0256222 0.033224892 -0.02503161 0.19854626 -0.017834736
00000000: ab47 8b3c c82e b93b fdcb e2bc 8b4d 613d
00000010: faa8 3b3e f78c 7c3b 74e3 913d adf8 cdbd
00000020: 31c9 c03d c124 1b3c 447d 423c 7e8b 433d
00000030: 8d79 423e db94 e93a c569 9a3c 87cd 8abc
00000040: bbd4 f73c 0bf1 b43d b493 e93d 47db d83d
00000050: 23fe 5b3d eb61 57bc dbbd 003e 8eb6 863c
00000060: 57c6 3d3e 3845 1c3d 4ade 25bd cd8d 5a3d
00000070: ff98 023d 1b8d 083e bd98 a2bc 9a58 6d3d
00000080: 02ef 83bc af36 71bc 438b 8d3d 8be1 ddbc
00000090: cafb 18bd 65df dc3c 7a04 543d c3d5 7d3b
000000a0: 5c02 fe3d 823e ee3d 2614 73bd 7923 ca3d
000000b0: ae47 a23c e25e 193d 0412 903e e78c b33d
000000c0: 07ac 95bc a41f b43d 6379 aabc 621a 343e
000000d0: 7903 2fbc 4d97 913b 6997 bd3d a15d f03d
000000e0: ec74 423d beb3 bbbb 35a9 a83d 6fa9 513e
000000f0: a52e 653d 4d23 e33d 2833 8f3d a44b 303d
00000100: 863c b93c 27bc a03d a470 1d3d 53e8 ee3d
00000110: c157 353d ac41 8c3b 3f04 3dbc c60d cd3b
00000120: 420a b63d ebb5 f4bb c2dc 9f3d 0e37 06bc
00000130: f879 583c 49ac 5f3c 4f37 683d df22 703d
00000140: fe3a 443d 8550 963d 4541 e23d 70b4 a53d
00000150: 73ce 0ebc 7b6c bbbc 1880 8a3d dd40 c93d
00000160: c242 cabc 6ea9 a23d 38dc 58bd a6e5 d1bc
00000170: d316 083d 170f cdbc b64f 4b3e 271a 92bc

invResBlocks.0.batchNorm1.running_mean f4 [96]
-0.022943016 0.0036078317 -0.23665437 0.20236659 -0.011419791 0.046490207 0.3443931 0.043977037
0.072755106 -0.13652518 -0.43753454 -0.2586823 0.14867665 -0.2827524 -0.13888109 -0.12926592
-0.009235716 -0.028847244 0.0039784657 -0.15019055 -0.07669463 -0.26938513 0.10892743 0.0018431924
-0.3097061 0.13742024 0.37581226 0.32635245 0.2607979 -0.2036886 0.028602906 0.114617154
-0.21852629 0.18183675 -0.25622153 0.0060520056 -0.2710251 -0.3232509 -0.05649007 -0.07370908
-0.007435379 -0.32440728 -0.08480526 -0.12027277 -0.163278 0.24428624 0.00976573 -0.19113712
-0.018841675 -0.14242066 0.0047581187 0.104377195 0.09388889 -0.11361653 -0.066662796 0.09963782
-0.07494553 0.055079736 0.12777975 -0.009233821 -0.12190937 -0.18312463 0.033745427 -0.10762346
-0.0544242 0.09450368 0.029643107 -0.33348745 -0.09735664 0.12000779 0.105274 0.10472617
0.098281495 -0.18674374 -0.12890735 0.14857924 0.07550014 0.02514688 -0.008047283 0.05988975
-0.10249774 -0.02463583 -0.047673445 -0.19138384 0.15436396 0.1643542 -0.2692166 -0.050271448
-0.18138042 0.2800884 -0.1838763 0.16927478 -0.071502775 0.15995343 0.07707082 0.09653076
00000000: fef2 bbbc 5f71 6c3b 8655 72be 3039 4f3e
00000010: 131a 3bbc 846c 3e3d 4b54 b03e 4421 343d
00000020: a100 953d 42cd 0bbe 8704 e0be 0272 84be
00000030: b13e 183e ecc4 90be d836 0ebe 495e 04be
00000040: 6751 17bc 0e51 ecbc ca5d 823b 8dcb 19be
00000050: 1312 9dbd d9ec 89be 5815 df3d 4697 f13a
00000060: cc91 9ebe e4b7 0c3e 776a c03e ab17 a73e
00000070: 4d87 853e bf93 50be a450 ea3c 66bc ea3d
00000080: 5bc5 5fbe 6a33 3a3e 782f 83be e74f c63b
00000090: cdc3 8abe 2481 a5be 2262 67bd c9f4 96bd
000000a0: 7ba4 f3bb b618 a6be 61ae adbd 9251 f6bd
000000b0: 5932 27be 2c26 7a3e 7100 203c 73b9 43be
000000c0: db59 9abc b9d6 11be fee9 9b3b b6c3 d53d
000000d0: d248 c03d c9af e8bd 8186 88bd ea0e cc3d
000000e0: 0b7d 99bd 4a9b 613d b2d8 023e 7449 17bc
000000f0: 9fab f9bd 0685 3bbe a538 0a3d b069 dcbd
00000100: e9eb 5ebd 258b c13d 1ad6 f23c debe aabe
00000110: eb62 c7bd a5c6 f53d e599 d73d ad7a d63d
00000120: cf47 c93d c039 3fbe 4a00 04be 2825 183e
00000130: d19f 9a3d d400 ce3c c0d8 03bc f44e 753d
00000140: 56ea d1bd 15d1 c9bc 3b45 43bd 20fa 43be
00000150: 9611 1e3e 784c 283e c2d6 89be 6fe9 4dbd
00000160: cabb 39be bf67 8f3e 124a 3cbe 5e56 2d3e
00000170: 0c70 92bd d5ca 233e 4ed7 9d3d ebb1 c53d

invResBlocks.0.batchNorm1.running_var f4 [96]
0.07217186 0.07937747 0.14427653 0.02195958 0.07248784 0.06120722 0.029457293 0.17448036
0.105601124 0.04688186 0.25406927 0.04118784 0.054836728 0.18713047 0.17325962 0.046206456
0.0633258 0.07607316 0.06667342 0.048521716 0.058733623 0.059085317 0.06323935 0.04502186
0.11468329 0.035415452 0.12017214 0.044969197 0.19115219 0.050501917 0.08156479 0.047678523
0.051131558 0.14600432 0.031962533 0.052470885 0.11867061 0.06480672 0.034435414 0.063612565
0.038711056 0.056240626 0.041289974 0.07617447 0.026909927 0.082338825 0.16570097 0.027927337
0.09536561 0.02623395 0.059193797 0.06775914 0.062200073 0.05335818 0.0702627 0.05069966
0.05090688 0.045362253 0.05170064 0.08615152 0.0534902 0.06552179 0.035632018 0.06662655
0.0432332 0.059582002 0.114513226 0.051767204 0.033135176 0.035796005 0.06919644 0.03323379
0.045187164 0.13088965 0.047676973 0.031226972 0.049146663 0.04018141 0.038877442 0.04889846
0.028895166 0.031128172 0.04760753 0.061110187 0.03730083 0.08031521 0.058535397 0.023440208
0.07855605 0.02869701 0.058253895 0.06271073 0.03103271 0.11485939 0.055570904 0.074156396
00000000: d7ce 933d a890 a23d 3abd 133e 94e4 b33c
00000010: 8174 943d 6cb4 7a3d 6c50 f13c fbaa 323e
00000020: 6745 d83d 3107 403d 5e15 823e 95b4 283d
00000030: 7a9c 603d 219f 3f3e f86a 313e fb42 3d3d
00000040: f5b0 813d 3fcc 9b3d 138c 883d b5be 463d
00000050: ab92 703d 7203 723d a283 813d d868 383d
00000060: 13df ea3d cb0f 113d d01c f63d 9f31 383d
00000070: 66bd 433e 19db 4e3d 710b a73d 8e4a 433d
00000080: 536f 513d 2882 153e 25eb 023d b6eb 563d
00000090: 9409 f33d 63b9 843d 260c 0d3d 4e47 823d
000000a0: 7c8f 1e3d 925c 663d ad1f 293d 5c01 9c3d
000000b0: 3572 dc3c 42a1 a83d 84ad 293e dfc7 e43c
000000c0: 0c4f c33d 95e8 d63c 3275 723d 4ec5 8a3d
000000d0: 81c5 7e3d 1b8e 5a3d e4e5 8f3d 72aa 4f3d
000000e0: bc83 503d c5cd 393d 0dc4 533d 3570 b03d
000000f0: 8a18 5b3d 4a30 863d e1f2 113d 8073 883d
00000100: 4c15 313d 420c 743d e985 ea3d d909 543d
00000110: c0b8 073d d59e 123d ddb6 8d3d 2820 083d
00000120: 2d16 393d f007 063e ee48 433d b5cf ff3c
00000130: 034e 493d 4395 243d f43d 1f3d c049 483d
00000140: 8eb5 ec3c 8200 ff3c 1d00 433d ad4e 7a3d
00000150: c1c8 183d 4d7c a43d d0c2 6f3d ae05 c03c
00000160: ffe1 a03d fe15 eb3c a39b 6e3d 7c6e 803d
00000170: 4f38 fe3c 663b eb3d 519e 633d 4fdf 973d

invResBlocks.0.batchNorm2.weight f4 [32]
0.9838592 0.98765063 0.97545606 1.041484 0.9099078 1.0446112 1.0018114 0.99449635
0.9741883 0.9801031 0.9621328 1.0450206 0.97534746 0.9973462 1.0596755 1.04533
0.93159294 1.0182092 0.907263 1.0957474 0.96276313 1.0113018 0.99085164 1.0740237
1.0131091 1.0037742 0.9454922 0.9631152 0.9755614 1.1716723 0.95538455 0.99329937
00000000: 32de 7b3f acd6 7c3f 7db7 793f 594f 853f
00000010: b8ef 683f d2b5 853f 5b3b 803f 5097 7e3f
00000020: 6864 793f 09e8 7a3f 564e 763f 3cc3 853f
00000030: 5fb0 793f 1552 7f3f 72a3 873f 60cd 853f
00000040: e07c 6e3f ae54 823f 6342 683f 7341 8c3f
00000050: a577 763f 5672 813f 74a8 7d3f 9c79 893f
00000060: 8fad 813f ac7b 803f c70b 723f b88e 763f
00000070: 64be 793f 5cf9 953f 1594 743f de48 7e3f

invResBlocks.0.batchNorm2.bias f4 [32]
1.0697442e-08 -7.7229325e-09 1.7105933e-08 -4.6189534e-08 -2.7122574e-08 2.3647749e-08 5.7717248e-08 1.9377088e-08
-2.698814e-08 -5.1548913e-08 7.9140925e-08 3.014885e-08 7.985705e-09 -2.0587922e-08 -9.522022e-09 -1.1810728e-09
1.3221186e-08 -1.8641938e-08 2.7146243e-08 3.145811e-08 3.1802955e-08 -7.820607e-08 5.5748984e-08 -2.2641407e-08
4.218356e-09 6.242809e-09 -1.8296008e-08 8.042914e-09 -4.5130736e-08 1.6063252e-08 2.3326685e-08 8.598403e-09
00000000: d9c7 3732 d1ad 04b2 58f0 9232 ee61 46b3
00000010: 2cfb e8b2 f321 cb32 c9e4 7733 ab72 a632
00000020: 8cd3 e7b2 a166 5db3 2ff4 a933 037d 0133
00000030: 8131 0932 52d9 b0b2 4c96 23b2 4e53 a2b0
00000040: 6423 6332 0e22 a0b2 382f e932 8f1c 0733
00000050: b897 0833 3ef2 a7b3 a870 6f33 fb7c c2b2
00000060: 0df1 9031 5480 d631 5929 9db2 1c2d 0a32
00000070: c5d5 41b3 77fb 8932 ec5f c832 2db8 1332

invResBlocks.0.batchNorm2.running_mean f4 [32]
-0.52486545 -0.14235911 0.53905654 -0.22842067 0.15469353 -0.13339016 0.64261943 -0.6998174
0.4214105 -0.53855896 -0.43891758 0.07415209 -0.21521199 0.002232741 0.19365625 -0.8126211
0.06700515 -0.15381934 -0.2117489 -0.007339594 -0.24614085 0.39456072 0.40987 -0.1018061
-0.40698898 0.76187164 -0.1287337 -0.22577915 -0.16275324 -0.5062516 -0.44903627 -0.089478575
00000000: 955d 06bf 96c6 11be 9cff 093f 1ce7 69be
00000010: fb67 1e3e 6e97 08be b582 243f 3c27 33bf
00000020: 1ec3 d73e 00df 09bf ceb9 e0be 0ddd 973d
00000030: 8860 5cbe 2e53 123b d34d 463e f007 50bf
00000040: ff39 893d d182 1dbe b4d4 58be fa80 f0bb
00000050: 590c 7cbe dd03 ca3e 7bda d13e b77f d0bd
00000060: dc60 d0be 050a 433f c4d2 03be a632 67be
00000070: c9a8 26be b499 01bf 15e8 e5be 8b40 b7bd

invResBlocks.0.batchNorm2.running_var f4 [32]
0.43050855 0.38539207 0.32203132 0.38883677 0.34884354 0.56246203 0.49392045 0.373977
0.37927628 0.38481632 0.30226207 0.44159502 0.34672305 0.45633155 0.4699378 0.3267388
0.40810347 0.39459416 0.28960153 0.5175163 0.4186117 0.4453423 0.45939198 0.56360877
0.39685878 0.4575951 0.3175972 0.40632704 0.31277207 0.5105484 0.31117538 0.34060606
00000000: 9e6b dc3e 1c52 c53e 4ae1 a43e 9d15 c73e
00000010: 9f9b b23e 83fd 0f3f 24e3 fc3e ea79 bf3e
00000020: 8030 c23e a506 c53e 18c2 9a3e be18 e23e
00000030: af85 b13e 4aa4 e93e b09b f03e 4f4a a73e
00000040: f0f2 d03e 3f08 ca3e a746 943e f37b 043f
00000050: 4654 d63e e803 e43e 6d35 eb3e aa48 103f
00000060: 1331 cb3e e849 ea3e 1a9c a23e 190a d03e
00000070: a923 a03e 4db3 023f 6152 9f3e eb63 ae3e

invResBlocks.1.expansion.weight f4 [96, 32, 1, 1]
-0.09467184 0.21941741 0.029709943 0.065142006 0.04083042 0.021228848 -0.052450802 -0.11345077
0.0058011855 0.107886344 -0.086164825 0.10001984 -0.18547623 0.065387234 -0.08570796 0.13772096
-0.14536083 -0.12509899 -0.050383884 0.2453595 -0.13272406 0.18978512 0.108431384 0.14552152
-0.029302554 0.19299787 0.115164936 0.11062556 -0.18045543 -0.043645497 -0.024555476 -0.09163193
-0.05145306 -0.103511035 0.15309414 0.08098389 0.11982868 0.13966629 -0.04840363 -0.020610379
-0.18417102 -0.021348706 0.19113599 0.050112687 -0.084926404 -0.17305452 -0.011478082 0.18141174
-0.06813244 0.043408588 0.040098242 -0.070788786 -0.11702764 0.13598052 0.14519726 -0.058816988
0.039041016 -0.1036475 -0.06744144 -0.04291578 0.021287335 -0.02114843 0.03442671 -0.0008782187
0.22898702 0.11836034 -0.107658975 -0.15332039 -0.092646345 -0.17112674 0.02489128 -0.009852024
0.102005266 0.12344377 -0.047721494 0.105985254 0.085398555 0.031006938 -0.20046939 0.016395882
-0.12748538 -0.22165276 0.04712054 -0.1895566 0.004598278 -0.057919383 0.06445493 -0.06893689
0.028344108 -0.022678675 -0.13721256 0.13677827 -0.077686176 -0.090676375 0.027072005 0.06917988
-0.13328256 0.1695072 -0.08743699 0.22673365 0.111190535 -0.008721601 -0.10942402 -0.050782103
0.04202458 -0.16287212 -0.10707181 -0.099900804 -0.04278791 0.0037793247 -0.059036262 0.0876289
0.07429022 0.16970657 0.03456107 0.103281826 0.040891368 0.1994365 0.096447654 0.09944345
-0.00034464232 -0.2090784 -0.09497606 -0.09301073 0.09681562 0.044504944 0.09370408 0.039995313
0.0073367036 -0.20611131 -0.047324117 0.08139934 -0.15918551 0.19679639 0.15155306 -0.13583654
-0.036556546 -0.14544958 0.08887324 0.185317 -0.047866546 -0.18265504 0.0734141 0.15229066
0.07450926 -0.01546306 -0.055684876 -0.07463908 0.073221736 0.04796417 -0.12379668 -0.030569687
-0.14474967 0.07097047 -0.03853515 0.114537925 0.07858988 -0.10172166 0.08066095 -0.1131723
-0.09518155 -0.02908367 -0.1040513 -0.15543284 0.12685679 0.07157203 -0.14770384 -0.17489141
-0.12847202 -0.1082186 0.11131111 -0.13626924 -0.04302108 -0.147235 -0.070398144 0.0121171735
-0.115071245 0.11708734 0.05104245 -0.10703781 -0.02064292 0.047056515 0.040232558 -0.17939034
0.1263375 0.0750287 0.026559347 0.024370257 0.1481547 0.12399294 -0.10446792 -0.17834918
-0.14521869 -0.00035087645 0.13142733 -0.010090788 -0.09106393 -0.13798465 0.085115716 -0.049544502
0.03484101 0.112000145 0.06928583 -0.011786596 0.14695963 0.05513847 -0.027873054 -0.014755199
-0.05722752 -0.0050702738 0.1160499 -0.006597017 -0.19385852 -0.1258515 -0.0026420406 -0.18657419
0.17510036 -0.0593876 -0.16279721 0.0955731 0.19156651 0.15895739 -0.043979 -0.12794872
0.121591575 0.121847615 -0.06250524 0.2664989 -0.096047774 -0.10035075 -0.07292236 -0.0032229698
0.16761744 0.19440432 0.22062673 -0.16111141 -0.0209244 0.11733027 -0.048422746 0.058712564
-0.031862896 -0.046206247 -0.077909954 0.1333081 0.04454745 -0.08924737 0.09320076 -0.045942884
0.088864446 -0.16328184 -0.12833004 -0.16901584 -0.077103786 0.119331114 0.022393057 0.07252091
00000000: 4fe3 c1bd f5ae 603e 4462 f33c 2c69 853d
00000010: cc3d 273d 1fe8 ad3c a7d6 56bd e158 e8bd
00000020: df17 be3b 84f3 dc3d 2f77 b0bd 34d7 cc3d
00000030: 7bed 3dbe bee9 853d a887 afbd b906 0d3e
00000040: 78d9 14be f319 00be 555f 4ebd 853f 7b3e
00000050: d1e8 07be 0857 423e 4611 de3d 9803 153e
00000060: e90b f0bc 3ca1 453e 98db eb3d a78f e23d
00000070: 4fc9 38be 9fc5 32bd 9128 c9bc 85a9 bbbd
00000080: 72c0 52bd 98fd d3bd b6c4 1c3e e2da a53d
00000090: bd68 f53d ae04 0f3e e242 46bd 19d7 a8bc
000000a0: 5497 3cbe 7be3 aebc 27b9 433e f642 4d3d
000000b0: e5ed adbd 3435 31be 910e 3cbc 00c4 393e
000000c0: 0589 8bbd 34cd 313d 0e3e 243d b6f9 90bd
000000d0: 30ac efbd 7a3e 0b3e 97ae 143e 15ea 70bd
000000e0: 79e9 1f3d 2445 d4bd bd1e 8abd 75c8 2fbd
000000f0: c762 ae3c 793f adbc 0603 0d3d 4238 66ba
00000100: 937b 6a3e e866 f23d 4f7c dcbd 0500 1dbe
00000110: 5ebd bdbd d93b 2fbe cce8 cb3c 626a 21bc
00000120: 23e8 d03d 16d0 fc3d 9d77 43bd cc0e d93d
00000130: 70e5 ae3d 4302 fe3c d947 4dbe a850 863c
00000140: 878b 02be f1f8 62be 7801 413d 201b 42be
00000150: 27ad 963b e03c 6dbd f200 843d c92e 8dbd
00000160: e731 e83c a1c8 b9bc 7381 0cbe 9a0f 0c3e
00000170: ee19 9fbd 89b4 b9bd 1cc6 dd3c 2eae 8d3d
00000180: 397b 08be 4c93 2d3e 2a12 b3bd de2c 683e
00000190: ddb7 e33d 0ce5 0ebc b319 e0bd e500 50bd
000001a0: f721 2c3d f3c7 26be 7748 dbbd cb98 ccbd
000001b0: 6042 2fbd 8cae 773b 02d0 71bd c876 b33d
000001c0: 7925 983d 8fc7 2d3e e98f 0d3d 6c85 d33d
000001d0: b57d 273d 1539 4c3e 5986 c53d 02a9 cb3d
000001e0: 1cb1 b4b9 a618 56be cf82 c2bd 697c bebd
000001f0: 4547 c63d d14a 363d ede7 bf3d 20d2 233d
00000200: bb68 f03b d80e 53be efd6 41bd b2b4 a63d
00000210: 8701 23be fe84 493e ba30 1b3e bc18 0bbe
00000220: 51bc 15bd bcf0 14be 2c03 b63d bdc3 3d3e
00000230: b60f 44bd ec09 3bbe 225a 963d 15f2 1b3e
00000240: 5098 983d c658 7dbc d315 64bd 60dc 98bd
00000250: 47f5 953d 1476 443d 1d89 fdbd 486d fabc
00000260: 4239 14be f758 913d 09d7 1dbd dc92 ea3d
00000270: bbf3 a03d 7253 d0bd 9131 a53d e1c6 e7bd
00000280: 8bee c2bd e040 eebc d918 d5bd c929 1fbe
00000290: bfe6 013e 5b94 923d ad3f 17be bc16 33be
000002a0: 2b8e 03be b7a1 ddbd 14f7 e33d 2a8a 0bbe
000002b0: df36 30bd c6c4 16be e72c 90bd 1c87 463c
000002c0: 79aa ebbd 7dcb ef3d e311 513d a436 dbbd
000002d0: 571b a9bc 55be 403d e5ca 243d 1ab2 37be
000002e0: 9e5e 013e a6a8 993d fd92 d93c 22a4 c73c
000002f0: deb5 173e 03f0 fd3d 47f3 d5bd 2ba1 36be
00000300: 35b4 14be d7f5 b7b9 e394 063e d553 25bc
00000310: ba7f babd d94b 0dbe 2651 ae3d 2def 4abd
00000320: 72b5 0e3d 5560 e53d bbe5 8d3d 911c 41bc
00000330: 967c 163e e0d8 613d 0856 e4bc cabf 71bc
00000340: 6767 6abd 8a24 a6bb 92ab ed3d ca2b d8bb
00000350: d982 46be 37df 00be 1626 2dbb 4e0d 3fbe
00000360: 824d 333e 6940 73bd 50b4 26be d4bb c33d
00000370: 032a 443e bac5 223e 5323 34bd fd04 03be
00000380: 0105 f93d 3e8b f93d bf02 80bd 8b72 883e
00000390: b2b4 c4bd b284 cdbd 5158 95bd 7638 53bb
000003a0: e8a3 2b3e ed11 473e f9eb 613e 64fa 24be
000003b0: a669 abbc da4a f03d ee56 46bd 967c 703d
000003c0: ab82 02bd c342 3dbd 418f 9fbd eb81 083e
000003d0: 6377 363d 53c7 b6bd 0ae0 be3d 9b2e 3cbd
000003e0: 90fe b53d 5b33 27be f368 03be 7d12 2dbe
000003f0: 97e8 9dbd df63 f43d a571 b73c d885 943d
