LAB 3/Results/tl_resnet_svhn.ckpt (torch, 584199 bytes, 10 tensors)

conv11.weight f4 [64, 3, 3, 3]
00000000: 8b48 c13d a55d 323e 8aa2 373e bfb7 403e
00000010: 73e1 6b3d 6659 103c b15b 0c3d cebe cd39
00000020: df9e c93d 9232 09bc e4c5 4ebe 06e2 fd3d
00000030: 0653 9bbd 6b88 e1bc d905 10be dedc 803d
00000040: c45f 023e 7fd5 27bd 9fe2 a8bd 4723 ebbd
00000050: 7ae5 39be bdaf 5cbd 63c0 47be b21f 22bd
00000060: e593 123d d696 95bc 3031 2d3d 641f c7bd
00000070: 1c8c 95be d024 7dbd cd3e a33d 87df 10be
00000080: f56d 2e3e f7c9 e63d e7d9 1e3e fbcf 09be
00000090: 5272 7dbe b2fd 80be c46f 68be 8576 13be
000000a0: ca3f 263e 4e59 bf3b 08f1 1d3e 0fb6 363e
000000b0: 3d0d a93d 8ee8 b8bd b2f7 1abd f63d 0ebd
000000c0: 6a05 8cbd 10a6 473e 6c53 793d 2e55 743e
000000d0: f7e8 873d 0c73 523e 3d50 65bd b3ca 1c3d
000000e0: c29f 893e 9fbf 873b edaa 03be 2267 f3bd
000000f0: 9186 5dbc b4e0 153e 7d1c 09be b6b0 233e
00000100: f0cc 613d ae82 293e 19a3 d5bd 8ac0 283c
00000110: cda8 b3bd d79b 12be eb74 62be d559 833d
00000120: 82ec bdbd 4c29 143e 4345 cabd 09b6 283e
00000130: d00d a9bd b42b 8cbd 53dc 553d 6cd8 6c3c
00000140: 489b 64bd d79e 4e3e 0268 f5bd 9d6e 0dbe
00000150: 87d4 5a3e 326f d0bd 5a1f 32be 8906 a13d
00000160: bfc0 20be 0e10 1bbe a1c7 933e fb2f 45bd
00000170: 3c80 afbd 9f78 60bd d810 78be fee0 bfbd
00000180: 94ca 9dbd 4912 84bd dc7d 783d 2804 c23d
00000190: c1f0 09be ad49 d23d a696 9d3e f275 f73b
000001a0: ac0c 343c 6b40 4d3e 846a c4bc ad5d 3a3e
000001b0: 6d00 f9bd 5242 41be 5ab5 2dbe 7890 b03d
000001c0: 4725 fdbd 0341 063e cc06 ef3d 50c6 01bd
000001d0: f8ba 11be 93c9 38be d4ab 83bd 129b 38be
000001e0: 9fdd 293e 7481 26be 8aca 223d 8b90 f3bd
000001f0: 3a83 4fbe 0e71 d5bd 8569 be3d d608 93bd
00000200: 21be ebbd 6b6a a23d 3e1d f1bd c214 35bd
00000210: 892e bb3d f485 b6bd c41c 213e 360d 0abe
00000220: fd6b 173d c359 e8bd 4200 12be 52c4 bb3d
00000230: ce11 c5bd 5dfc 2c3d 9211 7ebc 26ad ca3d
00000240: 0aef 703e 7bee a93d 4c04 31be fe5b 2d3e
00000250: 76fb 493e 7e16 1ebe 3983 253e fe7f 12be
00000260: cdf9 8dba c68e 323e 2e6a 143e 2217 4abe
00000270: 3473 193e 4e56 d2bc 4859 0cbd 91d3 913d
00000280: 43cc b1bd ab09 82be f424 d0bd 3085 98bc
00000290: 073e bd3d 98d5 18bc 9976 213d b1d3 fe3d
000002a0: ea59 b9bd 23af cdbd 31b3 07be 5085 dcbd
000002b0: 7d64 3c3e 732e 4f3e bb07 4cbe 4ad3 14be
000002c0: a70a 6c3c 5c7f 5f3b 2e83 5e3a a34a 41be
000002d0: aed6 09bc 0c7c c6bd ef7a 0abb b89e 2bbe
000002e0: 75d1 3bbb 23d4 93bd 9207 0d3e d480 88bd
000002f0: d039 57bd 9519 69be 33db 31be 422f 40be
00000300: a97f 4d3c c816 25be cb76 03be f33f 7f3e
00000310: 3ad9 da3d 67a9 163e c0da 45be 21a6 a9be
00000320: 14f0 76be 071b 3fbd bb90 0fbe 2707 3fbe
00000330: 74a0 7d3e c51c bf3e 6213 be3e 9646 afbc
00000340: 1416 8cbe f02f 14bc cd8b d03d 6f7e e33d
00000350: 7798 8c3d 8b10 683e fa26 c33d ed27 333e
00000360: 1a4f aebd 72fe 12be 11cf e83d 5919 58bd
00000370: 2439 c0bd d506 403c 7e0f adbd bcef 3fbd
00000380: 2b93 c0bd ac69 34be b5b4 c9bd 5dbb b3bd
00000390: e724 113e 90b6 dfbd 192b ccba e309 debd
000003a0: 69ba 003e ce40 203e 2f49 f7bd 711a e7bd
000003b0: 3b4c 4e3e 2a7e c7bc 7be7 20be 4785 a53d
000003c0: 1b66 523e 6305 1a3e 94a8 893e 00b6 483e
000003d0: f2ca 0e3d 450a 533e 17f2 f43d 40c9 febd
000003e0: 6efb f6bd 6e3a 80bc 4cb1 843d 2379 373d
000003f0: 8fc0 e83d 8e15 80bc 70b1 7d3d 4800 0b3e
0.094376646 0.17418535 0.17933097 0.18820094 0.057588052 0.008810377 0.03426713 0.00039242808
0.098447554 -0.008373873 -0.20192677 0.12396626 -0.07584195 -0.02753087 -0.1406473 0.06292127
0.12731844 -0.04097509 -0.082463495 -0.11481338 -0.18153945 -0.053878535 -0.19506983 -0.03958101
0.035785574 -0.0182604 0.042283237 -0.09722784 -0.29208457 -0.061802685 0.07970963 -0.14147769
0.17034133 0.112689905 0.1551281 -0.13458245 -0.24750641 -0.25193554 -0.22698885 -0.1440068
0.16235271 0.0058395034 0.15423977 0.17842887 0.08254478 -0.09028731 -0.037833877 -0.03472706
-0.0683697 0.19496942 0.060870573 0.23860618 0.066362314 0.205517 -0.055984724 0.038279247
0.26879698 0.004142716 -0.12858172 -0.118849054 -0.013520853 0.14636499 -0.13389774 0.15985379
0.055127084 0.16553757 -0.10431499 0.010299811 -0.087724306 -0.1431726 -0.22114913 0.064136185
-0.09273626 0.14468879 -0.09876492 0.16475691 -0.08254588 -0.06844273 0.05221207 0.014455896
-0.05581215 0.2017778 -0.119827285 -0.13811727 0.21370135 -0.10177459 -0.17394772 0.078625746
-0.15698527 -0.15142843 0.28863242 -0.04814146 -0.08569381 -0.054802533 -0.24225175 -0.09369086
-0.07704654 -0.064488 0.060666904 0.09473449 -0.13470747 0.10267959 0.30778998 0.007551902
0.010989349 0.20044105 -0.023976572 0.18199797 -0.12158284 -0.18872955 -0.16963711 0.08621305
-0.12360626 0.13110738 0.11671218 -0.031683266 -0.14231479 -0.18045644 -0.06429258 -0.18027905
0.16588448 -0.1626032 0.039743938 -0.11892804 -0.20264903 -0.10421954 0.0929747 -0.0717942
-0.115108736 0.07930454 -0.11773156 -0.04420925 0.09139735 -0.08912268 0.1573363 -0.13481602
0.03696822 -0.11345246 -0.14257911 0.091683045 -0.096225366 0.04223286 -0.015507119 0.09896307
0.23528686 0.0829744 -0.17286795 0.16929623 0.19724831 -0.15438268 0.16163339 -0.14306638
-0.0010831893 0.17437276 0.1449363 -0.19735387 0.14985353 -0.025675919 -0.034264833 0.07120431
-0.08681538 -0.25398 -0.10163298 -0.018618196 0.092403464 -0.0093282685 0.039419744 0.12442721
-0.09050353 -0.1004317 -0.1325195 -0.10767615 0.18397708 0.20232563 -0.19924824 -0.14533725
0.014406837 0.0034103012 0.0008488175 -0.18876128 -0.008413 -0.09691629 -0.0021130403 -0.16759765
-0.0028658782 -0.07218196 0.13772419 -0.06665197 -0.05254537 -0.22763665 -0.17368774 -0.18768027
0.012542644 -0.16121972 -0.12838285 0.24926738 0.10685964 0.1471306 -0.19321728 -0.3313456
-0.2411502 -0.046656635 -0.14020054 -0.18655072 0.2476824 0.37326637 0.37124163 -0.021395963
-0.27360594 -0.009044632 0.10182915 0.111081 0.06865018 0.2266256 0.095289186 0.17495699
-0.08511181 -0.14354876 0.1136762 -0.05275855 -0.09385899 0.011720379 -0.084502205 -0.046859488
-0.0940307 -0.17618436 -0.0984892 -0.08775971 0.14174233 -0.10923493 -0.0015576809 -0.108417295
0.1257111 0.15649721 -0.120745055 -0.1128434 0.20146267 -0.024352152 -0.15713303 0.08082061
0.20546763 0.15041117 0.26886427 0.19600677 0.034861512 0.20609386 0.119602375 -0.12440729
-0.12059675 -0.015652861 0.06479129 0.04479326 0.11364853 -0.015635278 0.061936796 0.13574326

conv11.bias f4 [64]
00000000: 9fc3 35bd 9f57 013e 98ea c6bc e8ba f03d
00000010: f910 b8bd e024 94bd ac0b 5cbe f8d5 003e
00000020: 7c29 5cbd 334d dcbc 2f7b d6bc 8981 8fbe
00000030: ac85 ee3d edd9 6c3e d974 6cbc c46f cf3d
00000040: 6719 11be 11e0 bdbd b47f 453e 3249 d03d
00000050: 654f 35be 1b45 54be 6683 3e3e 231c 90bc
00000060: 9487 b63e d75f 37be d146 b5bd fded 473d
00000070: 9615 4c3e a373 953e 2dd9 8b3c 756d 943e
00000080: 46f7 c0bd 92cd 7ebe f719 8abd 35ce 043e
00000090: 9676 0abe d4fa 1b3d df98 233e 2c5a cbbd
000000a0: 4af9 3bbd 96e8 52be 4dc1 4e3e 9f77 333e
000000b0: 1679 103e 7f36 debd 7978 eabd 2c00 ee3d
000000c0: 1736 81be 9198 fc3d 431f 9dbe 1b97 523e
000000d0: de2f cdbd cdb1 2abc e55d 9e3d e0c1 f03d
000000e0: 0610 283e c5aa 11be 2634 383e 9eca a93e
000000f0: 027e 01bd 6f7d f1bd 062e a8bd 7e58 52be
-0.044376012 0.12631081 -0.024281785 0.117543995 -0.08987612 -0.07233596 -0.21488827 0.12581623
-0.0537505 -0.02689228 -0.026181785 -0.28028515 0.1164659 0.23130007 -0.0144321555 0.101287395
-0.14169846 -0.09271253 0.19286996 0.10170211 -0.17706068 -0.20729487 0.18604812 -0.017591542
0.35650313 -0.17907654 -0.08851398 0.048810948 0.1993011 0.29189786 0.01707133 0.2898976
-0.09422164 -0.24883106 -0.06743234 0.12969287 -0.135218 0.038081005 0.15976284 -0.09929308
-0.045892037 -0.20596537 0.20190926 0.175261 0.1410869 -0.10850238 -0.114487596 0.116211265
-0.2523658 0.12333787 -0.30687913 0.20565455 -0.100188956 -0.010418368 0.07732753 0.11755729
0.16412362 -0.142253 0.17988643 0.33162397 -0.03161431 -0.11791503 -0.08211903 -0.2054157

conv12.weight f4 [64, 64, 3, 3]
00000000: f90f 9ebc faf4 843b 87ea 953c e71f 0c3d
00000010: f09e f03c e416 7dbb b5b6 0e3d 264f 48bc
00000020: f003 293d 6f5c 9e3a 27ce edbb 4007 57bc
00000030: 6e65 0c3d 9df9 a83c caf6 c93b f0c1 233d
00000040: 2d31 273d 3d92 6ebc 8171 f8bc edaf 7c3c
00000050: 9721 203c d329 323c 0e63 363a e993 93bc
00000060: 0bc8 f5bc d32c 10bd 1c8d fd3c 307c 80bc
00000070: a9ad f1bc 181a a9bc 36e1 3b3d 981c edbc
00000080: b486 c13a 3eb8 94bc 929c fe3c 1902 0c3d
00000090: c383 18bd 989b 25bb b084 863c 1554 88bc
000000a0: 4566 f43c 29f8 e83b fda3 3e3c d0b7 39bd
000000b0: b707 b43c a0e3 00bc d128 2cbd 2b3a 05bc
000000c0: e2cd 15bd 936e 3fbd 6cee 143c 4336 00bd
000000d0: 4dc4 0bbd c012 df3c 5ac8 7d3b cc4c 083d
000000e0: 640e fabc 6ebe 853c 29e5 1ebb 49af edbb
000000f0: 09bd 2abd 2728 12bd c327 47bc e98e efbc
00000100: e7fa 88b9 c842 c43c 97c4 713b d501 e13c
00000110: a442 1aba fe1c d1bc 0004 533c 4db1 b3bc
00000120: e0e4 fbbc 1186 173c 2b9c ffbc 5034 38bc
00000130: 7319 87bc e1e4 e33c 4e7f e43b 11a4 36bb
00000140: 2d78 1f3d ac18 593c b83a e9bc 9bfb b5b9
00000150: e542 c2bc 9b9d c3bc 0d1d 0cbd 6e5f 88bc
00000160: ce90 eebc 1891 15bc 4b74 dabc fd77 b43c
00000170: 12b2 02bd 6c82 0a3d 6bfe 76bc f085 9e3c
00000180: 5027 b13b 91f3 203c af05 b83a 8a74 093d
00000190: 3453 303d 087e 8ebc 0133 c2bc 3d30 36bc
000001a0: a825 9ebc 3b9e a4bc 3dd4 7ebc d41c 913c
000001b0: 381f 8abc 29a9 03bc 6935 0cbd bd77 9f3c
000001c0: 715f 203c 21d7 073c 1ea8 cebc 15cd cdba
000001d0: ac83 883b 0f10 523d d665 2a3d d955 3d3a
000001e0: 5639 763c 0370 b23b 2d95 1a3d 6232 5e3d
000001f0: aced 103d d540 4b3c 286a 7538 3578 0a3d
00000200: 5372 f5bc 4351 6abc e412 623c 9b25 603c
00000210: faf8 2b3c b147 ccbc 47b8 24bc 4f6f 233c
00000220: ba71 55bb 41f3 31bb d0b8 fdbc bd49 28bd
00000230: e05e 32bc b1e0 ad3c a2a1 3f3c 08bc 5b3d
00000240: 36bd 5bbd 6b21 5bbd 7f27 353a e8f2 983c
00000250: 3944 1a3c bbc0 11bc bd7d 0abd c8d3 bebc
00000260: 0a2f e1ba b4e2 daba a15a 1abd 6cef 4d3b
00000270: 6d9b 8f3c bfe7 27bc 55f4 e23c 60dc 073d
00000280: 4ec2 a8bc 8aff b83c d28f d93b a65a 7dbb
00000290: 3c11 973b ef5e abbc ad7d b0bc 2391 ea3c
000002a0: 89f2 693d 6635 f23c 0b65 273d c487 603c
000002b0: fc26 e4bc 4cbe 9cbb 9b2d a3bc c019 d4bc
000002c0: 5e57 3c3d 8e4f b3bb 4e45 193d 79a4 06bd
000002d0: ab19 63bc 79f1 11bd 0ee2 28bc 9134 813c
000002e0: 35b2 a13b 08b4 173d 9625 263c 9f8c 1b3c
000002f0: e971 323b 0ab5 00bd 4e5b 8b3b 6a04 bb3c
00000300: ed8b 44bb b035 0c3d 0354 e23c 35a0 dd3c
00000310: e2be 7b3c 8673 debc b143 cd3b 4bb1 01bd
00000320: 358c 513d f1e8 663c f260 5b3b 9a0b a3bc
00000330: 6520 85bc 1b4d 95bc 0bc0 debc f41f 073c
00000340: 1c63 083d 4763 67bc 3586 cfbc 0d2b c13b
00000350: b57e febc e6ba 723c 541b 953c 0936 cf39
00000360: f4f4 07bd aefe 87bd 95b3 d23c 5d34 14bd
00000370: 3999 a4bd 52f5 e53a 7a61 e2bc 316c c1bd
00000380: d95a 473c 537d 2f39 95b0 f03c 5526 063d
00000390: 584a aa3b 4404 c83c 5309 8dbb 9d27 d33c
000003a0: 4acb 253c 84f4 f5bc 7f9b 35bd dd32 1cbd
000003b0: 8085 b5bc 057f a5bc ba35 c0bb 0450 1f3c
000003c0: 50f4 d7bb 84f4 ecbc 7d99 94bc 1040 1fbd
000003d0: 7ffe 013d 89e8 573d 2768 033c d1a2 9dbc
000003e0: de01 83ba 5077 753b f866 a2bc 5ef3 623a
000003f0: 1f43 363d ab3c e5bb 0c09 7a3c 620b 213d
-0.019294726 0.004057524 0.018300308 0.034210112 0.029372662 -0.003861838 0.03484221 -0.012225902
0.04126352 0.0012081991 -0.0072572413 -0.013124287 0.03427642 0.020626837 0.0061634528 0.039979875
0.040818382 -0.014561233 -0.03032756 0.015422803 0.009773633 0.0108742295 0.00069575093 -0.018014865
-0.030002614 -0.035198998 0.030951075 -0.015684217 -0.029501753 -0.020642325 0.045869075 -0.028944299
0.0014764876 -0.01815426 0.031080518 0.034181688 -0.037235033 -0.0025269743 0.016420692 -0.016641656
0.029833922 0.007109661 0.011635778 -0.045341313 0.021976335 -0.00786677 -0.042031113 -0.008131544
-0.0365733 -0.04673631 0.009090047 -0.031301748 -0.034122754 0.02723062 0.0038724155 0.033276364
-0.03052444 0.016326156 -0.0024245477 -0.0072535616 -0.041684184 -0.035682824 -0.012155476 -0.02924295
-0.00026126878 0.023957625 0.0036890858 0.027466694 -0.0005884564 -0.02552652 0.012879372 -0.02193513
-0.030748785 0.0092482725 -0.031202396 -0.011242941 -0.016491627 0.027819099 0.0069731837 -0.0027868787
0.038932968 0.013250511 -0.028470382 -0.0003471047 -0.023713538 -0.023878863 -0.034207392 -0.016647067
-0.029121783 -0.009128831 -0.026666781 0.022029871 -0.031908102 0.033815786 -0.015075306 0.019350976
0.0054062977 0.009823696 0.001403978 0.033558406 0.0430481 -0.01739408 -0.023705961 -0.011119899
-0.019305065 -0.020094981 -0.015553531 0.017713942 -0.01686059 -0.008035936 -0.034230623 0.019466275
0.00978838 0.008291037 -0.025226649 -0.0015701378 0.004166087 0.051284846 0.041601025 0.000722257
0.015028318 0.0054454817 0.03773992 0.054247268 0.03538291 0.012405594 5.8511418e-05 0.033806045
-0.02996174 -0.014301601 0.013798449 0.013680841 0.010496372 -0.024936529 -0.010053701 0.0099752685
-0.0032569007 -0.0027153047 -0.030971915 -0.041085947 -0.010886878 0.021225305 0.011696251 0.053646117
-0.053647242 -0.053498667 0.00069104874 0.018670514 0.00941568 -0.008896048 -0.03381132 -0.023294345
-0.0017180156 -0.0016699643 -0.037684087 0.0031423224 0.017530167 -0.010248124 0.027704397 0.03316915
-0.020600464 0.022582788 0.006639459 -0.0038658767 0.004610209 -0.020919291 -0.021544302 0.02863366
0.057116065 0.029566478 0.040867846 0.013704244 -0.02785062 -0.0047834273 -0.019919207 -0.025891185
0.045981757 -0.00547213 0.03741961 -0.032871697 -0.0138611 -0.035630677 -0.010307802 0.015772136
0.004934574 0.037036926 0.010140797 0.009493976 0.002722854 -0.031422652 0.0042528277 0.022829253
-0.0029990629 0.034230888 0.02762795 0.027053932 0.015365334 -0.027154695 0.006264173 -0.03166322
0.051159102 0.0140936235 0.0033474532 -0.019902993 -0.016250798 -0.018225243 -0.027191183 0.008247364
0.033297643 -0.014122791 -0.02533255 0.0058950246 -0.031066278 0.014815068 0.018201508 0.00039522376
-0.03319259 -0.06640373 0.025720397 -0.03618275 -0.080370374 0.0017544425 -0.027634371 -0.09444464
0.012167656 0.00016735987 0.029381076 0.0327514 0.0051968507 0.024416097 -0.00430409 0.025775725
0.010119269 -0.03002382 -0.044337746 -0.038134445 -0.022158384 -0.02020217 -0.0058657797 0.009723667
-0.0065904036 -0.028925188 -0.018139595 -0.038879454 0.031736847 0.052711997 0.008020437 -0.019242676
-0.0009995063 0.003745515 -0.01982449 0.00086574804 0.044497605 -0.0069957576 0.015260946 0.039317496

conv12.bias f4 [64]
00000000: fed7 b03d 595e 37bd 70ab 283c 436b 1f3e
00000010: 839f 143c f6d8 68bc c8d5 843d 434d 30bd
00000020: 61fd 083c 604c f0bc 6944 333c 3028 ee3c
00000030: 54d1 0dbc 049f 92bc 8fad 493e d156 08be
00000040: f49a e83c 9ae2 a9bc f6f3 17be 89a7 263d
00000050: b70d 73bd fd7c 41bd 3736 623c 527b 623c
00000060: d8a3 2d3e 8fa5 463d 7cbf 653d 1c94 3cbd
00000070: bab2 adbd 36e1 063e a2aa 33bd 75d1 3abd
00000080: c9a2 a5bd 5bd4 2e3d 6914 18be 31e2 dcbc
00000090: d419 533d b932 3dbe a936 c3bc 695a 4d3d
000000a0: cbe1 1abd 4631 36b9 caf9 3abc 9c2e 1d3e
000000b0: 005d 9f3d 6de4 0c3d 6c37 7f3d 3353 20bd
000000c0: 746e 083d 4563 8b3c 6248 a5bd 75c7 073e
000000d0: 18a1 33bd 8482 ea3c 9b8a ab3d b9b5 7c3d
000000e0: a056 96bd 044e dbbb e403 863c 40ba 0b3e
000000f0: 6324 47bd a2bf ee3c f9aa e7bd e1f1 52bd
0.08634947 -0.04476771 0.01029478 0.15568261 0.009071234 -0.014211884 0.06486088 -0.043042433
0.0083611915 -0.029333293 0.010941603 0.029071897 -0.008655865 -0.01789809 0.19695114 -0.13314368
0.0283942 -0.020737935 -0.14839157 0.040687118 -0.05933925 -0.04723834 0.013806871 0.013823347
0.16957033 0.048497733 0.056090817 -0.046039686 -0.08481355 0.13171849 -0.0438639 -0.04560991
-0.080876894 0.042682987 -0.14851536 -0.026963325 0.051538303 -0.1847638 -0.023829775 0.05013505
-0.03781299 -0.00017375228 -0.011412093 0.15349811 0.0778141 0.03439753 0.062308714 -0.039141845
0.03330846 0.017015109 -0.080704466 0.1325968 -0.043854803 0.028626688 0.08376046 0.06169674
-0.07340741 -0.00669265 0.016359277 0.13645267 -0.048618685 0.029144112 -0.11311907 -0.051500205

conv21.weight f4 [64, 64, 3, 3]
00000000: 71c2 863c aa2e 063a 8d1c cbbc 1bd8 8bbc
00000010: 6ff1 d63c 44c6 03bd f07a dabb 4884 2d3c
00000020: 92bc 9bbb 003a ec3c c862 92ba 44f2 4ebc
00000030: ba79 c9bc 1910 83bd e12f 47bd 4513 5f3d
00000040: ea0e 4a3d d736 23bd e3ed cb3b 5ffa 96bb
00000050: 27e2 a53d 892f a5bc b28f 073c ee32 0e3d
00000060: 91de b93c ba20 c3bc 136e 383c 6c10 bdbc
00000070: 259b 723d 07dd 963d 2440 8abc 84ac a13c
00000080: 60b7 c63d d7ce d43c 4c69 5f3c eaf6 043e
00000090: cfd5 1dbd 570f 27bc efbd 593c 879f 93bc
000000a0: 97de 75bd 0b86 bd3a 4bd7 473c 91aa 933c
000000b0: d8ba 763c 1e16 e63c e955 1c3d e59b 753c
000000c0: 7381 abbc 1779 bbbc e2bc 06bc e339 0abd
000000d0: ca8d 943b 7663 283d ebbc adbc 348c 62bd
000000e0: 0ee2 483d f7e5 8d3c 132d a4bd ab19 033d
000000f0: 7db6 f4bc e961 a4bc 9dce a4ba fb4a 81bd
00000100: dab6 f3bd 874c 41bc f6e3 49bd d68a c1bd
00000110: 0a24 64bd eaeb 3ebd 69ca 9cbd a317 2ebc
00000120: df0d 75bc 20ce 16bd 26f2 103d 9d0e 33bb
00000130: ae22 91bd 02d8 04bd 0594 adba cbe8 113b
00000140: 63b7 07bd 360e d7ba 2187 a43c ab48 f039
00000150: dee7 3a3c 9657 0b3b d082 39bd 4333 893c
00000160: 8e74 a43c e7f4 c03b 4e07 9bbc 08d1 d63c
00000170: 1054 34bd 983a 18bd 719b ab3c 4204 0d3a
00000180: fa38 853b e73c b73b 2e38 783c a703 21bd
00000190: 04a7 e6bc 8376 483d 46c5 213d 8755 20bd
000001a0: 6a9d 29bc 2251 db3c c786 6dbd ce8e 343d
000001b0: 4f70 653d 0822 bebc d285 25bd c24e f3bb
000001c0: 5dd2 31bd f5d2 8f3c ccaf e23c e519 f6bc
000001d0: 403f 7c3c 384d c23c bd94 653d 8e8a 39bd
000001e0: 0a3a 213c c987 c93b ec98 f2bc 59a6 b43b
000001f0: 7af1 c53c d138 5fbc 4681 c13c b77d 2d3d
00000200: 2f3f 0bbc fd7d f23c bdf6 48bc ff1e e63c
00000210: 13e6 b9bc 2a20 243c 52fc d43c 4b7e 18bd
00000220: 823e 06bd 79d6 82bd 6d79 e3ba 92e2 0abc
00000230: 589b 97bc bfe4 9e38 fe23 a9bc 14df 66bd
00000240: 7959 30bd 1f3b 243b f68e a23c ef89 1a3c
00000250: 9417 2abd 918a eb3c 15a7 64bc d37e 06bd
00000260: ad23 1d3d 0c15 9c3b e71a aa3b ad63 99bc
00000270: 483e 4b3c e463 123d b95c 48bc fcc1 3abc
00000280: 1e0f 24bd 780e 48bc ddb8 9abd e5ff 47bd
00000290: 387a a9bd 93d5 1cbd 0e0c 7bbd 59fa 83bd
000002a0: 4850 b4bd a0b5 73bd 8ddf bfbb c03c e03a
000002b0: 5737 29bc fc40 923d e3ef 08bd 0a7c f13c
000002c0: 8485 573d 8c20 d43c 8f33 b7bc 1dcc 1d3d
000002d0: 35a9 243d c1e2 44bc 3d8d 0ebc 4148 c5bc
000002e0: 19cf e3bc 41a2 713c 6841 2abd cc24 7b3c
000002f0: 1a56 11bd d85e 91bc bf3e 13ba a969 873b
00000300: 0c0a 56bc e68c 973c 2e1b b1bb 8be2 01bc
00000310: ada8 40bb 3ce0 acbc 91f2 9ebd e879 95bd
00000320: f6c3 bb3a f61a 4d3b ce75 9abc 309f 8ebd
00000330: be5c 6dbd de6a 9cbb 064d 71bd 1549 48bc
00000340: e4df 913c 99ab f4ba 5feb 4ebd cb45 8abc
00000350: c967 7cbd 302a 373c 24b0 b2bc 2495 48bd
00000360: 50f0 92bd 8e08 0cbd 1dc3 15bd a17e 4cbd
00000370: bab3 763c 5898 1dbd b785 e03c 18e5 50bc
00000380: e5ab 3abd 8f16 2cbd 09a4 98bc f701 263d
00000390: 709d a23c e2f1 37bd 7eca 103d a6c6 9a3c
000003a0: 714c 093d 4206 073b 9a05 eb3c 6db4 3c3b
000003b0: 2e23 03bd 5115 1ebb 3ae5 db3b 9331 283d
000003c0: 6610 163c d304 033d 51bb 273d 86b9 0a3d
000003d0: ce39 1bbc f302 fe3c f29b c3bc 21ca 38bd
000003e0: 8a7d cd3c 6b02 e1bc 304c 43bd 3776 a33c
000003f0: 9cb3 0abd 05d0 4bbc 4344 81bc 9d09 fdbc
0.016450139 0.0005118648 -0.024793888 -0.01707082 0.026238171 -0.032171503 -0.0066674873 0.01059062
-0.004752704 0.02883625 -0.0011168355 -0.012631003 -0.024594177 -0.06399555 -0.048629645 0.054461736
0.04933063 -0.03984722 0.0062234267 -0.0046074833 0.08099776 -0.020164268 0.008274006 0.03471654
0.022689136 -0.023819316 0.0112567125 -0.02307912 0.05922999 0.07366376 -0.016876288 0.019735582
0.09702945 0.025977535 0.013635945 0.12984815 -0.038533982 -0.010196528 0.013289913 -0.018020405
-0.06002673 0.0014459504 0.012197326 0.018025668 0.015059195 0.028086718 0.038167868 0.014990781
-0.02093575 -0.022884889 -0.008223744 -0.03374661 0.004533504 0.04111048 -0.021208247 -0.05530949
0.049043708 0.01732157 -0.0801641 0.0320069 -0.029872173 -0.020066218 -0.0012573783 -0.063131295
-0.119001105 -0.011798031 -0.049289666 -0.09450309 -0.055698432 -0.046611704 -0.07655794 -0.010625753
-0.01495692 -0.03681767 0.03538718 -0.0027321943 -0.07086693 -0.032432564 -0.0013242966 0.0022264
-0.033133876 -0.0016407433 0.020083966 0.0004583051 0.0114078205 0.0021261922 -0.04529077 0.016748076
0.020075109 0.0058885696 -0.018924382 0.02622272 -0.04402548 -0.037165254 0.020948144 0.00053793576
0.00406563 0.005591977 0.015150113 -0.039310124 -0.028155811 0.048941147 0.039494775 -0.039144065
-0.010352472 0.026772086 -0.05798986 0.0440815 0.05601531 -0.023209587 -0.040410824 -0.00742516
-0.04341351 0.017556647 0.027671717 -0.030041644 0.015395939 0.023718461 0.05605005 -0.04529815
0.009840498 0.00615022 -0.029613934 0.0055129942 0.024162997 -0.013624386 0.023621213 0.04235622
-0.008498951 0.029601092 -0.012265858 0.028090952 -0.022692716 0.010017434 0.025999222 -0.037229817
-0.032774456 -0.06388564 -0.0017354913 -0.00847687 -0.01850669 7.5766344e-05 -0.020647045 -0.056365088
-0.043054078 0.0025059653 0.01984356 0.0094323 -0.041526392 0.028752597 -0.013955851 -0.032835793
0.0383641 0.004763251 0.0051911953 -0.018724287 0.012404986 0.035739794 -0.012229138 -0.011398789
-0.04005348 -0.012210481 -0.07554791 -0.048828024 -0.082752645 -0.038289618 -0.061290793 -0.064442344
-0.08804375 -0.059499383 -0.0058555068 0.0017107949 -0.010328135 0.07141301 -0.0334319 0.029478092
0.052617565 0.025894426 -0.022363452 0.038524736 0.04020043 -0.012016953 -0.008700666 -0.024082305
-0.027808713 0.014748157 -0.041566283 0.015328597 -0.035482503 -0.01774542 -0.0005616955 0.0041324687
-0.013063919 0.018499803 -0.0054048514 -0.007927547 -0.0029397414 -0.021103017 -0.077611096 -0.072986424
0.0014325369 0.0031296588 -0.018855002 -0.06963956 -0.057949774 -0.0047734817 -0.058911346 -0.012224455
0.017806955 -0.0018666863 -0.050517436 -0.016878983 -0.061622415 0.011179492 -0.021812506 -0.048970357
-0.07174742 -0.034187846 -0.036563028 -0.04992545 0.015057499 -0.038475364 0.02740751 -0.012749933
-0.045574088 -0.0420137 -0.018632906 0.040529218 0.019850463 -0.04490841 0.03534936 0.018893551
0.033520166 0.0020603095 0.028689194 0.0028794066 -0.03201597 -0.0024121592 0.0067106755 0.041062903
0.009159183 0.031987023 0.040950123 0.033868335 -0.009474231 0.031007266 -0.023878071 -0.04511464
0.025084276 -0.027466973 -0.04768008 0.01995383 -0.033862695 -0.012439732 -0.01577962 -0.030888373

conv21.bias f4 [64]
00000000: f796 d03d c897 e9bc e782 d83b 803b 0e3c
00000010: aad6 e9bb cfde 143d 874a e73d b237 afbd
00000020: 52b8 77bd abb7 38bd f742 953d b959 20bd
00000030: 89c0 a93d 4d0b 1e3e 3427 eb3c ba4d ccbd
00000040: 0f5a 35bb 830d f43d 04cc 7abd 7d45 9ebc
00000050: 5533 0b3e 9905 b53d 831c 913c 6cb9 4e3c
00000060: a5a7 63bd f168 abbd db67 003c 92b8 303e
00000070: 402b 71bc 38b8 2abd 8a94 0b3d cc51 cb3d
00000080: 12e9 3c3d fb6c 143c a168 25bb 0190 583d
00000090: 5910 fcbb d1f0 bcbc 2d9f 2cbd ec1b 30be
000000a0: 1ace 05bd 493e 43bc a557 9eba 67dd 9fbb
000000b0: 9b68 9d3c 12f1 a03d a214 efbb f1e7 e0bb
000000c0: 680c b33d dfcf e1bd d1cf 1c3e a312 44bd
000000d0: b9ac ab3c 2043 4d3d 47a8 d2bd aaf1 8ebc
000000e0: 0607 ddbb 1e94 d73c fbf9 a23d 46ea 803d
000000f0: 53b4 263d a56d f5bc f7da 9a3d 4536 563c
0.10185044 -0.028514758 0.0066074017 0.008681178 -0.0071361857 0.0363453 0.11293512 -0.08555545
-0.060478516 -0.045097034 0.07288163 -0.039148066 0.08288676 0.15433998 0.028705217 -0.09975763
-0.0027672087 0.1191664 -0.06122972 -0.019320244 0.135938 0.08838958 0.01771379 0.01261745
-0.0555798 -0.08369625 0.007837261 0.17257908 -0.014719784 -0.04167959 0.034077205 0.09927711
0.04612071 0.009059186 -0.0025239366 0.052871708 -0.0076923785 -0.023064049 -0.04214399 -0.17198151
-0.032667257 -0.011916705 -0.0012080563 -0.004878688 0.019214919 0.078584805 -0.007296161 -0.006863587
0.08742601 -0.110259764 0.1531365 -0.047869336 0.020956384 0.050112844 -0.102860026 -0.017449219
-0.006745222 0.026315745 0.07957836 0.06294684 0.040699314 -0.02995951 0.075612955 0.013074462

conv22.weight f4 [64, 64, 3, 3]
00000000: 79c1 47bc 04e3 3f3c 834a 12bd 6c68 bbbc
00000010: 2b74 10bc c0c5 42bc c2cf 25bb 3bbb c13b
00000020: 3272 90bc 2aa6 61bc 2924 883c 2a2a c23b
00000030: 29a6 343d f57c 023c 299a 6bbc adfb 1fbb
00000040: 2eef 413d 533a bebc d17c 17bd 8a59 33bd
00000050: 0812 9fbd 39f6 a13a ef69 7fbd a439 b8bd
00000060: 0142 873c a4a0 f0bd 4a70 ebbd 45e4 31bd
00000070: baa9 0fbd 371d cc3c 9fc3 14bd 3903 cd3c
00000080: f82b 70bc 9bf0 36bb 95ba 443d 5d17 1a3d
00000090: af11 993d e54a 413d ccaa 243d d958 793c
000000a0: a46d 3b3c 077f 4b3b 3979 5e3d 64c8 8e3c
000000b0: e2d2 223d 1c53 88bd 245e 74bd 9296 dfbc
000000c0: a041 0f3c e8db c6bc 2fed cfbc 1a86 79bc
000000d0: d191 4d3d de7f a9ba 0eb2 813a fc22 bfbb
000000e0: efc8 5ebd 1326 35bd 471f 9cbd ded0 8dbb
000000f0: 62f9 4ab9 aa9a 34bd 423b 76bd 4571 1cbd
00000100: 4dcb 01bc b161 4f3a fceb fd3b b96f 03bd
00000110: 74a1 aabb 053d 363d 6887 39bd 3051 513c
00000120: ffd0 503c 337a 293d 7520 59bd 63ec 67bc
00000130: e6c2 6c3c 6d59 34bd fa52 e8bc 943f 173d
00000140: e826 24bc d3bd 113d e124 d23c 3702 f53b
00000150: 32a9 00bd 4f77 4bbb 48af 9dbc 8f12 d73c
00000160: a0b4 c13b 0171 01bd 9b58 90bc 1582 03bc
00000170: f697 623d 86ac ecbc edd8 7ebc 7c66 b0bb
00000180: e514 a43c c2bd 3b3d 98de a63d c4f5 b03d
00000190: dca6 ae3c e8ec d5bc 99e4 a73d 679f 25bd
000001a0: 3d1e 153d c230 2f3d 1aad 81bc 4f4b a33c
000001b0: 3f03 9d3b 1067 003d 9ed0 7e3c 7b46 db3c
000001c0: 800c 1f3c b52a cabc 24c6 003c ba1b 85bb
000001d0: 1aec 9f3c 7d4b 24bd e17b 073d 00ba 87ba
000001e0: 9cd0 1c3d 8497 dbbb 67b3 173d dd82 843d
000001f0: 7d2f cbbb ebfa b53c b80f e8b9 d711 b4bc
00000200: 277d b0bb 0059 ec3c 1ffe 40bc 6e60 7fbc
00000210: b7ee 393b 657f 51bb 26c9 b9bc 687b a53c
00000220: c3fb eabb 69b6 28bd 09f6 e9bc 7c21 8cbc
00000230: 9a42 39bd 6996 a2bc 1767 05bd f04d 3cbd
00000240: 65f1 be3c bf83 0cbd 9011 b0bc 56c6 bfbc
00000250: 8a41 263d c7d5 463c b39b 87bc 5603 ad3b
00000260: 5de6 543a 1c0d 9dbd d720 04be b87a 6fbd
00000270: 7643 2fbd 46bf bbbd 32a2 f6bc 5eda b03b
00000280: f7bb 97bd 7e53 7dbd 1a6d 303c 8fa7 0f3d
00000290: 007d 933b fa50 d8bc 6674 2ebd 07b5 f33b
000002a0: e41d d33c 9fa6 f23b 8589 1b3b eb11 1f3d
000002b0: 528c 873c bef1 e23c d71a de3c dae4 77bc
000002c0: cb7b 46bb 786e 6d3c c66a 0bbc 04fb e9bb
000002d0: 3553 9d3c 7917 a1bd 47dd 443c 9a17 923d
000002e0: f0f6 cebb f69c 9f3c 7f2c e73d 42e2 663c
000002f0: 00f5 203d e419 83bd 8e63 90bd f1b7 173c
00000300: d57f 75bd a305 aebc 33fa 3abd 2dbd 84bc
00000310: 8097 b3bc 124c 143d 09f0 67ba cd70 46bc
00000320: 1f50 ba3c faf0 2dbd 2d5e 983c 6159 f4bc
00000330: 4502 a8bb afda 63bb 59df 0d3c 2863 13bd
00000340: e517 fb3c f70d ac3b 1275 e9bc 21e5 f9bc
00000350: adc5 9dbc cd3d 8bbd 431b cd3b 9ee1 aabc
00000360: ab4e 8fbc 2d91 83bc 6a18 af3c ea98 c5bc
00000370: 2281 45bc 7283 adbc 30fb ae3c 4015 dabc
00000380: df13 40bb bade 70bd e6cd 05bd 3f6d a3bd
00000390: 582e 7dbc 776c d6bc e50e d7bd 0fd7 30bb
000003a0: fbca f8bc c010 b1bd 1803 553d 0880 9a3d
000003b0: c011 943d d84f 6b3b 92b7 2c3d a476 ba3c
000003c0: 415a 9c38 2883 bb3c cd11 893d 9abc 133b
000003d0: b057 503b 682a e33c e57e c03c 1688 c83c
000003e0: 1f82 a1bc fbd7 543c 6599 c1bc 07b1 48bd
000003f0: 8836 0b3d 90d9 ac3c 188c 163d aa2a 49bc
-0.012192124 0.01171184 -0.03571559 -0.02287694 -0.008816759 -0.011887968 -0.0025300835 0.005912212
-0.017632578 -0.013772527 0.016618805 0.0059254365 0.044103775 0.007964362 -0.014380016 -0.0024411485
0.04734724 -0.02322117 -0.03698427 -0.043786563 -0.07767111 0.0012356705 -0.062356886 -0.08995369
0.016510965 -0.1174939 -0.11496027 -0.043430585 -0.035073973 0.024916274 -0.03631937 0.02502595
-0.0146589205 -0.0027914408 0.0480295 0.037619937 0.07474076 0.047190566 0.040201947 0.015218937
0.011439715 0.0031051056 0.054314826 0.017429538 0.039751895 -0.06656477 -0.059660092 -0.027293477
0.008743674 -0.024274781 -0.025381653 -0.015229726 0.05018789 -0.0012931784 0.0009894983 -0.005833028
-0.054390844 -0.044225764 -0.07623153 -0.0043278774 -0.00019357124 -0.04409281 -0.060115106 -0.03819396
-0.007922006 0.00079109805 0.007749079 -0.03208897 -0.005207235 0.044491787 -0.04529515 0.012775704
0.012745141 0.041376304 -0.05300947 -0.01415548 0.014450764 -0.044030596 -0.028359879 0.036925867
-0.010019042 0.03558142 0.02565235 0.0074770707 -0.031411357 -0.0031046455 -0.01924862 0.026253967
0.0059114248 -0.03160191 -0.017620375 -0.008026619 0.055320702 -0.02889086 -0.015554649 -0.005383311
0.020029495 0.045835264 0.08147925 0.08640626 0.0213198 -0.026113942 0.081978984 -0.04043522
0.03640579 0.04277111 -0.015829612 0.01993337 0.0047916467 0.031348288 0.015552668 0.026767006
0.00970757 -0.024678567 0.00785974 -0.004062143 0.019521762 -0.040111054 0.033077125 -0.0010355115
0.038284883 -0.0067014117 0.037036326 0.06470273 -0.0062007294 0.022214374 -0.000442622 -0.021981163
-0.005386013 0.028851032 -0.011779337 -0.0155869555 0.0028371045 -0.0031966802 -0.022678923 0.020200446
-0.0071711256 -0.041189585 -0.028559702 -0.01710581 -0.04522953 -0.019847112 -0.032569017 -0.045972764
0.023308465 -0.03430533 -0.02149275 -0.023410004 0.040589847 0.012135929 -0.016553735 0.0052799387
0.0008121485 -0.07668516 -0.12903152 -0.058466643 -0.042788945 -0.09167342 -0.030106638 0.005397125
-0.07408898 -0.061847202 0.010768199 0.035071906 0.004500985 -0.0264058 -0.042591475 0.0074373516
0.025771089 0.0074051167 0.002373309 0.038835447 0.016546402 0.027703162 0.027112408 -0.015130246
-0.0030286189 0.01449167 -0.0085093435 -0.007140519 0.019204715 -0.07865805 0.012015647 0.07133408
-0.0063160583 0.019484024 0.11287784 0.01409203 0.03929615 -0.064014226 -0.070502385 0.009260164
-0.059936363 -0.021242922 -0.045648765 -0.016203487 -0.021922827 0.03620536 -0.0008847719 -0.012111855
0.022743283 -0.04246614 0.018599594 -0.029827775 -0.0051272237 -0.0034767797 0.008659207 -0.035983235
0.030651042 0.005250688 -0.028498206 -0.030504765 -0.019259298 -0.06798897 0.0062593534 -0.020859536
-0.017493566 -0.016060436 0.021373946 -0.024120767 -0.012054713 -0.021180842 0.02136001 -0.02662146
-0.002930872 -0.05880616 -0.032667063 -0.079798214 -0.015452944 -0.026174767 -0.10500888 -0.0026983654
-0.030370226 -0.08645773 0.052004904 0.07543951 0.07229948 0.0035905745 0.042167254 0.02276165
7.455471e-05 0.022889689 0.06692848 0.0022542835 0.0031790547 0.027730182 0.023498008 0.024478953
-0.019715367 0.012990947 -0.023632715 -0.04899695 0.033987552 0.021099836 0.036754698 -0.012278238

conv22.bias f4 [64]
00000000: 0fca 92bc 2419 83bd fcbb bb3d 311f 8f3d
00000010: 96e3 19bd 986b bd3d be9d 26bb decb 223d
00000020: a761 373d 901e 11be 866a 873d 6e5d eb3c
00000030: d942 cc3c 5a3e 1f3d c61d ffbc fc53 833c
00000040: 97f0 a5bb b0e6 2d3e cf88 f93c 9c10 2d3d
00000050: 7584 3d3e 4fe0 d3ba 0114 bb3d 32e4 5c3c
00000060: 5327 7e3c e80d 77bd 5ab7 103e 435a 193e
00000070: a4cc 91bb a47c 843d 2a05 93bc cb7c 613c
00000080: 6e0d 2ebd fd5d 2e3e 9554 63bd cae6 22bd
00000090: 533e 5bbc 2860 d53d 876f 5b3d c135 19bc
000000a0: 8862 edbc a255 ff3d 8223 bc3b 6e58 4d3d
000000b0: b937 d63d d145 adbd 10a5 85bc 6538 4d3d
000000c0: 8aba d83c cc9d 3abc 2ead 253e ac3c 00bd
000000d0: 1ecc 913c 4679 483d 682e 8d3c d0fd 0bbc
000000e0: cc1e 8dbb 8c62 433d b9e3 003e 6305 a73d
000000f0: 9ee1 aebd 0cc2 063e 9367 f73c 663e 913d
-0.017918615 -0.064012796 0.091667145 0.06988371 -0.03757056 0.092490375 -0.0025423612 0.039745204
0.044770863 -0.14171815 0.066121146 0.028731074 0.02493422 0.038877822 -0.031142127 0.016031258
-0.005064081 0.16982532 0.030460743 0.042252168 0.1850756 -0.0016164872 0.09134675 0.01348214
0.015512305 -0.060315996 0.14132443 0.14975838 -0.004449444 0.06469086 -0.017946798 0.013762663
-0.042493276 0.17028041 -0.055500586 -0.03977088 -0.0133815585 0.10418731 0.053573158 -0.009351195
-0.028977647 0.12467505 0.0057415375 0.05013316 0.10459847 -0.08460582 -0.01631406 0.05010261
0.026456136 -0.011390161 0.16179344 -0.03130786 0.017797526 0.04894378 0.017234042 -0.0085444
-0.00430665 0.047701403 0.1258687 0.08155324 -0.08539127 0.1315996 0.030200755 0.0709198

fc.weight f4 [8, 4096]
00000000: c7af 483d ae85 e83c 7c56 e1bd 4895 ae3c
00000010: e0b0 973a bcc3 45bc 46b8 09bd f88b 06bd
00000020: aef9 013d 7209 e2bb 27ec 20bd b43f b73d
00000030: 351b e93b 09c6 b1bd 44f6 7ebd ba5d 85bc
00000040: e7fc dbba 4040 2abd 78c9 163c 19fb 133e
00000050: 5424 9c3d 12c5 103d a4e3 bcba 8bef 153d
00000060: 4a98 ce3c a9a5 cebc e07b 293d c23b 233e
00000070: 5f38 f13d efb8 ae3d 18ea c5bb f376 e13c
00000080: 9f4b 70bc f4f5 1abd b1de 533d f151 1a3e
00000090: a62f a73d faf1 723c 5246 b43b b788 b1ba
000000a0: e618 dabc be7b 7d3d ed74 0f3d 1765 c03d
000000b0: 0782 3b3c 7c14 4cbd 1656 d93c 8122 7cbc
000000c0: 3cc4 a3bc ee34 f6bc f919 04bd 2c39 8a3d
000000d0: e76d fe3c dfc8 8fbd d579 babc cb22 0dbc
000000e0: 5146 f83a 2b36 0bbb 767b bbbd ba2b 0abd
000000f0: 18ce 373c e527 a53c a3d6 eb3b 32e7 3b3c
00000100: 5d10 2a3c 2093 b3bc c209 9fbc a249 8d3d
00000110: 260d c6bb 5d3b 8db9 1f90 213c b2e9 54bc
00000120: 8994 613a bee6 173c b72e f43c 266f 76bc
00000130: 9d7c b2bc 65a1 f0bc f6fa 0e3c 8e53 093c
00000140: bb00 803c f606 ba3c 38a3 39bc e9da acbb
00000150: e014 0ebb 6dfc 1ebc d1be e7ba 6887 6ebc
00000160: 794c 883c 0318 b53c 16d5 393c 4279 41bc
00000170: 7a94 273d ef40 dd3c cab4 a63b 854c 513d
00000180: 4f18 0abd ce62 0c3d 6728 6f3b b959 a73b
00000190: a75c d53c 4605 933c 2856 d8bb de2a 38bc
000001a0: 42e5 b1bb 551f 393c 17c5 ffbb 6d72 b53c
000001b0: 3237 c5bc 4902 eabc ec4e 15bd 3d93 0abc
000001c0: 5648 c73b 4a6d ac38 7c27 babc a84f 1dbd
000001d0: 0018 13bd 50fd 5f3b 8955 c7bc d007 d5bb
000001e0: 7858 bd3a 28a0 e9ba 8d0a 923c 0953 583c
000001f0: 9cf4 d33c a51d a03c be23 003a cfb7 b93c
00000200: 2ed6 88bc 0653 96bc 0909 d1bc 45b8 b83b
00000210: 70ca bc3d 29c0 ac3b b77a 41bd a51f 0e3d
00000220: ffbf 1e3d 9e55 003d 1a7f 853c c0fd 3d3d
00000230: 5d22 a6bd 13a3 a93b 16f8 013d 6a21 cabc
00000240: 3939 d63c 7c9d 9b3c 48f3 b23d 219e 843d
00000250: 572c 03be ab0c 11be ee38 22bd 0a93 0b3d
00000260: 8a5c 2dbd e342 33bd c08b 833d 8155 d83c
00000270: 76df 52be 27fc d3bd 76b9 d33d b69e 0f3c
00000280: b5b1 f9b9 f9ab 3cbd 4109 8ebd 4840 86bd
00000290: aee2 3ebe 1977 86bd a571 7b3d aecd d03d
000002a0: e931 273d 949c 82bd c0d7 63bd 7f39 bbbc
000002b0: 87a9 2fbd f22a 943d a3bf 883c d526 483d
000002c0: 1bd5 013d 9205 5ebd 5184 9e3c 6d84 81bd
000002d0: 0812 0fbd 1bbc c63b 6d73 2bbd 69f1 8fbc
000002e0: 402c c13c 120f c7bd 249f aaba 46dd 4c3c
000002f0: 56f2 173d 2340 ad3c 8628 a33d 3cc1 ce3c
00000300: 8249 0e3b 58fb 50bc 0349 5b3c 6121 2fbc
00000310: a7fd 423d 9abc d73c 58ee 1fbb 4cb2 0e3d
00000320: c698 1b3d 6cd3 22bc 4fdf 9ebd 5f11 643c
00000330: d6b9 9e3d 41cd 9bbd 093b 0bbd a673 f9bb
00000340: 1e9c cd3c d03a aa39 e46d bcbc 7c4c 883b
00000350: 09e1 0b3d 6bcd 72bd e710 c73c f257 4c3d
00000360: bca5 7a3d 82f1 b13c 8b42 e93a 2a8b 353d
00000370: 53ef 47bc 1c68 c4bc 5b1a 5e3d a3cf 513d
00000380: 7c62 823d f4b0 26bb ed0d 3a3c 35bb f539
00000390: f33a febc c0df 8dbd 5660 90bb 5239 803c
000003a0: d1e7 9ebb 405f 2c3d 8464 e3bc c051 87bd
000003b0: dd91 d53b c456 1abd bfdb b03c 1a2f 643c
000003c0: 217d 81bd b724 443d b966 4f3d 9b02 11bd
000003d0: 621b 723d 843c 283d a4dd bd3c da3f 363d
000003e0: e279 acbb 82b8 fe3b abca eeba 6569 b23c
000003f0: a804 93bc 1f09 5e3d 92ee 8f3d 655f 00bd
0.04899576 0.028384056 -0.11002824 0.021311417 0.0011573099 -0.0120705925 -0.033623002 -0.03284833
0.031732254 -0.0068980986 -0.039287712 0.08947697 0.007113839 -0.0868035 -0.062246576 -0.016280044
-0.0016783745 -0.04156518 0.009203307 0.14451255 0.076241165 0.03534419 -0.0014411104 0.0366054
0.025219101 -0.025225477 0.041377902 0.15940765 0.1177833 0.08531367 -0.006039869 0.02752254
-0.014666467 -0.037832215 0.051726047 0.1507032 0.08163385 0.0148281995 0.005501547 -0.0013544773
-0.0266232 0.061885588 0.03502362 0.09394281 0.011444575 -0.049824223 0.026530307 -0.015389086
-0.019991033 -0.030054536 -0.032251332 0.06749186 0.031058265 -0.07020735 -0.022763172 -0.008614252
0.0018941854 -0.0021242003 -0.09154408 -0.033733107 0.01121857 0.020160625 0.0071972176 0.0114686955
0.010379878 -0.02192074 -0.019413833 0.0689881 -0.006044048 -0.00026937845 0.009861021 -0.01299517
0.00086052023 0.009271322 0.029807432 -0.015041148 -0.021787936 -0.029373834 0.008726826 0.008381737
0.015625348 0.022708397 -0.011330418 -0.0052751196 -0.0021679923 -0.009703738 -0.0017680769 -0.014558651
0.016638028 0.022106176 0.011342308 -0.011808695 0.040913083 0.027008502 0.0050874697 0.051098365
-0.03371459 0.034273915 0.0036492588 0.0051071313 0.026045157 0.01794685 -0.0066020675 -0.011240689
-0.005428941 0.011298974 -0.0078054774 0.022149289 -0.02407417 -0.028565543 -0.03645222 -0.008457956
0.006081621 8.221956e-05 -0.022723906 -0.038406044 -0.03591156 0.0034178086 -0.024332779 -0.0065011755
0.0014445921 -0.001782422 0.017827297 0.013203391 0.025873475 0.019545386 0.00048881385 0.022670655
-0.016703691 -0.018350136 -0.025517004 0.005637201 0.092182994 0.0052719307 -0.04723617 0.034698147
0.03875732 0.03133165 0.016295958 0.046384573 -0.08112023 0.0051769107 0.031730734 -0.024674136
0.026150333 0.018995993 0.087378085 0.06475473 -0.12809883 -0.14164989 -0.039605074 0.034075774
-0.04232458 -0.04376496 0.064231396 0.026407959 -0.20593056 -0.103508286 0.10338108 0.008765867
-0.00047625383 -0.046062443 -0.06935359 -0.065552294 -0.18641159 -0.06565685 0.061387677 0.1019548
0.040819082 -0.06377521 -0.055625677 -0.022854565 -0.042886283 0.07234754 0.016692942 0.048865158
0.031697374 -0.05420453 0.019350203 -0.06324086 -0.034929305 0.0060649044 -0.041858125 -0.017571168
0.02358067 -0.09719671 -0.0013017398 0.012503928 0.037096344 0.021148747 0.079667136 0.025238626
0.0021711295 -0.0127552375 0.013384107 -0.0106891105 0.047605183 0.02633505 -0.0024403539 0.034838006
0.037987493 -0.009938102 -0.077574365 0.013920157 0.07750289 -0.076075085 -0.033991847 -0.0076126633
0.025098857 0.00032468745 -0.023001619 0.0041595083 0.034150157 -0.059277933 0.024300052 0.04988856
0.061193213 0.021721605 0.0017796321 0.04432217 -0.012203055 -0.023975424 0.054224353 0.05122341
0.06366441 -0.0025435062 0.011355859 0.00046869522 -0.031033969 -0.069274426 -0.0044060154 0.015652332
-0.004849412 0.042083025 -0.02775789 -0.066073895 0.0065176324 -0.037680402 0.021589158 0.0139272455
-0.063226946 0.047886577 0.050635073 -0.035402875 0.059108146 0.041073337 0.023176976 0.044494487
-0.005263553 0.00777346 -0.0018218359 0.021778772 -0.017946556 0.054207917 0.070279256 -0.031340975

fc.bias f4 [8]
00000000: 59c6 ab3d 748f be3d 23f3 d1bc 2ab5 a2bc
00000010: fe44 4a3d 1995 b3bd aad3 0cbc d26e ecbd
0.08387441 0.09304705 -0.025628632 -0.019861776 0.049382202 -0.087686725 -0.0085953865 -0.11544575
