LAB 3/Results/tl_resnet_scratch_svhn.ckpt (torch, 485895 bytes, 10 tensors)

conv11.weight f4 [64, 3, 3, 3]
0	0x3e3ff917	0.18747364
1	0xbda92c10	-0.082603574
2	0xbe0442f9	-0.12916173
3	0xbe38acd8	-0.18034685
4	0xbd416a6c	-0.047220632
5	0x3e41e16f	0.18933652
6	0x3e2865c9	0.16445078
7	0xbd91df5f	-0.07122683
8	0x3dd18a35	0.10231439
9	0x3d933c05	0.07189182
10	0xbdb7c2ca	-0.089727
11	0x3e085778	0.13314617
12	0xbe0781f9	-0.13233174
13	0x3e2b7bae	0.16746399
14	0x3dcfb6d1	0.10142291
15	0x3e37601f	0.17907761
16	0x3e421b1c	0.18955654
17	0x3d8a4799	0.067519374
18	0x3dccdb09	0.10002715
19	0xbde41dfc	-0.111385316
20	0xbd499d67	-0.049222376
21	0x3cb3609a	0.02189665
22	0xbe0ad381	-0.13557245
23	0x3da2dc10	0.0795213
24	0x3d23f501	0.040028576
25	0x3c98f8be	0.018673297
26	0x3db61936	0.08891527
27	0x3e413da8	0.18871176
28	0x3c06e929	0.008234301
29	0xbe1c3c84	-0.1525746
30	0xbda7ffc5	-0.08203081
31	0x3d31ccda	0.043408252
32	0xbe2bb812	-0.16769436
33	0xbd84ae6a	-0.06478579
34	0xbe1dceec	-0.15410966
35	0x3bb03784	0.0053777117
36	0xbcb76304	-0.022386082
37	0xbe209f8b	-0.15685861
38	0x3da27837	0.079330854
39	0x3e275b24	0.16343361
40	0x3cc38a3e	0.02386963
41	0x3ccbae7c	0.024863474
42	0xbe359458	-0.1773237
43	0xbe417c82	-0.18895152
44	0xbe491011	-0.19635035
45	0xbcc26389	-0.023729103
46	0xbd584f4d	-0.052810002
47	0xbbc5b2ab	-0.006033262
48	0xbd5c9a07	-0.05385783
49	0xbdd1b83a	-0.102402166
50	0xbd31283c	-0.04325126
51	0x3e1ea176	0.1549128
52	0xbd8be2a5	-0.068303384
53	0x3e186c67	0.14885102
54	0xbd99371f	-0.07481217
55	0xbe4301f2	-0.19043711
56	0x3e352069	0.17688145
57	0xbdfd620d	-0.12372217
58	0xbe04331b	-0.1291012
59	0x3df7eedc	0.12106106
60	0xbd724769	-0.059150133
61	0x3cf28d4c	0.029608391
62	0x3df58360	0.119879484
63	0xbe2d2510	-0.1690867
64	0xbe3ea1ea	-0.18616453
65	0xbe17626d	-0.1478364
66	0xbd057f81	-0.0325923
67	0xbdb582b6	-0.08862822
68	0xbe35127b	-0.17682831
69	0xbdd20bce	-0.10256158
70	0x3e229c4f	0.1587994
71	0x3d179e08	0.037015945
72	0x3e2ef513	0.17085676
73	0x3e4066fc	0.18789285
74	0xbe23d428	-0.159989
75	0x3d03744d	0.032093335
76	0x3ddb1417	0.10697191
77	0xbe1903d6	-0.1494287
78	0xbe2228cc	-0.15835875
79	0xbdebeee3	-0.115201734
80	0xbe3b6041	-0.18298437
81	0x3c953649	0.018214362
82	0xbe01f3e4	-0.12690693
83	0x3de4aa19	0.11165256
84	0xbdbfa6d4	-0.09357992
85	0x3d02e589	0.031957183
86	0x3d67e254	0.056612328
87	0xbd4e771e	-0.050406568
88	0x3cad64f2	0.021166299
89	0xbce33b7d	-0.027738327
90	0x3ccd8df1	0.025092097
91	0x3df42783	0.11921599
92	0x3e3100dc	0.17285484
93	0x3dd8eb9e	0.105918154
94	0xbca5f1a9	-0.020256834
95	0xbe03f69d	-0.12887044
96	0x3da90a8e	0.08253966
97	0x3c0928f9	0.008371585
98	0x3e27210f	0.16321205
99	0xbe40c881	-0.18826486
100	0xbd925a86	-0.07146172
101	0xbdf6320b	-0.12021264
102	0xbd4deafc	-0.050272927
103	0x3cfe3d47	0.031035079
104	0xbd260f60	-0.040542006
105	0xbe1be472	-0.15223864
106	0x3dfa4262	0.12219693
107	0x3d983e19	0.07433719
108	0x3dafe2fc	0.08588216
109	0xbcb0bf9e	-0.021575745
110	0x3e409386	0.18806276
111	0xbddb7feb	-0.10717758
112	0x3dbe6edb	0.09298488
113	0xbdfe5c30	-0.12419927
114	0x3defaa9b	0.11702462
115	0x3d49f4ee	0.04930585
116	0xbe2b90ce	-0.16754457
117	0x3e1fa170	0.15588927
118	0x3e09732d	0.13422842
119	0xbe2e6bea	-0.17033353
120	0x3e293424	0.16523796
121	0x3e46dcdc	0.19420189
122	0x3e20bce4	0.15697056
123	0xbd30437e	-0.043033116
124	0xbdb6eb9f	-0.0893166
125	0x3db13fb7	0.08654731
126	0xbd34f035	-0.04417439
127	0xbd14cd6c	-0.036328718
128	0xbe106a42	-0.14103034
129	0x3e116d15	0.14201768
130	0x3d3df285	0.046373863
131	0x3c9ada76	0.018902998
132	0x3cad04c6	0.02112044
133	0x3c9ab7e8	0.018886521
134	0x3db19eee	0.086728916
135	0x3dbb4ee7	0.09145909
136	0x3df3ec07	0.11910253
137	0x3dea2053	0.114319466
138	0x3db9724e	0.09055005
139	0xbe1929e8	-0.14957392
140	0xbd09d320	-0.03364861
141	0x3e35da38	0.17759025
142	0x3dc376d7	0.09544151
143	0xbcb0c2df	-0.021577297
144	0x3d6447b9	0.055732463
145	0xbd384f41	-0.044997457
146	0xbd926036	-0.07147257
147	0xbe07b747	-0.13253509
148	0xbe078d2e	-0.1323745
149	0x3e3110a2	0.17291501
150	0xbd1f9ea2	-0.038969643
151	0xbe148a88	-0.1450597
152	0xbc9d80d1	-0.019226464
153	0x3e3b1de0	0.18273115
154	0x3dc15c81	0.09441472
155	0xbe40d404	-0.18830878
156	0x3d04dc86	0.03243687
157	0xbddd0baf	-0.10793244
158	0xbe0809d7	-0.13285004
159	0x3d3cfd9e	0.046140306
160	0x3cc301e7	0.023804618
161	0xbe0b3c1d	-0.1359715
162	0x3e14541d	0.14485212
163	0x3e1ffb23	0.15623145
164	0xbd54d86a	-0.0519642
165	0xbc0e2dcd	-0.008677912
166	0x3da48f2e	0.08035122
167	0xbe4f0bbe	-0.20219323
168	0x3ca0d2e0	0.019631803
169	0xbe11b42b	-0.14228885
170	0xbbdec6d4	-0.0067986045
171	0x3dd0c042	0.1019292
172	0x3b859fb3	0.0040778755
173	0xbd966228	-0.073429406
174	0xbe16723e	-0.14692017
175	0x3da4cb9d	0.08046649
176	0x3e266a0a	0.16251388
177	0x3e2ce858	0.16885507
178	0xbe20441b	-0.1565098
179	0xbe2c05bf	-0.16799067
180	0x3de72c87	0.1128779
181	0x3d99048e	0.07471572
182	0xbd38c9d4	-0.045114353
183	0xbde34f99	-0.110991664
184	0x3e048b17	0.12943684
185	0x3d6a3f50	0.057189286
186	0x3aa7ecd2	0.0012811667
187	0x3d8f3c57	0.06993931
188	0xbdcdf35a	-0.10056181
189	0x3dd36be1	0.10323311
190	0xbdc9070a	-0.09815796
191	0x3e2b3524	0.1671949
192	0xbe2abdb9	-0.16673936
193	0xbde6b7ac	-0.112655014
194	0x3db0f271	0.08639992
195	0xbe20965b	-0.15682356
196	0x3e00782d	0.12545843
197	0xbd9bd82b	-0.0760959
198	0x3d10aadb	0.03531919
199	0x3e3281a8	0.17432272
200	0xbc8f372d	-0.017482365
201	0xbd4cd50e	-0.050007872
202	0x3da609a4	0.081073076
203	0xbd99c7a6	-0.07508783
204	0x3e097307	0.13422786
205	0x3e460d84	0.19341093
206	0xbe164350	-0.14674115
207	0xbe0e0b22	-0.13871434
208	0xbd77be8b	-0.06048445
209	0xbe3bf9bc	-0.18356985
210	0xbdb8c8f5	-0.090227045
211	0xbe20b82c	-0.15695256
212	0x3d91ef36	0.07125704
213	0xbdd61018	-0.104522884
214	0xbdfa3798	-0.12217635
215	0x3d5f0a4f	0.05445319
216	0xbd61fc43	-0.055172216
217	0xbe25f5bc	-0.16207021
218	0xbe13b87d	-0.14425845
219	0xbe047f36	-0.12939152
220	0x3debb81e	0.11509727
221	0xbdf0e8e8	-0.11763173
222	0xbce36c00	-0.02776146
223	0x3db391dd	0.087680556
224	0x3daff317	0.085912876
225	0x3cc63a96	0.024197858
226	0x3d47bbcc	0.04876308
227	0xbe472c10	-0.19450402
228	0xbdc7a31f	-0.0974791
229	0x3d00c34c	0.03143625
230	0xbd9dba47	-0.07701545
231	0xbde5ff92	-0.11230387
232	0xbe01531b	-0.12629358
233	0x3cc56bec	0.024099313
234	0xbe126f6f	-0.14300321
235	0xbe13f078	-0.144472
236	0xbe28bcd7	-0.16478287
237	0x3d552498	0.05203685
238	0x3e1e91e0	0.15485334
239	0x3d33dc9e	0.04391157
240	0x3d636b80	0.055522442
241	0xbd6ce739	-0.0578377
242	0xbceb658e	-0.028734948
243	0xbe223f4a	-0.15844455
244	0xbd179754	-0.037009552
245	0x3e012a39	0.12613763
246	0xbba6295f	-0.00507085
247	0xbda5d234	-0.08096734
248	0x3cb1acb1	0.021688791
249	0x3e2946d8	0.16530931
250	0x3dfe5fbc	0.12420604
251	0xbd4a1ce0	-0.049343944
252	0xbe1582e1	-0.14600708
253	0xbd9682ba	-0.07349153
254	0x3d7965e8	0.0608882
255	0xbe43a132	-0.1910446

conv11.bias f4 [64]
0	0xbd9ee222	-0.07757975
1	0xbdcd7a7a	-0.10033126
2	0x3c761608	0.015019901
3	0xbdc4714a	-0.09591921
4	0xbdc0dd4e	-0.094172105
5	0x3da99d51	0.08281959
6	0x3dffc024	0.1248782
7	0x3cd9a798	0.026569173
8	0x3e1df40e	0.1542513
9	0x3d68ca91	0.056833807
10	0xbdbfadc0	-0.09359312
11	0xbe3b6286	-0.18299302
12	0x3e26455f	0.162374
13	0x3e07a18b	0.13245218
14	0xbe3be4b1	-0.18348958
15	0x3e66db15	0.2254451
16	0x3e265ee0	0.1624713
17	0x3d7cc0a5	0.061707158
18	0xbd1c43ea	-0.038150705
19	0x3c68b143	0.014202419
20	0x3e0ee01a	0.13952675
21	0xbe26ac5c	-0.16276687
22	0x3da3f977	0.08006566
23	0xbcc73114	-0.024315394
24	0xbe258725	-0.16164835
25	0x3ca71bb3	0.02039895
26	0x3d7a0ccd	0.061047364
27	0x3de9a534	0.11408463
28	0x3e2dfe8d	0.16991635
29	0x3d103263	0.035204303
30	0xbe0efa02	-0.13962558
31	0x3d6b8af0	0.057505548
32	0x3db0c568	0.08631402
33	0xbe30602b	-0.17224185
34	0x3dc5a0fc	0.09649846
35	0x3e2104e6	0.15724525
36	0x3e38c6df	0.18044613
37	0xbe397770	-0.18111968
38	0x3e06bf57	0.13158928
39	0x3d8e588c	0.06950483
40	0xbcb57149	-0.022148745
41	0x3e2adf5e	0.1668677
42	0x3e02a02d	0.12756415
43	0xbe27201a	-0.1632084
44	0xbd83cf71	-0.06436051
45	0xbc9bae55	-0.019004026
46	0x3dc5e5ef	0.09662997
47	0xbe21e300	-0.1580925
48	0x3baeda39	0.0053360728
49	0xbc0ff589	-0.0087865675
50	0xbd9a90f9	-0.075471826
51	0xbd917959	-0.07103223
52	0x3e2a4891	0.16629244
53	0xbe142d2b	-0.14470355
54	0xbe0a7bde	-0.13523814
55	0x3defcb02	0.117086425
56	0x3dcf7805	0.10130314
57	0xbbb4f125	-0.0055219107
58	0xbdf6fa69	-0.12059481
59	0xbdf702a5	-0.12061051
60	0xbcaa2c1b	-0.020772984
61	0xbd2f22e6	-0.04275789
62	0x3dde2529	0.108469315
63	0x3e1baffe	0.15203854

conv12.weight f4 [64, 64, 3, 3]
0	0xbc41d87b	-0.011831398
1	0x3cdc5d14	0.026899852
2	0x3d181b19	0.037135217
3	0xbb975e21	-0.0046193753
4	0xbd1609f3	-0.036630582
5	0x3bd43141	0.006475598
6	0xbccead89	-0.025229232
7	0x3cfb5949	0.030682223
8	0xbcfa7672	-0.030574057
9	0xbce87892	-0.028377805
10	0x3be73e2f	0.0070569734
11	0xbd2023a5	-0.039096493
12	0xbca3a7c5	-0.01997746
13	0x3ae2a2bc	0.001729093
14	0xbccb8bfe	-0.024847027
15	0xbca0724a	-0.019585747
16	0x3a1ce6b0	0.0005985303
17	0x3d1b1914	0.037865713
18	0x3c8f7155	0.017510096
19	0x3cb605e3	0.022219604
20	0xbc577820	-0.013151199
21	0x3bd4ebd3	0.006497839
22	0x3ccb0587	0.02478291
23	0xbc7db69f	-0.015485435
24	0x3d03f3b4	0.032214835
25	0x3cc2c479	0.023775326
26	0x39946077	0.00028300632
27	0x3d161928	0.036645085
28	0x3c1a1aa3	0.009405765
29	0xbcd4818d	-0.02594068
30	0x3aa58215	0.0012627268
31	0xbc9ee333	-0.019395446
32	0x3d0a376b	0.033744257
33	0x3d07ee04	0.033185974
34	0x3b97fca1	0.00463827
35	0x3c2d2208	0.010567196
36	0xbce2e174	-0.027695395
37	0xbd0c2d5d	-0.03422295
38	0x3ceb1d47	0.028700484
39	0xbba9aae2	-0.0051778415
40	0x3cf272bc	0.029595725
41	0xbb73ca0a	-0.0037199282
42	0xbced72b1	-0.028985353
43	0xbcb62721	-0.022235455
44	0xbb730b83	-0.003708572
45	0x3c9c34c1	0.019068124
46	0xbc78256a	-0.015145639
47	0xba824113	-0.0009937607
48	0xbd222dc9	-0.039594445
49	0x3c1e34a1	0.009656102
50	0x3c4a4c9b	0.012347366
51	0xbd18fece	-0.037352376
52	0x3d1bc1cc	0.038026616
53	0x3d19c84c	0.037544534
54	0xbce58f5f	-0.028022466
55	0x3d03f19c	0.03221284
56	0x3cba4245	0.022736678
57	0x3bf15c97	0.007365774
58	0x3d1450dd	0.03620993
59	0x3c619f42	0.01377088
60	0xbc9bbfff	-0.01901245
61	0x3d0f435b	0.034976345
62	0xbbf01d14	-0.007327685
63	0x3cc096c0	0.023509383
64	0x3c0334bb	0.008008177
65	0x3d18f1ed	0.037340093
66	0x3ad4832a	0.0016213406
67	0xbc85bd8c	-0.016325735
68	0x3d186155	0.037202198
69	0x3cb0e108	0.021591678
70	0x3bcdbf81	0.0062789326
71	0xbc444db9	-0.011981421
72	0xbbea6bc8	-0.007153962
73	0x3d07f8cd	0.03319626
74	0xbc6cc924	-0.014452253
75	0x3b26083d	0.00253345
76	0xbc6db6fd	-0.01450896
77	0xbccbc600	-0.024874687
78	0x3cb19f42	0.021682385
79	0xbd22e23a	-0.039766528
80	0xbcceb22b	-0.025231441
81	0x3c089998	0.008337401
82	0xbd012420	-0.031528592
83	0x3cda9fc0	0.026687503
84	0x3bad1df6	0.0052831126
85	0x3c13959a	0.009007836
86	0xbd1d7416	-0.038440786
87	0xbcb7c15d	-0.02243107
88	0xba6bdeaa	-0.0008997718
89	0x3c270105	0.010193114
90	0x3b18e96a	0.0023332485
91	0x3ce1f4ac	0.027582489
92	0xbcd256ec	-0.025676213
93	0x3cdd13c0	0.026986957
94	0x3c72c1a8	0.014816679
95	0xbd18ac2a	-0.037273563
96	0x3a072abd	0.000515621
97	0xbc1d1e99	-0.009589815
98	0xbc1a4bb4	-0.009417463
99	0x3ce6e7ba	0.028186668
100	0xbcfbbb76	-0.030729037
101	0x3c0782e2	0.008270951
102	0x3b6f49b2	0.0036512432
103	0xbc411adf	-0.011786192
104	0xbc9a7ff3	-0.018859839
105	0xbd1bc927	-0.03803363
106	0xbcb79a29	-0.022412376
107	0xbc13af20	-0.009013921
108	0x3c4b7df9	0.012420171
109	0x3cc580b4	0.024109222
110	0x3ce7c016	0.028289836
111	0x3cd3a701	0.02583647
112	0x3cfbcb39	0.030736553
113	0x3c82e2a8	0.015977219
114	0x3c1dff1e	0.009643344
115	0x3ce1adb9	0.027548658
116	0xbc79a6bb	-0.015237506
117	0x3d1d26c6	0.038367055
118	0xbbf739c5	-0.0075447285
119	0xbd28bc31	-0.0411951
120	0x39497a8f	0.0001921451
121	0xbcc93248	-0.024560109
122	0xbc813b6c	-0.015775405
123	0x3d013c3b	0.03155158
124	0xbd01b9d6	-0.031671368
125	0x3b36f72b	0.002791832
126	0x3c4b2d37	0.012400917
127	0x3c8cedec	0.017203294
128	0xbc55ade1	-0.013041944
129	0xbc002d31	-0.0078232745
130	0xbd0a2021	-0.033722047
131	0x3d168b83	0.036754142
132	0xbc851b2c	-0.016248308
133	0x3ca97a46	0.020688187
134	0x3b876ff1	0.0041332175
135	0x3cb0ac52	0.021566544
136	0x3cd5df7a	0.026107538
137	0x3cb1a4e3	0.02168507
138	0x3bfca968	0.0077106245
139	0x3cc3cc15	0.023901025
140	0x3bbad3ca	0.0057015168
141	0x3ba600a1	0.005065993
142	0x3b8d0631	0.0043037166
143	0xbce9ee64	-0.028556056
144	0x3d0a216f	0.03372329
145	0xbbd2cc32	-0.0064330334
146	0xbcaeb363	-0.021325773
147	0x3ade4b9a	0.0016959787
148	0x3d08ba4d	0.033380795
149	0x3bee0e96	0.0072649224
150	0x3cc9a090	0.024612695
151	0x3b9fa1c2	0.004871578
152	0x3ca6f71c	0.020381503
153	0x3a65754c	0.00087531353
154	0x3bdbb02c	0.006704351
155	0xbc937107	-0.017998232
156	0xbc49f5d3	-0.0123266755
157	0x3c5518f6	0.013006439
158	0xbd0f37d1	-0.03496534
159	0x3c0ee000	0.008720398
160	0x3c075b7d	0.008261559
161	0x3d246439	0.040134642
162	0x3c2a9488	0.010411389
163	0x3c4421eb	0.011970977
164	0x3aa131ab	0.0012298127
165	0xbc8ee173	-0.017441487
166	0x3c7d9c06	0.015479093
167	0xbcdb5588	-0.026774183
168	0x3c82c248	0.015961781
169	0x3c806e9d	0.015677745
170	0x3c052cbd	0.008128342
171	0x3d156253	0.036470722
172	0xbccd079e	-0.025028046
173	0xbcd55ae0	-0.02604431
174	0x3baf08ad	0.0053416104
175	0xbc074452	-0.008256035
176	0xbcaaefc3	-0.02086628
177	0x3cb84115	0.022491971
178	0x3c7d51be	0.015461383
179	0x3c7eac9b	0.015544082
180	0xbba06a7f	-0.004895508
181	0xbd02e9bd	-0.03196119
182	0xbcf7aad4	-0.030232824
183	0xbc626c04	-0.013819698
184	0xbd1e96fa	-0.0387182
185	0xbcf1eddd	-0.029532367
186	0xbd095bc4	-0.03353478
187	0xbc021a05	-0.007940774
188	0xbc905761	-0.01761979
189	0xbbf7345a	-0.0075440826
190	0xbd024ff7	-0.03181454
191	0xbc936c02	-0.017995838
192	0xbce7e7d1	-0.02830878
193	0xbcfccaae	-0.030858364
194	0xbc98d25a	-0.018654991
195	0x3c6f2f51	0.014598683
196	0xbd249461	-0.040180568
197	0xbd315840	-0.043297052
198	0x3c7f85a5	0.015595828
199	0x3ca00dad	0.019537771
200	0x3cd754c3	0.026285535
201	0x3bfe2025	0.007755297
202	0x3c3389db	0.01095816
203	0xbcafa746	-0.021442067
204	0xbcbe0478	-0.02319549
205	0xbb78e253	-0.0037976697
206	0x3c5f9e28	0.013648547
207	0xbcd873d0	-0.026422411
208	0xbd19624e	-0.037447266
209	0x3d28fa99	0.041254614
210	0x3d10b001	0.0353241
211	0x3cacb7c8	0.021083727
212	0xbc625d02	-0.01381612
213	0x3cd532b3	0.026025152
214	0xbca265c0	-0.019823909
215	0x3ce52dea	0.027975995
216	0xbc84006c	-0.016113482
217	0xbccd0ea9	-0.025031405
218	0xbd0d35e1	-0.03447521
219	0x3c5fd43b	0.0136614395
220	0xbcf69d72	-0.030104373
221	0xbc48fcfe	-0.012267349
222	0x3bcf1e44	0.0063207466
223	0x3cfa618a	0.030564088
224	0x3ce22050	0.027603298
225	0x3978c514	0.0002372454
226	0x3d18a8a5	0.037270207
227	0xbbac361e	-0.0052554747
228	0x3d15bf54	0.036559418
229	0xbd28bede	-0.04119765
230	0x3c97380f	0.018459348
231	0xbc3482a0	-0.011017472
232	0x39874f73	0.000258084
233	0xbc8442a5	-0.01614506
234	0xbc3c5045	-0.011493747
235	0x3d158cd3	0.036511254
236	0x3c85e3a5	0.016343901
237	0x3d0d122f	0.03444117
238	0xbb8de364	-0.0043300856
239	0x3cfef5f5	0.03112314
240	0xbc33b3ef	-0.0109681925
241	0xbc3ee11a	-0.011650348
242	0xbcc66dc0	-0.024222255
243	0x3cbfc10b	0.02340748
244	0xbcd3afcf	-0.025840668
245	0x3c942a41	0.018086554
246	0x3d0b8cc1	0.03406978
247	0x3ce81fa9	0.02833541
248	0x3cc6df8b	0.024276515
249	0xbd2d11d3	-0.042253327
250	0xb9c42f5c	-0.0003741932
251	0xbc7af043	-0.015316072
252	0xbc287272	-0.010281192
253	0x3bca0684	0.0061653275
254	0xbcc64042	-0.024200562
255	0x3c9574dd	0.018244201

conv12.bias f4 [64]
0	0x3cf82ede	0.030295786
1	0x3b9e2c4b	0.0048270575
2	0x3cf60de8	0.030035928
3	0xbcf7d2af	-0.030251829
4	0xbd198a16	-0.037485205
5	0xbcc2cd13	-0.023779428
6	0xbd03ebbe	-0.032207243
7	0xbcfb0e00	-0.030646324
8	0x3d04c5ce	0.032415204
9	0xbd1cb7d9	-0.03826127
10	0x398ee0fe	0.00027251983
11	0x3c672858	0.01410874
12	0xbc88e623	-0.0167113
13	0x3a6742e6	0.00088219193
14	0xbcb14555	-0.021639505
15	0x3cca112b	0.02466639
16	0x3bcc6f18	0.0062388293
17	0x3c8bd8b7	0.017071111
18	0xbc6e0bb8	-0.014529161
19	0xbcb73322	-0.02236325
20	0xbbf13922	-0.007361547
21	0x3d027b89	0.031856094
22	0x3d1b47a1	0.037910108
23	0xbbf36e29	-0.0074289036
24	0xbca2f934	-0.01989422
25	0xbd257d58	-0.04040274
26	0xbc8d1675	-0.017222622
27	0xbce0b2a3	-0.02742893
28	0x3baecff3	0.005334848
29	0x3c85916d	0.016304696
30	0xbcc59469	-0.024118619
31	0xbbfc6aa7	-0.0077031436
32	0x3b41fbea	0.0029599615
33	0xbccc132d	-0.024911487
34	0x3ceb5fa0	0.028732121
35	0xbbf20c9b	-0.0073867566
36	0xbd115548	-0.03548172
37	0xbccae661	-0.024768056
38	0x3ca30fcd	0.019904995
39	0xbc226277	-0.009911171
40	0xbcffc354	-0.03122107
41	0x3d01185d	0.031517375
42	0x3ce78c16	0.02826504
43	0xbccdb0a7	-0.025108648
44	0xbcff833e	-0.03119051
45	0x3d1ccd5a	0.038281776
46	0xbd2de6a7	-0.042456295
47	0x3c8beba9	0.017080145
48	0x3c5e46fe	0.013566731
49	0x3bab1a79	0.0052216616
50	0xbbd7d475	-0.006586606
51	0xbc06e3e7	-0.008233047
52	0xbd1bc3b1	-0.038028423
53	0xbcb80953	-0.022465384
54	0xbd08174c	-0.033225343
55	0x3c9581a8	0.018250301
56	0xbd32480e	-0.043525748
57	0x39f09a2b	0.0004589123
58	0xbc53fe0f	-0.01293899
59	0xbcae8600	-0.02130413
60	0xbd1447ad	-0.036201168
61	0x3c56e4d2	0.013116078
62	0x3ceba8d0	0.02876702
63	0x3d199af4	0.03750129

conv21.weight f4 [64, 64, 3, 3]
0	0xbce4afe7	-0.027915908
1	0x3d098224	0.033571377
2	0x3cfe9091	0.031074794
3	0x3cfc6e25	0.03081424
4	0xbca1aeef	-0.019736735
5	0x3c12dc00	0.008963585
6	0xbd1d8c2d	-0.03846376
7	0xbd1e0b99	-0.03858528
8	0xbc00fae0	-0.007872313
9	0xbc0ec611	-0.008714215
10	0x3b09f765	0.0021052
11	0xb9478941	-0.0001902925
12	0x3ca6bf62	0.02035493
13	0xbd0cb4cc	-0.03435211
14	0xbce32dd2	-0.02773181
15	0x3b3194c4	0.0027096728
16	0x3d21572d	0.039389778
17	0x3d113430	0.03545016
18	0xbc84c379	-0.01620649
19	0xbd35c1e6	-0.04437437
20	0xbd0bbe93	-0.034117293
21	0xbccf0fa6	-0.025276016
22	0xbcbcf8d4	-0.02306787
23	0xbc99f1d9	-0.01879208
24	0x3d319835	0.043358047
25	0x3d388270	0.04504627
26	0xbcc55973	-0.024090504
27	0x3d3382be	0.043825857
28	0xbc759499	-0.014989042
29	0x3a40139c	0.0007327141
30	0x3d2f8a01	0.04285622
31	0xbc507de0	-0.012725323
32	0xbcbf2a2c	-0.023335539
33	0xbc70dda7	-0.014701284
34	0xbca98f6b	-0.02069827
35	0xbc95d59b	-0.018290332
36	0x3c8061fe	0.015671726
37	0xb88c7a72	-6.6985274e-05
38	0x3d14b9bc	0.036309943
39	0xbc8ff9fa	-0.017575253
40	0x3b0d3f7c	0.0021552732
41	0x3d01c7f5	0.031684835
42	0x3bcb4b06	0.006204012
43	0x3c177d41	0.009246171
44	0x3cf883ca	0.03033628
45	0xbcb88064	-0.022522159
46	0xbd08c2a7	-0.03338876
47	0xbd01b653	-0.03166802
48	0xbbe7fb10	-0.0070794895
49	0xbc59d9bb	-0.01329654
50	0x3b90fe59	0.004424852
51	0x3d196c92	0.037457056
52	0x3b149ab6	0.0022675223
53	0xbcc9e458	-0.024645016
54	0xbc52ff07	-0.012878186
55	0x3cd670a9	0.026176767
56	0xbd01fe1b	-0.031736474
57	0x3cbf0edf	0.02332252
58	0xbd15393b	-0.036431532
59	0x3c8c7e83	0.01715017
60	0xbc6049c1	-0.013689459
61	0x3d11e19b	0.035615545
62	0xbcafec84	-0.021475084
63	0x3cd45fec	0.025924645
64	0xbd262063	-0.04055823
65	0xbd09c53a	-0.033635356
66	0xbcfa1796	-0.030528825
67	0x3bd6aebe	0.0065515926
68	0xbc010003	-0.007873538
69	0xbcd8077a	-0.026370753
70	0xbc8ac561	-0.01693982
71	0x3af8adce	0.0018972696
72	0x3b9de2d2	0.004818299
73	0x3ccba1ae	0.024857368
74	0xbcb2638b	-0.021775981
75	0x3c7992dc	0.015232768
76	0xbd065eff	-0.03280544
77	0x3d0ab058	0.03385958
78	0x3b02ec59	0.00199773
79	0x3d3085fc	0.043096527
80	0x3c7b7899	0.015348577
81	0x3d3860a6	0.045014046
82	0xbc370ae6	-0.011172032
83	0x3c5026ad	0.0127045335
84	0xbc194373	-0.00935446
85	0x3c11aeaa	0.008891741
86	0x3cf39f70	0.029739112
87	0x3cdafc8f	0.026731757
88	0xbd0230b1	-0.031784717
89	0xbca3d68e	-0.019999769
90	0xbc071944	-0.00824577
91	0x3c6bc92a	0.014391223
92	0x3afd40b7	0.0019321655
93	0x3d2c425c	0.042055473
94	0x3ccd43ad	0.025056684
95	0x3d030134	0.03198357
96	0x3b3a7f99	0.0028457402
97	0x3d1565bc	0.036473975
98	0xbaee75e7	-0.0018193097
99	0x39848e1d	0.00025282885
100	0x3b23f080	0.0025015175
101	0xbc24d946	-0.010061568
102	0x3ac88a87	0.0015300073
103	0x39d03fcb	0.0003972038
104	0xbd03d1db	-0.032182556
105	0x3ca9b0ed	0.020714248
106	0xbd183ee2	-0.037169345
107	0xbc467721	-0.0121133635
108	0x3ce6708c	0.028129838
109	0xbc1ba290	-0.009499207
110	0x3d1b443b	0.037906867
111	0xbd32adb5	-0.04362269
112	0x3cd9e556	0.026598614
113	0xbb942636	-0.0045211567
114	0x3bfa0935	0.007630492
115	0xbd2ade55	-0.04171594
116	0xbae0f86f	-0.0017163883
117	0x3b7156ac	0.0036825342
118	0xbd09f36d	-0.033679415
119	0x3d1a33c6	0.03764703
120	0xbb9d9480	-0.0048089623
121	0xbc248dac	-0.010043543
122	0x3d252eaf	0.040327724
123	0xbc84d25d	-0.01621359
124	0x3c1cc918	0.009569429
125	0xbc2720e2	-0.010200711
126	0x3c9a22da	0.018815447
127	0xbcef6fb3	-0.029228067
128	0x3cef3d25	0.02920396
129	0xbcc74158	-0.02432315
130	0xbc230319	-0.009949469
131	0xbb855b45	-0.004069718
132	0x3d1a0229	0.037599716
133	0x3d1683e4	0.036746874
134	0xbd18343a	-0.037159182
135	0x3cb2a68c	0.021807931
136	0x3d0c3b22	0.03423608
137	0x3cdfbc41	0.027311446
138	0xbc3e274a	-0.011606047
139	0x3d108750	0.035285294
140	0xbcc4b15c	-0.024010353
141	0x3cc723ef	0.024309127
142	0x3c618897	0.013765476
143	0xbbf0876b	-0.007340362
144	0xbccfb778	-0.02535604
145	0xbb87fa9f	-0.0041497494
146	0xbba3d2ec	-0.004999509
147	0xbc8c2e16	-0.01711182
148	0xbc4c144d	-0.012456012
149	0x3d07ee84	0.03318645
150	0x3cb2380d	0.021755243
151	0xbd0d702c	-0.034530804
152	0x3d19459e	0.037419908
153	0x3bfacda1	0.0076539074
154	0x3d36ea42	0.044657
155	0xbb706921	-0.0036683755
156	0x3c4671a2	0.012112053
157	0x3d038bc9	0.03211573
158	0xbc9db360	-0.019250572
159	0xbc1f4256	-0.009720406
160	0xbd217690	-0.03941971
161	0x3ad8e355	0.0016547242
162	0xbc5ad697	-0.013356826
163	0x3bb69c12	0.0055728042
164	0xbc8fd333	-0.017556762
165	0xbd1c46ee	-0.03815358
166	0xbd0b056b	-0.033940714
167	0xbc1aa699	-0.009439134
168	0xbcb47959	-0.02203052
169	0x3b490793	0.003067468
170	0x3d2060d7	0.039154854
171	0x3c29771c	0.010343339
172	0x3d11e1f2	0.03561587
173	0x3c74592a	0.0149138365
174	0x3adc1184	0.0016789888
175	0x3c04be25	0.008101975
176	0x3cdfc279	0.027314411
177	0xbc3e9332	-0.011631774
178	0x3c03f3cb	0.00805373
179	0x3beafc3c	0.007171182
180	0x3c5ac531	0.013352678
181	0xbd096be4	-0.03355016
182	0x3d1ca6a5	0.038244862
183	0x3cef1996	0.029187005
184	0x3cb77147	0.022392882
185	0xbb883f68	-0.0041579492
186	0x3cd4e3bd	0.0259875
187	0x3c758e80	0.014987588
188	0x3cba4938	0.022739992
189	0x3d231221	0.03981221
190	0xbcb24d67	-0.021765424
191	0xbcc8ecc8	-0.024526969
192	0x3d282167	0.04104748
193	0xbc99cc44	-0.01877416
194	0x3d199dc8	0.037503988
195	0x3d19bb02	0.03753186
196	0xbc6f445a	-0.014603699
197	0x3b5e33a0	0.0033905283
198	0xbcb9cfde	-0.022682127
199	0x3c6b5c48	0.014365263
200	0x3c9685af	0.018374292
201	0x3d1b7784	0.037955776
202	0x3b610576	0.003433553
203	0xbc0011fc	-0.007816788
204	0xbc312b52	-0.010813551
205	0x3c1ef48b	0.009701858
206	0xbb88f9fa	-0.00418019
207	0x3c8e4898	0.0173686
208	0xbceca652	-0.028887901
209	0xbca044ab	-0.019563993
210	0xbbdbaf4f	-0.006704248
211	0xbd026322	-0.03183282
212	0xbd12f850	-0.03588134
213	0x3c9564d9	0.018236564
214	0xbc475e51	-0.012168483
215	0xbcb95c6e	-0.022627082
216	0x3c26261e	0.010140924
217	0xbc969eaa	-0.018386204
218	0x3bc6dc5e	0.0060687503
219	0x3d24476f	0.040107187
220	0x3b2b84a1	0.0026171582
221	0x3be6f92c	0.0070487466
222	0x3d20f5e7	0.03929701
223	0xbd2072dd	-0.039172042
224	0x3d24be2c	0.040220425
225	0x3c0c1af0	0.008551344
226	0xbb24c9c4	-0.0025144676
227	0xbb1e5215	-0.0024157811
228	0x3c8faf23	0.017539566
229	0x3cec30f0	0.028831929
230	0xbcc0e82b	-0.023548206
231	0xbc62193a	-0.01379996
232	0xb92872db	-0.00016064516
233	0xbca37816	-0.019954722
234	0x3bf992e3	0.007616387
235	0xbcd47bf7	-0.025938017
236	0x3cf3c21a	0.02975564
237	0xbc960ebe	-0.018317576
238	0xbc526b08	-0.012842901
239	0xbcc9ba9b	-0.024625113
240	0x3c912076	0.017715674
241	0xbc860af1	-0.01636264
242	0x3cd57e2f	0.026061146
243	0xbb04dea2	-0.00202743
244	0xbd0f6364	-0.035006896
245	0xbad5fa1d	-0.001632515
246	0x3cb32d4d	0.021872187
247	0x3d26a3a9	0.040683422
248	0x3a05fae5	0.00051109336
249	0xbbda7c5f	-0.006667658
250	0xbc9752ba	-0.018472064
251	0x3ce7e536	0.028307538
252	0xbad20b58	-0.0016025109
253	0xbd040a04	-0.032236114
254	0x3c42f5e6	0.011899447
255	0x3d3cf9ea	0.046136774

conv21.bias f4 [64]
0	0xba9e2753	-0.0012066163
1	0x3bda549e	0.006662919
2	0x3cea2e0c	0.02858641
3	0xbd179dad	-0.037015606
4	0x3cdbefbc	0.026847713
5	0xbd132a47	-0.03592899
6	0x3cde72f5	0.027154425
7	0xbd0d78a8	-0.034538895
8	0xbc40784c	-0.011747431
9	0x3b1921e6	0.0023366152
10	0x39ee71e3	0.0004547975
11	0x3b9106bd	0.004425852
12	0xbcf60791	-0.030032905
13	0x3d248589	0.04016641
14	0xbce80818	-0.028324172
15	0x3cdecf20	0.027198374
16	0x3d0ea99a	0.034829713
17	0xbd49d926	-0.049279355
18	0xbca25957	-0.019817991
19	0xbb49a437	-0.0030768046
20	0xbc4c214a	-0.012459109
21	0xbd1a6a79	-0.037699196
22	0xbcdb5020	-0.026771605
23	0x3ce350a2	0.02774841
24	0xbd2baa46	-0.041910432
25	0x3cc4e20f	0.024033574
26	0x3cee0d26	0.029059004
27	0xbb45dc4e	-0.0030191126
28	0xbd05b619	-0.032644365
29	0x3cb9cae7	0.02267976
30	0xbccd55b7	-0.025065286
31	0x3c580257	0.013184152
32	0x3cee2d0f	0.02907422
33	0xbcd7755e	-0.026301082
34	0xbd48540d	-0.048908282
35	0x3d3aed18	0.045636266
36	0xbcd874e3	-0.026422923
37	0x3b4d5616	0.0031331829
38	0x3a858630	0.0010187086
39	0x3cbe5ef9	0.023238646
40	0xbc8cbafd	-0.017179007
41	0xbc5612b7	-0.013065985
42	0x3c46bec7	0.012130446
43	0xbca0a88c	-0.01961162
44	0xbd217247	-0.039415624
45	0xbcbde6a0	-0.02318126
46	0x3d0061af	0.03134316
47	0x3ca7706e	0.020439353
48	0xbc994cc9	-0.018713372
49	0x3d2b606f	0.041840013
50	0x3cb46450	0.022020489
51	0x3b621a65	0.0034500596
52	0xbb6ee4c3	-0.003645227
53	0x3d2ecc5f	0.042675372
54	0xbc2a7a1c	-0.01040509
55	0xbc5c4f26	-0.013446605
56	0xbca7f31e	-0.02050167
57	0x3d196a9b	0.037455183
58	0xbc9c8ab5	-0.01910911
59	0xbd0bb93d	-0.034112204
60	0x3b58c2a6	0.0033075004
61	0x3ce29ca2	0.027662579
62	0xbcb54561	-0.022127809
63	0x3b00b0ca	0.0019636624

conv22.weight f4 [64, 64, 3, 3]
0	0xbbaf523f	-0.0053503807
1	0x3cd843b8	0.026399478
2	0xbc8ea587	-0.017412914
3	0xbc35b3d2	-0.011090236
4	0x3d27c026	0.04095473
5	0xbd29a588	-0.04141763
6	0xbcfc4884	-0.030796297
7	0xbd280858	-0.041023582
8	0xbcfadcd1	-0.030622872
9	0x3c5ff659	0.013669574
10	0x3cb0facc	0.021603964
11	0xbcd455f6	-0.025919896
12	0xbcba793f	-0.022762893
13	0xbb3ff92b	-0.0029292803
14	0xbcf0e149	-0.0294043
15	0x3cbae72b	0.022815308
16	0xbbba5123	-0.005685942
17	0xbc7c0483	-0.015381935
18	0xbc838519	-0.016054677
19	0x3ce599e8	0.02802749
20	0x3d133080	0.035934925
21	0xbaeaed85	-0.001792357
22	0x3d07dfab	0.03317229
23	0xbc01f4e8	-0.007931925
24	0xbbe1f367	-0.006895471
25	0x3c3ba885	0.011453752
26	0xbbc0b9cf	-0.005881525
27	0x3c0cc668	0.008592226
28	0xbce9ef96	-0.028556626
29	0xbcc776b3	-0.024348592
30	0x3c43c8b0	0.011949703
31	0x3d0a47fb	0.033760052
32	0xbc58a344	-0.013222519
33	0x3c91087c	0.017704241
34	0x3bfc2417	0.007694732
35	0xbbf84219	-0.007576239
36	0x3ca2cb5a	0.019872356
37	0xbc610238	-0.013733439
38	0x3d0c01c4	0.03418137
39	0x3c923011	0.017845185
40	0xbc6b4786	-0.014360314
41	0xbc80ee81	-0.015738728
42	0xbd1240ed	-0.03570645
43	0xbd21e457	-0.039524402
44	0xbb3ccafd	-0.0028807514
45	0xbb676f35	-0.0035314087
46	0x3cb87956	0.022518795
47	0xbc1e4706	-0.009660488
48	0xbb9393b2	-0.0045036906
49	0xbd276a6c	-0.040872976
50	0xbcce1dd2	-0.025160704
51	0x3c23419d	0.009964374
52	0xbcb7cf9d	-0.022437865
53	0x3d13ff67	0.036132243
54	0xbd0a884a	-0.03382138
55	0xbcba52a5	-0.022744486
56	0xbccbc9fc	-0.024876587
57	0xbc478d59	-0.012179696
58	0xbc9ef7c6	-0.019405257
59	0x3cea2db6	0.02858625
60	0x3cd5103d	0.02600872
61	0x3c329982	0.010900857
62	0x3c7adfe1	0.015312166
63	0xbcaad512	-0.020853553
64	0x3c8fa43c	0.017534368
65	0x3c84f729	0.016231136
66	0x3a570bca	0.0008203356
67	0x3c38a786	0.011270409
68	0x3cfb83da	0.03070252
69	0x3d1ab59d	0.037770856
70	0xbb7cc4f1	-0.0038569535
71	0x3cbc4cca	0.022985835
72	0xbcdba4b9	-0.026811944
73	0xbc874ffe	-0.016517635
74	0x3c886223	0.016648358
75	0x3c6d8bcd	0.014498663
76	0x3c0e70e5	0.008693908
77	0xbd223584	-0.039601818
78	0xbb48271d	-0.0030540891
79	0x3d0c00de	0.034180515
80	0x3abadf53	0.001425723
81	0x390af14a	0.00013250593
82	0x3c9de4ad	0.01927408
83	0xbced3d39	-0.028959857
84	0x3be47eba	0.006973115
85	0x3d0a91ef	0.03383058
86	0xbc316993	-0.0108283935
87	0x3d0aae04	0.03385736
88	0x3c6dcbae	0.014513893
89	0x3c83d71c	0.016093783
90	0x3d17c8f4	0.03705688
91	0x3c427fde	0.011871306
92	0xba38d540	-0.00070508197
93	0xbbc27d4b	-0.0059353462
94	0xbaf34723	-0.0018560629
95	0x3ce5b085	0.028038273
96	0xbd188880	-0.03723955
97	0x3ca41078	0.020027384
98	0x3c0f8607	0.008759982
99	0x3c5c2661	0.013436885
100	0x3bfa94d0	0.0076471344
101	0x3b8d58fa	0.0043135853
102	0xbc3e1125	-0.011600767
103	0xbcf54425	-0.02993972
104	0xbc029b3d	-0.007971582
105	0xbcee2d00	-0.029074192
106	0xbc51788f	-0.012785091
107	0xbb894410	-0.004189022
108	0xba7b0db4	-0.0009576932
109	0x3c9e1d5d	0.01930111
110	0xbce245bc	-0.027621143
111	0xbcd88834	-0.026432134
112	0xbcd499ec	-0.025952302
113	0xbcb03e99	-0.021514224
114	0x3d0b4fb7	0.03401157
115	0x3cc13475	0.023584584
116	0x3c9e45f5	0.019320467
117	0x3ba74b84	0.0051054377
118	0x3bb26a63	0.005444811
119	0x3d1c3347	0.03813484
120	0xbc20a186	-0.009804135
121	0xbd08d3af	-0.033405002
122	0xbcd55038	-0.026039228
123	0xbbb4139a	-0.0054955008
124	0x3bf646f4	0.0075157825
125	0xbc8956e0	-0.016765058
126	0xbb3e11f4	-0.00290024
127	0xbbb141fd	-0.0054094777
128	0x3b637b44	0.0034710923
129	0xbb8fd7a0	-0.004389718
130	0x3cdabf14	0.026702441
131	0xbcc7ebcd	-0.02440443
132	0x3c954609	0.018221872
133	0x3d03ceab	0.032179516
134	0xbd02a6e7	-0.03189745
135	0x3d02f3c6	0.03197076
136	0x3ccf83ba	0.025331367
137	0x3bfd5900	0.007731557
138	0x3d1e48bd	0.038643587
139	0x3cc4991d	0.023998791
140	0x3c8ca67d	0.017169232
141	0xbcd1e308	-0.025620952
142	0xbd130adf	-0.03589904
143	0xbd11bfe0	-0.035583377
144	0x3d0edd2a	0.034878887
145	0x3cb63974	0.022244193
146	0xbbb0a650	-0.0053909197
147	0xbb5d0db0	-0.0033730082
148	0xbd237e5f	-0.03991544
149	0x3c859612	0.01630691
150	0xbc2660ca	-0.010154912
151	0xbc67ba26	-0.014143502
152	0xbc15b4c2	-0.009137334
153	0xbd1b5ce8	-0.0379304
154	0xbccf4d1d	-0.025305325
155	0x3ac5005a	0.0015030012
156	0x3cd56d48	0.026053086
157	0x3cacc95e	0.021092113
158	0x3bdccf3b	0.006738571
159	0x3cdd256a	0.02699538
160	0xbcaafb81	-0.02087188
161	0xbafc1598	-0.001923251
162	0x3af5a270	0.0018740427
163	0x3c407803	0.011747363
164	0x3d0f9d63	0.035062205
165	0x3b382cb4	0.0028102817
166	0x3cc3cf51	0.023902567
167	0x3ccc73a2	0.024957482
168	0xbd1faaeb	-0.03898136
169	0xbcc201c1	-0.023682477
170	0xba379bf8	-0.0007004137
171	0x3cdcb999	0.026943969
172	0x3b015a5f	0.0019737703
173	0x3ca0058b	0.019533893
174	0xbcbd7de2	-0.023131315
175	0xbcb708c2	-0.022343043
176	0x3d0dd043	0.034622442
177	0x3d1688c2	0.036751516
178	0xbcd5f183	-0.026116138
179	0x3babe540	0.0052458346
180	0xbc85a70e	-0.01631501
181	0xbbff7929	-0.007796426
182	0xbd00951a	-0.031392194
183	0xbd293afe	-0.041316025
184	0x3d0cd499	0.034382436
185	0xbc61391a	-0.013746524
186	0x3c5ebe70	0.0135952085
187	0x3d27f3b0	0.041003883
188	0x3cd47068	0.025932506
189	0x3c431f22	0.011909278
190	0x3c62d6be	0.013845144
191	0x3b52026c	0.00320449
192	0xbb961567	-0.004580188
193	0xbc6a334d	-0.014294458
194	0x3d209313	0.03920276
195	0xbb6fce5c	-0.0036591506
196	0xbcb7c922	-0.022434775
197	0xbcb8424d	-0.022492552
198	0xbc09a3d2	-0.008400874
199	0xbcb09027	-0.021553112
200	0x3ce0dd6b	0.02744933
201	0xbc89e364	-0.016832061
202	0x3d17cda1	0.037061337
203	0xbc4b8583	-0.012421968
204	0xbb28d7cd	-0.0025763393
205	0xbd15d3a6	-0.036578797
206	0xbcc8382b	-0.024440845
207	0x3c6c87a9	0.014436641
208	0xbd0135ff	-0.031545635
209	0xbd0b7f35	-0.03405686
210	0xbd191f20	-0.0373832
211	0xbcf36a8d	-0.029713893
212	0x3cf1849c	0.029482178
213	0x3c95dcbd	0.018293733
214	0x3bd87387	0.006605569
215	0x3cee3076	0.029075842
216	0x3b88931b	0.004167927
217	0xbd1469eb	-0.036233824
218	0xba41fb3c	-0.00073998026
219	0x3b832022	0.0040016333
220	0xbb0ab613	-0.0021165654
221	0x3c808a6d	0.015691007
222	0x3d1fba93	0.03899629
223	0xbcb123ed	-0.021623576
224	0x3ccbc605	0.024874697
225	0x3d0d561a	0.03450594
226	0x3d10dd54	0.035367325
227	0xbc8e79b1	-0.017392011
228	0x3cb0b44a	0.021570344
229	0x3c98ccf4	0.018652417
230	0xbc03b83f	-0.008039533
231	0x3cd668d6	0.026173037
232	0xbcf6cd6a	-0.030127246
233	0xbcd91c71	-0.02650282
234	0xbba6c564	-0.0050894488
235	0x3c7dd38c	0.015492331
236	0xbcd1c04f	-0.025604395
237	0x3ca00f80	0.019538641
238	0xbcbeebb8	-0.023305759
239	0x3ccb605b	0.02482622
240	0x3bef2cc0	0.007299036
241	0xbb1ed02e	-0.0024232971
242	0x3d1491dd	0.03627192
243	0xbd1e8025	-0.038696427
244	0x3c253184	0.010082606
245	0xbc360f50	-0.011112049
246	0x3ce8756a	0.0283763
247	0xbc0947d4	-0.008378942
248	0xbc127660	-0.008939356
249	0xbc83daa2	-0.016095463
250	0xbd034916	-0.032052122
251	0xbd20671a	-0.039160825
252	0xbd0d3120	-0.034470677
253	0xbcd36340	-0.025804162
254	0x3c7c0ca3	0.015383872
255	0x3d1b8415	0.03796776

conv22.bias f4 [64]
0	0xbc8255db	-0.01591008
1	0xbbb61335	-0.005556489
2	0xbce19696	-0.027537625
3	0xbcd022db	-0.025407245
4	0xbba3ceee	-0.004999033
5	0xbd1633c4	-0.03667046
6	0xbd166f33	-0.03672714
7	0x3c1865f5	0.009301652
8	0xbc81f034	-0.015861608
9	0xbcd3a6ce	-0.025836375
10	0xbcee4c7c	-0.029089205
11	0xbc185295	-0.009297033
12	0x3c2c32d2	0.010510163
13	0xbb8257ca	-0.0039777504
14	0xbccdc32e	-0.025117483
15	0x3d342b48	0.04398659
16	0x3b32eb1c	0.002730078
17	0xbc776676	-0.015100112
18	0xbc685960	-0.014181465
19	0xbc1272c2	-0.008938493
20	0x3c9066a2	0.017627064
21	0xbd21eaa5	-0.039530415
22	0x3c342ed2	0.010997491
23	0xba6476e4	-0.0008715226
24	0x3d2a87fe	0.0416336
25	0xbce31f11	-0.027724775
26	0xbcb5d746	-0.022197377
27	0xbcf73cec	-0.030180417
28	0x3c517f3f	0.0127866855
29	0x3cc928b0	0.024555534
30	0xbcb6b5fc	-0.022303574
31	0xbd18499f	-0.037179586
32	0x3d0860e6	0.033295535
33	0x3c8ba64f	0.017047076
34	0x3c883c30	0.016630262
35	0xbd092f48	-0.033492357
36	0xbc433848	-0.011915274
37	0x3cadcb15	0.021215001
38	0x3cc07d4a	0.023497242
39	0x3cd2a601	0.025713922
40	0xbcb90049	-0.022583144
41	0xbaa4c1f9	-0.0012570015
42	0xbd335e70	-0.043791234
43	0xbd0bf3e1	-0.034168128
44	0xb9a8c32c	-0.0003218887
45	0x38da3b5c	0.000104061066
46	0x3c301e04	0.010749344
47	0xbba7af42	-0.005117328
48	0x3cca6c1d	0.024709756
49	0xbc072d81	-0.008250595
50	0x3ca77291	0.020440372
51	0x3bdc4d0e	0.006723053
52	0x3c3ac3fd	0.011399266
53	0xbcad7e3e	-0.021178361
54	0xbcf08e53	-0.02936474
55	0x3d0bd7f2	0.03414149
56	0x3d007ffb	0.03137205
57	0xbcf3795e	-0.029720958
58	0xbc38477a	-0.01124751
59	0xbce2207d	-0.027603382
60	0xbce048bc	-0.027378432
61	0xbca9e4b2	-0.020738933
62	0xbc2ca3ab	-0.010537068
63	0x3d31fcfc	0.043454155

fc.weight f4 [2, 4096]
0	0x3cb0161e	0.021494921
1	0x3ba8363a	0.0051334174
2	0x3c246fcb	0.010036419
3	0xbc9dc422	-0.019258562
4	0x3c5953ef	0.01326464
5	0x3cc3ef2c	0.023917757
6	0xbc431269	-0.011906245
7	0x3c2f17cb	0.010686825
8	0x3c11283f	0.008859693
9	0x3ae0195c	0.0017097401
10	0xbbe699e4	-0.007037388
11	0x3bda34dd	0.006659134
12	0xbc2ff76c	-0.010740142
13	0xbbc2eb9e	-0.005948498
14	0x3b7921eb	0.0038014601
15	0x391c6371	0.00014914364
16	0x3c4873b3	0.012234616
17	0xbc7ab414	-0.015301723
18	0xbc705799	-0.014669322
19	0x3bd9eead	0.006650767
20	0x3b199ab2	0.0023438153
21	0xbc95be2c	-0.018279158
22	0x3c4d4046	0.012527531
23	0x3c7995bf	0.015233456
24	0x3c014f9c	0.0078925155
25	0xbcbb00f2	-0.0228276
26	0xbc7f2827	-0.015573538
27	0x3c82fa21	0.015988411
28	0x3d083752	0.033255883
29	0xbc82fad8	-0.015988752
30	0xbc15db7d	-0.009146568
31	0x3c4fd67f	0.012685417
32	0xbba778cf	-0.005110837
33	0xbc27937e	-0.010228036
34	0x3ba0d138	0.0049077533
35	0x3cca3408	0.024683014
36	0x3d0cbb25	0.034358162
37	0xbbbef596	-0.005827616
38	0xba117c20	-0.0005549807
39	0xb9019c1b	-0.00012360553
40	0xbac11f56	-0.001473407
41	0xbc1aa967	-0.009439803
42	0xbc778b8c	-0.015108954
43	0xbcb699c2	-0.022290114
44	0x3d016a7d	0.031595696
45	0x3c5e3f07	0.013564832
46	0x3c42e0b0	0.01189439
47	0x3bfc0084	0.007690491
48	0x3c4ad099	0.012378835
49	0x3be8ed7f	0.00710839
50	0xbc19c80f	-0.009386077
51	0xbd0bc481	-0.034122948
52	0xbbeb2eef	-0.007177226
53	0xbc4118f2	-0.011785733
54	0x3c6cf008	0.014461525
55	0x3c66ef48	0.014095135
56	0x3bd43613	0.0064761727
57	0x3c2e62b4	0.01064365
58	0xbbb45ccf	-0.0055042277
59	0xbc68a99d	-0.014200595
60	0xbcf9d549	-0.03049721
61	0xbc83ca51	-0.016087683
62	0x3c892a5c	0.016743831
63	0xbbd7fd9a	-0.006591511
64	0xbc82caae	-0.015965786
65	0xbc870929	-0.01648386
66	0xbad66427	-0.0016356752
67	0x3c2a8177	0.010406843
68	0xbbe11985	-0.0068694972
69	0x3c9556e7	0.018229915
70	0x37e2303e	2.6963764e-05
71	0xbb87814d	-0.004135287
72	0xbc8af0f6	-0.016960602
73	0x3c35a47c	0.011086579
74	0xbc1f72da	-0.009731973
75	0x3b17d572	0.0023167995
76	0xbcac39f8	-0.021023735
77	0x3c30ce2d	0.010791344
78	0x3c2b8a9b	0.010470058
79	0xbc0b9f67	-0.008521891
80	0xbcf28e64	-0.029608913
81	0xbb21f7d7	-0.0024714374
82	0x3b079a24	0.002069124
83	0xbc81f3e8	-0.015863374
84	0xbb789c97	-0.0037935132
85	0xbb9f6ad8	-0.0048650317
86	0x3bd4d471	0.0064950516
87	0x3abfb82c	0.0014627031
88	0xbce403cf	-0.027833847
89	0xbc5744b2	-0.013138937
90	0xbc2c8d13	-0.010531682
91	0x3ab7bae5	0.0014017491
92	0x3c81b294	0.015832223
93	0x3c2f298e	0.01069106
94	0xb8d98c13	-0.00010373457
95	0x3c173017	0.009227774
96	0xbcabb590	-0.0209606
97	0xbbb84f53	-0.0056246906
98	0x3ce0fc86	0.027464163
99	0x3ca9fee0	0.020751417
100	0xbc5f81bd	-0.013641772
101	0x3cac5f9b	0.021041682
102	0x3c908f13	0.017646348
103	0xba581898	-0.0008243411
104	0xbb31b690	-0.0027116872
105	0xbc048a28	-0.00808958
106	0xbc151f74	-0.009101737
107	0x3c83fa65	0.016110608
108	0xbc739df1	-0.014869199
109	0xbbe3d314	-0.0069526527
110	0x3c5b417d	0.013382313
111	0x3c2c4afe	0.010515926
112	0xbc6697ce	-0.014074279
113	0xbb10d99d	-0.0022102364
114	0xbb5a06eb	-0.0033268284
115	0x3cba0468	0.02270718
116	0xbc14f9a4	-0.009092722
117	0x3b03db05	0.002011956
118	0x3c563ffe	0.01307678
119	0xbbab33b5	-0.00522467
120	0x39ee6156	0.00045467418
121	0x3c2d3ad5	0.010573109
122	0xbc7073a0	-0.014676005
123	0xba80dcd8	-0.0009831442
124	0xbac34f1f	-0.0014900899
125	0xbc3726ba	-0.011178667
126	0x3b8dec36	0.004331137
127	0x3c08d6dd	0.008352009
128	0xbb038473	-0.002006796
129	0x3b50ac16	0.0031840852
130	0x3c843734	0.016139604
131	0x3b3d118a	0.0028849565
132	0x3c9bc30e	0.019013908
133	0x3c652505	0.013985877
134	0x3c202522	0.009774478
135	0xbbf2ff38	-0.0074156784
136	0xbbeeb00f	-0.0072841714
137	0x3b7a7dab	0.0038221877
138	0x3c02255e	0.007943479
139	0x3b8eaf2a	0.0043543773
140	0x3be7cc8f	0.007073946
141	0xbb6dae3c	-0.0036267182
142	0x3c0066c0	0.0078369975
143	0x3cb20748	0.021731988
144	0x3c6a7a43	0.014311376
145	0xbca932e7	-0.020654155
146	0x3b4ec41d	0.0031549998
147	0x3bc6468a	0.0060508894
148	0xbcc1e521	-0.023668827
149	0xbc4ed7aa	-0.0126246605
150	0x3c71db2b	0.014761726
151	0xbc21e2c9	-0.00988073
152	0xbc8e142e	-0.017343607
153	0xbcc7f49a	-0.024408627
154	0x3bb9ef7e	0.0056743016
155	0x3cd8f625	0.026484558
156	0x3c373b15	0.01118352
157	0x3c1bda29	0.009512463
158	0x3c97ca41	0.01852906
159	0xbb94e5a5	-0.0045439773
160	0x3bfdf99a	0.007750702
161	0xbb8adf9c	-0.004238082
162	0x3d2be143	0.041962873
163	0x3ca96359	0.020677255
164	0x3c11355d	0.00886282
165	0x3c4e8b17	0.012606404
166	0xbc1ffd77	-0.009765021
167	0x3b81668a	0.003948991
168	0x3c5004a2	0.012696417
169	0xbcd6157e	-0.026133295
170	0xbbb34c35	-0.005471731
171	0x3c8d08b5	0.017216066
172	0xbc405ff5	-0.011741628
173	0xbc52300d	-0.012828839
174	0x3c352e58	0.0110584125
175	0xbc04fed2	-0.0081173945
176	0x3c52749a	0.012845183
177	0x3ab91155	0.0014119545
178	0xbcc35b3f	-0.02384722
179	0xbc4b6a2c	-0.01241545
180	0xbb9c8290	-0.0047763065
181	0xbb651c5d	-0.0034959533
182	0x3d008d46	0.03138473
183	0xbbe8b055	-0.0071010985
184	0x3c9f3c1a	0.019437838
185	0x3bf3c363	0.0074390634
186	0xbb7a1f95	-0.0038165797
187	0xbb1257ec	-0.0022330238
188	0xbb7b2d06	-0.0038326397
189	0xbc68139b	-0.014164831
190	0x3cb93c0c	0.02261164
191	0xbc01cc5d	-0.007922259
192	0x3c9b7ebc	0.01898133
193	0x3a5df162	0.000846645
194	0x3b9b01b4	0.0047304276
195	0x3af6f795	0.0018842096
196	0x3ab3ee15	0.001372757
197	0x3c12153a	0.008916194
198	0xb8d25374	-0.00010029125
199	0xbcc3d4ce	-0.023905184
200	0xbc340b08	-0.010988958
201	0xbcc4a80f	-0.024005918
202	0x3bf8c6eb	0.0075920722
203	0x3ab4b407	0.0013786562
204	0xbc37a354	-0.011208374
205	0x3ccf513c	0.02530729
206	0x3bc07e41	0.0058744256
207	0xbb9e0bac	-0.0048231687
208	0xbbddfc01	-0.006774426
209	0xbcd67eb8	-0.026183471
210	0x3bf73ad6	0.0075448556
211	0xbc27a6d5	-0.010232647
212	0xbbae10d1	-0.0053120633
213	0xbc925256	-0.017861526
214	0x3cc6703c	0.02422344
215	0x3cd498ad	0.025951708
216	0x3c458ce0	0.012057513
217	0xbd2bb1c0	-0.041917562
218	0x3ad53529	0.0016266453
219	0xbc1774ef	-0.009244188
220	0xbc2460a4	-0.010032807
221	0xbcab763f	-0.020930408
222	0x3c8afd60	0.016966522
223	0x3bac17bc	0.005251853
224	0x3bb8b7a1	0.0056371246
225	0xbd2bb95d	-0.041924823
226	0xbcbca582	-0.023028139
227	0xbc9013dc	-0.017587595
228	0x3ce66e34	0.02812872
229	0xbb76872a	-0.0037617185
230	0x3c831653	0.016001856
231	0x3bbeb998	0.0058204643
232	0x3cddbba1	0.027067007
233	0xbcb6a59b	-0.022295764
234	0xbcdc58e5	-0.026897857
235	0xbcb4d7b0	-0.022075504
236	0x3cfa89e0	0.030583322
237	0x3bca3279	0.0061705676
238	0x3c2eb4bb	0.010663207
239	0xbc9e5cbe	-0.019331332
240	0x3c95b179	0.018273102
241	0xbc57fc28	-0.013182677
242	0xbcc63953	-0.024197256
243	0xbc657e76	-0.014007201
244	0x3ca22cd0	0.019796759
245	0xbafb9f8b	-0.0019197328
246	0x3cbecbd5	0.023290554
247	0xbbe099c6	-0.0068542687
248	0x3ce5d116	0.028053802
249	0xba804539	-0.0009786255
250	0x3c72ff43	0.014831367
251	0x3c3a659b	0.011376764
252	0x3ca456f9	0.020061003
253	0x3c6c7db8	0.014434271
254	0x3c84acd0	0.016195685
255	0xbb683983	-0.003543467

fc.bias f4 [2]
0	0x3cdfa9f7	0.027302725
1	0xbd54fa43	-0.05199648
