LAB 3/Results/tl_resnet_finetuned_svhn.ckpt (torch, 379391 bytes, 60 tensors)

conv1.weight f4 [32, 3, 3, 3]
-0.06074554 -0.047239605 -0.047027543 0.22762695 0.125018 -0.102634296 0.1355148 0.020707287
0.17354937 0.054059114 0.21236216 -0.07488561 0.18911915 0.2133057 -0.14548533 0.0060584857
-0.005337644 -0.10617085 0.14601889 -0.020440763 0.14710665 0.105677836 -0.01174726 -0.04979086
0.100704074 0.13954964 0.14849307 0.17870852 -0.12524928 0.10557474 -0.14208448 -0.21417345
0.06454728 0.06938085 -0.22117014 -0.108421214 -0.10221698 0.08976117 0.077012405 -0.033867214
-0.22660036 0.017081257 -0.045375213 -0.117030635 -0.18246596 -0.028300785 -8.893408e-05 0.1373193
-0.07862568 -0.07939122 0.07423923 -0.0021743702 -0.16238299 -0.062489133 -0.0642271 0.088439874
0.14787416 -0.119180724 -0.066434056 0.16606754 -0.022968667 0.06142437 0.06531031 -0.3353346
-0.11030822 0.17320254 -0.007089894 -0.078334086 0.1645651 -0.0564783 0.094555676 0.06323726
-0.18300061 -0.2413852 0.16452229 -0.14300147 0.13835676 0.015388856 0.1747014 -0.18670653
0.21394202 -0.14450212 -0.13732974 -0.03168528 0.068704985 0.040854745 0.13774896 -0.09751262
0.22456077 0.21426871 -0.062945224 0.103120856 -0.12581027 0.19170691 -0.05961329 -0.06604156
0.08559123 0.16273294 0.06795936 -0.16241795 0.04124325 -0.21890546 -0.08036505 0.09322201
0.064993694 -0.10572586 0.15739442 0.18519345 -0.0075990884 -0.03304174 0.37050667 -0.20891608
-0.2087189 0.117407314 -0.14889571 -0.098430075 0.06936009 0.027152993 0.08819499 0.31247887
-0.14525831 0.001341906 0.22679839 -0.39580268 0.046064522 0.093840025 -0.2559997 0.1577257
0.21557833 -0.14117357 -0.22486024 0.14851119 -0.35706928 -0.079777084 -0.045167275 -0.03679374
-0.14875598 -0.258675 0.22862072 0.040399015 -0.19873966 0.15282626 0.12552436 -0.019534519
0.1643297 -0.112277225 -0.12636656 -0.014715407 0.052180212 0.023172678 0.2463517 -0.0766028
-0.2006515 0.16099374 -0.1675571 -0.07805658 0.109999254 -0.06335325 0.07740845 0.25470805
-0.08237153 -0.052834615 -0.012252321 0.18612303 0.2558468 -0.098772675 -0.19073555 0.14118107
-0.022592723 0.085702464 -0.07445186 0.15808503 0.024512054 0.20089728 0.05832366 -0.13296111
0.06159168 -0.17818844 -0.077026054 -0.10376027 -0.08944283 0.13789478 0.19076784 0.08621218
0.01234188 0.16917883 0.12874162 -0.20169795 0.007496154 -0.2024904 -0.1523322 0.053139955
-0.18872023 -0.11356427 -0.17675708 -0.04372435 -0.16293769 -0.07389945 -0.25618592 0.033730756
0.01442441 -0.016245121 0.06370658 0.04724063 0.048057646 -0.13851094 -0.2545881 -0.0011180659
0.045145985 -0.10132395 0.052206054 -0.14013533 -0.13011198 -0.14564647 -0.09842955 -0.08152187
-0.16733806 -0.07546148 -0.17737024 0.015238672 0.1975661 0.14278737 -0.08224106 0.009827247
0.022869462 -0.22103034 -0.017273104 -0.23320681 0.11273354 -0.14261892 0.13765377 0.19066831
0.242198 0.26225302 -0.16526808 -0.011687572 -0.19210947 -0.06253375 0.06363564 0.1755315
-0.015758375 0.014874403 0.0679061 0.02160816 0.07260517 0.021387532 0.044284187 0.042678382
0.04122605 0.053046416 0.15701102 -0.15967286 -0.2241147 -0.1812115 -0.03972223 -0.16922443
00000000: 51d0 78bd 517e 41bd f49f 40bd 0a17 693e
00000010: b804 003e ee31 d2bd 64c4 0a3e 54a2 a93c
00000020: edb6 313e 176d 5d3d 7775 593e a05d 99bd
00000030: 73a8 413e cf6c 5a3e 1bfa 14be 4386 c63b
00000040: 67e7 aebb 1a70 d9bd fa85 153e 6373 a7bc
00000050: 20a3 163e 9f6d d83d 9477 40bc 80f1 4bbd
00000060: f03d ce3d 1ae6 0e3e 910e 183e 5eff 363e
00000070: 5941 00be 9237 d83d 987e 11be 4950 5bbe
00000080: 5d31 843d 8c17 8e3d 6d7a 62be f10b debd
00000090: 2357 d1bd b4d4 b73d aeb8 9d3d 59b8 0abd
000000a0: ed09 68be feed 8b3c 5cdb 39bd c2ad efbd
000000b0: 5bd8 3abe 0cd7 e7bc 1f82 bab8 6e9d 0c3e
000000c0: 8006 a1bd dd97 a2bd bd0a 983d e17f 0ebb
000000d0: ba47 26be 9bf4 7fbd 7f89 83bd f71f b53d
000000e0: 536c 173e 0615 f4bd 940e 88bd 9c0d 2a3e
000000f0: c928 bcbc 1f98 7b3d 69c1 853d fab0 abbe
00000100: 47e9 e1bd 025c 313e 5752 e8bb 9f6d a0bd
00000110: c183 283e ca55 67bd 68a6 c13d 8982 813d
00000120: 8364 3bbe af2d 77be 8878 283e fa6e 12be
00000130: 65ad 0d3e 8a21 7c3c ece4 323e ff2f 3fbe
00000140: 9e13 5b3e 5df8 13be 2ba0 0cbe 6dc8 01bd
00000150: 33b5 8c3d 4e57 273d 100e 0d3e b2b4 c7bd
00000160: 42f3 653e 4269 5b3e 6de9 80bd 0731 d33d
00000170: 68d4 00be d14e 443e 112d 74bd cc40 87bd
00000180: 744a af3d 77a3 263e 472e 8b3d e450 26be
00000190: afee 283d c128 60be 6e96 a4bd 2eeb be3d
000001a0: 6a1b 853d cd86 d8bd 012c 213e 5aa3 3d3e
000001b0: c601 f9bb c756 07bd 0db3 bd3e 19ee 55be
000001c0: 68ba 55be 3f73 f03d 1e78 18be b595 c9bd
000001d0: aa0c 8e3d f46f de3c 939f b43d 3bfd 9f3e
000001e0: 98be 14be e5e2 af3a d63d 683e a6a6 cabe
000001f0: 27ae 3c3d 332f c03d 6512 83be d982 213e
00000200: 91c0 5c3e ce8f 10be c341 66be 5113 183e
00000210: c9d1 b6be 2b62 a3bd 5201 39bd 08b5 16bd
00000220: 7d53 18be 0d71 84be 8d1b 6a3e 7079 253d
00000230: 6982 4bbe 7d7e 1c3e 7589 003e db06 a0bc
00000240: 0b46 283e 9af1 e5bd 3c66 01be e418 71bc
00000250: ebba 553d a1d4 bd3c 9f43 7c3e eee1 9cbd
00000260: 9677 4dbe 8bdb 243e 1794 2bbe 21dc 9fbd
00000270: 4a47 e13d 59bf 81bd 5288 9e3d 1869 823e
00000280: 68b2 a8bd 1c69 58bd f5bd 48bc 0997 3e3e
00000290: 5afe 823e 5449 cabd 2e50 43be c591 103e
000002a0: 6014 b9bc c684 af3d 377a 98bd 0be1 213e
000002b0: 81cd c83c 04b8 4d3e cae4 6e3d f526 08be
000002c0: 8f47 7c3d 0877 36be d6bf 9dbd 4480 d4bd
000002d0: cd2d b7bd 4a34 0d3e a558 433e 0390 b03d
000002e0: 9935 4a3c 373d 2d3e d8d4 033e e889 4ebe
000002f0: 4ca2 f53b a559 4fbe f9fc 1bbe 48a9 593d
00000300: e03f 41be 6294 e8bd cfff 34be 4e18 33bd
00000310: 23d9 26be 9858 97bd cd2a 83be 4329 0a3d
00000320: 5c54 6c3c 7d14 85bc 9878 823d 647f 413d
00000330: 18d8 443d d0d5 0dbe 5f59 82be 118c 92ba
00000340: ffea 383d ee82 cfbd 04d6 553d a37f 0fbe
00000350: 133c 05be 5924 15be 6f95 c9bd f0f4 a6bd
00000360: ab5a 2bbe 8c8b 9abd 8ba0 35be 9fab 793c
00000370: c54e 4a3e da36 123e 006e a8bd 7602 213c
00000380: bd58 bb3c c755 62be 5380 8dbc c4cd 6ebe
00000390: d8e0 e63d b20a 12be 1cf5 0c3e 8e3e 433e
000003a0: c102 783e 0746 863e 093c 29be 3b7d 3fbc
000003b0: 58b8 44be b211 80bd 6753 823d 88be 333e
000003c0: b517 81bc c5b3 733c 5a12 8b3d 9903 b13c
000003d0: 05b2 943d e834 af3c 5663 353d 87cf 2e3d
000003e0: a6dc 283d 3347 593d 7fc7 203e 4881 23be
000003f0: 537e 65be 828f 39be c7b3 22bd 2b49 2dbe

conv1.bias f4 [32]
-0.2883157 0.07489496 0.06136155 -0.037050564 0.16358979 0.19023156 0.013947555 0.19018152
0.38842085 -0.026885638 0.26525193 0.13186337 -0.113057286 0.16777276 0.16077399 0.10167088
0.172873 -0.09880199 0.07499175 -0.2387796 0.16199946 0.005584005 0.034104362 -0.0931035
-0.1286982 -0.22843698 0.20777813 -0.1387241 -0.13988394 -0.2094459 -0.19146381 -0.14359856
00000000: 1e9e 93be 8762 993d 4056 7b3d 55c2 17bd
00000010: 1584 273e 10cc 423e 4984 643c f2be 423e
00000020: 19df c63e 453f dcbc 1acf 873e 3107 073e
00000030: 948a e7bd 9fcc 2b3e f0a1 243e d338 d03d
00000040: 9f05 313e b358 cabd 4695 993d a482 74be
00000050: 30e3 253e 07fa b63b 04b1 0b3d 0cad bebd
00000060: 76c9 03be 62eb 69be cac3 543e b10d 0ebe
00000070: bc3d 0fbe fc78 56be 170f 44be 800b 13be

invResBlocks.0.expansion.weight f4 [96, 32, 1, 1]
0.16230021 -0.11769364 0.16146657 -0.08877628 -0.13987285 -0.09853512 -0.13226171 -0.084249735
0.13728754 0.13843651 -0.025176762 0.14259379 0.17050782 0.13650708 -0.15166844 -0.0265127
-0.08005505 -0.08955905 -0.12789705 0.07613137 -0.09152888 -0.18879865 0.12580079 -0.0892672
-0.11023758 0.052909777 0.21122979 0.13326605 -0.16428219 -0.15395473 0.17175464 0.08741918
-0.10687888 0.14029975 -0.106313355 0.058308594 -0.09783291 -0.17230506 0.03860983 -0.050245546
-0.037866063 -0.16377462 0.13750274 0.043247834 0.061322812 0.048600815 0.11590146 0.21649802
-0.048159048 0.041648343 -0.023136793 -0.0008290917 0.14135967 0.0839504 -0.14924897 0.08085594
0.19285627 0.051370963 0.054933347 -0.17864934 -0.10550399 -0.12763608 0.15709439 0.14495525
0.01895366 -0.07641994 0.09947775 0.12394153 -0.099605866 -0.08259289 0.17350687 0.03124745
-0.018255385 -0.101370975 0.09590984 0.02652236 -0.079408675 0.107490964 -0.119492 -0.18347333
0.1250142 -0.08169095 0.07967115 -0.09038375 0.020491892 -0.079540156 0.08389011 0.16546263
0.07141713 0.09298176 0.058065947 0.072042845 0.14564839 0.09906884 0.010606863 -0.04306639
0.013492043 -0.17678905 -0.031124054 0.053578287 0.123096585 -0.07327524 -0.012815185 -0.034942586
0.1293727 0.122926734 -0.11297106 0.081587374 -0.090154104 -0.0053273668 -0.044959765 0.08057785
-0.019859152 -0.07555656 -0.0810871 -0.2200308 0.033510186 0.11834047 0.061111007 -0.05949053
-0.09761869 0.10039215 0.19989826 -0.14235316 -0.031310055 -0.1297525 0.13867258 -0.1002477
-0.16333686 0.16582188 0.0470291 -0.033028863 -0.2192028 -0.11625374 -0.07468445 -0.01474706
0.05589852 -0.083428964 0.117650904 0.13221186 0.08360472 0.022911586 0.07045198 0.111023426
-0.052549113 -0.17755805 0.16798241 0.087769665 -0.11797179 0.094279386 0.053178936 -0.057635408
0.16200052 -0.11206462 -0.13230743 0.13419135 -0.09784866 0.13765983 -0.09327832 -0.15276888
-0.009549068 -0.042748854 0.13131566 -0.075890556 0.041356217 0.11771717 -0.075046964 -0.00808844
0.03983081 -0.06683517 -0.0023084357 0.12970561 0.09263721 -0.116965234 -0.05954949 -0.0062075895
-0.04594967 -0.0960791 0.051100284 0.04668397 -0.124885604 0.17309573 0.15340644 -0.127356
0.104876205 0.044361454 -0.03860778 0.008020618 0.14498983 -0.031307388 0.048913527 -0.11467274
-0.21720919 0.08320242 -0.012267384 -0.07961638 -0.053547196 0.15459321 0.0996197 0.13714744
0.115654334 -0.13846554 0.036828507 0.099645786 -0.14455904 -0.010804648 -0.10446201 0.037352566
0.2161904 -0.06913437 -0.057327133 -0.06888428 0.14257605 0.07761795 -0.04219306 0.026427792
-0.044417974 -0.017073017 -0.031741224 0.09932081 -0.01425289 0.09740174 -0.064549744 -0.055655118
-0.013282858 0.23519026 -0.12820777 0.042049404 0.1274019 -0.104877755 0.002052564 -0.047724575
-0.22592345 -0.005088223 -0.040664807 0.11393537 0.14301232 -0.05723656 0.14618436 -0.14692153
0.02500242 -0.09520031 0.16758002 0.14579546 -0.09286783 0.026034728 -0.07411804 -0.030920295
-0.20379995 0.03693295 -0.10678803 0.07570067 -0.038653452 -0.15304154 0.14904518 0.14887016
00000000: 0732 263e 5d09 f1bd 7e57 253e 57d0 b5bd
00000010: d43a 0fbe c8cc c9bd 9d6f 07be 208b acbd
00000020: 1b95 0c3e 4dc2 0d3e 7f3f cebc 1b04 123e
00000030: 9a99 2e3e 83c8 0b3e f94e 1bbe 2931 d9bc
00000040: e7f3 a3bd bc6a b7bd 72f7 02be c4ea 9b3d
00000050: 7e73 bbbd 6f54 41be ecd1 003e b9d1 b6bd
00000060: 3ec4 e1bd ecb7 583d 9f4c 583e e576 083e
00000070: 9739 28be 4fa6 1dbe 73e0 2f3e d408 b33d
00000080: 50e3 dabd bdaa 0f3e d1ba d9bd fed4 6e3d
00000090: 9f5c c8bd bd70 30be 5725 1e3d 46ce 4dbd
000000a0: 7219 1bbd 89b4 27be 85cd 0c3e a424 313d
000000b0: a12d 7b3d a611 473d bf5d ed3d a8b1 5d3e
000000c0: 6c42 45bd 7497 2a3d 5f89 bdbc 6757 59ba
000000d0: 97c0 103e 30ee ab3d b9d4 18be cd97 a53d
000000e0: 1d7c 453e 5c6a 523d ca01 613d daef 36be
000000f0: 7a12 d8bd 08b3 02be 5add 203e 266f 143e
00000100: b544 9b3c 0f82 9cbd feba cb3d 0fd5 fd3d
00000110: 29fe cbbd 7626 a9bd c9ab 313e a7fa ff3c
00000120: 518c 95bc 969b cfbd 616c c43d 6c45 d93c
00000130: 04a1 a2bd 3924 dc3d 39b8 f4bd 6fe0 3bbe
00000140: b903 003e 964d a7bd a12a a33d 1e1b b9bd
00000150: 9dde a73c f3e5 a2bd 94ce ab3d 096f 293e
00000160: 2543 923d 396d be3d 8fd6 6d3d 338b 933d
00000170: da24 153e 9be4 ca3d 68c8 2d3c 6266 30bd
00000180: bb0d 5d3c 3008 35be dff7 febc e874 5b3d
00000190: 101a fc3d 5411 96bd c8f6 51bc f51f 0fbd
000001a0: 477a 043e 03c1 fb3d 5f5d e7bd 4817 a73d
000001b0: b7a2 b8bd 3191 aebb bb27 38bd 0006 a53d
000001c0: a9af a2bc 66bd 9abd fe10 a6bd c14f 61be
000001d0: fa41 093d 7d5c f23d 894f 7a3d 58ac 73bd
000001e0: 4fec c7bd 669a cd3d 21b2 4c3e 07c5 11be
000001f0: f93e 00bd d7dd 04be 2f00 0e3e ab4e cdbd
00000200: c741 27be 36cd 293e 96a1 403d 4649 07bd
00000210: b376 60be 7116 eebd 29f4 98bd a79d 71bc
00000220: d9f5 643d cedc aabd f5f2 f03d 8c62 073e
00000230: f438 ab3d 14b1 bb3c 2149 903d 4060 e33d
00000240: bd3d 57bd c7d1 35be 9503 2c3e 95c0 b33d
00000250: 329b f1bd 8d15 c13d 28d2 593d 1b13 6cbd
00000260: 77e3 253e 2382 e5bd 997b 07be 7569 093e
00000270: e164 c8bd b3f6 0c3e b408 bfbd 726f 1cbe
00000280: b273 1cbc 6c19 2fbd 9d77 063e 826c 9bbd
00000290: 2365 293d b315 f13d 39b2 99bd 6085 04bc
000002a0: a225 233d e1e0 88bd 2049 17bb 8cd1 043e
000002b0: 94b8 bd3d 788b efbd 2bea 73bd 0969 cbbb
000002c0: b935 3cbd 1fc5 c4bd 884e 513d b137 3f3d
000002d0: 06c4 ffbd 0240 313e 9416 1d3e 9c69 02be
000002e0: 56c9 d63d 5bb4 353d 3123 1ebd e968 033c
000002f0: 3778 143e 2d3c 00bd 8d59 483d 8bd9 eabd
00000300: 166c 5ebe 0866 aa3d 23fd 48bc ea0d a3bd
00000310: 4e54 5bbd af4d 1e3e 6a05 cc3d 6170 0c3e
00000320: 2edc ec3d e9c9 0dbe 7dd9 163d 1713 cc3d
00000330: 4907 14be fa05 31bc 2ef0 d5bd 01ff 183d
00000340: 0461 5d3e 5296 8dbd dbcf 6abd 3413 8dbd
00000350: 75ff 113e 29f6 9e3d a1d2 2cbd 197f d83c
00000360: 9fef 35bd b6dc 8bbc 1603 02bd b568 cb3d
00000370: f484 69bc 907a c73d a832 84bd 9ff6 63bd
00000380: 58a0 59bc b7d5 703e e648 03be ff3b 2c3d
00000390: a575 023e 26ca d6bd 4f84 063b d87a 43bd
000003a0: 7a58 67be 1cbb a6bb 2490 26bd f356 e93d
000003b0: d271 123e e270 6abd 5ab1 153e 9972 16be
000003c0: e0d1 cc3c 61f8 c2bd 199a 2b3e 684b 153e
000003d0: 7d31 bebd c846 d53c 33cb 97bd 8f4c fdbc
000003e0: efb0 50be 0147 173d afb3 dabd f408 9b3d
000003f0: 1553 1ebd ecb6 1cbe 4d9f 183e 6b71 183e

invResBlocks.0.expansion.bias f4 [96]
0.15623282 0.08860391 0.05732157 0.04199132 0.026278252 -0.0055972496 0.17148888 -0.1701613
-0.0809609 -0.02742242 -0.09131444 -0.13712455 0.02798044 0.12221001 -0.118602544 -0.10193972
-0.081052706 0.17255192 -0.053359233 -0.00048090226 -0.026526473 -0.01662945 -0.061208814 0.17278889
-0.15179697 0.0702872 0.13395762 0.15714088 0.12096718 0.15463354 -0.03639794 -0.07885034
-0.11871548 0.106476635 0.0114800045 0.112915754 0.17376976 -0.13132413 -0.05708597 0.084955186
-0.12775557 -0.0025801838 0.06322034 -0.12316672 0.12996936 0.1717261 0.036733836 0.058629688
-0.045605127 -0.09486205 -0.008042294 -0.01518474 0.05803999 0.13060819 -0.091262616 -0.035485014
0.022647558 0.00015159353 0.07538189 0.10812419 0.08222798 0.045893427 -0.0067109577 -0.09112804
-0.07079623 0.13393259 0.01803793 -0.08602995 -0.08893564 0.15430126 0.0014960236 -0.08374412
-0.020104552 0.0077213245 -0.07734781 0.02809118 0.06548031 0.14899339 0.034215976 0.13447896
-0.053385504 -0.14517286 -0.0064226347 -0.047321755 0.083864436 0.14150141 -0.109747544 0.16962107
-0.16763635 0.11771677 -0.12569846 -0.02657288 0.12413179 0.07395023 -0.05373608 0.07523558
00000000: 7ffb 1f3e f775 b53d 06ca 6a3d 17ff 2b3d
00000010: 7d45 d73c 2269 b7bb c89a 2f3e c43e 2ebe
00000020: d4ce a5bd fca4 e0bc 1103 bbbd 616a 0cbe
00000030: 3c37 e53c 3e49 fa3d e4e5 f2bd c6c5 d0bd
00000040: f6fe a5bd 73b1 303e 368f 5abd 9c21 fcb9
00000050: 0c4e d9bc 7c3a 88bc 18b6 7abd 92ef 303e
00000060: aa70 1bbe bcf2 8f3d 302c 093e 8ae9 203e
00000070: a4bd f73d 4158 1e3e 0216 15bd 497c a1bd
00000080: 1a21 f3bd 6c10 da3d a116 3c3c 6040 e73d
00000090: b3f0 313e d579 06be fad2 69bd fcfc ad3d
000000a0: 5bd2 02be 4d18 29bb aa79 813d d53e fcbd
000000b0: b016 053e f7d8 2f3e 3876 163d af25 703d
000000c0: 71cc 3abd 0947 c2bd d3c3 03bc 6ac9 78bc
000000d0: 57bb 6d3d 27be 053e e5e7 babd bc58 11bd
000000e0: 5f87 b93c 14f5 1e39 d261 9a3d 3770 dd3d
000000f0: 2567 a83d bffa 3b3d 98e7 dbbb 56a1 babd
00000100: 9dfd 90bd a025 093e 48c4 933c 7830 b0bd
00000110: e423 b6bd 2601 1e3e 3916 c43a 0a82 abbd
00000120: 4db2 a4bc 2a03 fd3b 8768 9ebd 791f e63c
00000130: 8a1a 863d b991 183e 0d26 0c3d dab4 093e
00000140: c2aa 5abd 32a8 14be f774 d2bb 75d4 41bd
00000150: 1ec1 ab3d bfe5 103e 52c3 e0bd 25b1 2d3e
00000160: dda8 2bbe 7d15 f13d 19b7 00be 5eaf d9bc
00000170: cf38 fe3d 3873 973d 5d1a 5cbd 1d15 9a3d

invResBlocks.0.depthwise.weight f4 [96, 1, 3, 3]
-0.22566827 -0.07124859 0.26552007 0.08447687 0.112477906 0.34822085 -0.2596461 -0.20730278
-0.28529042 0.030567696 0.35960427 -0.30316707 0.0014887559 -0.13357143 -0.07045498 -0.1685378
-0.23709258 -0.109614566 -0.023348307 -0.24696855 -0.12707098 -0.25246298 -0.11587141 0.21429937
-0.2511352 0.12113662 -0.2712292 0.073891595 -0.27802005 -0.082535274 0.2038898 0.18809828
0.2249577 -0.16450188 0.2379587 -0.13073595 -0.10671433 -0.38879165 -0.24996914 0.21886103
-0.20884779 0.122494206 0.22177854 0.32384196 0.07484921 0.26804158 0.1367608 -0.006341553
-0.36870283 -0.22455554 -0.2174014 0.15145251 -0.24211094 0.0011596918 -0.023713656 0.29405636
0.25445113 -0.07909553 -0.22624409 -0.045384847 0.009299468 -0.039846335 0.013994931 0.37158307
0.11977816 0.11291358 0.19793032 0.28692704 -0.032196786 0.14090295 0.2011527 0.09837872
0.269954 -0.2752932 -0.35291123 0.07885612 0.20110975 0.021467522 0.19697379 0.15669274
-0.26810947 -0.21365286 -0.081016324 0.09904424 -0.044636104 -0.30947402 0.009150669 -0.012379154
-0.20152298 0.31427786 -0.22651069 -0.29149073 -0.24930082 0.06713862 0.054354407 0.34710255
-0.30254537 -0.2365843 -0.3201383 -0.24265033 -0.20176385 0.16594166 0.27427962 0.103172526
-0.082634024 0.19933274 -0.2013241 -0.18276495 -0.24319 0.31266016 0.3270144 0.1421006
-0.19891606 -0.0003526492 0.1255141 -0.27106792 -0.25888273 0.20330003 -0.062339958 -0.022428699
-0.29064018 0.008090289 -0.17845911 -0.27413094 -0.27455685 -0.16062148 0.16936183 -0.24596003
0.32321474 -0.26592872 -0.27984098 -0.2178525 -0.2827113 -0.10185715 0.26341164 0.32698682
-0.114661805 -0.058430027 -0.28138518 -0.21840668 0.2961429 -0.3253509 -0.15733863 0.033909615
0.0046819467 0.13165666 0.0020553062 -0.044499096 -0.027757196 0.036936354 0.35113484 0.21003883
-0.06797235 -0.021299167 0.20980565 -0.03537463 0.17775248 0.3228725 -0.2563547 0.15468018
-0.23926486 -0.15418927 0.13276555 -0.091581345 -0.34981236 0.2970219 -0.3096665 0.22785392
0.019546732 -0.32225338 0.28517187 -0.049755733 0.063392654 0.13711475 -0.11689427 -0.21829474
0.29969802 -0.025094762 -0.070166655 0.29829812 -0.10406332 0.076790795 0.26788253 0.16040945
-0.25206444 0.3687001 0.16998635 -0.19197066 0.15508135 -0.0864541 -0.4298357 0.14735714
0.24047643 -0.06373808 0.07589639 0.22320236 -0.25409588 -0.08677978 -0.08747036 0.17376411
-0.02872577 -0.116964445 -0.14320551 0.24891677 -0.30761486 -0.10999598 0.2004709 0.043292023
0.41114026 0.060368754 0.12293339 0.029027693 -0.046825867 0.02704052 -0.19604215 -0.32247478
-0.17036435 -0.24471675 -0.2694768 -0.18683307 -0.095559336 0.3127527 -0.064583845 0.37926748
0.3020597 0.41907752 0.2162402 -0.30232322 -0.20821925 -0.09642432 0.3781397 -0.017203698
-0.13788027 0.08349803 0.076562986 0.056027252 0.3301597 -0.024165226 0.054325428 0.28743285
0.19075957 -0.06577585 0.17180064 0.2426306 -0.23574734 0.08650494 0.07841315 -0.16677773
0.20407145 0.24461937 0.09654847 0.043583658 0.2639419 0.12153224 0.2970299 0.34981444
00000000: 9515 67be c8ea 91bd 3ff2 873e 3602 ad3d
00000010: d15a e63d 014a b23e 55f0 84be 2e47 54be
00000020: 9611 92be 1b69 fa3c 0d1e b83e b738 9bbe
00000030: 5c22 c33a f3c6 08be b34a 90bd 2c95 2cbe
00000040: 66c8 72be 9a7d e0bd f344 bfbc 53e5 7cbe
00000050: e51e 02be d442 81be fd4d edbd 4b71 5b3e
00000060: cb94 80be 7a16 f83d 8ede 8abe 7a54 973d
00000070: a558 8ebe 4108 a9bd 7dc8 503e d69c 403e
00000080: 505b 663e 2e73 28be 72ab 733e a5df 05be
00000090: 0b8d dabd b30f c7be e9f7 7fbe 1b1d 603e
000000a0: 32dc 55be 3ede fa3d ea19 633e 9dce a53e
000000b0: 8b4a 993d bf3c 893e 060b 0c3e cdcc cfbb
000000c0: 9ec6 bcbe e3f1 65be 799e 5ebe 5e16 1b3e
000000d0: eeeb 77be cd00 983a 2443 c2bc 8e8e 963e
000000e0: 6b47 823e d6fc a1bd 88ac 67be 76e5 39bd
000000f0: cc5c 183c e935 23bd ff4a 653c 2340 be3e
00000100: 404e f53d 3c3f e73d 3fae 4a3e 1ae8 923e
00000110: c7e0 03bd dd48 103e f9fa 4d3e c87a c93d
00000120: 6937 8a3e 3bf3 8cbe c8b0 b4be 517f a13d
00000130: b7ef 4d3e a8dc af3c 7fb3 493e 1074 203e
00000140: a545 89be d1c7 5abe e3eb a5bd b5d7 ca3d
00000150: 59d4 36bd 6173 9ebe b0ec 153c efd1 4abc
00000160: 0a5c 4ebe 07e9 a03e 6bf2 67be 463e 95be
00000170: b748 7fbe f97f 893d baa2 5e3d 6db7 b13e
00000180: 3ae7 9abe 2843 72be 2be9 a3be 5479 78be
00000190: 2f9b 4ebe 9cec 293e 616e 8c3e 1e4c d33d
000001a0: 073c a9bd e21d 4c3e e827 4ebe bc26 3bbe
000001b0: cd06 79be fe14 a03e 6e6e a73e d282 113e
000001c0: a7b0 4bbe c6e3 b8b9 c586 003e 6ac9 8abe
000001d0: 478c 84be e22d 503e 2f58 7fbd 64bc b7bc
000001e0: cace 94be 228d 043c fcbd 36be e45a 8cbe
000001f0: b792 8cbe f579 24be 306d 2d3e f2dc 7bbe
00000200: 677c a53e cf27 88be 5147 8fbe ba14 5fbe
00000210: 89bf 90be 7b9a d0bd e4dd 863e d16a a73e
00000220: cfd3 eabd 5354 6fbd b811 90be 00a6 5fbe
00000230: 0ba0 973e 6594 a6be 611d 21be cfe4 0a3d
00000240: 046b 993b 01d1 063e 51b2 063b af44 36bd
00000250: 0f63 e3bc 934a 173d f2c7 b33e 6b14 573e
00000260: 1635 8bbd 977b aebc 4bd7 563e fde4 10bd
00000270: bf04 363e 8b4f a53e ec40 83be 7b64 1e3e
00000280: d901 75be cbe3 1dbe b1f3 073e 008f bbbd
00000290: 9b1a b3be 4113 983e 9c8c 9ebe 8a52 693e
000002a0: 7820 a03c 65fe a4be 0c02 923e abcc 4bbd
000002b0: 02d4 813d cf67 0c3e 4366 efbd a888 5fbe
000002c0: 0572 993e 8893 cdbc 89b3 8fbd 88ba 983e
000002d0: 261f d5bd 7e44 9d3d e627 893e 6042 243e
000002e0: 970e 81be 42c6 bc3e e710 2e3e f593 44be
000002f0: a5cd 1e3e d90e b1bd 6d13 dcbe cae4 163e
00000300: 743f 763e 1c89 82bd 916f 9b3d 298f 643e
00000310: db18 82be 99b9 b1bd a923 b3bd 38ef 313e
00000320: 4e52 ebbc 0e8b efbd 77a4 12be 0ae4 7e3e
00000330: b27f 9dbe 9345 e1bd 3e48 4d3e fa52 313d
00000340: fa80 d23e 3a45 773d 80c4 fb3d 7ccb ed3c
00000350: 7bcc 3fbd 1584 dd3c 46bf 48be 6a1b a5be
00000360: fe73 2ebe 0797 7abe ddf8 89be 2b51 3fbe
00000370: 9db4 c3bd 1f21 a03e 8944 84bd 592f c23e
00000380: 92a7 9a3e 5491 d63e 126e 5d3e 1cca 9abe
00000390: 6d37 55be 1d7a c5bd 879b c13e c5ee 8cbc
000003a0: 7c30 0dbe 0401 ab3d 0ecd 9c3d d57c 653d
000003b0: b10a a93e 27f6 c5bc 5784 5e3d 662a 933e
000003c0: 7a56 433e 7db5 86bd 82ec 2f3e 2874 783e
000003d0: c067 71be 8129 b13d 1397 a03d c8c7 2abe
000003e0: 1bf8 503e 807d 7a3e 34bb c53d c784 323d
000003f0: 6523 873e e5e5 f83d 4e14 983e e11a b33e

invResBlocks.0.depthwise.bias f4 [96]
-0.0007597217 0.12631503 -0.17328219 0.30452207 -0.27021843 0.26390415 0.26278642 -0.14150488
0.12665801 0.1313387 -0.23291026 -0.214538 0.20687126 -0.17140912 -0.048369378 0.13234901
-0.073601656 -0.10150699 0.32832763 -0.19023056 -0.16099653 -0.30673936 0.09824795 -0.124041624
-0.13386409 -0.052498616 0.15336135 0.12918353 -0.18682846 -0.16462772 0.29355407 0.27844357
-0.057959713 -0.09207104 -0.31855464 0.24731435 -0.25545734 -0.2108516 -0.004961105 -0.309439
-0.07870946 -0.3223711 -0.217431 -0.23638174 -0.3233356 0.021575373 -0.004571445 -0.307307
0.2787084 0.053905834 -0.31260893 0.1805315 -0.18377896 -0.29227138 -0.24434547 0.16680819
-0.2286589 0.23777837 0.14105806 0.08511603 -0.22250384 -0.29854506 0.040105637 -0.30284393
0.09931036 0.32137987 0.27451912 -0.2692322 0.04939065 0.3138633 0.15563594 0.21245767
0.07324512 -0.21648806 -0.0553381 0.1581791 -0.056074772 0.03217148 -0.28244823 -0.18622097
0.08505536 0.11534934 -0.060092345 -0.2748857 0.16314285 0.11075452 -0.31758633 -0.11644595
0.21546714 0.31041935 -0.07490837 0.03292278 0.06176809 0.23036036 0.28973895 -0.00501162
00000000: 0f28 47ba ba58 013e e370 31be 51ea 9b3e
00000010: 125a 8abe 721e 873e f18b 863e a8e6 10be
00000020: a3b2 013e a77d 063e 0780 6ebe d9af 5bbe
00000030: 0fd6 533e df85 2fbe f81e 46bd 8086 073e
00000040: 77bc 96bd e6e2 cfbd 8f1a a83e cdcb 42be
00000050: 46dc 24be f10c 9dbe 3936 c93d 8909 febd
00000060: ab13 09be ca08 57bd c20a 1d3e b048 043e
00000070: f64f 3fbe 2b94 28be b84c 963e 2890 8e3e
00000080: 2a67 6dbd be8f bcbd 9819 a3be f93f 7d3e
00000090: 4ecb 82be 7be9 57be c490 a2bb ca6e 9ebe
000000a0: 6d32 a1bd d30d a5be 3ba6 5ebe 0e0e 72be
000000b0: 3e8c a5be d6be b03c 0fcc 95bb 5857 9dbe
000000c0: deb2 8e3e 5dcc 5c3d 470e a0be 40dd 383e
000000d0: 8d30 3cbe 98a4 95be b335 7abe c4cf 2a3e
000000e0: 8f25 6abe 2c7c 733e 8671 103e 5051 ae3d
000000f0: 0cd8 63be e6da 98be cf45 243d 5c0e 9bbe
00000100: 3b63 cb3d e78b a43e c58d 8c3e ced8 89be
00000110: da4d 4a3d b1b2 a03e 075f 1f3e 818e 593e
00000120: 8a01 963d 0caf 5dbe 34aa 62bd b4f9 213e
00000130: a9ae 65bd 3ec6 033d 0e9d 90be b6b0 3ebe
00000140: 8131 ae3d 463c ec3d 6423 76bd d2bd 8cbe
00000150: eb0e 273e 44d3 e23d ad9a a2be 377b eebd
00000160: 6ba3 5c3e 49ef 9e3e 8f69 99bd 09da 063d
00000170: 8900 7d3d 96e3 6b3e aa58 943e 8438 a4bb

invResBlocks.0.pointwise.weight f4 [32, 96, 1, 1]
0.12711363 0.0069834054 0.004455156 0.110721916 -0.14344555 0.07386234 0.067446016 -0.09056705
0.017846746 0.04779887 0.010224673 0.10062916 0.0036689306 -0.02543756 -0.08767839 -0.033944186
-0.117618576 0.08578214 -0.029560646 -0.12568006 -0.019859336 -0.072923325 0.03533936 -0.038822133
0.030882826 0.024591349 0.05984723 -0.038863305 -0.15415575 -0.02644469 -0.057302065 -0.04138729
0.07404188 -0.11496902 0.05164281 -0.052898053 0.012963262 0.014012139 -0.08211291 0.012291082
-0.13248743 0.038654182 -0.08760695 -0.10010795 0.016176399 -0.076436356 -0.051587716 -0.022402447
0.058655936 0.07583917 0.064583465 -0.043139994 -0.027435167 -0.026100457 -0.043256067 -0.090660356
0.027389772 0.11320037 0.094063155 0.027841395 0.081948794 -0.034968205 -0.029167656 0.025975758
-0.029187791 0.1628808 -0.01932069 -0.12600096 0.04203404 0.086785875 -0.016157659 0.07055244
-0.046188314 0.015812583 -0.022204211 -0.08177977 -0.041335404 -0.044891696 0.09300884 -0.07583026
0.065856144 0.027059872 -0.083090924 -0.045739405 -0.04511749 0.09126925 -0.18485041 -0.067891404
0.0960259 -0.047818713 -0.08342733 -0.03264944 -0.038415138 0.047007553 -0.14313705 0.07345144
0.18512313 -0.09307574 -0.0787138 0.0008272711 -0.056739017 -0.08751062 -0.0015803671 -0.040983304
-0.053134676 -0.060918964 0.08017312 -0.09315187 -0.037993275 0.03622341 -0.023839995 -0.01898796
-0.06626814 -0.033531956 -0.21546474 0.0033054282 0.008127048 0.12105894 -0.044509836 -0.22698611
-0.049744736 0.02938016 -0.0648589 -0.0693258 0.056611367 -0.015862195 -0.024230428 -0.072636336
-0.03961964 -0.2181455 0.10729982 -0.009942996 0.05490167 0.05007698 0.107755445 0.10072147
0.07773701 0.028250467 0.14791143 0.011330736 0.046691574 0.005141056 0.16815418 -0.13367538
0.055065304 0.102614194 0.016001426 -0.027298456 -0.008164385 0.037287362 -0.116985686 0.12990914
0.13690743 -0.040500667 -0.007875808 0.10018963 -0.09267642 0.037322786 0.003456105 -0.071320295
0.055202153 0.11786295 -0.014078433 0.09766938 0.017415205 0.056453824 -0.04193323 0.043483596
-0.07383263 -0.10826812 0.123894416 -0.09181298 0.08448286 0.021383952 -0.1314453 -0.10755631
0.021576881 -0.13567445 -0.048529293 0.10285523 0.041902423 0.093455784 0.14703715 -0.01776499
-0.102803305 -0.11151758 -0.08612075 -0.16981466 0.07843321 -0.06892293 0.05734756 -0.16099258
0.084121995 -0.055132575 -0.035652284 0.022471014 0.1761587 0.04458954 -0.05982641 -0.04361569
0.10833369 -0.04425092 0.0066211442 0.068833105 0.042121463 -0.024156667 0.012436759 0.0250935
0.018814662 0.08440242 -0.00580716 0.038105182 -0.1523444 0.026820974 -0.13444813 0.08983586
-0.06062626 -0.06299155 -0.015383758 -0.0068965494 0.08589957 -0.0019840288 0.05026166 0.053191442
-0.048514046 0.12924954 0.052152887 0.11940545 0.02710167 -0.061865006 0.012773513 0.017940298
0.032867245 0.084349155 -0.07600921 0.14265719 0.032252934 0.08964647 0.087171674 0.07283874
0.17088073 -0.019527124 0.010322885 0.036192752 -0.07293545 0.08817936 -0.04249409 -0.095054016
0.13847996 -0.07389596 0.06429845 0.026942149 -0.14852636 -0.02048659 -0.09914709 -0.031331606
00000000: 132a 023e 0dd5 e43b 8ffc 913b 2cc2 e23d
00000010: 64e3 12be 2345 973d 2321 8a3d 387b b9bd
00000020: 5733 923c bfc8 433d 6385 273c a916 ce3d
00000030: 7172 703b 6e62 d0bc ba90 b3bd 0f09 0bbd
00000040: 02e2 f0bd 8cae af3d 2b29 f2bc 46b2 00be
00000050: 0cb0 a2bc d358 95bd 01c0 103d f503 1fbd
00000060: fbfd fc3c cc73 c93c 5e22 753d 212f 1fbd
00000070: 01db 1dbe 89a2 d8bc 92b5 6abd b885 29bd
00000080: 45a3 973d e174 ebbd 6987 533d a1ab 58bd
00000090: dd63 543c 2c93 653c d02a a8bd 8960 493c
000000a0: c9aa 07be d953 1e3d 466b b3bd 6605 cdbd
000000b0: 5e84 843c aa8a 9cbd a44d 53bd 5685 b7bc
000000c0: 3541 703d 9151 9b3d 5644 843d 90b3 30bd
000000d0: b7bf e0bc a0d0 d5bc 462d 31bd 23ac b9bd
000000e0: 8460 e03c 98d5 e73d 2fa4 c03d a313 e43c
000000f0: c5d4 a73d d23a 0fbd 02f1 eebc 1dcb d43c
00000100: 3c1b efbc 39ca 263e 6c46 9ebc 6506 01be
00000110: e32b 2c3d cbbc b13d 115d 84bc cc7d 903d
00000120: f52f 3dbd 6489 813c 9be5 b5bc 277c a7bd
00000130: 504f 29bd 5be0 37bd 6b7b be3d e54c 9bbd
00000140: 96df 863d aaac dd3c 932b aabd 3e59 3bbd
00000150: 1ecd 38bd 5feb ba3d 6d49 3dbe a60a 8bbd
00000160: 3aa9 c43d 8edd 43bd f3db aabd 6bbb 05bd
00000170: 3159 1dbd fe8a 403d 8592 12be b56d 963d
00000180: eb90 3d3e 7e9e bebd b334 a1bd 39dd 583a
00000190: 2c67 68bd c538 b3bd 5224 cfba 1cde 27bd
000001a0: bfa3 59bd 2a86 79bd ce31 a43d 68c6 bebd
000001b0: d69e 1bbd 005f 143d 184c c3bc a38c 9bbc
000001c0: 97b7 87bd ce58 09bd caa2 5cbe e29f 583b
000001d0: 4f27 053c c0ed f73d f24f 36bd 0c6f 68be
000001e0: 23c1 4bbd a9ae f03c bed4 84bd affa 8dbd
000001f0: 52e1 673d 6ff1 81bc e47e c6bc 5cc2 94bd
00000200: 3448 22bd 8961 5fbe 02c0 db3d f3e7 22bc
00000210: 93e0 603d 851d 4d3d e3ae dc3d 0f47 ce3d
00000220: 9534 9f3d 866d e73c 1876 173e 8da4 393c
00000230: aa3f 3f3d 4e76 a83b 9c30 2c3e 33e2 08be
00000240: 288c 613d 6427 d23d 6c15 833c 03a1 dfbc
00000250: eac3 05bc a2ba 183d 3196 efbd e706 053e
00000260: 7631 0c3e 07e4 25bd 8809 01bc 3930 cd3d
00000270: 23cd bdbd c7df 183d d27f 623b 6010 92bd
00000280: a71b 623d 2162 f13d 3aa9 66bc e206 c83d
00000290: 55aa 8e3c 203c 673d 2ec2 2bbd db1b 323d
000002a0: 9035 97bd adbb ddbd 5bbc fd3d 7208 bcbd
000002b0: 5a05 ad3d 662d af3c 9999 06be 7c46 dcbd
000002c0: 00c2 b03c 3eee 0abe a7c6 46bd c3a5 d23d
000002d0: e0a1 2b3d bf65 bf3d e890 163e e287 91bc
000002e0: 8a8a d2bd 5463 e4bd 1360 b0bd e5e3 2dbe
000002f0: 97a1 a03d 7727 8dbd 46e5 6a3d 3ddb 24be
00000300: 2748 ac3d b2d2 61bd 2108 12bd 2215 b83c
00000310: f262 343e 86a3 363d 8a0c 75bd 5ea6 32bd
00000320: 0ede dd3d 7440 35bd 2ff6 d83b 5ff8 8c3d
00000330: 8e87 2c3d 34e4 c5bc 8cc3 4b3c e290 cd3c
00000340: 3521 9a3c 2ddb ac3d fd49 bebb 2e14 1c3d
00000350: 2c00 1cbe a9b7 db3c c5ac 09be ddfb b73d
00000360: 3e53 78bd b701 81bd 280c 7cbc 73fc e1bb
00000370: 1dec af3d 7b06 02bb 2cdf 4d3d 45df 593d
00000380: aab6 46bd fe59 043e 449e 553d d88a f43d
00000390: 5204 de3c 2966 7dbd ff47 513c 88f7 923c
000003a0: ce9f 063d 40bf ac3d b7aa 9bbd ba14 123e
000003b0: a71b 043d 9298 b73d 1087 b23d 7a2c 953d
000003c0: 5cfb 2e3e 59f7 9fbc 5121 293c da3e 143d
000003d0: 2e5f 95bd 6197 b43d 480e 2ebd aeab c2bd
000003e0: b1cd 0d3e c456 97bd e8ae 833d c8b5 dc3c
000003f0: 4b17 18be 7ed3 a7bc a10d cbbd 9255 00bd

invResBlocks.0.pointwise.bias f4 [32]
-0.09335436 -0.033047743 -0.0025759807 -0.014093925 1.142619e-05 -0.07497994 0.058030363 0.07700394
0.044960834 -0.06376188 0.023917729 0.053663902 0.04700656 -0.028505728 0.033563558 -0.064609915
0.08890118 -0.08609433 0.05221276 0.05164094 0.0511653 -0.087662764 -0.08996987 0.08130825
0.0023955088 -0.0018483631 -0.060659423 -0.04862778 0.009108458 0.07322642 -0.06860978 -0.060302112
00000000: 9230 bfbd 125d 07bd c9d1 28bb 35ea 66bc
00000010: 1db3 3f37 158f 99bd 3fb1 6d3d 3eb4 9d3d
00000020: da28 383d 9795 82bd 1def c33c aece 5b3d
00000030: f389 403d d884 e9bc f179 093d 3452 84bd
00000040: d211 b63d 3952 b0bd 0cdd 553d 7385 533d
00000050: b592 513d 8988 b3bd 2042 b8bd f184 a63d
00000060: f8fd 1c3b c644 f2ba 0476 78bd ec2d 47bd
00000070: a43b 153c bcf7 953d 4983 8cbd 59ff 76bd

invResBlocks.0.batchNorm1.weight f4 [96]
1.0184234 0.9965183 0.9802182 0.96498364 1.0752751 1.0073998 1.0197097 1.0599369
0.9812201 0.97523546 0.9843119 0.98166656 1.0210116 0.9820613 0.9884731 0.9580363
0.92796624 1.0518376 1.0342844 0.92508864 1.0133041 1.0473803 1.0051094 1.0246835
1.0931236 0.9727134 0.9040924 0.90283203 0.9704246 1.0264587 0.98747027 0.9700016
0.984904 0.99148214 0.9864867 0.9790228 0.96785396 0.9929612 0.9905339 1.0238061
0.9985048 1.0176007 0.9308267 1.0126033 0.98556703 0.9525654 1.0943642 0.9718571
0.9836715 0.9806397 0.90436536 1.0387437 0.92125225 0.9969282 0.99481535 1.0020653
1.0044552 0.9805585 0.9985915 1.0501298 1.0655984 1.000595 0.9608578 1.0130682
0.9986487 1.0029066 0.97530633 0.9675339 1.0121621 0.9751527 0.9835194 1.0032874
1.0188923 1.0657505 0.9597858 0.93255025 1.0604808 0.9755201 0.9604717 1.0099438
0.98449725 1.0023278 1.0264432 1.0101097 0.93565464 0.98438644 1.0338597 0.98571926
0.9973917 0.98536813 0.9731792 0.9688427 0.9429388 0.96958196 1.0473845 1.0447114
00000000: b35b 823f d31b 7f3f 94ef 7a3f 2b09 773f
00000010: 9da2 893f 7af2 803f d985 823f 03ac 873f
00000020: 3e31 7b3f 08a9 793f ddfb 7b3f 804e 7b3f
00000030: 82b0 823f 5f68 7b3f 930c 7d3f de41 753f
00000040: 328f 6d3f 9da2 863f 6e63 843f 9cd2 6c3f
00000050: f3b3 813f 8f10 863f 6da7 803f d428 833f
00000060: 79eb 8b3f bf03 793f 9972 673f 0020 673f
00000070: bf6d 783f 0063 833f daca 7c3f 0652 783f
00000080: ab22 7c3f c6d1 7d3f 648a 7c3f 3da1 7a3f
00000090: 47c5 773f b532 7e3f a193 7d3f 140c 833f
000000a0: 039e 7f3f bd40 823f a94a 6e3f fc9c 813f
000000b0: 1f4e 7c3f 53db 733f 2014 8c3f a0cb 783f
000000c0: e5d1 7b3f 340b 7b3f 7d84 673f 8ef5 843f
000000d0: 30d7 6b3f b036 7f3f 38ac 7e3f ad43 803f
000000e0: fd91 803f e205 7b3f b1a3 7f3f a76a 863f
000000f0: 8765 883f 7f13 803f c7fa 753f 38ac 813f
00000100: 71a7 7f3f 3e5f 803f adad 793f 4db0 773f
00000110: 878e 813f 9ba3 793f edc7 7b3f b96b 803f
00000120: 106b 823f 836a 883f 86b4 753f 9dbb 6e3f
00000130: d6bd 873f afbb 793f 79e1 753f d745 813f
00000140: 0308 7c3f 474c 803f 7e62 833f 464b 813f
00000150: 1087 6f3f c000 7c3f 8455 843f 1958 7c3f
00000160: 1055 7f3f 1641 7c3f 4622 793f 1306 783f
00000170: 7064 713f 8636 783f b210 863f 1ab9 853f

invResBlocks.0.batchNorm1.bias f4 [96]
0.016423466 9.853174e-05 -0.027999131 0.036758684 0.17734322 0.015530264 0.057078786 -0.08540672
0.10168668 -0.00045757747 0.0049881004 0.04397407 0.20795405 -0.014865146 0.009723096 -0.021059655
0.023314422 0.08544207 0.11656643 0.10112343 0.044204753 -0.031393386 0.11625565 0.026453791
0.20322119 0.0263579 -0.05049357 0.058445044 0.0307224 0.14324045 -0.013858981 0.057327807
-0.016908815 -0.00826461 0.074674934 -0.0235987 -0.035482865 0.034941427 0.069467336 -0.0010338442
0.116651006 0.12464663 -0.056927145 0.11496169 0.016997129 0.016913118 0.28206453 0.07703157
-0.012307826 0.10344763 -0.027690269 0.19914804 -0.006791772 0.021252602 0.10803112 0.13573225
0.02571208 -0.008526459 0.08120182 0.20224506 0.046380624 0.13087209 0.0742705 0.050632935
0.034558803 0.098707534 0.038461864 0.10982492 0.036142185 0.0032948835 -0.010925364 -0.009539513
0.09822318 -0.0012526663 0.059015542 -0.022480989 0.00451494 0.010948609 0.068857536 0.060600806
0.07136382 0.075611725 0.11574339 0.08246499 -0.008006845 -0.030095538 0.0978612 0.09505808
-0.03722488 0.07701739 -0.05394543 -0.047075562 0.040088173 -0.021659471 0.23695156 0.002297158
00000000: 818a 863c d3a2 ce38 6f5e e5bc 4690 163d
00000010: 7699 353e a672 7e3c 72cb 693d b8e9 aebd
00000020: 1b41 d03d 02e7 efb9 3873 a33b 281e 343d
00000030: e8f1 543e f18c 73bc 9f4d 1f3c 4c85 acbc
00000040: e3fd be3c 41fc ae3d 61ba ee3d cd19 cf3d
00000050: 0b10 353d 5a96 00bd 7117 ee3d 9fb5 d83c
00000060: 3719 503e 86ec d73c 58d2 4ebd 1264 6f3d
00000070: 8bad fb3c a0ad 123e c810 63bc 90d0 6a3d
00000080: 5b84 8abc 4968 07bc 2cef 983d 1052 c1bc
00000090: 7b56 11bd be1e 0f3d e444 8e3d 0e82 87ba
000000a0: b9e6 ee3d bb46 ff3d 702c 69bd 0971 eb3d
000000b0: 903d 8b3c 618d 8a3c c36a 903e bac2 9d3d
000000c0: c4a6 49bc 5adc d33d b4d6 e2bc 77ed 4b3e
000000d0: 838d debb f019 ae3c 6b3f dd3d 65fd 0a3e
000000e0: 24a2 d23c 90b2 0bbc 244d a63d 5419 4f3e
000000f0: 9cf9 3d3d 5503 063e 221b 983d 7b64 4f3d
00000100: 888d 0d3d 2d27 ca3d 308a 1d3d e3eb e03d
00000110: d409 143d f9ee 573b 4c00 33bc 9e4b 1cbc
00000120: 3c29 c93d 8230 a4ba 48ba 713d 0d2a b8bc
00000130: 10f2 933b cb61 333c 2e05 8d3d 8d38 783d
00000140: 3227 923d 52da 9a3d df0a ed3d 68e3 a83d
00000150: 242f 03bc eb8a f6bc 746b c83d d0ad c23d
00000160: 1e79 18bd 4bbb 9d3d e2f5 5cbd 4ed2 40bd
00000170: 7f33 243d 346f b1bc 6ea3 723e ea8b 163b

invResBlocks.0.batchNorm1.running_mean f4 [96]
0.01624786 0.024937281 -0.20787485 0.25598282 -0.095768295 0.052039515 0.30376363 0.036365263
0.07402242 -0.13031703 -0.43007937 -0.23219171 0.16700584 -0.2673104 -0.12550327 -0.08220864
-0.05576247 -0.037394848 -0.00905122 -0.15282218 -0.07403096 -0.30597925 0.0715984 0.005231017
-0.28769052 0.14249 0.39412966 0.29671034 0.24856435 -0.24148133 -0.005933816 0.10113911
-0.20129374 0.18715923 -0.2302557 -0.011648511 -0.2780795 -0.36777896 -0.06527519 -0.011067599
-0.07764109 -0.28971362 -0.062143497 -0.12142322 -0.17379202 0.22952324 0.05906343 -0.22015348
-0.032872792 -0.18933581 0.010725686 0.0565817 0.0972076 -0.09532525 -0.055703104 0.07246647
-0.057682604 0.092171334 0.13201325 0.006480834 -0.06663419 -0.26052737 -0.005720001 -0.040958177
-0.08472763 0.034786817 -0.0031535563 -0.3461907 -0.08996621 0.13677531 0.09623269 0.08617085
0.10905157 -0.23819113 -0.092962675 0.16207547 0.10065448 0.014514274 -0.019819422 0.049653485
-0.12882273 0.008851274 -0.006406095 -0.22636747 0.14500546 0.17691922 -0.2789409 -0.060666867
-0.17478214 0.2633434 -0.1702839 0.16693197 -0.08309486 0.13941559 0.07604721 0.059589934
00000000: 3b1a 853c 4549 cc3c 25dd 54be 2e10 833e
00000010: 2b22 c4bd 6327 553d e886 9b3e bef3 143d
00000020: 1199 973d d471 05be 5d33 dcbe aac3 6dbe
00000030: 9403 2b3e e9dc 88be ee83 00be 015d a8bd
00000040: 3067 64bd 572b 19bd 914b 14bc 6b7d 1cbe
00000050: 8b9d 97bd 50a9 9cbe 2fa2 923d f368 ab3b
00000060: 2c4c 93be e6e8 113e 5dcb c93e 6bea 973e
00000070: a787 7e3e e246 77be 7570 c2bb 0622 cf3d
00000080: f21f 4ebe aba6 3f3e 26c8 6bbe 65d9 3ebc
00000090: 7060 8ebe 864d bcbe 00af 85bd e054 35bc
000000a0: 4b02 9fbd 5855 94be 2e8a 7ebd bdac f8bd
000000b0: 89f6 31be 2408 6b3e 7fec 713d ea6f 61be
000000c0: 9fa5 06bd 3fe1 41be caba 2f3c 36c2 673d
000000d0: c714 c73d e239 c3bd f028 64bd 4d69 943d
000000e0: 9844 6cbd 53c4 bc3d 7b2e 073e 2d5d d43b
000000f0: 8277 88bd d863 85be d96e bbbb c3c3 27bd
00000100: ae85 adbd 9f7c 0e3d e5ab 4ebb e83f b1be
00000110: 3440 b8bd d40e 0c3e a515 c53d 587a b03d
00000120: 6e56 df3d 60e8 73be 3763 bebd 1df7 253e
00000130: f023 ce3d 47cd 6d3c 575c a2bc 7461 4b3d
00000140: 1bea 03be ef04 113c 38ea d1bb e0cc 67be
00000150: 507c 143e 502a 353e 57d1 8ebe d27d 78bd
00000160: 17fa 32be f2d4 863e e75e 2ebe 37f0 2a3e
00000170: a32d aabd f6c2 0e3e a4be 9b3d 9314 743d

invResBlocks.0.batchNorm1.running_var f4 [96]
0.07504439 0.0695442 0.17855248 0.03075485 0.07066597 0.052624464 0.036607195 0.16840073
0.104289286 0.054156337 0.2177962 0.04044154 0.055460192 0.19961444 0.16355687 0.0378606
0.059524033 0.075241156 0.052554034 0.04710635 0.07297186 0.060650032 0.06909124 0.056254417
0.11334408 0.039112344 0.13082097 0.04917456 0.17868781 0.05482198 0.091421865 0.041057397
0.044375625 0.12819308 0.030466061 0.05489351 0.11805315 0.06456288 0.048365805 0.06486546
0.06280433 0.061086323 0.04827327 0.06286012 0.034987 0.080375224 0.1781244 0.024072291
0.08870427 0.06450823 0.06800847 0.054805815 0.075540334 0.05580152 0.10222501 0.046741325
0.05526043 0.051551033 0.05558936 0.09447834 0.078585215 0.064374164 0.038751982 0.07551715
0.0632596 0.053720452 0.10727148 0.047018323 0.04730361 0.03134954 0.07405725 0.04778956
0.067703895 0.13398676 0.04085592 0.050666988 0.061000194 0.061010864 0.05419481 0.04541399
0.043842766 0.03998371 0.05871393 0.071519576 0.031012315 0.076599404 0.062081005 0.03031
0.08998704 0.031008543 0.058922607 0.06982928 0.036895137 0.084758416 0.060685348 0.080974944
00000000: e0b0 993d 316d 8e3d 76d6 363e 98f1 fb3c
00000010: 52b9 903d c08c 573d 6df1 153d 3e71 2c3e
00000020: 9f95 d53d 09d3 5d3d f805 5f3e 07a6 253d
00000030: 3a2a 633d ba67 4c3e 747b 273e b713 1b3d
00000040: 79cf 733d 0918 9a3d e642 573d 97f2 403d
00000050: 4572 953d 2b6c 783d b57f 8d3d 086b 663d
00000060: f120 e83d 4434 203d eff5 053e 436b 493d
00000070: f0f9 363e 038d 603d 633b bb3d cd2b 283d
00000080: 37c3 353d 0c45 033e f693 f93c 04d8 603d
00000090: dac5 f13d 8b39 843d 391b 463d 2fd8 843d
000000a0: 8e9f 803d a735 7a3d 31ba 453d cebc 803d
000000b0: 874e 0f3d c49b a43d 3e66 363e 4133 c53c
000000c0: 96aa b53d e41c 843d 0648 8b3d 107c 603d
000000d0: e4b4 9a3d 2290 643d 595b d13d d573 3f3d
000000e0: c358 623d 2d27 533d abb1 633d dc7d c13d
000000f0: 49f1 a03d 9ad6 833d 66ba 1e3d bca8 9a3d
00000100: 408e 813d fa09 5c3d 26b1 db3d 4996 403d
00000110: 6ec1 413d 6068 003d 54ab 973d fcbe 433d
00000120: 57a8 8a3d d333 093e 8a58 273d 3088 4f3d
00000130: 57db 793d 87e6 793d 61fb 5d3d 0504 3a3d
00000140: 7994 333d f5c5 233d 057e 703d db78 923d
00000150: 8a0d fe3c 26e0 9c3d a748 7e3d ad4c f83c
00000160: 204b b83d a105 fe3c d558 713d a702 8f3d
00000170: 5b1f 173d d295 ad3d 3391 783d 31d6 a53d

invResBlocks.0.batchNorm2.weight f4 [32]
1.000309 0.9884521 0.9981796 1.0744689 0.881107 1.0403919 1.0242507 1.0313028
0.98237455 0.98751825 0.97262853 1.0420531 0.9523293 0.99813956 1.0634226 1.0532874
0.9192635 1.0068419 0.9208018 1.1007888 0.9998153 0.9915037 0.9932745 1.0654553
0.99562913 0.98366857 0.9225547 0.9648253 0.94831276 1.171969 0.9284785 0.9693821
00000000: 200a 803f 320b 7d3f b388 7f3f 3288 893f
00000010: 3a90 613f 902b 853f a61a 833f bb01 843f
00000020: e67c 7b3f ffcd 7c3f 2ffe 783f ff61 853f
00000030: dacb 733f 1386 7f3f 3b1e 883f 1fd2 863f
00000040: da54 6b3f 32e0 803f abb9 6b3f a6e6 8c3f
00000050: e5f3 7f3f 30d3 7d3f 3d47 7e3f d760 883f
00000060: 8de1 7e3f b4d1 7b3f 8b2c 6c3f cafe 763f
00000070: a0c4 723f 1503 963f c4b0 6d3f 6d29 783f

invResBlocks.0.batchNorm2.bias f4 [32]
4.5037236e-09 -2.1007166e-08 1.5220298e-08 -6.564482e-08 -1.64083e-08 8.977495e-09 7.074722e-08 1.1341169e-08
-3.4291368e-08 -5.351583e-08 7.5358905e-08 3.463408e-08 7.428419e-09 -2.2021654e-08 7.626269e-09 -5.2356857e-09
2.0711767e-08 -1.7763808e-08 2.5649044e-08 1.4576654e-08 3.7116227e-08 -7.1441775e-08 5.2451114e-08 -2.221502e-08
2.3742597e-08 1.1132871e-08 -5.955989e-09 8.057438e-09 -4.2871303e-08 1.602093e-08 2.50333e-08 9.816569e-09
00000000: 2cbf 9a31 3f73 b4b2 cabd 8232 9ff8 8cb3
00000010: 3cf2 8cb2 713b 1a32 b2ed 9733 fdd6 4232
00000020: c247 13b3 47d9 65b3 ffd4 a133 93c0 1433
00000030: 113d ff31 212a bdb2 b004 0332 94e5 b3b1
00000040: a8e9 b132 0797 98b2 d852 dc32 cd6c 7a32
00000050: b969 1f33 886b 99b3 9c46 6133 58d3 beb2
00000060: 86f2 cb32 e242 3f32 6fa5 ccb1 fd6c 0a32
00000070: 7f21 38b3 669e 8932 cf08 d732 baa5 2832

invResBlocks.0.batchNorm2.running_mean f4 [32]
-0.4835512 -0.12730104 0.62693906 -0.3039425 0.15179823 -0.2244326 0.7388303 -0.61999726
0.4066269 -0.55789757 -0.619169 0.0590148 -0.31097513 0.09033906 0.18306515 -0.8626022
-0.011434542 -0.060723886 -0.24540195 0.07551778 -0.3230752 0.4905878 0.3858701 -0.03215266
-0.41507262 0.89826715 -0.17433408 -0.18542153 -0.1951816 -0.6195128 -0.41953912 -0.11290799
00000000: 0694 f7be 345b 02be 147f 203f 5a9e 9bbe
00000010: ff70 1b3e a9d1 65be fc23 3d3f 24b8 1ebf
00000020: 6731 d03e 60d2 0ebf dc81 1ebf 81b9 713d
00000030: 2238 9fbe af03 b93d 6e75 3b3e 7fd3 5cbf
00000040: f257 3bbc 9cb9 78bd a64a 7bbe 11a9 9a3d
00000050: 1d6a a5be 532e fb3e c490 c53e 82b2 03bd
00000060: 6684 d4be d6f4 653f a284 32be 24df 3dbe
00000070: afdd 47be 6498 1ebf d5cd d6be 4e3c e7bd

invResBlocks.0.batchNorm2.running_var f4 [32]
0.6300587 0.3961173 0.37407422 0.5188007 0.47095907 0.60443956 0.41366145 0.38363123
0.39477575 0.48180503 0.3479065 0.51269233 0.31863323 0.5523254 0.49577883 0.34822527
0.35416117 0.35230833 0.32210413 0.65156686 0.31058648 0.41619673 0.48933485 0.72187924
0.38505355 0.3720629 0.35553563 0.37592036 0.37300068 0.59637594 0.32566214 0.34683335
00000000: 874b 213f e3cf ca3e a886 bf3e 1fd0 043f
00000010: 8c21 f13e 8dbc 1a3f 6fcb d33e 506b c43e
00000020: 0c20 ca3e 26af f63e cd20 b23e ce3f 033f
00000030: e523 a33e 3365 0d3f b9d6 fd3e 954a b23e
00000040: 9d54 b53e c261 b43e d5ea a43e 16cd 263f
00000050: 3105 9f3e bd17 d53e 198a fa3e 14cd 383f
00000060: bd25 c53e 077f be3e c408 b63e a278 c03e
00000070: f2f9 be3e 18ac 183f 30bd a63e 2494 b13e

invResBlocks.1.expansion.weight f4 [96, 32, 1, 1]
-0.09876105 0.2151616 0.058829557 0.07163522 0.057371758 0.01813369 -0.055343404 -0.12950718
0.020745559 0.13653734 -0.08490437 0.10759245 -0.19137768 0.08158034 -0.06191362 0.109871164
-0.116103865 -0.12635258 -0.049342215 0.233343 -0.12108057 0.18433285 0.10934242 0.12923862
-0.03453238 0.22368383 0.105062515 0.12903443 -0.19022514 -0.038741823 -0.040632706 -0.09728158
-0.027039237 -0.13583747 0.1245796 0.053879492 0.11089504 0.13063179 -0.053805243 -0.011837192
-0.21509807 -0.053065296 0.16699453 0.057848684 -0.078823134 -0.18218862 -0.007743448 0.20558636
-0.050363533 0.014293224 0.06642047 -0.11853714 -0.10062041 0.14826846 0.1245753 -0.035793472
0.041456733 -0.120228976 -0.047990203 -0.03794793 0.020732222 -0.044949464 0.044118118 -0.020522214
0.22710423 0.11123185 -0.0982626 -0.18055023 -0.06590919 -0.17990248 0.0011805012 -0.004419593
0.10153913 0.12802278 -0.072612174 0.09378527 0.10176748 0.06831706 -0.20305987 -0.00248475
-0.1256254 -0.21807775 0.02457221 -0.21565272 0.0142725585 -0.07835193 0.027531154 -0.09012278
-0.030214995 -0.017810738 -0.10751642 0.15703152 -0.081835434 -0.073879205 0.023972731 0.0502507
-0.13599296 0.18876292 -0.0852887 0.25393808 0.105663754 0.0054977406 -0.10586446 -0.033261083
0.024871098 -0.145974 -0.10079956 -0.11915483 -0.030172294 0.00096106605 -0.046012796 0.069598526
0.07691948 0.18055943 0.008709275 0.12079018 0.04277478 0.1884415 0.09692175 0.09481794
0.0050342013 -0.20948818 -0.08861337 -0.108354054 0.09598209 0.050014254 0.07017216 0.047608763
-0.0010967194 -0.2152323 -0.056874078 0.0828585 -0.17223266 0.20643853 0.15361334 -0.13062477
-0.04710717 -0.14188288 0.1052044 0.17447323 -0.048527405 -0.17677744 0.04984628 0.16588145
0.08455477 -0.027416095 -0.06291179 -0.04496977 0.077138245 0.0744377 -0.14139967 -0.010428403
-0.14049242 0.0724869 -0.04268954 0.08184193 0.06669058 -0.08156462 0.0929765 -0.10402965
-0.113399394 -0.03808176 -0.083536595 -0.1544773 0.11500001 0.09070857 -0.13297677 -0.18176106
-0.12273685 -0.110535935 0.11360384 -0.12259065 -0.044473525 -0.16219933 -0.058597106 0.010051043
-0.09936193 0.11926746 0.057342052 -0.10259654 -0.01953634 0.043536365 0.05611119 -0.18387616
0.1346784 0.091588035 0.026219107 0.022071425 0.15467289 0.11971777 -0.114923835 -0.17151935
-0.15851812 0.022290338 0.15495126 0.033853944 -0.12569048 -0.12772861 0.086250775 -0.025752533
0.080014326 0.13887914 0.06777306 -0.019086348 0.1450486 0.071454026 -0.036176655 -0.0123675745
-0.040647298 0.032407787 0.10568568 0.0019529958 -0.18624021 -0.09784805 -0.0067727612 -0.20464356
0.17661414 -0.04171839 -0.15913332 0.08977332 0.16101746 0.18035685 -0.03790547 -0.119853914
0.13276908 0.15266308 -0.09630477 0.24248752 -0.09585292 -0.10767581 -0.098170824 -0.010740756
0.16655095 0.18022813 0.23817271 -0.14419037 0.0018430306 0.10243342 -0.06742223 0.066482924
-0.047305595 -0.0374785 -0.07898098 0.12519874 0.03408091 -0.10625459 0.08887964 -0.046826296
0.0642265 -0.19514444 -0.09855132 -0.17186338 -0.06732183 0.14210528 0.050313234 0.08163453
00000000: 3c43 cabd 5353 5c3e 43f7 703d 7cb5 923d
00000010: a6fe 6a3d 1b8d 943c c4af 62bd 889d 04be
00000020: 97f2 a93c 72d0 0b3e 58e2 adbd 6e59 dc3d
00000030: 83f8 43be 9813 a73d 2399 7dbd 2204 e13d
00000040: ddc7 edbd 9262 01be 101b 4abd 78f1 6e3e
00000050: 17f9 f7bd c0c1 3c3e ebee df3d 2157 043e
00000060: d371 0dbd 600d 653e 042b d73d 9a21 043e
00000070: 61ca 42be bfaf 1ebd 7b6e 26bd 913b c7bd
00000080: 6481 ddbc fa18 0bbe 9723 ff3d beb0 5c3d
00000090: f01c e33d 57c4 053e e362 5cbd c8f0 41bc
000000a0: ab42 5cbe ff5a 59bd 9d00 2b3e bef2 6c3d
000000b0: 066e a1bd a78f 3abe c0bc fdbb 3b85 523e
000000c0: fe49 4ebd 202e 6a3c 7507 883d 9ac3 f2bd
000000d0: 1312 cebd b0d3 173e 5621 ff3d 2d9c 12bd
000000e0: 89ce 293d 9c3a f6bd 6091 44bd 4a6f 1bbd
000000f0: 9fd6 a93c ee1c 38bd 33b5 343d 341e a8bc
00000100: 038e 683e 86cd e33d e73d c9bd 29e2 38be
00000110: 66fb 86bd 5b38 38be 0cbb 9a3a 3cd2 90bb
00000120: bff3 cf3d 6718 033e b1b5 94bd 7e12 c03d
00000130: 786b d03d d1e9 8b3d edee 4fbe 30d7 22bb
00000140: f2a3 00be c64f 5fbe a94b c93c 11d4 5cbe
00000150: 73d7 693c fa76 a0bd 0489 e13c 4b92 b8bd
00000160: 7085 f7bc d3e7 91bc 9231 dcbd dfcc 203e
00000170: 5699 a7bd fb4d 97bd 7662 c43c aed3 4d3d
00000180: bd41 0bbe 114b 413e d8ab aebd 2c04 823e
00000190: 3d66 d83d 6426 b43b 77cf d8bd c63c 08bd
000001a0: 79be cb3c 357a 15be 0070 cebd 7307 f4bd
000001b0: e32b f7bc 0df0 7b3a ea77 3cbd ac89 8e3d
000001c0: f687 9d3d 92e4 383e 59b1 0e3c d860 f73d
000001d0: 9c34 2f3d cff6 403e e97e c63d e82f c23d
000001e0: f1f5 a43b 1284 56be ed7a b5bd bbe8 ddbd
000001f0: 4292 c43d bfdb 4c3d 6cb6 8f3d 6801 433d
00000200: ccbf 8fba db65 5cbe cbf4 68bd b8b1 a93d
00000210: c25d 30be 9f64 533e d14c 1d3e 80c2 05be
00000220: 73f3 40bd bf49 11be 6875 d73d 1ca9 323e
00000230: acc4 46bd 2505 35be 9d2b 4c3d d4dc 293e
00000240: 0d2b ad3d b897 e0bc e6d7 80bd 3932 38bd
00000250: a8fa 9d3d cb72 983d 13cb 10be e4db 2abc
00000260: 3fdd 0fbe 0374 943d 3adb 2ebd be9c a73d
00000270: 1295 883d 5a0b a7bd 776a be3d 7f0d d5bd
00000280: f13d e8bd 9ffb 1bbd 3c15 abbd 4c2f 1ebe
00000290: 2085 eb3d 6ac5 b93d 102b 08be 921f 3abe
000002a0: 755d fbbd aa60 e2bd 21a9 e83d cf10 fbbd
000002b0: df29 36bd 9517 26be 8503 70bd 21ad 243c
000002c0: 447e cbbd 8042 f43d 80df 6a3d 221e d2bd
000002d0: ad0a a0bc 3053 323d d9d4 653d 084a 3cbe
000002e0: 22e9 093e 8292 bb3d 74c9 d63c 22cf b43c
000002f0: 9262 1e3e 972e f53d 305d ebbd c5a2 2fbe
00000300: 9352 22be 3a9a b63c 8bab 1e3e 6faa 0a3d
00000310: 01b5 00be 4acb 02be 3fa4 b03d faf6 d2bc
00000320: 8dde a33d 5536 0e3e 9acc 8a3d f95a 9cbc
00000330: 9f87 143e 7d56 923d f92d 14bd 5ea1 4abc
00000340: c87d 26bd 07be 043d bc71 d83d aafb ff3a
00000350: c1b5 3ebe 8f64 c8bd 0aee ddbb 158e 51be
00000360: 56da 343e e7e0 2abd d8f3 22be 13db b73d
00000370: c3e1 243e 77af 383e c442 1bbd f875 f5bd
00000380: 9ef4 073e b653 1c3e 6f3b c5bd a64e 783e
00000390: 894e c4bd 2385 dcbd c90d c9bd fff9 2fbc
000003a0: 558c 2a3e b98d 383e 8ce3 733e a4a6 13be
000003b0: d891 f13a 9dc8 d13d ab14 8abd 3328 883d
000003c0: 83c3 41bd 0e83 19bd c8c0 a1bd 1934 003e
000003d0: 6d98 0b3d 029c d9bd 8706 b63d eecc 3fbd
000003e0: 2f89 833d f2d3 47be 46d5 c9bd f4fc 2fbe
000003f0: 07e0 89bd 0c84 113e 4015 4e3d 0130 a73d
